AlphaZero_Gomoku/model/gnn/epoch_100.model (torch, 124420 bytes, 10 tensors)

layers.0.lin.weight f4 [6, 4]
-0.70125663 0.7289375 1.0185325 0.10790248 0.75110734 -0.10828459 -0.4510915 0.48495167
-0.15389588 0.6053952 0.13251409 -0.5586544 -0.44832444 0.52038205 -0.46830517 0.25903794
-0.6116486 -0.48825034 0.935464 0.25767332 -0.27051052 -0.04675864 0.035286747 -0.05044095
00000000: 8e85 33bf a69b 3a3f 465f 823f fafb dc3d
00000010: 9248 403f 50c4 ddbd 77f5 e6be 964b f83e
00000020: e296 1dbe 2efb 1a3f c6b1 073e fa03 0fbf
00000030: c88a e5be c237 053f b2c5 efbe 9fa0 843e
00000040: 0195 1cbf f3fb f9be 927a 6f3f c2ed 833e
00000050: 5b80 8abe fd85 3fbd d688 103d 2b9b 4ebd

layers.1.lin.weight f4 [6, 6]
-0.13930081 -0.3068402 0.096386306 -0.006723966 -0.073611766 -0.040981933 -0.034412205 -0.58727723
-0.19375546 -0.31258047 -0.11116058 -9.296317e-09 -0.003520039 -0.001041392 -0.051743716 -0.0025381069
1.5568346e-12 -9.40095e-13 0.010956622 -0.059915025 -0.045281846 -0.1295805 2.3889067e-13 5.2979816e-13
0.47925657 -0.050195694 0.3303642 0.24419881 0.6010903 0.016606396 -0.931761 0.36503682
-0.5640601 0.14585423 -0.36398682 0.017157322
00000000: dfa4 0ebe 291a 9dbe 2f66 c53d b754 dcbb
00000010: c4c1 96bd acdc 27bd d0f3 0cbd cd57 16bf
00000020: d567 46be 8c0a a0be 28a8 e3bd a2b5 1fb2
00000030: 74b0 66bb 517f 88ba 38f1 53bd 5e56 26bb
00000040: e11a db2b 7e4e 84ab 6783 333c 7569 75bd
00000050: 7579 39bd c0b0 04be c67b 862a fb1f 152b
00000060: 1e61 f53e 009a 4dbd 7f25 a93e 410f 7a3e
00000070: 0ee1 193f 230a 883c e487 6ebf 1be6 ba3e
00000080: 3e66 10bf d05a 153e 7b5c babe 838d 8c3c

layers.2.lin.weight f4 [6, 6]
-0.10606242 0.102020755 -4.3634523e-12 6.8136555e-12 -0.28293303 0.33115637 -0.18939589 -5.779568e-12
-3.58013e-12 2.4307399e-12 -0.008641086 -0.094353855 -0.026494207 -0.30100062 -0.010162309 -0.019228056
0.053511973 -0.11504467 -0.118679576 0.13422251 7.0419484e-13 1.0637366e-12 -0.31373942 0.5469869
0.046459086 -0.11078376 -0.014553213 0.040895652 0.47274268 -0.3479582 -0.15621653 2.001272e-07
3.1148844e-11 -1.31065965e-11 -0.22050747 0.053148914
00000000: 4137 d9bd 42f0 d03d 7c86 99ac f4bb ef2c
00000010: 99dc 90be 548d a93e fff0 41be b859 cbac
00000020: e3ed 7bac 510c 2b2c 5793 0dbc 983c c1bd
00000030: 610a d9bc c11c 9abe d07f 26bc 2884 9dbc
00000040: 5f2f 5b3d 8a9c ebbd 470e f3bd a071 093e
00000050: 9636 462b 26b5 952b 74a2 a0be 5507 0c3f
00000060: e24b 3e3d 99e2 e2bd 9970 6ebc 3382 273d
00000070: 540b f23e 9427 b2be 3af7 1fbe 8ce2 5634
00000080: 7bfe 082e dd92 66ad b6cc 61be adb2 593d

act_fc1.weight f4 [64, 216]
0.032223076 1.1452301e-12 -0.012187418 0.064334236 0.05444122 -0.007216234 0.08071287 -5.8320287e-13
-0.0557289 0.13497384 -0.022208828 0.0020873977 0.010886865 -8.1839635e-13 -0.03319076 0.03667719
0.086428955 0.0077610803 0.041411974 -2.1264405e-12 -0.044953 0.07685697 0.055255942 0.000825732
-0.0632458 -1.503351e-12 0.009811383 -0.09401263 0.28556624 0.004462682 -0.081442684 3.5981357e-12
0.01399338 -0.12664364 0.31145582 -0.009556494 0.081922784 -1.7829294e-12 -0.015317017 0.12848753
-0.026629047 0.0050272616 0.01093815 -3.3737364e-12 0.003423068 0.024197847 0.085456096 0.0057624355
0.19753373 1.1489153e-12 -0.11144735 0.35976627 -0.4096722 -0.00090025185 -0.026826903 5.0061916e-12
0.021750813 -0.033585712 0.015812166 -0.0047595794 -0.016296776 2.5787937e-12 -0.03400826 -0.018513406
-0.026605688 0.0013219302 -0.0722244 -3.0715046e-12 0.0394311 -0.122002326 0.3070386 0.00065332616
-0.062183835 -1.1899661e-14 0.061964154 -0.113298945 0.1944206 0.0017854393 0.28627828 -2.9839737e-14
-0.07555561 0.4739941 -0.46134892 -0.0026290289 -0.17847404 4.2933853e-13 -0.033383068 -0.25044763
-0.11795465 -0.012494879 0.35719004 -2.107417e-12 -0.09856023 0.6073747 -0.6913519 0.0011847831
-0.077431895 2.6823977e-12 0.012893017 -0.083600625 0.040793043 -0.0017913433 -0.08541056 -1.8006278e-13
-0.0126092825 -0.10096514 0.058219556 -0.009439791 0.107413 -1.9360148e-13 -0.001096314 0.18058465
-0.15384166 -0.008353422 -0.16736126 -1.5477928e-12 0.044268936 -0.2958633 0.21710725 -0.0010008455
0.47355172 3.1253212e-14 -0.05614475 0.7076401 -0.6296103 -0.0026977488 -0.117250144 2.6041224e-12
-0.009003501 -0.19229889 -0.008788789 -0.0074954564 0.05852419 -2.4832415e-13 -0.07267784 0.1468267
-0.3236834 -0.02915869 -0.12032753 3.9698008e-13 0.0010790909 -0.16686384 0.16203378 -0.009966062
-0.092125155 1.2588316e-12 0.045348287 -0.15451905 0.3190859 -0.044124857 0.13022842 -2.586014e-13
-0.0048969504 0.18188311 -0.10468727 -0.027134582 -0.0074338 -4.450329e-12 0.09927221 -0.08827599
0.3241741 -0.0058957385 0.17450915 -2.9398396e-12 -0.024366349 0.25225693 -0.25349846 -0.006386602
-0.11486678 -1.359657e-12 0.0071585337 -0.17722636 0.19949825 -0.019972028 -0.070856646 4.0935332e-13
0.012091463 -0.12231316 0.13572778 -0.005413004 0.02417724 -5.5701515e-13 0.024508022 0.041219033
0.12007123 -0.024596559 -0.077526465 6.8118016e-13 0.04028152 -0.117465615 0.3637417 -0.022015853
0.11312817 -1.2439661e-12 0.048353937 0.14582857 0.076103926 -0.017735332 -0.0044488804 1.1077469e-12
0.07993706 -0.018339094 0.32836145 -0.0012904878 -0.016610043 -3.575075e-12 0.031651765 -0.036294594
0.10683311 -0.0055715023 -0.019229587 -3.0993736e-12 0.05568411 -0.07524567 0.2756706 0.0010228569
-2.8767955e-13 9.388333e-13 1.1368185e-14 -1.3133876e-13 2.899242e-13 -8.6179176e-13 -2.6573497e-13 1.0437647e-13
-8.1875695e-15 -8.320744e-13 4.5089223e-13 -1.9494227e-13 -4.0066312e-13 1.9170683e-13 5.519992e-13 -1.5991386e-13
-8.9438407e-13 8.0544214e-14 -2.0821902e-13 -1.1352833e-12 2.6421034e-13 -4.1184195e-13 4.4089854e-13 -9.95867e-13
3.3821367e-13 -2.1730432e-13 3.8302857e-13 -3.42181e-13 6.1292773e-13 4.4753394e-13 2.9924972e-13 1.1424021e-12
6.348973e-13 6.5066046e-13 -1.1936011e-12 4.4489504e-14 -4.557493e-13 -5.0597113e-13 -3.3946023e-13 4.956304e-13
00000000: 58fc 033d 432d a12b bcad 47bc abc1 833d
00000010: c2fd 5e3d 2976 ecbb ca4c a53d 3228 24ab
00000020: fd43 64bd 9536 0a3e 4aef b5bc b9cc 083b
00000030: d25e 323c ac5b 66ab 09f3 07bd d23a 163d
00000040: aa01 b13d a950 fe3b 9a9f 293d 8ca2 15ac
00000050: a320 38bd 3067 9d3d 0e54 623d f075 583a
00000060: 0487 81bd ee93 d3ab ecbf 203c b289 c0bd
00000070: bd35 923e b13b 923b 6ccb a6bd 4032 7d2c
00000080: 7d44 653c dfae 01be 2377 9f3e d792 1cbc
00000090: 22c7 a73d cdec faab 3af4 7abc 3c92 033e
000000a0: 2925 dabc babb a43b ed35 333c d567 6dac
000000b0: 8d55 603b 903a c63c 9b03 af3d d0d2 bc3b
000000c0: 4846 4a3e 09b2 a12b 823e e4bd 4933 b83e
000000d0: 8ec0 d1be e1fe 6bba 18c4 dbbc c423 b02c
000000e0: c32e b23c 2c91 09bd 8488 813c 3ff6 9bbb
000000f0: d180 85bc 6b77 352c 3f4c 0bbd 6da9 97bc
00000100: 2cf4 d9bc 9e44 ad3a 63ea 93bd 4f23 58ac
00000110: 8182 213d 5bdc f9bd 2a34 9d3e fa43 2b3a
00000120: 7ab4 7ebd 805d 56a8 20ce 7d3d 4709 e8bd
00000130: 3216 473e 6705 ea3a 1193 923e e062 06a9
00000140: e6bc 9abd 5baf f23e ed35 ecbe c94b 2cbb
00000150: e6c1 36be 34b2 f12a afbc 08bd ac3a 80be
00000160: 3592 f1bd 52b7 4cbc 9de1 b63e da4b 14ac
00000170: f2d9 c9bd e97c 1b3f 70fc 30bf b94a 9b3a
00000180: 9d94 9ebd c8c1 3c2c 3c3d 533c ce36 abbd
00000190: 9b16 273d 82cb eaba bbeb aebd 90bb 4aaa
000001a0: 2a97 4ebc d0c6 cebd a177 6e3d 5aa9 1abc
000001b0: 59fb db3d d4f9 59aa 32b2 8fba 2feb 383e
000001c0: ab88 1dbe cbdc 08bc c060 2bbe 1dd5 d9ab
000001d0: 5853 353d 657b 97be 5d51 5e3e cd2e 83ba
000001e0: 5f75 f23e 80c0 0c29 0af8 65bd e727 353f
000001f0: 242e 21bf b7cc 30bb d820 f0bd b33f 372c
00000200: 6c83 13bc 00ea 44be dafe 0fbc 729c f5bb
00000210: 10b7 6f3d 48cb 8baa 1fd8 94bd bd59 163e
00000220: d5b9 a5be 34de eebc 486e f6bd dc7a df2a
00000230: 4870 8d3a 5bde 2abe 2fec 253e b248 23bc
00000240: 1dac bcbd 302a b12b 20bf 393d 3e3a 1ebe
00000250: 3a5f a33e 44bc 34bd 995a 053e 6494 91aa
00000260: 9976 a0bb 913f 3a3e 4866 d6bd 5849 debc
00000270: 3c97 f3bb 0095 9cac 3a4f cb3d 0bca b4bd
00000280: 26fa a53e 0a31 c1bb 87b2 323e 71df 4eac
00000290: f09b c7bc d227 813e 8dca 81be b346 d1bb
000002a0: 463f ebbd ce5a bfab 2292 ea3b d47a 35be
000002b0: 4549 4c3e 619c a3bc 4a1d 91bd 0872 e62a
000002c0: 461b 463c 527f fabd 39fc 0a3e 925f b1bb
000002d0: 590f c63c 2cc9 1cab 0cc5 c83c 4ad5 283d
000002e0: e8e7 f53d b97e c9bc 32c6 9ebd 34bc 3f2b
000002f0: 3cfe 243d d091 f0bd 5a3c ba3e 975a b4bc
00000300: beaf e73d 9a12 afab c70e 463d 1654 153e
00000310: 60dc 9b3d b049 91bc eac7 91bb cae6 9b2b
00000320: 0bb6 a33d de3b 96bc fe1e a83e 9625 a9ba
00000330: c911 88bc d392 7bac 48a5 013d a4a9 14bd
00000340: 51cb da3d 2691 b6bb 5e87 9dbc 5a19 5aac
00000350: 0515 643d 671a 9abd b224 8d3e 6211 863a
00000360: fef2 a1aa 0921 842b 80ca 4c28 d2df 13aa
00000370: 7b36 a32a a492 72ab 7298 95aa f008 eb29
00000380: 807e 13a8 4835 6aab 6bd4 fd2a 497c 5baa
00000390: a48d e1aa bbd7 572a bc5f 1b2b 080c 34aa
000003a0: 2abf 7bab 945e b529 0c6f 6aaa e4c6 9fab
000003b0: b9bc 942a aed8 e7aa 2d34 f82a e427 8cab
000003c0: ba65 be2a b5a9 74aa 3ca0 d72a 7ba1 c0aa
000003d0: 1986 2c2b 70f0 fb2a 6e76 a82a 60c7 a02b
000003e0: 2cb5 322b 0725 372b 03fc a7ab e85c 4829
000003f0: 3348 00ab 106b 0eab 6019 bfaa ef81 0b2b

act_fc1.bias f4 [64]
-0.02296321 -0.0007127039 -0.1318194 -0.22703959 -0.013239186 -0.0118406685 -0.15665494 -0.25057277
-0.16487685 -0.06447275 0.042667486 -0.028655967 -0.013408354 -0.042739067 -0.04465065 -0.00058010523
-0.18206374 -0.102791324 -0.042476173 -0.075016916 -0.039162666 -0.023271434 -0.1495067 -0.10692558
-0.008215145 -0.041252486 -0.21362893 -0.0687835 -0.00044679543 -0.3237559 -0.22376756 -0.25051555
-0.01666276 -0.033584844 -0.09709018 -0.5695868 -0.032601994 -0.0989159 -0.051143885 -0.15428391
-0.11047296 -0.035785735 -0.109255925 -0.00016394405 -0.0042337514 -0.2810857 -0.029479738 -0.07546742
-0.0572088 -0.036642496 -0.46359685 -0.05442154 -0.12430213 -0.28667372 -0.04286448 -0.119573936
-0.03395211 -0.031152936 -0.17535314 -0.0064557833 -0.050224144 -0.2089497 -0.02546429 -0.13569684
00000000: 571d bcbc c0d4 3aba aafb 06be 117d 68be
00000010: 2ce9 58bc 5dff 41bc 276a 20be 134b 80be
00000020: 7ad5 28be 4a0a 84bd 1ac4 2e3d ebbf eabc
00000030: b6ae 5bbc 290f 2fbd 9ae3 36bd 3412 18ba
00000040: eb6e 3abe 4284 d2bd 7ffb 2dbd 78a2 99bd
00000050: 0869 20bd bca3 bebc 4918 19be ccfb dabd
00000060: d198 06bc 5ef8 28bd 8bc1 5abe 5dde 8cbd
00000070: de3f eab9 55c3 a5be 5323 65be 9343 80be
00000080: 5780 88bc 4390 09bd 37d7 c6bd 71d0 11bf
00000090: ab89 05bd 6b94 cabd 407c 51bd 9afc 1dbe
000000a0: a63f e2bd 1094 12bd 92c1 dfbd 65e8 2bb9
000000b0: 48bb 8abb 77ea 8fbe 7e7f f1bc aa8e 9abd
000000c0: c653 6abd 7116 16bd 915c edbe 1fe9 5ebd
000000d0: 1d92 febd e6c6 92be aa92 2fbd 2ee3 f4bd
000000e0: 5e11 0bbd 7134 ffbc c68f 33be 098b d3bb
000000f0: d5b7 4dbd e9f6 55be 7d9a d0bc 1df4 0abe

act_fc2.weight f4 [36, 64]
-0.3233309 4.3530813e-12 -1.7196495e-05 -0.05131265 -1.4505301e-10 -1.17326895e-11 -3.282206e-09 -0.019590018
-0.025857273 -8.172498e-05 -1.2085159 1.3943296e-11 7.6313e-11 0.00027106106 -2.9928235e-09 -4.8549505e-13
-0.004010411 -0.008607437 7.5843396e-05 -0.0041505443 -9.492477e-06 -3.9573715e-06 -0.00013382701 -0.002741113
-9.885103e-12 -4.20317e-11 -0.00059730874 -0.008362725 -1.0582772e-12 -0.040808685 -0.053500723 -0.0069587263
-6.7911686e-05 -0.00026625852 -0.0017380242 -1.033573 -1.7345617e-05 0.00017396032 -0.018122023 -9.601688e-09
-0.011438861 -3.7358667e-09 2.2805505e-10 -2.1087817e-12 -3.7086734e-10 0.007197656 -0.0024269924 2.1175511e-11
-8.580615e-05 1.3222845e-11 -0.35173914 -0.00073073927 -0.0013017969 -0.002322211 -2.1944795e-06 -0.003859691
-1.054372e-06 -1.2942375e-10 0.10412506 -4.7310946e-06 -2.1204236e-10 -0.00061924045 -0.0013621132 -0.024473788
-0.31678754 2.974582e-13 -1.568193e-06 -0.08369901 -5.196076e-05 1.13882126e-10 -7.770028e-07 0.0067398218
-0.013656489 1.7568e-10 0.31616932 3.9559488e-11 -2.1417973e-10 -0.026350902 -1.457285e-09 1.3092074e-12
0.00047075498 -0.00866351 0.017033502 -0.019005738 2.7134295e-06 -6.8701746e-11 0.10385215 6.5141314e-05
1.5211248e-12 3.7612993e-09 -0.042163447 -0.0025975194 1.6906607e-12 0.04420611 0.22914042 -0.019627308
4.9102846e-06 1.0419492e-09 0.0018445454 -0.49447855 8.3385694e-11 -0.00025776567 0.018703224 6.821758e-08
-0.0013638405 -9.1712394e-08 -2.918017e-08 2.6220638e-12 -2.5356808e-08 -0.0049833916 0.0018919439 0.036975972
-1.0503058e-05 -6.6887147e-12 -0.24918033 -1.1233311e-05 -0.00040735942 -0.030017005 -0.0022972857 0.06723008
3.85819e-11 -4.7982257e-11 -0.49659315 8.51308e-12 0.005560348 -0.015566553 0.00036310073 -0.031815175
0.22148438 -2.276226e-12 -1.7849963e-08 -0.014843155 -0.0011807302 -2.2972e-07 -0.00014132132 -0.053128917
-1.4641388e-06 3.329154e-06 -0.10968633 -6.712278e-06 -0.00029947725 0.001965134 -1.7227729e-05 -4.2149214e-12
-1.771169e-07 -0.03468784 0.020757606 0.06607301 0.0008466707 -5.6509204e-11 -9.986641e-06 2.5156336e-05
9.121459e-12 -1.6425241e-11 -0.030080147 -0.0041575814 -1.2687681e-13 0.053731233 -0.03829662 0.0013873563
-0.0010581815 1.9443967e-10 -0.007824737 -0.39239874 -1.3732046e-11 0.0018586066 -0.034053445 -1.4219207e-05
-0.009066337 -5.1715608e-05 -0.00014951042 -3.034189e-12 -0.0017214738 -0.019382 0.04078915 -0.0016080865
-0.00042361856 6.8642375e-12 -0.36674985 -0.0022424296 -0.0011355159 -0.013773376 -0.0019990525 0.0011316718
5.9956754e-08 9.062346e-11 0.34755525 2.5622675e-12 -0.0038581465 7.4976274e-06 -0.00079378334 -0.02017311
-0.13618363 -4.8909553e-12 1.2607303e-08 -0.041983027 -4.6574897e-07 -2.6355842e-08 -4.6326095e-05 0.0071171126
0.021952573 5.4176894e-09 -0.06348595 3.043343e-13 6.637507e-11 -0.004682463 -7.7768585e-05 -9.805861e-13
0.046074286 0.019742899 -0.0028218976 -0.04912775 -0.0003183563 1.4706003e-08 -0.0015602356 -0.00027494546
2.2493906e-11 1.1040983e-09 -0.023269521 -0.003934753 -1.4639884e-13 -0.01072857 0.23262501 -0.016561829
-0.0013531373 -0.00011951952 -0.0009807573 -0.59946656 2.750728e-08 2.5716083e-05 0.0041625462 -8.564241e-07
0.0020775634 -6.071971e-07 -2.2449012e-05 -1.4407608e-13 1.0381822e-10 -0.2646398 -0.0049251653 0.005188142
-0.000558501 7.542721e-12 -0.16980772 -0.0024683892 -0.0022404885 -0.042603277 -1.1318608e-06 -0.0024191395
-7.508545e-06 5.0292664e-13 0.014097807 -1.0362561e-11 0.0035840343 -0.010599604 -0.0021905715 -0.096053846
00000000: a18b a5be 1229 992c 3141 90b7 372d 52bd
00000010: cb7c 1faf 5667 4ead 2e8d 61b1 3f7b a0bc
00000020: a2d2 d3bc c463 abb8 a6b0 9abf 064b 752d
00000030: 66d0 a72e 331d 8e39 4faa 4db1 9ba7 08ab
00000040: c469 83bb 3506 0dbc 1d0e 9f38 4a01 88bb
00000050: e141 1fb7 90c9 84b6 ea53 0cb9 3fa4 33bb
00000060: 8ce6 2dad 7ddb 38ae b694 1cba d003 09bc
00000070: 74f0 94ab 0227 27bd 9323 5bbd 0706 e4bb
00000080: cf6b 8eb8 9d98 8bb9 6ace e3ba 1f4c 84bf
00000090: 6e81 91b7 1e69 3639 a374 94bc acf4 24b2
000000a0: 0f6a 3bbc 085d 80b1 cabf 7a2f 6f64 14ac
000000b0: f0e2 cbaf 51da eb3b 2d0e 1fbb 0343 ba2d
000000c0: d3f2 b3b8 669e 682d 2717 b4be 158f 3fba
000000d0: 0ea1 aaba 3c30 18bb df44 13b6 dff2 7cbb
000000e0: f283 8db5 8c4d 0eaf 853f d53d cbbf 9eb6
000000f0: 9e24 69af 8654 22ba ef88 b2ba 417d c8bc
00000100: fa31 a2be 3f74 a72a b47a d2b5 636a abbd
00000110: 71f0 59b8 f06d fa2e 3a93 50b5 b9d9 dc3b
00000120: 77bf 5fbc 8629 412f f2e0 a13e 06fc 2d2e
00000130: 3c7e 6baf d9dd d7bc a849 c8b0 2b41 b82b
00000140: aacf f639 65f1 0dbc d889 8b3c ecb1 9bbc
00000150: 5d18 3636 a513 97ae 70b0 d43d 7a9c 8838
00000160: 4c14 d62b bd3c 8131 94b3 2cbd 253b 2abb
00000170: 79f0 ed2b 7711 353d c9a3 6a3e 73c9 a0bc
00000180: 06c3 a436 5434 8f30 acc4 f13a 4b2c fdbe
00000190: f95d b72e b924 87b9 8137 993c 037f 9233
000001a0: e5c2 b2ba 6cf3 c4b3 dfa7 fab2 e782 382c
000001b0: 36d0 d9b2 b84b a3bb 1afb f73a 1e74 173d
000001c0: 4a36 30b7 9656 ebac 2129 7fbe b476 3cb7
000001d0: db92 d5b9 39e6 f5bc 0f8e 16bb edaf 893d
000001e0: 5caf 292e 3807 53ae 7541 febe 81c3 152d
000001f0: 9433 b63b db0a 7fbc 8e5e be39 a150 02bd
00000200: cdcc 623e d82c 20ac 7c54 99b2 b430 73bc
00000210: bbc2 9aba f4a8 76b4 a72f 14b9 b59d 59bd
00000220: 6d83 c4b5 6e6a 5f36 3aa3 e0bd 073a e1b6
00000230: 2803 9db9 7ac9 003b 4484 90b7 a34c 94ac
00000240: 862d 3eb4 d614 0ebd db0b aa3c 4951 873d
00000250: 1cf3 5d3a b587 78ae 4c8c 27b7 d206 d337
00000260: 6677 202d 5b7a 90ad a46a f6bc 523c 88bb
00000270: c0d9 0eaa 4815 5c3d ebdc 1cbd f4d7 b53a
00000280: aeb2 8aba e7c9 552f 5333 00bc 7de8 c8be
00000290: a393 71ad 7d9c f33a a07b 0bbd 078f 6eb7
000002a0: f98a 14bc 36e9 58b8 e6c5 1cb9 1783 55ac
000002b0: 13a3 e1ba 00c7 9ebc 8612 273d 6ec6 d2ba
000002c0: 1f19 deb9 8e83 f12c a3c6 bbbe baf5 12bb
000002d0: 97d5 94ba baa9 61bc 8902 03bb 9b54 943a
000002e0: 93c1 8033 7948 c72e c3f2 b13e b54d 342c
000002f0: f5d8 7cbb 2194 fb36 e615 50ba 1442 a5bc
00000300: b973 0bbe cf15 acac 8197 5832 65f6 2bbd
00000310: 0d0c fab4 1c65 e2b2 444e 42b8 ab36 e93b
00000320: e2d5 b33c 8026 ba31 ec04 82bd 3253 ab2a
00000330: d8f5 912e 596f 99bb b117 a3b8 5601 8aab
00000340: 64b8 3c3d dcbb a13c 96ef 38bb 2e3a 49bd
00000350: 0fe9 a6b9 afa5 7c32 d280 ccba 8e26 90b9
00000360: c6db c52d 01bf 9730 b99f bebc 1aef 80bb
00000370: 98d4 24aa e2c6 2fbc 4035 6e3e acac 87bc
00000380: c15b b1ba 8ea6 fab8 c18c 80ba a476 19bf
00000390: 2649 ec32 deb8 d737 f865 883b 04e5 65b5
000003a0: bb27 083b 44fe 22b5 e350 bcb7 1a37 22aa
000003b0: 764c e42e de7e 87be 4863 a1bb 4a01 aa3b
000003c0: 5e68 12ba 65b1 042d 13e2 2dbe b3c4 21bb
000003d0: 29d5 12bb c680 2ebd 71ea 97b5 6d8a 1ebb
000003e0: e9f1 fbb6 af8f 0d2b 7dfa 663c d34c 36ad
000003f0: 1ee2 6a3b f6a9 2dbc b18f 0fbb e1b7 c4bd

act_fc2.bias f4 [36]
-0.30399036 -0.026709927 0.011718195 -0.013791645 -0.0075027556 -0.35482797 -0.06226476 -0.024525171
0.09153521 0.049639173 -0.06252381 -0.0024851384 0.032525536 0.1007706 -0.0002624386 -0.027596796
0.0475395 0.1676755 -0.009788359 0.17000966 -0.012734413 -0.036711246 0.1589757 0.016898654
-0.046574406 -0.104937986 0.1424293 0.13197076 -0.059332613 -0.12743141 -0.36697817 0.011736709
0.009540058 0.025473656 -0.06403964 -0.30924556
00000000: a0a4 9bbe c7ce dabc acfd 3f3c 5af6 61bc
00000010: add9 f5bb 03ac b5be 5509 7fbd 03e9 c8bc
00000020: d076 bb3d 7252 4b3d 7c0c 80bd b4dd 22bb
00000030: 7f39 053d d160 ce3d ea97 89b9 ad12 e2bc
00000040: c7b8 423d 20b3 2b3e 5a5f 20bc 0317 2e3e
00000050: 00a4 50bc 885e 16bd 87ca 223e 0c6f 8a3c
00000060: cec4 3ebd bae9 d6bd fdd8 113e 5823 073e
00000070: c106 73bd 617d 02be 90e4 bbbe 534b 403c
00000080: e74d 1c3c 21ae d03c 3727 83bd 6f55 9ebe

val_fc1.weight f4 [64, 216]
0.071922585 1.3578753e-11 -0.0077329148 0.10778195 0.24816032 0.010705966 0.0072134426 4.0364183e-12
0.04454696 0.05841076 0.4212389 0.009671285 0.14622474 8.574587e-12 -0.026219847 0.14482424
-0.015650384 4.259422e-05 0.030540561 -2.6314607e-11 -0.009672832 -0.02261672 0.04035698 -4.2707215e-06
-0.03031163 -7.279451e-12 0.11097396 0.031650253 0.49444196 0.0022726208 0.0049074786 1.7731427e-11
0.053107105 -0.041071817 0.34732756 0.0029192055 -0.048106577 -1.860313e-11 0.09093965 -0.0068718987
0.53333116 0.004780343 0.19621927 -3.601513e-12 -0.06050964 0.1831625 -0.09670653 0.00034482434
0.046441358 1.3065067e-11 -0.0138670355 0.037097003 -0.12498859 0.00087118684 0.05186281 -1.1051151e-11
0.023297952 0.06155625 0.004651133 0.00010650202 0.022484355 -8.496507e-12 -0.0120015545 -0.064130366
0.00043485954 0.0035864091 -0.055933397 -4.3525643e-13 0.13391133 -0.041270666 0.60001874 -0.0013519535
0.071796186 2.4073105e-12 -0.034756258 0.020896163 -0.07960764 0.0043792943 0.057107393 1.9327592e-11
0.012120178 0.07435819 -0.028246416 0.00067102554 0.124593265 2.225149e-11 -0.04769981 0.11166748
-0.34566697 0.0010615585 0.010733119 1.5443672e-11 -0.030672215 0.015505862 -0.32345155 0.0014469312
0.06890884 -2.3522441e-11 0.014394601 0.080918364 0.038518358 0.0026004803 0.09720878 -5.6252143e-12
-0.022932166 0.041348998 -0.006904261 0.004172049 -0.0071094506 -2.8761958e-11 0.034747414 -0.073734395
0.070245236 0.0025648274 0.11056877 7.643327e-13 0.01631428 0.1163436 -0.049842693 -0.0021840595
0.043102764 8.625092e-12 -0.04463227 0.04537093 -0.31008467 0.0011514396 0.12554309 -5.5774556e-12
-0.023857947 0.12948191 -0.2869368 0.0024740533 0.06308013 -4.5338295e-12 -0.004812583 0.06667047
-0.084804475 -0.00013257767 0.07877014 -1.9619523e-11 -0.013132744 0.013371429 0.010738787 0.0023598457
-0.002267176 -1.225962e-11 0.10620299 0.03156322 0.5193332 0.009020301 0.07002856 -3.9852475e-12
0.0082549 0.059724756 -0.022396399 0.0012217438 0.03454408 1.1538454e-11 0.004750971 0.011243988
-0.009503785 0.0013266036 0.028111901 -4.5042134e-12 -0.0236955 0.010698924 -0.10419956 -0.0003434499
0.07482961 1.1618909e-11 -0.010697959 0.020109925 -0.00804966 0.0015364502 -0.05602785 -9.002348e-13
0.07112985 0.01484419 0.4893205 0.0019022538 0.017154684 2.029513e-11 0.043442756 0.01109385
0.27324867 0.0055613588 -0.06903347 -2.5266865e-13 0.104054786 -0.027537443 0.50168693 -0.0039395033
0.04776587 -1.598299e-11 -0.022501452 -0.013031712 -0.108075485 -0.0001756161 -0.0031040837 1.71496e-11
0.013310785 -0.09737709 0.040531583 -0.0015879428 -0.07995694 -2.0339431e-12 0.06914593 -0.085375756
0.47681773 -0.009269285 0.0062349425 1.0318338e-11 0.04277573 -0.017064454 0.33723378 -0.0034652513
1.0058238e-12 1.1446717e-13 -1.662365e-12 -7.338398e-13 8.8393594e-13 -2.7826336e-13 -8.285942e-14 3.8175694e-14
-1.218513e-12 4.3808868e-07 -7.087123e-13 8.056585e-14 8.837953e-14 9.239509e-13 9.859031e-13 8.0789336e-13
-1.2569593e-12 5.0280407e-13 -1.3533708e-13 -6.384601e-14 6.211145e-13 4.65894e-13 3.9835222e-13 9.664618e-13
-3.675964e-13 -2.3353246e-13 -4.0401376e-13 7.758402e-13 -5.3773717e-13 4.1177942e-13 -1.3030195e-13 2.8030909e-14
-3.9763787e-13 -7.622882e-14 5.8080136e-13 3.438327e-13 2.632625e-13 -3.1557667e-13 1.5939826e-12 -1.379069e-13
00000000: 264c 933d 44e1 6e2d 6464 fdbb c8bc dc3d
00000010: bd1d 7e3e 1368 2f3c be5e ec3b d304 8e2c
00000020: e076 363d 1f40 6f3d a0ac d73e 4f74 1e3c
00000030: f0bb 153e 82d8 162d 01cb d6bc ce4c 143e
00000040: 3c35 80bc 32a7 3238 3330 fa3c 3a77 e7ad
00000050: cc7a 1ebc b346 b9bc 5c4d 253d 384d 8fb6
00000060: 1850 f8bc bc0f 00ad 5146 e33d b2a3 013d
00000070: 7f27 fd3e 40f0 143b eace a03b a0f7 9b2d
00000080: d686 593d ec3a 28bd ebd4 b13e 2450 3f3b
00000090: 670b 45bd 86a2 a3ad 913e ba3d aa2d e1bb
000000a0: 6488 083f 6ca4 9c3b b4ed 483e 176f 7dac
000000b0: f5d8 77bd f38e 3b3e 130e c6bd 8ac9 b439
000000c0: 4b39 3e3d d5d7 652d 9032 63bc 07f3 173d
000000d0: 05fa ffbd 5c60 643a 196e 543d f669 42ad
000000e0: 59db be3c 6822 7c3d 8868 983b d659 df38
000000f0: 1c31 b83c de78 15ad 2ba2 44bc c856 83bd
00000100: dcfd e339 f609 6b3b 6b1a 65bd 1007 f5aa
00000110: 0d20 093e 6e0b 29bd d49a 193f 0834 b1ba
00000120: e109 933d 4066 292c 945c 0ebd 6e2e ab3c
00000130: 5509 a3bd 2f80 8f3b 71e9 693d de01 aa2d
00000140: b693 463c 1b49 983d 0765 e7bc c3e7 2f3a
00000150: c12a ff3d e7b9 c32d e060 43bd ebb1 e43d
00000160: 43fb b0be fe23 8b3a f7d9 2f3c 0fd8 872d
00000170: 4c44 fbbc 4d0c 7e3c 719b a5be f4a6 bd3a
00000180: 1420 8d3d d4e7 cead 55d7 6b3c 87b8 a53d
00000190: 6dc5 1d3d d26c 2a3b 6615 c73d 6deb c5ac
000001a0: 3ddc bbbc 915d 293d 243d e2bb afb5 883b
000001b0: 65f6 e8bb 2cfe fcad 4e53 0e3d 0f02 97bd
000001c0: bcdc 8f3d aa16 283b e171 e23d fa23 572b
000001d0: 86a5 853c 8e45 ee3d da27 4cbd 7022 0fbb
000001e0: 868c 303d f6bb 172d 54d0 36bd ded6 393d
000001f0: 6bc3 9ebe e7eb 963a 5e8e 003e 413d c4ac
00000200: be71 c3bc e896 043e 61e9 92be ba23 223b
00000210: 2830 813d 1b85 9fac dfb2 9dbb 878a 883d
00000220: f8ad adbd 8c04 0bb9 3d52 a13d 3d93 acad
00000230: b82a 57bc d713 5b3c bdf1 2f3c a4a7 1a3b
00000240: e794 14bb 6cac 57ad f480 d93d 6f48 013d
00000250: 05f3 043f e2c9 133c 226b 8f3d eb37 8cac
00000260: 8f3f 073c f2a1 743d a778 b7bc eb22 a03a
00000270: 187e 0d3d 94fc 4a2d 09ae 9b3b b438 383c
00000280: c3b5 1bbc 6ee1 ad3a ee4a e63c 597a 9eac
00000290: 111d c2bc 8a4a 2f3c 9466 d5bd 1111 b4b9
000002a0: 4440 993d ea66 4c2d 7e46 2fbc 92bd a43c
000002b0: b9e2 03bc b762 c93a 757d 65bd c164 7dab
000002c0: 87ac 913d 0c35 733c 3788 fa3e 0c55 f93a
000002d0: fb87 8c3c 9284 b22d 08f1 313d fbc2 353c
000002e0: 40e7 8b3e 0f3c b63b 6b61 8dbd 643d 8eaa
000002f0: ad1a d53d 3496 e1bc 8e6e 003f f316 81bb
00000300: 25a6 433d 7e96 8cad f754 b8bc f682 55bc
00000310: ae56 ddbd 9625 38b9 e26d 4bbb 77d9 962d
00000320: 7b15 5a3c a46d c7bd 7204 263d 8522 d0ba
00000330: 77c0 a3bd 4320 0fac 629c 8d3d 7cd9 aebd
00000340: 7421 f43e 33de 17bc 7d4e cc3b aa85 352d
00000350: 9b35 2f3d c1ca 8bbc e8a9 ac3e 4519 63bb
00000360: 9f8e 8d2b eae0 002a 03f5 e9ab bb8e 4eab
00000370: 4cce 782b faa5 9caa 3495 baa9 94ed 2b29
00000380: 8f7d abab 7332 eb34 1a7c 47ab 0d6b b529
00000390: 5503 c729 d708 822b e7c0 8a2b da66 632b
000003a0: bbe6 b0ab da86 0d2b 4260 18aa b8c4 8fa9
000003b0: 04d4 2e2b 3323 032b 9b40 e02a 7504 882b
000003c0: 39f0 ceaa 9377 83aa 8570 e3aa 2e61 5a2b
000003d0: 0c5c 17ab abcf e72a fbb4 12aa e07a fc28
000003e0: a8d9 dfaa eca6 aba9 267b 232b 848f c12a
000003f0: 2034 942a 64a7 b1aa 4755 e02b f544 1baa

val_fc1.bias f4 [64]
0.060835738 -0.018974459 -0.02398296 0.06589839 0.057887692 -0.046735007 -0.24116395 -0.006791416
0.08582463 -0.20076181 -0.050513975 -0.08070776 -0.17054103 -0.20010749 -0.016138792 -0.018750215
-0.014091364 -0.21980359 -0.18521361 -0.07996279 -0.0667338 -0.18313807 0.057844546 -0.011524794
-0.20007211 -0.18451653 -0.022260064 -0.064869866 -0.020974096 -0.02018564 0.5250247 -0.06403582
-0.025332978 -0.050127976 -0.20819826 -0.00037543752 -0.051486604 -0.21256655 -0.15616809 -0.0014033878
-0.004061724 -0.19368055 -0.08026383 -0.19273984 -0.15797365 0.073303565 -0.0013459992 -0.22286382
-0.17724359 -0.13771035 -0.23337346 -0.026899587 -0.20085652 0.07263775 -0.37222084 -0.19795655
0.06968762 -0.20345546 0.078287676 -0.04521185 -0.008559488 0.07004637 -0.013226149 -0.16813558
00000000: e52e 793d 5370 9bbc ea77 c4bc bcf5 863d
00000010: a51b 6d3d 356d 3fbd aff3 76be 878a debb
00000020: d3c4 af3d 8194 4dbe bee7 4ebd 1c4a a5bd
00000030: 4fa2 2ebe fae8 4cbe 8035 84bc 0d9a 99bc
00000040: 77df 66bc 3114 61be a3a8 3dbe 88c3 a3bd
00000050: bbab 88bd 8c88 3bbe 67ee 6c3d 7dd2 3cbc
00000060: b4df 4cbe e7f1 3cbe bd5a b6bc 7eda 84bd
00000070: ded1 abbc 5b5c a5bc 0568 063f 3625 83bd
00000080: 1b87 cfbc fe52 4dbd ed31 55be 5fd6 c4b9
00000090: 9ee3 52bd 0cab 59be 87ea 1fbe e1f1 b7ba
000000a0: 3618 85bb 3254 46be 5d61 a4bd 985d 45be
000000b0: d8c3 21be 2e20 963d 3d6c b0ba 6a36 64be
000000c0: 587f 35be f103 0dbe 74f9 6ebe 865c dcbc
000000d0: 55ad 4dbe 1ac3 943d bb93 bebe 1fb5 4abe
000000e0: 62b8 8e3d a156 50be 4a55 a03d 1030 39bd
000000f0: 183d 0cbc 7974 8f3d 7db2 58bc bc2b 2cbe

val_fc2.weight f4 [1, 64]
0.08046919 -4.3042973e-13 -2.9262645e-12 0.1147248 0.11512881 0.018114429 0.4481135 -1.5083499e-12
0.19076158 -0.22741331 -0.026131423 0.013040768 0.041028984 -0.24672647 -5.416362e-12 -0.050466258
-0.030298693 -0.1553222 -0.19604643 -0.030106995 0.03420519 -0.18043014 0.094743475 -0.049161423
-0.18131888 -0.1616035 -0.054530278 0.018129589 -0.053112876 -0.008103206 -0.5595225 0.026141673
-2.623611e-12 0.050784264 -0.3110267 8.97031e-13 -0.0022098434 -0.2131661 0.14739308 -3.0564616e-12
2.4078925e-10 -0.23078698 0.017767828 -0.2560532 0.041365087 0.1831472 1.9834841e-12 -0.27065507
-0.1112814 0.14205895 -0.2213761 1.289531e-12 -0.24163476 0.1202123 -0.16065276 -0.23068814
0.14744131 -0.27359122 0.2703048 0.00064016844 8.298722e-13 0.15421282 -1.4974523e-12 -0.18407528
00000000: 08cd a43d 764f f2aa e5ea 4dac d6f4 ea3d
00000010: a7c8 eb3d b664 943c 226f e53e 0848 d4ab
00000020: 0157 433e 09df 68be 9111 d6bc f2a8 553c
00000030: 020e 283d dda5 7cbe 4092 beac b5b5 4ebd
00000040: f734 f8bc c80c 1fbe 65c0 48be f2a2 f6bc
00000050: be1a 0c3d aec2 38be de08 c23d 7d5d 49bd
00000060: a8ab 39be 637b 25be 245b 5fbd 8184 943c
00000070: e38c 59bd 4fc3 04bc de3c 0fbf 1027 d63c
00000080: c69e 38ac 2903 503d e43e 9fbe e57d 7c2b
00000090: 05d3 10bb 3748 5abe 36ee 163e 5114 57ac
000000a0: 1360 842f 6c53 6cbe d68d 913c 6819 83be
000000b0: 706e 293d f18a 3b3e 4693 0b2c 4d93 8abe
000000c0: 81e7 e3bd e777 113e 6bb0 62be 407c b52b
000000d0: 1a6f 77be de31 f63d 2882 24be 8339 6cbe
000000e0: dbfa 163e 2614 8cbe 6465 8a3e fad0 273a
000000f0: 9896 692b f7e9 1d3e 68bf d2ab 3b7e 3cbe
