AlphaZero_Gomoku/model/gnn/epoch_200.model (torch, 124420 bytes, 10 tensors)

layers.0.lin.weight f4 [6, 4]
00000000: 58c6 b2bf ba04 f73e 61fd 3b3e 491b be3e
00000010: b48d 9c3f fec4 dc3e 0d06 a03e d226 e63e
00000020: 59e5 81be 402c 853f 6849 3c3f 963b e9be
00000030: d712 84bf d332 b53e 6a49 9dbe b01c 7f3e
00000040: 1776 58bf f6db 24bf 8bb4 403f 6673 a33e
00000050: d587 56be 2351 21bd c2f1 763c 0c54 47bd
-1.396678 0.48245794 0.18358375 0.37130192 1.2230744 0.43119043 0.31254616 0.44951493
-0.2537029 1.0404129 0.7354951 -0.45553273 -1.031825 0.35390338 -0.30720073 0.24913287
-0.8455519 -0.64398134 0.75275487 0.3192398 -0.20950253 -0.03938402 0.015072288 -0.048664138

layers.1.lin.weight f4 [6, 6]
00000000: 3264 e3bd 124c 99be 7b15 b33d fa8a d6bb
00000010: e347 82bd 1096 e2bb e89d e5bc b585 c5be
00000020: 2239 08be 385e 30be b2b1 9cbd 743c c51e
00000030: 647c f0b7 a137 53b2 56e9 91bb b760 07b3
00000040: ae3e ac18 34b3 5c98 aa07 033b 1296 6abb
00000050: cda0 a2bc 77f3 49bd 9eb3 b698 0a2e 9199
00000060: f367 193f 7afd d6bd 2793 4f3f 1c42 a63e
00000070: 5e54 2d3f fb70 553c 882e b7bf 1947 033f
00000080: bc32 19bf c9a3 74bd 72ac 19bf 92e0 543c
-0.11103095 -0.2994085 0.087443314 -0.006547329 -0.063613676 -0.0069148615 -0.028029397 -0.38578573
-0.13303044 -0.17223442 -0.0765108 2.0883189e-20 -2.8668153e-05 -1.2294465e-08 -0.0044528646 -3.15201e-08
4.452425e-24 -2.8524808e-24 0.0019993582 -0.0035795015 -0.019852066 -0.04930445 -4.7227264e-24 -1.5011244e-23
0.5992424 -0.104975656 0.8108391 0.32472312 0.6770686 0.013027425 -1.4311075 0.5128036
-0.5984304 -0.05972651 -0.60028756 0.012992995

layers.2.lin.weight f4 [6, 6]
00000000: 56fd 5ebd ea74 113d 6cb9 291a 48fc 8797
00000010: 6194 fcbe d571 d13e 769c 8bbd da43 5199
00000020: 4a13 7119 5512 8d19 2ebf c0bb 604e 92bd
00000030: 4cc0 b2bc 379b c0bd dde1 7db6 b593 9fb9
00000040: 92bb a73c a29b d8be e2f1 6cbd 9cee 193d
00000050: 62ed 1518 1fab e118 2dbd 653c 470f 613f
00000060: bda8 2e3d 9764 afbd 5322 d2ba 98e3 203c
00000070: cc6c 173f 4b7c 39bf aa07 8dbd 38a7 2fa1
00000080: 9082 569b 0559 211b 9afd 47bf 28b8 c73e
-0.05444082 0.03551189 3.5098163e-23 -8.787855e-25 -0.49331954 0.4090716 -0.06816952 -1.0818749e-23
1.2463303e-23 1.4586463e-23 -0.0058821654 -0.07143855 -0.02182021 -0.09404605 -3.7831408e-06 -0.00030436894
0.020475183 -0.42306238 -0.057847865 0.03758107 1.9377646e-24 5.8333925e-24 0.014022154 0.87913936
0.04264139 -0.08564108 -0.0016031958 0.009819888 0.59150386 -0.7245528 -0.068862274 -5.951362e-19
-1.7743852e-22 1.3346372e-22 -0.7812134 0.39007688

act_fc1.weight f4 [64, 216]
00000000: 35a2 d53e 450d ce99 1b81 febc 1eaa 553f
00000010: bacb 22bd 1e25 db3e 6308 403d 7046 7a17
00000020: 1ab7 a13d c9aa 97be 2d3e 853e 0ae6 de3d
00000030: 6adb 033e dcf6 0598 5b4b 313e 7b6a 0d3e
00000040: 7653 d33e fb1e c43d 84b3 d3be 7bfc 2419
00000050: 961b 4f3e 6dff 82be 3407 8d3e ae30 adbe
00000060: 8f46 73be 171a 2599 5cc9 37be 8edd e9bd
00000070: b4a0 d03d de99 49be f8a3 45be beba ff19
00000080: 938f 70be f8c7 cd3b 680f 853d 445b 22be
00000090: 7e7d 3dbe b8d4 4b19 96a1 133e f84f c9be
000000a0: 1ff6 8d3e 937b 90be b40f 42bd da5d b019
000000b0: db2f c83c def6 c3bc a621 1b3e b146 36bd
000000c0: 1482 28be 8202 1099 9325 dfbe 9052 a83d
000000d0: fea7 8cbf 4641 9ebe 8f1d 05be 2ee4 c999
000000e0: 52d0 ab3e ca4e 59bf ae48 383f ae8d d03d
000000f0: c5fd 75bd a5ef 5299 40c8 db3e b687 b2be
00000100: 72fd 4f3f e435 26be 7122 fc3d 6383 e519
00000110: d554 09be 78c7 923e 95f8 cf3e 4ba3 2d3e
00000120: b262 c23e 5df9 e717 c19a 0f3c bea2 8cbd
00000130: 4440 523e 8b95 023f 6943 87be e488 5398
00000140: 0a1a 10bf 016f 7dbe 41f1 94bf 0846 74be
00000150: 7fb0 63bf 3e32 b898 9fd4 743d f9c4 67bf
00000160: 19e1 32bf 1b9d 67bf 7ce3 383f 4051 6a99
00000170: c1b2 31bf 6c47 a63f 1bd1 e9bf e2b6 363f
00000180: 0e1d 943e 1ce7 2119 5161 4b3e 025c 16bf
00000190: 863c 1b3f cb0b f13e 0166 1dbf 0853 5598
000001a0: 1ee3 033e 2ff0 32bf 40d4 1a3f fecd dabe
000001b0: ac2d cebc c6e8 7d98 318a 733e c0c8 d4be
000001c0: 977d 273f 7867 26be 8805 6d3d dc9f 5798
000001d0: ec1a 823e 8129 18bf acaf 333f 5a37 a23d
000001e0: d797 883f 3e06 0f19 94c1 39bf 6d62 bc3f
000001f0: 8066 d7bf 9694 933f baf4 65bf 084e 321a
00000200: da1d 0dbd 8e9b 3ebf dd17 7cbf 1199 49bf
00000210: d066 25bf d41d 9d17 227b 0dbf 8ca4 c9be
00000220: 6fbb a6bf 19e1 1bbf 02ce 8a3e d156 9899
00000230: d38e 573d df7e 0c3e fc86 3a3e 18b2 163e
00000240: 80a5 70be 7086 7a98 5bd0 bbbd 6df2 bf3e
00000250: 6b02 b03d 8521 c3be 4865 6cbd c6e3 3718
00000260: f98a 943e 0ed5 59bc 3dad 233f fc1a 7bbe
00000270: 08c1 e13c 1a35 a119 e86b 1c3e aed1 2bbf
00000280: 0106 263f 5fdb 693e f04a 82be ec48 3799
00000290: 3120 e1be ce49 f0bd c014 99bf 8dbe 43be
000002a0: 3133 d33e 8ebb 479a 6616 5d3e 5100 d03d
000002b0: 21ab 45bd b54d 013f b1dc 6ebe 109f 1a18
000002c0: 98b6 803e 4035 4fbf 2aa8 fc3e 3efd 9dbe
000002d0: 8999 86be cf09 9598 ba37 41be 4ae7 5a3e
000002e0: 614c fd3d a6ac 67be daf5 013e 3491 7a19
000002f0: fd5c 2dbd 56c3 a13e 08b4 553e e000 af3d
00000300: 352f 6abe a900 ac98 4cb2 be3d 702c ccbe
00000310: 38cc 1e3f 5458 60be bac0 7d3e d8af d318
00000320: 03bd b43d 8a11 2dbe 26f6 f23e 4f5c 953e
00000330: d7bf d0bd e73b 5819 699e 673e 6e7d 37bf
00000340: ce27 063f 1a20 ddbc 568e 143f 5821 ff97
00000350: c059 e33d d307 673f 4333 463e d375 1c3f
00000360: 6ab6 1018 165c 8698 4392 0b18 6d1e ac17
00000370: 546c ac18 510a 6498 e632 9418 5c44 a518
00000380: 70b4 5c17 c2e1 c117 1f13 3a98 77ee 0917
00000390: b16a d898 7aae 4617 da04 a017 247e 3c19
000003a0: 0067 5998 00d0 4f16 0689 8a18 6298 aa18
000003b0: 08bd 8a18 30bc d096 d659 3298 54b1 bd96
000003c0: 9ed3 3918 e39a ca16 2e07 fa17 4ccc 0b99
000003d0: 200b 8717 e4e6 fb17 c007 b316 1959 9e98
000003e0: 3430 2d18 cc98 7398 50e4 b418 cc59 9e97
000003f0: 882d 1e18 83bc 3318 fdee af98 50a8 2796
0.41725317 -2.130526e-23 -0.031067422 0.83462703 -0.03974507 0.42801756 0.046883 8.086826e-25
0.07896252 -0.29622486 0.26024 0.1088372 0.12876669 -1.731448e-24 0.17313902 0.1381015
0.41274613 0.095762216 -0.41347897 8.529589e-24 0.20225367 -0.255855 0.27544558 -0.33826202
-0.23757385 -8.535569e-24 -0.17947906 -0.11419211 0.10186902 -0.19687602 -0.1930083 2.6441807e-23
-0.23492269 0.0062799416 0.06497079 -0.15855128 -0.18504903 1.0537812e-23 0.14417109 -0.39318824
0.27726838 -0.2821928 -0.047378257 1.823588e-23 0.024436882 -0.023921426 0.15149555 -0.04450101
-0.16455871 -7.445132e-24 -0.43583354 0.082188725 -1.0988767 -0.30909175 -0.12999557 -2.0875074e-23
0.33557373 -0.8488585 0.719859 0.10183273 -0.060056467 -1.0905141e-23 0.42926216 -0.34869164
0.812461 -0.16231495 0.12311257 2.3731112e-23 -0.13411267 0.28667808 0.4061934 0.16956823
0.37965924 1.4990973e-24 0.008764924 -0.06866978 0.20532328 0.51009434 -0.26418617 -2.7340223e-24
-0.5628973 -0.24749376 -1.1636125 -0.2385484 -0.88941187 -4.7613617e-24 0.059773084 -0.9053493
-0.6987472 -0.904741 0.72222114 -1.2113925e-23 -0.6941338 1.2990546 -1.8266939 0.7137281
0.28928417 8.370177e-24 0.19861342 -0.5873414 0.60639226 0.4707931 -0.6148377 -2.7571525e-24
0.12879607 -0.6989774 0.6048012 -0.42735285 -0.025168262 -3.2817004e-24 0.23783185 -0.4155941
0.6542601 -0.16250408 0.057866603 -2.7868807e-24 0.25411165 -0.5943833 0.7018993 0.07920714
1.0671338 7.394187e-24 -0.72561 1.4717537 -1.6828156 1.152972 -0.8982655 3.687257e-23
-0.034452297 -0.7445611 -0.9847391 -0.78749186 -0.64610004 1.0153417e-24 -0.5526601 -0.39383352
-1.302595 -0.60890347 0.27110296 -1.5751497e-23 0.052626442 0.13720272 0.18215555 0.14716375
-0.23500633 -3.2379616e-24 -0.091706 0.37489644 0.08594211 -0.3811151 -0.057713777 2.3767192e-24
0.29012278 -0.013295425 0.63936216 -0.24522012 0.027557865 1.6668457e-23 0.15275538 -0.6711682
0.6485291 0.2283759 -0.25447798 -9.475605e-24 -0.43969873 -0.11732827 -1.1959457 -0.19115658
0.41249993 -4.130374e-23 0.21590576 0.1015631 -0.048258904 0.50509197 -0.23326375 1.998434e-24
0.25139308 -0.8094063 0.4934705 -0.3085727 -0.26289013 -3.85255e-24 -0.18868914 0.21377292
0.12368084 -0.22624454 0.12691441 1.2954021e-23 -0.04232501 0.31594342 0.20869458 0.08545089
-0.2286957 -4.4461625e-24 0.09311351 -0.39877653 0.62030363 -0.21908695 0.2478055 5.471978e-24
0.088251136 -0.16901222 0.4745342 0.29171988 -0.101928405 1.11790355e-23 0.22619022 -0.71675766
0.5240449 -0.026992846 0.5802969 -1.6487406e-24 0.11101103 0.90246314 0.19355492 0.61117285
1.870366e-24 -3.473117e-24 1.8039172e-24 1.112292e-24 4.457034e-24 -2.9473518e-24 3.8308498e-24 4.2720526e-24
7.131358e-25 1.2529322e-24 -2.404959e-24 4.456807e-25 -5.5942422e-24 6.419747e-25 1.0340982e-24 9.744846e-24
-2.8098594e-24 1.678696e-25 3.5810522e-24 4.4097837e-24 3.5863037e-24 -3.3722975e-25 -2.3051316e-24 -3.0646507e-25
2.4017529e-24 3.2732607e-25 1.6157684e-24 -7.227389e-24 8.726979e-25 1.627878e-24 2.89239e-25 -4.093201e-24
2.2384062e-24 -3.1484157e-24 4.6759446e-24 -1.0233179e-24 2.0444009e-24 2.3230382e-24 -4.5477756e-24 -1.3543263e-25

act_fc1.bias f4 [64]
00000000: ec13 d2ba 55ea a0b2 00ca 7cbd fcd5 0cbe
00000010: 7ca1 04bb a076 96ba 73fa adbd 91bd c6bd
00000020: 2e93 99bd 722c ecbb 315c 973d 1772 d8ba
00000030: a786 51ba c3d6 32bc 4d4a dfbb 7533 eeb3
00000040: d6e4 a9bd 5f29 8ebd 60ac 6dbc 52f6 a3bc
00000050: c6d6 86bc f2e4 a7bb 52db 60bd 29d9 10bd
00000060: 3b9f 75ba b8b7 a1bb 9099 07be b1a4 cbbc
00000070: 267e 23b6 b798 43be 41b8 16be 8354 4abe
00000080: ee82 04bc aae3 48bb b52c 64bd 6f3d f6be
00000090: d62d 83bb 93e0 06bd ff17 febc 2758 bbbd
000000a0: 6b2d 70bd 198d 6fbb 0014 3cbd 023c 13b4
000000b0: 5e2f 3ab9 6c26 1abe 7431 8cbc bba8 43bc
000000c0: fbc1 93bc a4d1 8fbb 42e3 23bf 3bcc 9abc
000000d0: b080 8dbd c4c9 6cbe c049 aebc 1550 59bd
000000e0: 2c4c b6bb 049a 21bb 63cf 9cbd 2ae0 82ba
000000f0: 5268 f7bb 28f0 cebd 4800 29bc 37af 96bd
-0.0016027666 -1.8733013e-08 -0.06171608 -0.13753504 -0.0020237854 -0.0011479445 -0.08495035 -0.09704126
-0.074987754 -0.0072074467 0.07390631 -0.0016513494 -0.0007992782 -0.010915461 -0.0068142773 -1.10920986e-07
-0.082956 -0.06941485 -0.014506429 -0.020014916 -0.016459834 -0.005123728 -0.05489666 -0.03536335
-0.00093697355 -0.004935231 -0.13242173 -0.024858804 -2.436232e-06 -0.19101225 -0.14718725 -0.19758801
-0.008087857 -0.0030653276 -0.0557067 -0.48093745 -0.004003267 -0.032929014 -0.031017302 -0.09147673
-0.058637064 -0.0036552607 -0.04591751 -1.3712273e-07 -0.00017755988 -0.1505372 -0.017113425 -0.011942084
-0.018036833 -0.004389005 -0.6401864 -0.018896213 -0.06909311 -0.23123842 -0.021275401 -0.053054888
-0.0055632796 -0.002465845 -0.076567434 -0.0009985019 -0.0075502777 -0.101044 -0.010315008 -0.07357638

act_fc2.weight f4 [36, 64]
00000000: 8f15 3f3e 1eb4 049a fd1d 83a6 f4d8 28b8
00000010: bd78 f89c 6e11 c09a 7829 b99e 23ca abb5
00000020: e25f aab8 637f 95ab dc0c 56bf 7c91 1e9b
00000030: 59e4 701d 3df7 e331 9d83 c39e bf5c 1d18
00000040: 82c6 2cb4 a43c 28b5 0352 4ea8 d2bd 36b3
00000050: 96b6 84a5 0700 3e24 4538 aea3 cc07 0ab4
00000060: a3fd ab99 f1e0 a51a f864 35a9 58dc 4eb6
00000070: 8e49 b818 453e 74b6 6b73 062a 0824 65b4
00000080: fa35 f526 41b2 edaf 120a 81b1 2553 8cbf
00000090: cf67 bc27 6797 1a31 27e7 1eb7 0925 b79f
000000a0: c758 73b7 6878 6a1e b29e 341e 4d08 f699
000000b0: e97a d01c d5c1 9e31 ae70 47b3 a308 249a
000000c0: e170 c328 8494 471b 849b 85be ac20 c8b2
000000d0: cfa8 cfb0 f944 92b2 d37d dd23 bda3 f2b1
000000e0: 40be b322 2ae0 571c a8cc 9aaa 04b3 7b23
000000f0: 11b9 959d 4848 83aa 66b2 0ab3 ba89 e5b7
00000100: 59c2 41bf 688c 8318 ccbc 7c21 8f97 38ba
00000110: 014c 32a7 f5bf 109d 8800 ca22 e976 0f39
00000120: 8902 b5ba 44e8 131c 0284 e8bd c781 821b
00000130: f6fe ac9c 0705 55b9 126f ad9e f25d ca98
00000140: 0d2c 9437 b608 96b8 3bbe 6a37 9cf5 a7b9
00000150: e497 0c25 0eb0 db9b c747 2a3b 65d7 8c2c
00000160: 8cd6 3f9a 01b5 3a1f 3ecc 4ab9 1b7c 8fb4
00000170: 6b79 8d99 e0a3 4a3b 1ee0 ba3c 8dda 1ab9
00000180: bb0d b02b e92b 111d 5705 0037 bf2f 1cbf
00000190: e32c 491a 3da8 56ab c3d0 403a cdea ec21
000001a0: b792 4cb4 0da1 b8a1 343e cfa0 76fd 4118
000001b0: c6cb 20a1 f22b 8bae 095c 9f35 1e0e bf39
000001c0: 14f5 b026 eb54 011b bf26 15bf b243 a5ab
000001d0: df30 87af 8f55 f6b9 5344 25b3 6ef5 a03a
000001e0: 602a 231a afe9 999b d880 f0bc 2857 7c1b
000001f0: b124 0336 0170 dbb6 e59a 422f 45c9 15bb
00000200: 78dd 08bf 4605 5f98 7a65 71a0 0689 dfb6
00000210: ce4c 09b4 6848 7f21 26f5 a828 c44a f8b8
00000220: b717 df22 66a1 a5a3 0f33 a93f 3a1a 9e24
00000230: 9bca 51af 9f6d 0137 4e58 4628 207f 8d99
00000240: d340 5320 34ce ceba a85a b43a 335c dc3b
00000250: b9ec 1b33 d55c 359a 6c67 f424 c8e9 ad2e
00000260: a80d 8717 a4db 2f9b 9558 4bb8 ae14 dfb6
00000270: 63a4 d597 7646 c63b af8f 96b9 dd29 a038
00000280: ccfa a1b5 58bd 171d 01d3 77b7 b838 dbbd
00000290: 68f4 109b 5f45 6c34 f074 bcba a9a4 bf27
000002a0: 3454 a5b7 0ad4 4cae 700e 1d29 89a9 3199
000002b0: 346c e6b3 b4a2 12b8 69b3 953a 883c 2bb4
000002c0: 28e5 7db1 82de 039b a090 aebf 0685 e5b4
000002d0: 3aa0 9cb1 99ff 85b9 8f2b a9b5 2b16 d328
000002e0: 6cde ec20 1139 111c 8cd9 c638 8e77 9799
000002f0: 064d d8b4 41bc 9422 b618 38b4 9a4b 4ab6
00000300: 5e1b 893f de3e 8598 935a 061e 16c4 78b9
00000310: eec6 2c22 d0ef f9a0 aed7 30a7 3dbb 9030
00000320: 17d2 4a3b 12c4 491f 1cbe aa3e 9423 cf99
00000330: 12a0 9c9b 4435 53b7 ca66 d828 b2fd c097
00000340: c7fc b13b 8d4c 6c3a 63d3 60b5 4eab 98bb
00000350: 2310 efb0 6f18 8420 2f3e f8af 539d f3b2
00000360: 387d a11a ddd2 9c9d 6b14 a5b9 0640 acb6
00000370: dc39 7998 efd8 96b8 c512 453b 6c81 1cb7
00000380: 7c0b d5b1 bc4a 54ab f928 f2b5 32da f7be
00000390: 1491 95a0 250f 382a 0dee 2939 9b5e f022
000003a0: 6720 7336 127f 5d22 b7ff 8425 10f5 8516
000003b0: 835e 821a b8af 27bd 601e 42b7 a480 f135
000003c0: 8d34 b0af cf4a 8c1b e68e 34bf 35f7 85b4
000003d0: 768a 85b3 b061 93b8 bda9 3923 5925 38b0
000003e0: 0205 b424 089f da18 c7de cda8 d91b 2399
000003f0: f647 9234 b01d 38ba ae6d 80b4 eb69 c6ba
0.18660568 -2.7442458e-23 -9.098079e-16 -4.0256375e-05 -1.6442473e-21 -7.94375e-23 -1.9604788e-20 -1.2799322e-06
-8.124091e-05 -1.0622444e-12 -0.8361337 -1.3116462e-22 3.1881788e-21 6.6346773e-09 -2.0700862e-20 2.03386e-24
-1.6090965e-07 -6.267312e-07 -1.1453081e-14 -4.2547818e-08 -2.3022075e-16 4.1199706e-17 -1.8888949e-17 -1.2855088e-07
-1.7783429e-23 6.860581e-23 -4.027765e-14 -3.082465e-06 4.7637156e-24 -3.639508e-06 1.1941634e-13 -2.1340395e-07
1.701492e-15 -4.3236706e-10 -3.755539e-09 -1.0962874 5.229303e-15 2.2496012e-09 -9.471353e-06 -7.7564784e-20
-1.4504599e-05 1.2412756e-20 9.561938e-21 -2.5439156e-23 1.3796057e-21 4.6204414e-09 -4.643578e-08 -3.3921382e-23
2.1698302e-14 1.6508882e-22 -0.26095212 -2.3297922e-08 -1.510921e-09 -1.7028002e-08 2.4014157e-17 -7.061742e-09
4.8719482e-18 7.142726e-22 -2.7497904e-13 1.3644645e-17 -3.9631326e-21 -2.332043e-13 -3.229288e-08 -2.7363061e-05
-0.75687176 3.400448e-24 8.563079e-19 -0.0007041627 -2.4743664e-15 -1.915748e-21 5.4752772e-18 0.0001368184
-0.001380996 4.8938416e-22 -0.113533035 2.1590563e-22 -1.1447911e-21 -0.00020315136 -1.8363025e-20 -5.2310637e-24
1.7663488e-05 -7.15418e-05 1.3991778e-05 -0.00032035715 1.2194527e-16 -3.6344284e-22 0.0025982724 4.002953e-12
-3.9671184e-23 3.9536755e-20 -0.00019340307 -2.6726124e-07 -1.4628099e-23 0.003092043 0.022811946 -0.00014768001
1.2509363e-12 1.9213291e-21 7.630638e-06 -0.61010355 4.1602085e-23 -7.626155e-13 0.00073553267 1.6054133e-18
-1.9052355e-07 -1.2510955e-18 -3.5108327e-19 2.507263e-24 -5.44798e-19 -6.3287944e-11 1.1873209e-06 0.00036440877
1.2278882e-15 1.0698068e-22 -0.58262247 -1.1742744e-12 -2.4591082e-10 -0.00046984522 -3.8479197e-08 0.0012280175
3.374184e-23 -2.546274e-22 -0.029358312 2.0873113e-22 1.9541878e-06 -6.5397476e-06 1.7699227e-10 -0.0022855562
-0.53462934 -2.8824737e-24 -2.044707e-19 -6.6618695e-06 -1.278706e-07 8.649319e-19 1.8758063e-14 -0.00011839488
6.046938e-18 -1.795769e-17 1.3218707 6.856601e-17 -1.9080419e-10 7.714522e-06 1.1010356e-14 -1.4630404e-23
1.7893844e-19 -0.0015778006 0.0013759928 0.006724858 3.6304048e-08 -3.7504912e-23 1.05993336e-16 7.908657e-11
8.727618e-25 -1.454663e-22 -4.848147e-05 -6.6483253e-06 -1.3806299e-24 0.00605088 -0.00028717282 7.637192e-05
-1.2068426e-06 2.0082572e-21 -1.4771475e-05 -0.107041776 -1.1990373e-22 2.200445e-07 -0.0014378112 5.3191674e-15
-1.9708743e-05 -4.657256e-11 3.4873526e-14 -9.184923e-24 -1.07298916e-07 -3.496064e-05 0.0011421266 -1.5947637e-07
-3.6946606e-09 -1.0907962e-22 -1.3637886 -4.275136e-07 -4.558413e-09 -0.00025558172 -1.2604158e-06 2.343532e-14
4.0127142e-19 4.805023e-22 9.481897e-05 -1.5661322e-23 -4.0289177e-07 4.03148e-18 -1.7145325e-07 -3.0144352e-06
1.0711477 -3.4443174e-24 7.112631e-21 -0.00023724171 2.341566e-18 -4.2340935e-19 -2.4541827e-15 1.0530595e-09
0.0030947977 4.272559e-20 0.33348167 -2.1417668e-23 -2.5911478e-22 -1.2588982e-05 2.4025395e-14 -1.2471751e-24
0.0054317447 0.00090140925 -8.375411e-07 -0.004659093 -1.7394125e-09 2.2377839e-19 -4.515512e-10 -2.8360466e-08
6.679034e-23 -4.1510884e-21 -0.00031486465 -5.1334528e-06 -3.2211707e-24 -7.1929644e-05 0.0030071002 -9.328458e-06
-6.2004215e-09 -7.5421245e-13 -1.804233e-06 -0.48408657 -2.5337586e-19 1.6347737e-13 0.00016205777 6.5152298e-18
3.6228682e-06 3.0018355e-18 2.307163e-16 2.1641965e-25 5.391943e-23 -0.040939063 -1.1570373e-05 1.7993339e-06
-3.2051553e-10 2.32094e-22 -0.70530546 -2.4953047e-07 -6.218481e-08 -7.027702e-05 1.00648136e-17 -6.6991884e-10
7.807104e-17 5.651226e-24 -2.2856186e-14 -8.432526e-24 2.7246978e-07 -0.0007023467 -2.392166e-07 -0.0015137767

act_fc2.bias f4 [36]
00000000: d910 d0be 9993 6abd bb9b 943c 10af 5e3e
00000010: 26a3 62bc f082 dfbe f48b f1ba ca51 c43c
00000020: 8653 633e 52fb 673e b88e 633c a8dd 253c
00000030: d684 073e 9a6a 763e 31ce 42be 3591 6cbe
00000040: ceea 143e 2cee dd3d 8538 bd3c 2acf 6e3e
00000050: a58d 90be 5c2b 05be f6d3 7a3e 6b5d 823d
00000060: 5d79 cb3c 979e a43c 2b14 613e e250 5b3e
00000070: 7edb f73c 838a debd b487 b7be 61f7 a9bc
00000080: 8da2 153e f89b fd3d acbe fabd 27ee e7be
-0.40637854 -0.057269666 0.018140664 0.21746469 -0.013832843 -0.43654585 -0.001842855 0.023964781
0.2219983 0.22654465 0.013889007 0.010123648 0.13234267 0.24064103 -0.19023968 -0.23102267
0.14542696 0.10836443 0.02309824 0.23321214 -0.28233066 -0.13004822 0.24494919 0.06365474
0.024838144 0.020095153 0.2198035 0.21417573 0.03025603 -0.10866263 -0.3584572 -0.020747842
0.1461279 0.12383264 -0.12243399 -0.45298883

val_fc1.weight f4 [64, 216]
00000000: 46f5 bf3d b02a 259a 99ba f7bc b34b 513e
00000010: 3d84 163d 6713 da3d b3dd a93c 0858 891a
00000020: f0e7 15bd 7adc 4d3e 558b 413d 4375 18bd
00000030: 086f 7dbd 36c1 cd99 ea97 11bd 4b83 1f3d
00000040: 7cdd d5bd 7d81 fdbd 8e2d d6bd 2a70 ef9a
00000050: f266 0bbd bffd 46be cbaa f0bc 453c d8bd
00000060: 41ee b4bc bef1 c99a 52e6 babc 2fc6 dabc
00000070: 3bc4 083e a6fc a2bc 227f 1ebd 5416 c999
00000080: c0e2 6cbb 8e0d ecbd 8ba3 363e 1f7d 38bd
00000090: 0d53 663b 5a2f 9b9a fbca ffbc 034e 143e
000000a0: 9d14 f43d 6d0f 07bd cca7 16bc 0027 271b
000000b0: 4b85 1abc 80ba 863d fbb9 ddbd 4110 3fbd
000000c0: ec8a 62bd 5f2b b51a f504 1cbd c129 e13d
000000d0: 632a 45be 8014 573a 91a4 10bd ba24 0119
000000e0: 9b5f 36bc 071f be3d 2091 95bd 34ca 13bd
000000f0: ad3f 85bd 0472 4519 f70f 353d 305c 32be
00000100: 8ca0 9c3d c2d9 9ebd de03 87bc 358c 1e9a
00000110: 947e a93b 9e64 f9bc 04e1 7a3e 771b 89bc
00000120: d5b9 92bd 9432 ea98 4446 b3bc 6d33 09be
00000130: 4433 c7bd 6593 d4bd e4ce 23bd c587 971a
00000140: 593c fbbc 8a90 aa3d ba34 0fbe 2c2f d03c
00000150: 8820 343e f340 2e9b d071 c3bc dada 973e
00000160: d40e 8ebe c554 863e e9f6 e83d 5342 8019
00000170: 994f 9dbc c7a3 673e 4ead 83be 5c2d 663e
00000180: 3f2f 79bc 748b e719 9d94 d2bb 76e0 313c
00000190: 1f1b 17bd 765e ad3d 3870 90bd dc6b 6298
000001a0: 9a83 883c 6447 86be 8d33 0d3d cd6c cabd
000001b0: 5a1f 40bd 5271 449b 86bc 5d3b 69ed 29be
000001c0: dbfb 333d 893e 0abd 5f08 a4bd fe7d 929a
000001d0: 14ae f6bc c002 a83c f2f1 21be a2d8 12be
000001e0: 36b7 523e 6a7a 549a 1e68 05bd 5493 ba3e
000001f0: 57f4 8bbe 8176 bc3e e811 593e 701d 859b
00000200: 7976 cabc 7d84 b83e 8c09 8abe 8b85 dd3e
00000210: 031b 49bd cd50 1b9b 851c 89bc 2e29 b13d
00000220: 5172 57be d44c c33b 91c1 b1bd 71cb 481a
00000230: f2f7 21ba efb8 02be 2494 16bd c1f1 32be
00000240: b5d4 68bc 4231 261b ebac fbbb faf3 93bd
00000250: 65bb 563e 23da 78bc 68e1 7abc 0801 379a
00000260: 4ce4 093d 3425 24bd 262e a73b ed1f 3dbc
00000270: 8a83 00be c6fa 261a 2802 03bd b04c de3b
00000280: c517 28be cbd4 5abe a012 87bc 85fe 719b
00000290: b57a 06bd dd9a 5d3e 1a71 6abe 177f 9cbd
000002a0: f223 543d 2055 b797 da24 a93c 9440 043e
000002b0: f699 6abd 6f18 0e3e 4c7b 193d ae5b 9b99
000002c0: cbc6 9fbc 8704 c83d 9c99 e13d 5c2e c8bd
000002d0: 451d 17bc 775d ce9a aa9a f73b 48b7 92bd
000002e0: b157 383e 1bd8 803c 578f fdbc 00b0 6b1a
000002f0: 6fce 49bb 1af4 2cbe f70f 5f3e f800 7ebd
00000300: 2faa f2bd 5700 461a f0e9 b5bb 9380 56be
00000310: 8112 c1bd 4b0f 4abe 389b f1bd 7a8a 4c1a
00000320: 92b2 14bc bdcb 27be 904e 54bd 9617 8cbe
00000330: c179 cb3d 7821 9319 a7ea febc 96ec 0f3e
00000340: c5d5 cf3d 81b4 603d 8ad6 e33d d3fd 189a
00000350: 6388 85bc 5bf6 d33d 613f e53d af33 523e
00000360: 2110 e198 b58e d916 dbf2 0b99 e216 ae98
00000370: e898 b818 2c7d 8618 d683 ba17 e08a fb96
00000380: f367 8797 fa3e d9b3 70a8 ca98 8a27 8a97
00000390: e0e0 f215 340b 9398 72a6 a398 40bd 1015
000003a0: 03b6 9c18 f8be 6f18 cfdc 9a17 d682 6b17
000003b0: 607b 6a18 1479 6918 1df2 6018 aec6 c317
000003c0: d641 5198 9ce6 1d18 62e4 1e19 ae53 6998
000003d0: 1d26 8e18 721a eb97 510b 1018 da6a 0398
000003e0: 261e ac98 a44c 8d96 6c69 a098 5be2 5718
000003f0: 40cb f497 9e70 1818 3888 4218 45e2 4d97
0.09372954 -3.4155683e-23 -0.030240344 0.20439033 0.036747206 0.10648232 0.020735597 5.6804094e-23
-0.036598146 0.20103636 0.047252018 -0.037221204 -0.061873466 -2.127454e-23 -0.035545267 0.03894357
-0.104426354 -0.123782136 -0.104579076 -9.9029294e-23 -0.034033723 -0.19432734 -0.029378315 -0.105583705
-0.022086265 -8.352221e-23 -0.022814903 -0.02670583 0.13356106 -0.019895863 -0.038695462 -2.0791931e-23
-0.0036145896 -0.11526023 0.17835824 -0.0450412 0.0035144717 -6.4183e-23 -0.031224718 0.14482884
0.11917994 -0.032973696 -0.009195279 1.3826518e-22 -0.009431194 0.06578541 -0.108264886 -0.04664636
-0.055308267 7.4929915e-23 -0.038090665 0.10994292 -0.1925445 0.0008204654 -0.035313193 6.6765606e-24
-0.011131193 0.09283262 -0.07303071 -0.036081508 -0.06506286 1.02076866e-23 0.04420468 -0.17417979
0.076478094 -0.07756378 -0.016481336 -3.2786893e-23 0.00517256 -0.030443486 0.24499899 -0.01673673
-0.07164351 -6.0538653e-24 -0.021884091 -0.13398524 -0.09726575 -0.10379676 -0.03999223 6.2671484e-23
-0.030668424 0.0832835 -0.13984957 0.025413118 0.17590535 -1.4413929e-22 -0.023857981 0.29659158
-0.27745688 0.2623655 0.113752194 1.3261678e-23 -0.019202994 0.2262107 -0.25718158 0.2247824
-0.015209018 2.3941165e-23 -0.0064264075 0.010856738 -0.0368911 0.084652826 -0.07052654 -2.926427e-24
0.016664315 -0.26226342 0.03447299 -0.09884033 -0.0469049 -1.6249356e-22 0.0033834293 -0.16594471
0.04394136 -0.033751044 -0.08009409 -6.0587736e-23 -0.030112304 0.020509124 -0.15814951 -0.14340451
0.20577702 -4.3939458e-23 -0.032569997 0.36440527 -0.27334854 0.3680916 0.21198237 -2.2022028e-22
-0.024714695 0.3603858 -0.2696041 0.43265948 -0.049098026 -1.2847408e-22 -0.016737232 0.086504325
-0.21039702 0.0059600864 -0.08679498 4.152337e-23 -0.00061786093 -0.12765859 -0.03676237 -0.17475034
-0.01421087 1.3747114e-22 -0.0076805255 -0.07224269 0.20969923 -0.015188727 -0.01531253 -3.7844346e-23
0.033664986 -0.040074542 0.005101937 -0.011543256 -0.12550178 3.453057e-23 -0.03198448 0.006784044
-0.16415317 -0.21370237 -0.016488373 -2.0017292e-22 -0.032831866 0.21641107 -0.22894707 -0.07641428
0.051792093 -1.1847586e-24 0.020647455 0.1291526 -0.057275735 0.13876508 0.0374711 -1.6063653e-23
-0.019503972 0.097664885 0.11015627 -0.09774467 -0.009223287 -8.5350604e-23 0.007556279 -0.071638644
0.18002202 0.015728047 -0.030952139 4.8739033e-23 -0.003079321 -0.16889992 0.21783434 -0.062012643
-0.11848866 4.0945715e-23 -0.005551569 -0.20947485 -0.094273575 -0.19732396 -0.11797184 4.2298072e-23
-0.009075778 -0.16386314 -0.051832736 -0.27361745 0.09935332 1.5212962e-23 -0.03111775 0.14055094
0.10148195 0.054859642 0.111249045 -3.16379e-23 -0.016300386 0.10349723 0.11193729 0.20527528
-5.8177423e-24 3.5148302e-25 -7.235176e-24 -4.500105e-24 4.771728e-24 3.476458e-24 1.2053248e-24 -4.063888e-25
-8.750411e-25 -1.0116305e-07 -5.2385855e-24 -8.928022e-25 9.809781e-26 -3.800992e-24 -4.230258e-24 2.922986e-26
4.050884e-24 3.098644e-24 1.0007757e-24 7.6097733e-25 3.030608e-24 3.0175673e-24 2.9073557e-24 1.2651733e-24
-2.7045856e-24 2.0408202e-24 8.21453e-24 -3.0156792e-24 3.6744624e-24 -1.5193195e-24 1.8617277e-24 -1.69853e-24
-4.44914e-24 -2.2828146e-25 -4.146548e-24 2.7902379e-24 -1.5819438e-24 1.9702397e-24 2.5142685e-24 -6.6524665e-25

val_fc1.bias f4 [64]
00000000: 959a ba3c 6019 4cbb 0091 b7bb e7b2 363c
00000010: 465e 843c 2e87 32bd 64fc 8ebe 7d95 55b9
00000020: e34b bc3c 7ed2 36be f3bf 39bd 7e33 58bd
00000030: 811c cdbd 89bd 31be 136b 72ba fe61 8fbc
00000040: cdad 58bc 61fb 34be 3713 aebd 7b37 a5be
00000050: 9408 77bc 7dd2 1ebe 797f 623d a4b0 adb9
00000060: ff7e 29be 4620 1abe ad16 aabc a2a8 50bd
00000070: 40e6 9fbc 2e85 9dbc 7cf7 063f b747 92bc
00000080: 7cb3 cbbb 32ee 16bc d1d6 4ebe b2a2 21b2
00000090: d2fa 2abd 4703 37be 3585 0fbe dba0 9ab4
000000a0: 7df8 82b8 3d51 2fbe 0baf 8abd bcd6 37be
000000b0: f237 9abd e436 0a3d 855a 9cb4 fe53 52be
000000c0: 144c 0cbe 74d3 f3bb eb99 44be 4b24 31bc
000000d0: 355b 35be a596 533d 4818 2bbe ab85 31be
000000e0: dffa 39bc 6d13 40be f478 e3bc 39be 28bd
000000f0: 86b0 1cba 38b5 afbb e98e 25ba d1c4 11be
0.022778789 -0.0031143054 -0.005602002 0.011151052 0.016158234 -0.04358595 -0.27926934 -0.00020368952
0.022985404 -0.17853734 -0.045349073 -0.05278348 -0.10015202 -0.17357458 -0.00092475227 -0.017502781
-0.013225031 -0.17674018 -0.08499759 -0.3226889 -0.015077729 -0.15509982 0.05529735 -0.0003312874
-0.16552351 -0.15051374 -0.020762766 -0.05094207 -0.019518971 -0.019228544 0.5272138 -0.017856462
-0.0062164646 -0.009212064 -0.20199133 -9.408426e-09 -0.041743107 -0.17872344 -0.14015658 -2.8801773e-07
-6.2451676e-05 -0.17120834 -0.06771668 -0.17953008 -0.07530202 0.033743754 -2.9123126e-07 -0.20539853
-0.13700897 -0.0074409787 -0.1919934 -0.010811876 -0.17710574 0.051657338 -0.16708481 -0.17336147
-0.011351316 -0.1875741 -0.027767636 -0.041197035 -0.0005977232 -0.005362179 -0.0006315546 -0.14235236

val_fc2.weight f4 [1, 64]
00000000: 8a2e d83d 2b15 d698 594e 8499 e2cf fcba
00000010: bd03 e6bc aebc 883c 03b7 143f a096 2119
00000020: b63b 463d 3664 5abe cc86 bfbc 1b07 f03b
00000030: f8d7 3baa 6954 6ebe d1b2 271a 75e0 3bbd
00000040: c9d6 e6bc ecf3 14be a3bf 29be 8a0b 00be
00000050: 63da d33c 1fa0 2bbe 980e 31bd 24bb 16bc
00000060: 8208 2ebe 6978 19be a65c 49bd 5228 843c
00000070: a4e1 46bd f7e2 f4bb 949e 6fbf a51c 063c
00000080: 9d80 8c19 dfd8 d63c 99d9 95be 3009 c817
00000090: fdb3 ffba 9247 4abe d387 043e 0cc3 1e98
000000a0: 7bb5 a21c 81ee 5cbe 16ac 863c bf86 76be
000000b0: 5693 3e35 ddee a83d 1a22 2718 4247 83be
000000c0: fc87 d3bd 875b 013d 632c 55be d552 9119
000000d0: c00e 68be fc9c e8bc 0f61 94bd c1fd 5cbe
000000e0: 0402 e33c 05df 82be 90c9 3f3e 353c 1c3a
000000f0: e043 6f19 1e2b c03c 8327 2599 a8b1 2ebe
0.105557516 -5.5339078e-24 -1.3680124e-23 -0.0019288028 -0.028077954 0.016691532 0.58091754 8.353923e-24
0.04839679 -0.2132729 -0.023379706 0.007325066 -1.6683866e-13 -0.23274387 3.4679237e-23 -0.045868356
-0.02817859 -0.14546174 -0.1657701 -0.12504402 0.02586097 -0.167603 -0.04322681 -0.009199891
-0.16995433 -0.14987339 -0.049160622 0.016132507 -0.04855503 -0.0074733454 -0.93601346 0.00818554
1.4527607e-23 0.02622646 -0.29267576 1.2927016e-24 -0.0019508597 -0.19753864 0.12942438 -2.0519495e-24
1.0767172e-21 -0.21575357 0.016439479 -0.24074839 7.099492e-07 0.082486846 2.1601461e-24 -0.25640303
-0.10328671 0.031581428 -0.20817713 1.5026104e-23 -0.22661877 -0.028395168 -0.07245075 -0.21581174
0.027710922 -0.25560775 0.18729234 0.0005959899 1.2369718e-23 0.02345806 -8.5382794e-24 -0.17059958
