AlphaZero_Gomoku/model/gnn/epoch_50.model (torch, 124420 bytes, 10 tensors)

layers.0.lin.weight f4 [6, 4]
000000 f3 ef 63 bf 33 69 89 3e e5 32 30 3f 7f 66 f4 3d
       -0.8903801 0.26838073 0.6882766 0.11933612
000010 2d af 37 3f a4 c3 0b 3e 55 73 13 be 23 3c e0 3e
       0.7175167 0.1364885 -0.14399464 0.4379588
000020 13 76 3e 3d f4 0e 22 3f 0c 18 21 3e 9a 11 fe be
       0.046499323 0.63304067 0.1573183 -0.49622804
000030 0e 5e 81 bd 55 43 15 3f 75 59 42 bf 46 7b 7f 3e
       -0.06316768 0.58305866 -0.7591775 0.24949369
000040 16 5d b2 be e6 00 09 bf 83 69 ef 3e 31 6c 9f 3e
       -0.34836644 -0.53516996 0.46760187 0.3113723
000050 72 04 97 be 1e 5e 42 bd 02 ef 6b 3d 0f 22 51 bd
       -0.2949558 -0.04745304 0.057600982 -0.05105787

layers.1.lin.weight f4 [6, 6]
000000 fb f3 14 3d 06 61 54 be bd ff 68 3d ea 04 08 3d
       0.03636549 -0.20740137 0.056884516 0.03320781
000010 44 65 26 b6 15 c9 99 bd c4 28 23 be 2d 77 95 be
       -2.4794872e-06 -0.075090565 -0.1593352 -0.29192486
000020 6a 98 d5 3d df d3 ce bd c0 36 01 31 fd 85 df bb
       0.10429461 -0.10099005 1.8803092e-09 -0.0068213926
000030 e5 e6 8a bc 94 b4 05 bd e3 fc ef bd 9b e1 a0 bd
       -0.016955802 -0.032642916 -0.11718156 -0.07855531
000040 2a b2 5c b5 5e e8 7b 34 51 b8 9e 3c 9e 83 1c be
       -8.221565e-07 2.3460731e-07 0.019374998 -0.15284583
000050 92 ed 74 bd 4c bf 37 be 2e d7 01 36 95 52 9d b5
       -0.059796877 -0.17944068 1.934775e-06 -1.1721446e-06
000060 ee 06 8b 3e fa 9a b8 3c 75 1a e0 3e 54 56 6c 3e
       0.27153724 0.022534836 0.43770185 0.23079807
000070 77 19 11 3f ca 6a 9f 3c d2 c0 5b bf c0 89 9f 3e
       0.5667948 0.0194601 -0.85841095 0.31159782
000080 16 e9 82 be b3 ef 1f 3e d5 04 e0 be 60 ba 9a 3c
       -0.25568455 0.15618782 -0.43753687 0.018887699

layers.2.lin.weight f4 [6, 6]
000000 85 8f 19 be 22 e6 37 b9 c8 a3 5c b6 36 d5 13 36
       -0.14996155 -0.00017537971 -3.2877888e-06 2.2028812e-06
000010 be 67 de bd 59 a5 c8 3e 7e cf 88 be ba 5e fd b5
       -0.10859631 0.3918865 -0.26720804 -1.8877538e-06
000020 30 80 4b b4 a6 4b 79 36 e9 3d 21 bc da 50 d4 bd
       -1.8952483e-07 3.7147925e-06 -0.009841421 -0.10366984
000030 bb 61 b0 bc 41 ca dd 3b 80 6f fe bd 02 df 99 bd
       -0.021530977 0.0067684953 -0.12423611 -0.075132385
000040 b9 fd c7 3d a6 f6 79 bd f9 dc 23 be 0a 46 06 b4
       0.09765191 -0.061026238 -0.16002263 -1.2505203e-07
000050 95 22 ba b4 83 ab 24 b6 34 46 8c be 8e 2e 00 3f
       -3.4670362e-07 -2.4537737e-06 -0.2739731 0.50071037
000060 9a 31 9a bc 40 49 0f bc 63 fb f8 bc 4c 38 87 3d
       -0.01882248 -0.0087454915 -0.030393308 0.06602535
000070 8a 4a e9 3e 4d 5e 87 be 31 de 52 be 86 fa 8d b6
       0.4556468 -0.26439133 -0.20592572 -4.231292e-06
000080 03 03 69 37 53 5f 61 b7 00 dc 63 be ef a1 50 3d
       1.3888583e-05 -1.34332395e-05 -0.22251892 0.050935682

act_fc1.weight f4 [64, 216]
000000 7c 72 9b 3d 7d 31 d0 35 b8 cd 28 bd 3e 36 ad 3d
       0.075901955 1.5511611e-06 -0.041211814 0.084576115
000010 45 71 88 bd 7f 11 bd ba a8 c1 49 3e 18 94 72 34
       -0.066622294 -0.001442477 0.1970278 2.2591882e-07
000020 f3 17 93 bd f7 06 72 3e e3 de 26 be 94 88 c8 3b
       -0.07182302 0.2363547 -0.16295962 0.006119797
000030 39 d9 30 3e 21 bc 4d b5 06 25 62 bd d0 00 56 3e
       0.17270364 -7.6642215e-07 -0.05521109 0.20898747
000040 57 68 de bd e6 a6 31 3c 31 17 06 3e cc ad 8a 35
       -0.10859745 0.010843014 0.13094784 1.0332383e-06
000050 1a 58 8b bd a6 c6 09 3e f4 d0 ee bd da 98 0c 3c
       -0.068039134 0.13454685 -0.116609484 0.0085813645
000060 dc 97 a5 3d 0e cc 70 b5 e5 f4 a1 bd d8 69 78 3d
       0.080856055 -8.9703906e-07 -0.07908038 0.060647815
000070 81 c7 0e be 7b c6 c4 3b 14 2d 64 bd 57 d4 ee b5
       -0.13943292 0.006005106 -0.055707052 -1.7794181e-06
000080 53 34 91 bd 6b b7 2e be a2 74 03 be 85 5d 0f bb
       -0.07090058 -0.17062156 -0.1283746 -0.002187581
000090 57 a8 49 3e d5 f9 cf 34 eb 85 be bd e4 10 84 3e
       0.19693123 3.873853e-07 -0.093028866 0.25794137
0000a0 b3 08 5d be 66 1c d6 3b 1c 0d 23 3e f8 af 68 35
       -0.2158535 0.006534147 0.1592297 8.6682803e-07
0000b0 b2 b1 a6 bd 65 b0 48 3e a0 b8 17 be 2f 3f ad 3c
       -0.081393614 0.19598539 -0.14816523 0.021148292
0000c0 fe 83 8b 3e 1f 23 a8 34 8f 72 98 bd dd d1 b3 3e
       0.2724914 3.1317992e-07 -0.07443725 0.3512105
0000d0 9b 5f 27 be c4 d2 9d 3c cd 2e 17 3e 76 0d 3c 36
       -0.16345064 0.01926554 0.14763947 2.8022018e-06
0000e0 08 27 59 bd f9 2a 51 3e d1 90 f7 bd 58 fb 6e 3c
       -0.05301574 0.20426549 -0.120881684 0.014586292
0000f0 ca f1 f7 3d 1a 96 02 b4 63 17 8b bd 80 a0 de 3d
       0.121066645 -1.21618e-07 -0.0679157 0.10870457
000100 6a 69 1e be 48 cf 9f 3b 8e aa 06 3d 2f c8 1d b5
       -0.154699 0.004877005 0.032877497 -5.8778363e-07
000110 f2 c7 bc bd a4 d8 01 3c c4 f2 1d be d3 78 e2 3b
       -0.09217824 0.007925186 -0.15424639 0.006911376
000120 b8 f1 23 bc 96 d6 2c 34 51 f1 63 bd ac 4a e0 bc
       -0.010006361 1.6096814e-07 -0.05565006 -0.027379356
000130 ef 98 8c bc c3 78 c7 3b ac 02 83 3e 2a 6e 51 b4
       -0.017162768 0.006087394 0.25587976 -1.9504719e-07
000140 72 98 f2 bd f6 ea ac 3e 0d 1e 91 be e3 9c c6 3c
       -0.11845483 0.3377301 -0.2834324 0.024244731
000150 ae 18 1f 3d bc cb 5d 34 45 9d 20 bd 0c 38 11 3d
       0.038841896 2.0656347e-07 -0.039212484 0.03545384
000160 0b 93 38 bd e7 e2 2c 3c 55 f0 7a 3e 12 88 79 b5
       -0.045062106 0.010552145 0.24505742 -9.2957737e-07
000170 2a 05 8f bd 71 e1 ae 3e 96 29 50 be 07 fd a1 3c
       -0.06983407 0.34156373 -0.20328364 0.019773973
000180 56 9a c7 3d f4 10 b1 b5 f1 e5 95 bd ba cc fc 3d
       0.09746234 -1.3192462e-06 -0.073192485 0.12343736
000190 d5 ee 18 be 17 3a 62 3c 9e 88 b8 3d ec bb 51 35
       -0.14934857 0.013807795 0.09010433 7.813203e-07
0001a0 87 85 97 bd 35 b6 9c 3d 39 28 31 be 1b b1 d5 39
       -0.07398515 0.07651941 -0.173005 0.0004075848
0001b0 af 06 c0 3d 1c d6 21 b4 a2 b7 01 be ab 5a d2 3d
       0.09376275 -1.5072186e-07 -0.12667707 0.102712
0001c0 6b 8e 8f be 5a 95 9c 3b 7b ee 0e be 0e 96 bc 35
       -0.28038344 0.0047785463 -0.1395816 1.4050763e-06
0001d0 97 58 0a bd 5b 1e 64 be f9 81 66 bc 77 90 c5 bb
       -0.033775892 -0.22277205 -0.014069074 -0.0060291844
0001e0 28 1f 39 3e 3c 6d d9 34 53 7e be bd 70 25 78 3e
       0.18078291 4.0498878e-07 -0.09301438 0.24233031
0001f0 4b cc 6d be 3c c0 9a 3c 44 44 8c bd be 4e fe b5
       -0.23222463 0.018890493 -0.06848958 -1.8947392e-06
000200 af fe c7 bc 16 a4 f4 bd d1 a0 2d bd 86 7f 32 3b
       -0.024413435 -0.119453594 -0.042389695 0.0027236654
000210 26 74 15 3e 9f aa 22 35 76 fb b3 bd 84 56 48 3e
       0.14595088 6.059799e-07 -0.08788197 0.19564253
000220 f3 42 58 be 12 d3 23 3c 6d 4a ea 3d 36 76 9a b5
       -0.21119289 0.009999054 0.11439977 -1.1508298e-06
000230 46 3a c9 bd e2 36 26 3e c1 33 80 be 09 25 cb 3b
       -0.09825568 0.16231874 -0.25039485 0.0061994833
000240 d2 61 34 be 62 f3 3c 36 d1 c4 20 bd 53 b5 89 be
       -0.1761544 2.815585e-06 -0.0392502 -0.26896152
000250 42 5d 8f bc c3 91 cb bb 27 51 65 3d 44 18 2c 34
       -0.017500523 -0.0062124445 0.055985596 1.6027576e-07
000260 e9 a4 fb bd a6 d7 92 3d 6c 4d 87 be a4 6f 3e 3b
       -0.122873135 0.07170038 -0.26426256 0.0029058242
000270 30 ea 67 be 75 44 ed b5 0b 02 c7 3b 09 a9 a4 be
       -0.22647929 -1.76778e-06 0.0060732416 -0.32160214
000280 e5 67 b5 3d 82 49 04 bc 9d 81 f8 3d 7a a5 cc b5
       0.08857707 -0.008074166 0.12134097 -1.5247344e-06
000290 fd af c8 bd 8b 34 37 3e 90 21 4c be 42 cc 5e 3c
       -0.09799192 0.17891137 -0.19934678 0.013598504
0002a0 50 fa 55 3c 33 19 cd b5 f8 17 a5 bd 9e 90 3a 3c
       0.013060167 -1.5281024e-06 -0.08061212 0.0113870185
0002b0 64 33 35 be 30 44 d5 3a 33 90 02 3e e9 4c ad 34
       -0.17695385 0.0016270932 0.1275032 3.227972e-07
0002c0 9a 2a 09 be 8a c7 06 3e 7a 2b 89 be 09 4b 8c 3b
       -0.13395157 0.13162056 -0.26790982 0.004281406
0002d0 24 d0 73 ba 26 2c 8a 35 6c 74 cb bd b3 22 91 bc
       -0.000930073 1.029465e-06 -0.09934315 -0.017716741
0002e0 44 74 61 be 1e f0 02 bb 24 ed 3e be 2e 18 65 b5
       -0.22017008 -0.0019979547 -0.1864515 -8.5344334e-07
0002f0 e4 c7 84 bc 5a c3 84 be 38 18 50 3d 77 9b 75 bb
       -0.016208597 -0.2593029 0.050804347 -0.0037476697
000300 e0 65 8e 3d ec d3 1b b4 ea a8 b7 bd 21 69 d8 3d
       0.06953025 -1.4512597e-07 -0.08967765 0.10566927
000310 dd 76 2d be b8 b2 00 3b c0 fd f2 bd dc 21 20 b5
       -0.16939874 0.0019637775 -0.11864805 -5.9653917e-07
000320 12 24 ef bc 79 60 24 be ec 3d 8f 3b a8 97 54 3a
       -0.029192004 -0.16052426 0.0043713953 0.0008109757
000330 33 ae fd 3d 92 01 92 35 a0 85 0e be 61 4d 1b 3e
       0.123867415 1.0878305e-06 -0.13918161 0.15166236
000340 27 1d 85 be 26 34 dd 3b c7 f8 aa 3d b6 1d 54 34
       -0.25998804 0.0067506013 0.08348232 1.9754847e-07
000350 34 76 e0 bd 70 63 d7 3d a7 d7 7f be e3 9a 5b 3a
       -0.109600455 0.10517013 -0.24984609 0.0008377267
000360 21 bf 41 34 bb 39 57 34 7d c3 4c b4 0c 3e 79 b3
       1.8044058e-07 2.0044438e-07 -1.9070099e-07 -5.803126e-08
000370 f4 9e 42 b3 43 05 99 34 ba b4 ec 33 5d 31 b2 34
       -4.5313712e-08 2.85023e-07 1.102248e-07 3.3191e-07
000380 b6 f6 b6 b3 88 08 d6 b2 d4 d1 85 34 71 51 8b 33
       -8.519912e-08 -2.4916758e-08 2.492585e-07 6.487506e-08
000390 9c 36 c2 b4 aa b0 ad 33 cf 78 b4 34 e8 f6 17 35
       -3.617505e-07 8.088075e-08 3.3615513e-07 5.661118e-07
0003a0 5f ee d6 34 7c 5f 86 33 a6 16 89 34 78 92 be 33
       4.0034044e-07 6.25723e-08 2.5534717e-07 8.874207e-08
0003b0 4a 36 bc 34 f1 72 af 34 bd e5 09 b5 e0 99 9e 32
       3.505723e-07 3.267992e-07 -5.137079e-07 1.8463595e-08
0003c0 0e 38 0f 35 ad 05 95 33 50 42 57 b4 ca 5f fe b4
       5.335322e-07 6.9393856e-08 -2.004756e-07 -4.7380883e-07
0003d0 e1 9e 78 b4 56 fc cd b3 32 a1 5b 34 14 5f cd b3
       -2.31546e-07 -9.591956e-08 2.0454607e-07 -9.563351e-08
0003e0 b6 28 8a 33 80 70 bf 34 8b 38 3b b5 40 b7 6f 34
       6.433531e-08 3.5658377e-07 -6.974521e-07 2.2325275e-07
0003f0 13 57 2f 34 1c 20 a3 b4 95 3d 26 b4 e6 1d 11 35
       1.6329822e-07 -3.0384479e-07 -1.5482358e-07 5.406022e-07

act_fc1.bias f4 [64]
000000 22 d1 4d be 03 b8 94 bc 87 5e 2e be a5 7c 70 b8
       -0.20099309 -0.01815415 -0.17028247 -5.7336543e-05
000010 8b 58 cb bc 18 3e d3 bc 02 3e 45 be 8e 79 16 be
       -0.024822494 -0.025786445 -0.19261935 -0.14694807
000020 7f 2c 5c be d8 3a 09 be ae 06 5d bd 1e 74 97 bd
       -0.21501349 -0.13401353 -0.05396145 -0.073951945
000030 5c 2d 0c bd 4e 72 8a bd c9 8c ab bd aa 92 0c bc
       -0.034222946 -0.06760083 -0.08376462 -0.008579889
000040 da fd 72 be ef 5d f0 bd b8 c5 79 bd 78 80 ef bd
       -0.23729649 -0.117366664 -0.060979575 -0.11694425
000050 d2 d8 56 bd 5f 63 1e bd 78 f5 0d be 1e e5 1e be
       -0.05245287 -0.038668986 -0.1386317 -0.15517089
000060 fb f3 8a bc b5 ba ab bd 21 6c 80 be 09 74 c6 bd
       -0.016962042 -0.08385221 -0.25082496 -0.09690101
000070 7a d2 1f bb 34 0d 55 34 e2 f8 89 b8 7a fe 89 be
       -0.0024386928 1.9841974e-07 -6.579027e-05 -0.26951963
000080 3f 34 ae bc a4 c9 98 bd 7a e3 ef bd d3 94 03 be
       -0.021265147 -0.07460335 -0.117133096 -0.1284974
000090 f3 8e 86 bd ae ab 12 be 3b 0e 78 bd e2 81 3c be
       -0.06570234 -0.14323303 -0.060560446 -0.18408921
0000a0 76 19 0c be 2e e8 9c bd a1 d9 15 be 6b 25 cf ba
       -0.13681588 -0.07661472 -0.146338 -0.0015803998
0000b0 d8 67 46 bc e9 c8 cf 3d 35 1a 11 bd 94 42 0f be
       -0.012109719 0.101457424 -0.035425384 -0.13990241
0000c0 7d c2 ac bd ff 79 98 bd 7d 26 2a be a7 21 9f bd
       -0.08435533 -0.07445144 -0.16616245 -0.077700906
0000d0 c7 35 1b be c5 07 9d be 9a 64 5e bd 18 a6 d7 b9
       -0.15157233 -0.3066999 -0.05429516 -0.00041131745
0000e0 93 d5 7e bd ff 7a 94 bd 56 d1 3c ba f0 8b 45 bc
       -0.0622154 -0.07250022 -0.00072028243 -0.0120572895
0000f0 4d ed c1 bd ed b1 88 be ef 6e 0d bd 8f fd 29 be
       -0.0946909 -0.26698247 -0.034529623 -0.16600631

act_fc2.weight f4 [36, 64]
000000 64 3b cd be 55 2f b2 35 5b 85 05 bc 0f 16 95 35
       -0.40084374 1.3275809e-06 -0.00814947 1.1107785e-06
000010 65 d6 d6 37 48 49 3c 35 3c ca ac ba d0 ee a8 be
       2.5610623e-05 7.0142096e-07 -0.0013182829 -0.329947
000020 5f 56 2b be b6 b0 26 bc ca 25 cd be af 24 76 b7
       -0.16732167 -0.010173967 -0.40067893 -1.4671284e-05
000030 fe 85 c6 b8 8a 87 e6 3b dd 0c 9c ba 2d 91 bc b4
       -9.466334e-05 0.0070352005 -0.0011905689 -3.5123358e-07
000040 cd e5 ba bd ca d1 2a be 31 e9 b6 3c b8 2e 0a be
       -0.09125862 -0.1668159 0.022327991 -0.13494384
000050 63 f6 bb bb a5 dc 82 bb be 97 22 be e4 15 75 bd
       -0.0057361587 -0.003993588 -0.15878198 -0.05983533
000060 fc cc 02 b6 6f 82 9d 37 95 e2 cf bd 1d f3 d1 bd
       -1.9490826e-06 1.8776596e-05 -0.10150639 -0.10251448
000070 5d 3e 42 35 48 f4 08 b4 29 03 6c 34 40 ef 2c be
       7.236138e-07 -1.2754856e-07 2.1980362e-07 -0.16888142
000080 1b e8 ba bc a3 00 5d bc 14 e1 a8 bd a0 59 1e bf
       -0.022815755 -0.013488921 -0.08246055 -0.61855507
000090 23 8f 96 bb 6c 91 ae 3b ff ae 4d be ec 4f 7a bb
       -0.0045947 0.005327394 -0.20086287 -0.003819461
0000a0 43 8d c7 bd ee 31 45 bb 94 a9 95 b9 22 60 85 b5
       -0.097437404 -0.0030089575 -0.0002854584 -9.93725e-07
0000b0 73 b9 c3 b9 e2 9a 2a bd 26 9d 89 bd 10 6e 0e b7
       -0.0003733147 -0.041651614 -0.06719427 -8.4894855e-06
0000c0 71 1d c0 bc ba 20 93 36 b2 40 07 be 16 e2 90 bc
       -0.023451539 4.3847513e-06 -0.13208273 -0.017685931
0000d0 a5 c2 91 bd 4e 43 b1 bd fd e9 9c bc 9a 7a 08 be
       -0.071172036 -0.086554155 -0.019154543 -0.13328019
0000e0 78 55 8b bb 41 d8 75 b8 73 ef 17 34 88 3d 75 bb
       -0.004252132 -5.8613954e-05 1.4150082e-07 -0.0037420709
0000f0 bc 7c f5 38 c2 3b d2 bd fb 07 12 bd 8c fc 5d be
       0.00011705744 -0.10265304 -0.035652142 -0.2167837
000100 5a 58 25 bf 23 f4 c2 b4 b7 a5 95 bb f1 5a d5 34
       -0.6458794 -3.631295e-07 -0.004566874 3.974051e-07
000110 72 41 d6 bc 28 eb e0 39 34 f0 87 ba c6 24 f7 3b
       -0.026154254 0.00042899814 -0.0010371269 0.0075422255
000120 1e 45 f0 bc ca 2f ff 38 74 aa 2b be db e7 78 b6
       -0.029329833 0.00012168249 -0.16764241 -3.7089837e-06
000130 b3 0b a1 37 36 44 04 be 43 96 47 39 aa fd 73 b5
       1.9198143e-05 -0.12916645 0.00019034096 -9.0893684e-07
000140 c0 90 b6 3a 13 43 2a bd 82 2b 29 3e c8 16 95 bd
       0.0013928637 -0.041567873 0.16520503 -0.07279736
000150 20 5f b7 3a 67 69 2f 37 52 99 8d 3e 3a 67 d1 3b
       0.0013990141 1.0455354e-05 0.27656037 0.0063904794
000160 bc 1f 42 b6 94 22 e3 3a 46 a2 78 be 6e 45 3b bd
       -2.8926725e-06 0.0017329031 -0.24280652 -0.04572051
000170 d4 da 6d b5 22 30 a0 35 c1 88 cc 34 dc 72 c4 bd
       -8.8607817e-07 1.1934937e-06 3.8097463e-07 -0.0959222
000180 12 fe c1 39 cd 2c 32 b9 d0 a7 33 3c a0 d5 54 be
       0.00037001126 -0.00016992092 0.010965303 -0.20784616
000190 79 34 4a b8 bd 49 1b bd a8 b9 5f 3d a9 3e 3a 3c
       -4.8209422e-05 -0.03791212 0.054620415 0.011367478
0001a0 e4 8c b4 bc 5a 80 e3 bb 79 86 9e 3b 29 37 c6 b4
       -0.022039838 -0.006942791 0.0048378077 -3.6920508e-07
0001b0 1c 75 6d bb b9 22 39 be eb 9f a2 3c f1 e2 2b 3e
       -0.0036233133 -0.18079652 0.019851645 0.1678579
0001c0 71 a7 50 bb 5f c7 91 36 a4 c7 50 be 87 7d 83 ba
       -0.0031838084 4.3445466e-06 -0.20388657 -0.0010031917
0001d0 f3 6f d2 bc a0 39 eb bd 85 d4 86 bd f0 a5 68 3e
       -0.025688147 -0.114856005 -0.06583504 0.2271955
0001e0 89 74 4d 38 ec 60 be 36 ee 5f df b4 34 2a 03 b7
       4.898434e-05 5.6737244e-06 -4.1606785e-07 -7.818035e-06
0001f0 8d 81 8d 3d 8f 3b 3c be ff 43 c4 3c 83 a6 9c bd
       0.069094755 -0.18382095 0.023958204 -0.07648947
000200 cd 42 68 3e 14 c6 81 b5 32 7d 94 ba c8 ec 01 35
       0.22681732 -9.668897e-07 -0.0011328815 4.8400807e-07
000210 dc d5 a7 bc 40 be bb b9 7f c0 c9 bc f5 1f 9c be
       -0.020487718 -0.00035809167 -0.024627922 -0.3049313
000220 ee b9 12 bb 37 85 68 3c 0d 2a 51 3d 4a 98 d7 bb
       -0.0022388655 0.014191917 0.051065493 -0.0065794336
000230 dc ed 98 bc 43 84 42 3c 1f 8e 66 bb 30 59 d0 32
       -0.018668108 0.011872354 -0.0035179926 2.4254945e-08
000240 5e 3b 03 3d b2 f7 c5 bd 0f a6 51 3d 22 09 11 3e
       0.03203904 -0.09666385 0.051183756 0.1416364
000250 3f 15 9b 3c 29 0b 72 38 86 52 66 bd 51 2f 8f 3a
       0.01893103 5.770769e-05 -0.056231044 0.0010924136
000260 43 0f ba b6 07 52 12 37 99 42 74 be 5b 43 07 bd
       -5.5450087e-06 8.721377e-06 -0.2385353 -0.03302322
000270 fc 9f 88 b5 98 e3 61 33 39 9d ae 35 7e bc 45 3b
       -1.0179351e-06 5.259389e-08 1.3009768e-06 0.0030172165
000280 8a 66 18 bc b3 a9 ca 38 2e 24 72 bd 6d 70 29 be
       -0.009301791 9.6637195e-05 -0.059116535 -0.16546793
000290 7d 46 8a 36 c0 db 00 3d 5c 11 c7 bd 07 33 6c bb
       4.1209264e-06 0.03145957 -0.09720108 -0.0036041157
0002a0 6d 69 86 bd 2e f9 43 bb 7c 6b d8 bc c4 a9 91 35
       -0.06563077 -0.0029903161 -0.02641844 1.085275e-06
0002b0 b7 78 0e bd 82 5d 18 3e b1 15 08 3e 8b 3e ea bc
       -0.03478309 0.1487942 0.13289525 -0.028594276
0002c0 77 d9 6a bc 3d d3 81 b6 1f 33 54 be 53 f7 07 bd
       -0.014334074 -3.869091e-06 -0.20722626 -0.03319485
0002d0 a2 81 3e bd e4 6f 5e bd 06 98 ab bc 65 2b a8 3e
       -0.046510346 -0.054305926 -0.020946514 0.32845607
0002e0 89 1f 2d 3b ef f9 c5 b6 53 66 e1 34 a9 30 06 34
       0.0026416501 -5.9001536e-06 4.1983967e-07 1.2497425e-07
0002f0 fe 84 8a bd 4f 06 8a 3c f0 cd 39 bc 77 40 a3 be
       -0.067636475 0.016848711 -0.011340603 -0.3188512
000300 01 67 f1 bd f6 44 de 35 26 a2 8c bb d3 ba 4d b5
       -0.117872246 1.6560359e-06 -0.0042917905 -7.6640316e-07
000310 ef 93 0f bc 62 7f 1f bb 43 72 9f bc b5 6f af 3e
       -0.008763297 -0.00243374 -0.019463664 0.34264913
000320 6b 28 2d 3d 57 11 0d 3b d3 12 dc 3d ab 48 ba b5
       0.042274874 0.0021525228 0.10745778 -1.3879229e-06
000330 ae 9e 03 38 af 21 02 bd d6 fa a7 bc d4 ba ab 34
       3.1380616e-05 -0.031770404 -0.02050535 3.1987167e-07
000340 75 b5 c0 3d 4b 02 61 3d c0 c9 16 bd e9 b7 dc bd
       0.0940961 0.054933827 -0.036813498 -0.107772656
000350 7b 33 46 bc 93 fe a5 3a 42 f7 e5 bd 46 75 9e bb
       -0.012097235 0.001266437 -0.11228801 -0.0048357574
000360 42 e9 31 37 c9 1b a2 3a de ad c3 bd 6c 16 08 bd
       1.0604332e-05 0.00123679 -0.09554647 -0.03322451
000370 fc 54 c2 b4 41 3d f9 34 50 12 91 b4 8f 24 34 be
       -3.619715e-07 4.6424432e-07 -2.702168e-07 -0.17592071
000380 1e df 5b bd 49 4e 85 bc df af f4 bb 0d 6e d2 bd
       -0.053679578 -0.01627268 -0.0074672545 -0.10274897
000390 1c dc b7 39 4e 43 65 3b c2 ce 47 3c b9 ba 8d bb
       0.00035068474 0.0034982744 0.012195291 -0.0043252376
0003a0 8b b1 83 3c e2 6b 3c bc 19 90 b5 bc 40 04 60 b4
       0.01607587 -0.011500331 -0.022163438 -2.0863172e-07
0003b0 a3 59 53 38 d3 b6 75 be e6 9e 0e bd ea 89 84 3d
       5.03898e-05 -0.23995523 -0.034819506 0.064716175
0003c0 b8 d3 11 bd cf 45 6e 37 36 b4 fe 3d be d5 32 bd
       -0.0356023 1.4202159e-05 0.12436716 -0.04366087
0003d0 23 73 66 bd 86 df a6 be d9 5e 75 bc b3 b1 6d be
       -0.056262147 -0.3259241 -0.014976227 -0.23212318
0003e0 a7 29 03 bc 83 07 9b 34 38 55 1d 35 18 0d d3 36
       -0.008005536 2.8876465e-07 5.861107e-07 6.2898143e-06
0003f0 57 7a 8c 3d 1a 48 d6 bc c8 55 1b bd fd 7e c0 be
       0.06859272 -0.026157428 -0.037923604 -0.37596884

act_fc2.bias f4 [36]
000000 1a 43 98 be c8 49 14 be 6e a8 16 be 36 a8 fb bd
       -0.29738694 -0.1448127 -0.14712688 -0.12287943
000010 da 9d 18 be 40 52 94 be d2 8e 2f be 79 d1 86 be
       -0.14903966 -0.28969002 -0.17144325 -0.2633169
000020 a7 5e 1e 3d 69 47 1f 3d 80 5f 86 be e5 67 a6 bd
       0.038664486 0.03888646 -0.26244736 -0.08125285
000030 8f 62 1e bd e8 60 2f 3d e2 3d 35 3e 9e 82 53 3e
       -0.03866821 0.042817026 0.17699388 0.20655295
000040 82 b6 ce 3d c4 a1 12 be c8 3d bb bd c1 97 ee 3d
       0.10093404 -0.14319521 -0.09142643 0.116500385
000050 77 52 83 3e 8d db 9a 3e 86 57 94 3d 5f d8 05 be
       0.25648853 0.3024563 0.07243256 -0.1307082
000060 4c 65 f0 bd 47 b0 65 be 72 7e d5 3d ce a5 06 3e
       -0.11738071 -0.22430526 0.10424508 0.13149187
000070 d6 f0 8e be a2 9d 85 bd 8c bb 9c be 3f 2c 77 bd
       -0.27918118 -0.06524207 -0.30611837 -0.06034493
000080 0b 54 f2 bd 78 2d e2 bd b8 3d 50 bd 99 d4 7e be
       -0.11832436 -0.11043829 -0.05084011 -0.24885787

val_fc1.weight f4 [64, 216]
000000 c2 58 e7 bc 84 ea eb b6 45 69 2e bb 3b f6 d5 3d
       -0.028240565 -7.030847e-06 -0.0026613038 0.10447355
000010 40 b8 9c 3e 90 5f 3e bc 16 22 29 be 24 e4 11 37
       0.30609322 -0.011619464 -0.16516909 8.695792e-06
000020 de 4e 96 3d d5 1d 2d bd 9b 7c ee 3e a5 36 48 bd
       0.073392615 -0.04226478 0.4657944 -0.048880238
000030 ea de fb 3d e4 9c c0 b6 d2 e6 12 bd 06 d5 4b 3e
       0.12298377 -5.7403104e-06 -0.03586466 0.1990548
000040 e8 8c 0a bb ef 87 e3 bb 28 67 00 3e e8 8a 1b 35
       -0.0021141116 -0.006943695 0.12539351 5.7944135e-07
000050 ca 0e 6b bc 83 1a 11 3e 70 e4 16 3d 08 90 39 bc
       -0.014346788 0.1417027 0.03683895 -0.011325844
000060 43 cc 2c be 16 da 1e b7 6f 16 72 3e 61 84 c6 bd
       -0.16874795 -9.468311e-06 0.2364137 -0.09693218
000070 4e fa 25 3f fa 05 91 bd b9 78 a9 bd e6 1f 15 b6
       0.6483506 -0.07081218 -0.08274979 -2.2221298e-06
000080 3d 06 12 3e ad 72 f7 bd d6 02 f4 3e 09 2e 4a bd
       0.14260192 -0.120824195 0.47658414 -0.04936031
000090 49 cd 46 be e4 d4 3d b6 c3 76 05 3e 5c 27 71 bd
       -0.19414248 -2.8287113e-06 0.13033585 -0.058875427
0000a0 7b f0 02 3f c1 af 7b bd 7b b1 1c 3e 9e 80 c0 36
       0.51148194 -0.06144691 0.15302078 5.737019e-06
0000b0 ae 24 b8 bd 5e 8b 67 3e d5 12 e7 bd 7a d7 e1 3c
       -0.08991371 0.22611758 -0.11282889 0.027568568
0000c0 77 83 53 3d e7 e8 85 36 67 53 64 bd a2 62 54 3d
       0.051639047 3.9908223e-06 -0.0557436 0.051851876
0000d0 dc 92 4c be 88 a8 1c bc 41 68 b0 3d 66 1a f5 34
       -0.19977897 -0.009561665 0.08613635 4.5654014e-07
0000e0 62 43 c8 3c 60 1f 0f 3e 2c 1f 29 bd c3 c5 eb 3c
       0.024446193 0.13976812 -0.041289493 0.028780824
0000f0 e2 39 d9 3d 68 e9 fe b4 23 25 76 bd 33 8a 9b 3d
       0.106067434 -4.7481012e-07 -0.06009401 0.07594719
000100 4f f8 d8 bd 3a 88 95 3c 8a b9 0b be bd c1 f8 36
       -0.10594236 0.018253434 -0.13644996 7.41353e-06
000110 be 52 83 3e 79 4d 0b be 62 de 32 3f 08 b4 e4 bc
       0.25649065 -0.13603772 0.6987058 -0.027917877
000120 c4 a2 40 3e fe 91 83 36 10 3e a0 bd c5 99 6d 3e
       0.1881209 3.9211e-06 -0.078243375 0.2320319
000130 74 97 36 be b6 9f 0d 3d 07 d9 53 bc 1e 3b de 36
       -0.17831212 0.03457614 -0.012930161 6.6229977e-06
000140 79 d4 a4 bc e1 53 c7 3d e8 50 e7 bd 3a 53 7f ba
       -0.020120846 0.097327955 -0.112947285 -0.000973988
000150 12 ac 22 3e e9 02 b9 b6 64 27 8b bd a9 b4 05 3e
       0.15885952 -5.5137684e-06 -0.067946225 0.13057198
000160 ac 63 c2 be 3b 79 0f 3d 07 ec c4 3d e0 c1 33 b4
       -0.3796667 0.035027724 0.09615331 -1.6741205e-07
000170 90 a5 96 bd 3b fc 0d 3e b7 fd d1 be f8 41 21 3d
       -0.07355797 0.1386575 -0.41013882 0.039369553
000180 4f 4f 30 3e 22 8c 8e 36 a8 6b a7 3b ec f9 76 3e
       0.17217754 4.2482434e-06 0.005109269 0.24118775
000190 ac e7 b1 bc dc e0 8f 3d dd 1c 5b 3e 19 79 e9 34
       -0.021716915 0.070253104 0.21397729 4.3487742e-07
0001a0 86 33 a1 bd 76 77 2b 3e a8 ea dc bd 2e 3f 21 3d
       -0.078711554 0.1674479 -0.10786945 0.039366893
0001b0 6d a8 00 3d e5 ce a6 b6 98 51 c6 3c 7a 3c 8f 3d
       0.031410623 -4.971271e-06 0.024208829 0.06993957
0001c0 85 5a 0f bc ff fd 07 bc 1e 05 38 3e ce af a0 b6
       -0.008749609 -0.0083003035 0.17970702 -4.788838e-06
0001d0 f1 42 1c 3d d4 48 6b 3e af 7f 80 bd 9b b0 3a 3d
       0.038149778 0.22977 -0.06274354 0.04557858
0001e0 7f b2 b7 3d 36 f9 da 36 34 0e a3 bd ac e5 10 3e
       0.08969592 6.5259183e-06 -0.079616934 0.14150113
0001f0 2b 67 a9 be a4 fc 20 3d 29 60 6a 3e d9 b4 63 b7
       -0.33086523 0.039303437 0.22888245 -1.3572361e-05
000200 65 46 43 bd 13 64 28 3e 67 83 a3 be a4 75 8f 3d
       -0.047674555 0.16444425 -0.3193619 0.0700486
000210 8d c6 1d 3e ff 05 07 b7 7b b4 d7 bc f9 94 2c 3e
       0.15407772 -8.048023e-06 -0.026331177 0.16853704
000220 ac c7 0f be b9 37 44 3d 93 67 5e 3e 9c a7 a4 36
       -0.14041013 0.047904704 0.21719198 4.907093e-06
000230 f5 cb 44 bd 23 8a 17 3e e9 bc 57 bd 73 a3 11 3d
       -0.04804607 0.14798789 -0.052670393 0.035556268
000240 3a bb 0b be a2 a2 9a b5 42 34 70 3e 3c 04 ec bd
       -0.1364564 -1.1521226e-06 0.23457435 -0.11524245
000250 90 da 25 3f 18 6d 1e bd 98 ca 1a 3e 60 a5 3e 37
       0.64786625 -0.03867826 0.15116346 1.1363387e-05
000260 fd 3e 25 3c 7a 5d 43 3e a2 e3 e3 bb d6 13 62 3a
       0.010085818 0.19078627 -0.006954626 0.00086241716
000270 e2 e9 68 3e 9b 46 21 b6 a8 52 b5 3c 26 53 81 3e
       0.22745469 -2.4031967e-06 0.02213414 0.2525875
000280 b3 29 e9 3b c6 0f 8d 3d 43 03 e7 3d 80 80 dd b6
       0.0071155666 0.06887774 0.11279919 -6.6012726e-06
000290 62 d7 82 bd ff 9b 0a 3e ac ab 06 be 41 c3 ae 3c
       -0.06388737 0.1353607 -0.13151425 0.021333339
0002a0 a5 59 0e 3e 50 22 e3 34 aa 66 38 bd 06 31 4b 3d
       0.13901384 4.230701e-07 -0.045019783 0.0496073
0002b0 2d 63 59 bd f9 af f0 3c fd 3b 32 be 6f 2f af b5
       -0.053073097 0.029380785 -0.17405696 -1.3052321e-06
0002c0 39 14 ea 3d 60 9c 0b be d9 ab 0b 3f e0 59 20 bd
       0.114296384 -0.13633871 0.54559094 -0.03914821
0002d0 5c a4 1a bd aa 81 56 b7 48 57 e8 3d 3a 98 3b bd
       -0.0377544 -1.2785584e-05 0.113447726 -0.04579947
0002e0 d5 ca d6 3e 61 0d 1b bd 92 d8 88 bd c7 c0 4b 36
       0.41951624 -0.037854556 -0.066819325 3.0361568e-06
0002f0 0a 42 80 3e e1 04 54 3c be bd 29 3f 9d fd 92 bc
       0.25050384 0.012940616 0.6630515 -0.017943198
000300 7a 39 96 3e d9 5f d9 b6 b4 8b 11 bd 1f 35 85 3e
       0.29340726 -6.478262e-06 -0.035533622 0.2601709
000310 48 ad dc bd 36 e8 fa 3c f3 b6 66 3e b3 82 79 b6
       -0.10775238 0.030628305 0.22530727 -3.7179968e-06
000320 4e fd d0 3c a4 85 38 3e f9 2a 92 3c 7b c4 28 3d
       0.02551141 0.1801973 0.017842757 0.041203003
000330 d3 4a 20 be b6 1c 55 35 77 66 e5 3d af ec 2f be
       -0.15653543 7.9390463e-07 0.11201184 -0.17180131
000340 5c b7 09 3f 6d 14 83 bd 1a 7d dd bd 86 9c 3d b6
       0.5379541 -0.0640038 -0.10814877 -2.8254303e-06
000350 07 90 82 3d a1 24 1b be 53 b2 c8 3e 06 08 d1 bc
       0.06375127 -0.15150692 0.3919855 -0.025516521
000360 0a 7b d2 34 78 d9 42 b3 86 5d 46 b5 5e d5 55 b4
       3.920507e-07 -4.536693e-08 -7.389684e-07 -1.9914793e-07
000370 cc 24 f7 b3 80 15 61 b4 62 cd 1a b3 c4 9e 5c 33
       -1.1508527e-07 -2.096258e-07 -3.6042714e-08 5.1367138e-08
000380 e9 1b 22 35 86 cf 8d b6 4c 6e e4 b4 f0 91 58 33
       6.039032e-07 -4.2262864e-06 -4.254856e-07 5.042415e-08
000390 06 10 89 b3 ae 14 5f 34 8c 14 2c 35 0e 86 9b b4
       -6.382474e-08 2.0776017e-07 6.410489e-07 -2.8968537e-07
0003a0 ae eb 87 34 dc b4 9d b3 97 ef ac b3 23 39 77 b3
       2.531719e-07 -7.34378e-08 -8.052955e-08 -5.7561135e-08
0003b0 96 6e 58 35 96 59 57 33 5c 58 5d 34 c5 18 f6 b4
       8.0627194e-07 5.0140066e-08 2.0614374e-07 -4.5839093e-07
0003c0 c4 d6 99 b3 18 f2 a4 b4 c0 04 bb b4 42 23 c1 b3
       -7.163683e-08 -3.0723527e-07 -3.483492e-07 -8.993676e-08
0003d0 35 74 dd 34 f1 1d 63 b4 d4 07 a0 b3 b8 a3 41 b2
       4.124901e-07 -2.1151915e-07 -7.4520045e-08 -1.1271304e-08
0003e0 1e 6f 2a b4 9f 0f 12 34 66 c7 15 35 28 d0 9c 34
       -1.5872908e-07 1.3602993e-07 5.579699e-07 2.9208718e-07
0003f0 90 52 ac b1 05 e4 35 34 22 05 5f 35 ac d5 47 33
       -5.015245e-09 1.6939892e-07 8.3081443e-07 4.652763e-08

val_fc1.bias f4 [64]
000000 9b f3 ae bc 0e 56 0e bd b6 0e 20 bd 4b 10 4b bd
       -0.021356395 -0.034750037 -0.03907653 -0.049576085
000010 2a 56 6b bd 89 01 44 bd c5 20 1b be 41 46 b1 bc
       -0.05745522 -0.047853027 -0.1514922 -0.021639945
000020 af e6 8f bd 60 16 53 be f1 9a 56 bd 26 cf be bd
       -0.07026421 -0.20614004 -0.052393857 -0.09316854
000030 01 4e 09 bc 85 e6 4d be 61 e7 2a bd 33 3a 9d bc
       -0.008380414 -0.20107467 -0.041724566 -0.01919279
000040 be ce 6b bc 16 63 7a be f2 60 36 b9 1e 79 9d bd
       -0.014392553 -0.24451861 -0.00017392988 -0.07689117
000050 93 2a e1 bd 56 7a 3d be 07 dd bf bc a7 7a 18 bd
       -0.109944485 -0.18503699 -0.023420824 -0.037226345
000060 2e 46 5f be ab 77 49 be 6f b5 ba bc 36 2e 90 bd
       -0.21804115 -0.19674556 -0.022791592 -0.07040064
000070 bf 0e b0 bc e5 19 a8 bc e1 03 10 3f 43 75 c9 bd
       -0.021491406 -0.02052016 0.5625592 -0.09836819
000080 bc 51 26 bd ae 1f b5 bd 93 74 57 be f2 a9 1e bc
       -0.04060529 -0.08843933 -0.21040563 -0.009684073
000090 f7 69 62 bd 10 a6 58 be 9c 13 23 be 00 a8 a6 bc
       -0.055276837 -0.21157098 -0.15925449 -0.02034378
0000a0 31 35 83 bc e7 d4 4e be 28 1f ae bd ef 8f 48 be
       -0.016016575 -0.20198403 -0.08502036 -0.19586156
0000b0 aa 95 47 bb 73 8e de bc ae 74 9d bc 35 fc 6c be
       -0.0030454197 -0.027167534 -0.019220676 -0.23143084
0000c0 d4 f8 35 be 5e 18 1e ba 02 b5 61 be a7 cb 15 bd
       -0.17770702 -0.00060308527 -0.22041705 -0.03657117
0000d0 88 8e 57 be d4 7e 27 bb 93 c0 3c ba 3e 33 52 be
       -0.21050465 -0.0025557773 -0.00072003267 -0.2052736
0000e0 24 6e 29 bd 18 7c 58 be ef c0 22 bd ba 1d 3f bd
       -0.041364804 -0.21141088 -0.039734777 -0.04665921
0000f0 30 fc a9 bc db 4e cd bc 9d 96 14 bd 1b 36 3d be
       -0.020750135 -0.025062015 -0.03627645 -0.18477671

val_fc2.weight f4 [1, 64]
000000 f9 40 05 3e 10 8d f5 b3 ba d0 c3 b4 7a e5 1c 3e
       0.13013066 -1.1434361e-07 -3.647345e-07 0.15321913
000010 fb 7a 38 3e a9 90 98 3c b9 41 ef 3e 2a ed 17 35
       0.18015663 0.018623667 0.4672983 5.6597e-07
000020 78 5f 68 3e c3 b9 40 be 7d 4b de bc ab ce 81 3c
       0.22692668 -0.18820862 -0.027135605 0.015845617
000030 09 ba 14 35 fc a7 55 be c4 49 83 36 a4 82 55 bd
       5.5405013e-07 -0.20864862 3.9126917e-06 -0.05212654
000040 6e 62 fe bc 2c c3 e6 bd 34 07 09 b5 c9 c8 ad 3d
       -0.031052794 -0.11267695 -5.104696e-07 0.08485562
000050 0e 03 1a 3d 5a 01 18 be 0d c1 12 3e 1e 91 b0 bd
       0.03760057 -0.14844266 0.14331456 -0.08621429
000060 02 bc 11 be 3b 76 04 be 2e 57 67 bd fd 81 9a 3c
       -0.14231876 -0.12935726 -0.056479625 0.018860811
000070 17 44 60 bd 16 78 08 bc fb 6c 13 bf 11 3f 1e 3d
       -0.054752436 -0.008329412 -0.57588166 0.038634364
000080 50 79 b7 35 9b ff 81 3d bd 87 8a be 33 4a 48 b5
       1.3669869e-06 0.06347581 -0.27056685 -7.461378e-07
000090 2e 12 17 bb e4 54 33 be 36 69 20 3e 0e fe f0 b5
       -0.0023051607 -0.17512852 0.15665135 -1.7955333e-06
0000a0 ac 3b 04 b8 68 0b 49 be 1c 70 95 3c 0b 6d 65 be
       -3.1526826e-05 -0.19633257 0.018241934 -0.22404878
0000b0 82 73 3d 35 d5 99 62 3e 78 68 89 33 cd ba 72 be
       7.057607e-07 0.22128995 6.3985624e-08 -0.23704071
0000c0 0d d5 ae bd e4 25 00 35 a5 aa 34 be 4e ba 87 34
       -0.0853673 4.7738854e-07 -0.1764322 2.5281264e-07
0000d0 f2 db 4f be 40 64 2c 3e 01 1b 8b 34 65 79 47 be
       -0.20298746 0.16835117 2.5910416e-07 -0.19479902
0000e0 bc 05 3c 3e c7 81 70 be 9f e0 8a 3e 6a f0 2b 3a
       0.18361562 -0.23487006 0.27124497 0.0006558957
0000f0 f3 58 b4 b5 8a c7 3f 3e f2 97 36 35 25 46 1d be
       -1.3436933e-06 0.18728462 6.8021393e-07 -0.1535879
