Server/src/ml/models/0000/best.model (torch, 217668 bytes, 10 tensors)

layers.0.lin.weight f4 [6, 4]
000000 c7 2f 89 3f 3f fd 46 bf d9 35 ff 3d a3 c1 bb 3d
       1.0717705 -0.7773017 0.124614425 0.09167793
000010 75 72 8c 3f b0 3f 2e bf 78 cc 3d 3e fa 07 c6 3e
       1.097243 -0.6806593 0.1853503 0.3867796
000020 5e b8 bc bf 35 fe c7 3f 4f 04 66 bd f2 cb 8c 3e
       -1.4743764 1.5624453 -0.056156453 0.27499348
000030 68 4a 96 3f 48 70 5f be 60 8c dd bd 84 e9 69 be
       1.1741457 -0.21820176 -0.1081779 -0.22842985
000040 8f 46 80 3f ef 56 d4 3f 86 7b b3 3d fc d3 95 3d
       1.0021533 1.658903 0.087637946 0.073158234
000050 3c e9 5a 3f d1 9d 18 be 14 4c 98 3f 5e a4 45 bf
       0.8551214 -0.14903952 1.1898217 -0.7720393

layers.1.lin.weight f4 [6, 6]
000000 31 66 8e bf 48 2e a9 be cc 50 ce 3e 13 eb a4 be
       -1.1124936 -0.33043122 0.40296018 -0.32210597
000010 aa 9e 62 3f d4 5e 66 bf 96 8f ab 3e f4 6e 20 3e
       0.8852335 -0.89988446 0.33507985 0.15667325
000020 40 d1 a7 be b2 b2 a0 3e 75 54 97 be d6 c1 ca 3e
       -0.32776833 0.31386334 -0.29556623 0.3960101
000030 8d d4 dd 3e 1f b3 31 3f f4 ec db bf 6b ed a9 be
       0.43326226 0.6941394 -1.7181687 -0.33188948
000040 4d 7b 78 3e 1d 72 95 bf ae c5 8d 3e 05 68 0c 3f
       0.24265786 -1.167545 0.2768988 0.5484622
000050 e6 06 8a 3e 3b 43 c4 bf 62 87 4a bd d8 29 f6 be
       0.26958388 -1.5333017 -0.049445517 -0.480788
000060 dd af 0a bf e8 14 9d bf f7 b3 12 3f 82 91 98 bd
       -0.54174596 -1.2272005 0.57305855 -0.074496284
000070 31 f9 b1 3e 15 48 16 3f 75 eb 03 3e 5e 36 e2 3d
       0.3476043 0.5870374 0.12882788 0.11045526
000080 02 51 5b bf 57 1e ba 3e cf 87 88 3f 19 3a 70 be
       -0.85670483 0.36351272 1.0666445 -0.23459662

layers.2.lin.weight f4 [6, 6]
000000 97 c5 6a 3d fa 92 2d be 64 50 1b 3f 9a 24 d5 be
       0.057317343 -0.16950598 0.6066954 -0.41629487
000010 43 c4 3b bf 2d ae 52 3f 20 9d cf bf 58 32 d2 3e
       -0.73346347 0.8229702 -1.6219826 0.41054034
000020 07 70 62 3f ee 6d aa bf d4 82 6b bf 70 22 24 3f
       0.8845219 -1.3314798 -0.919965 0.6411505
000030 2b 09 88 3f 45 f1 74 be 07 fd 2a be 17 f5 d8 be
       1.0627798 -0.23920162 -0.16698085 -0.4237449
000040 ed 75 00 bd 7e 21 22 3f 53 2d a9 be 08 93 a0 3e
       -0.031362463 0.63332355 -0.33042392 0.31362176
000050 9f b3 c7 be e8 c0 fe bf 95 79 04 bf 81 8c ed 3e
       -0.39004228 -1.990262 -0.5174802 0.46396258
000060 8b bf 22 3f 46 4b e8 bd cd bb d1 be ce 53 2a 3e
       0.6357352 -0.11342482 -0.40963593 0.16633531
000070 ca ea 06 3f cf 13 fa bf 67 4e 12 bf c5 7c 9c be
       0.5270201 -1.9537295 -0.5715088 -0.30563942
000080 c0 7f ac 3f 57 e7 9d 3d c0 a9 b2 3f 91 e0 de bd
       1.3476486 0.0771014 1.3958054 -0.108826764

act_fc1.weight f4 [64, 384]
000000 c1 8d 97 be 31 7c 87 bd cb f2 72 bb c8 db 3f bd
       -0.29600337 -0.066154845 -0.0037070985 -0.04684046
000010 49 88 8f 3d 5d b3 57 be 55 27 ae be b0 c8 b8 3c
       0.07008416 -0.21064515 -0.34014383 0.022556633
000020 1e 85 1c be 8f 97 95 bd d2 3e d9 3b 5e da 30 3e
       -0.15285155 -0.07304298 0.006629803 0.172708
000030 29 15 72 bd 10 d5 82 3c dd 1e 06 3e de 02 05 bd
       -0.05910221 0.015970737 0.13097711 -0.032473437
000040 0d b2 0b bb 8c d2 32 3d 99 9a 5c bd a7 d0 18 bd
       -0.0021315843 0.043657824 -0.053858373 -0.03730836
000050 17 90 de 3d 85 a1 b9 ba 78 ca 9b bd 93 11 45 3e
       0.10867327 -0.0014162516 -0.07606977 0.19244985
000060 d8 ce 39 bd 79 a9 95 ba 5c 6c db bd fe 0f d3 3a
       -0.045363277 -0.0011418305 -0.10714027 0.0016102789
000070 5c ba 9b bd c8 3d 32 be a9 3e c8 bd 58 fb 42 bd
       -0.076039046 -0.1740638 -0.097775765 -0.04760298
000080 7a c2 b3 bd 9b cc f8 3b 3f 9e 84 bd ce f0 06 be
       -0.08777328 0.0075927502 -0.064754955 -0.13177797
000090 43 28 4e be 16 53 dc 3c 8b ef 50 be c1 ca 11 3c
       -0.20132546 0.026895087 -0.20403878 0.008898438
0000a0 3e 04 c6 bd 3a a4 b5 bd 8f a0 bb bc 2b 69 8b bc
       -0.09668778 -0.08869214 -0.022903709 -0.017017921
0000b0 8f 23 61 bd 14 e9 8e 3c de 84 d0 bd 9c bd ae bd
       -0.054965552 0.017445125 -0.101815924 -0.08532259
0000c0 d8 16 9e be 1a fb f7 3d 1e e2 0b be 16 09 92 bd
       -0.30876803 0.12108441 -0.13660476 -0.07130639
0000d0 6a 71 69 3d 90 f9 79 3e 22 46 fb bd 3a 64 88 3c
       0.056992926 0.24411607 -0.12269236 0.016649354
0000e0 b0 a3 82 3d fd b4 35 bd d0 de 13 3d 29 44 91 bd
       0.06378877 -0.044362057 0.036101162 -0.07093079
0000f0 f8 04 15 bd 3a 88 3b 3d 55 91 d6 3b 22 46 10 be
       -0.03638169 0.045784213 0.0065480866 -0.14089254
000100 de 0c 87 bd 7d e1 15 3f 02 5d c6 bd f4 9c 46 bb
       -0.06594251 0.5854719 -0.096857086 -0.0030305954
000110 45 86 43 3d e9 48 18 3d 0b aa 83 bd 39 e3 38 be
       0.04773547 0.037178908 -0.064289175 -0.18055429
000120 16 5d 05 be 4d 46 9e bd d5 a8 ff 3d b8 e6 02 3e
       -0.1302379 -0.077282526 0.12483374 0.12783325
000130 ee 72 ef bd a3 4b 9b bd e8 76 bd 3b d3 42 a8 3d
       -0.11691843 -0.07582786 0.005781997 0.08215871
000140 15 7d bb be 5f d3 02 3e 0b 39 94 3d 3c eb 8a be
       -0.36618868 0.12775944 0.072374426 -0.27132595
000150 62 b0 4d 3d 92 e5 b5 3d 7c f2 1b be 7a e0 f9 3d
       0.05021704 0.08881678 -0.15229219 0.12201019
000160 36 4a 07 3d 4b 25 27 be 37 ef 16 be ad 30 6e 3c
       0.033029757 -0.1632282 -0.1473969 0.014537972
000170 b8 78 5e be 22 bb 3f 3d e7 82 4a be e4 cc f6 bd
       -0.21725738 0.046809323 -0.19776498 -0.120507985
000180 31 a7 ea bd c7 ba 54 bd 20 d5 94 3c 4c 07 c8 bd
       -0.114576705 -0.051935937 0.018168032 -0.09767017
000190 92 24 2b bc 96 a6 11 be e5 94 a6 bd f2 e5 a4 3d
       -0.010445731 -0.14223704 -0.08133868 0.08051671
0001a0 c9 cb 1a bd 90 b8 0b be 19 3e 06 3d 04 3f 10 3f
       -0.037792 -0.13644624 0.032774065 0.56346154
0001b0 8c dc 6d be 67 6b ac 3d 53 56 6a 3d df 97 97 bd
       -0.23228663 0.08418923 0.05721123 -0.07402014
0001c0 1d 28 86 bd 32 6d ca bd a4 1a 05 3e a4 ad ad bd
       -0.0655062 -0.098841086 0.12998444 -0.08480385
0001d0 67 9d 9b bd 43 d8 50 be b0 33 14 3e 7a fd 12 3f
       -0.075983815 -0.20394997 0.14472842 0.57418025
0001e0 d7 ca a2 bd 8f 77 2e 3e 50 e0 4d bd f5 94 8d 3e
       -0.07948845 0.17037795 -0.05026275 0.27652708
0001f0 29 f1 66 3d 69 6b e1 be 11 06 58 be e2 8e 5b 3e
       0.056382332 -0.4402726 -0.21096064 0.21441224
000200 d9 78 14 3e 84 4a 49 3e c8 55 f6 3c aa 3a 8a bd
       0.14499225 0.19657332 0.0300702 -0.067494705
000210 1a 31 e1 3c 5a 31 2d 3e ad 5c ae be 63 9a 83 3d
       0.027489234 0.16913357 -0.3405508 0.06425931
000220 65 89 aa 3d fc a1 2b be 6b 1c 14 3e 96 8a cb 3d
       0.08326987 -0.16761011 0.14463966 0.099385425
000230 30 9b fa bd d2 69 95 3d c2 5d d5 bb cb 01 29 be
       -0.12236631 0.07295574 -0.006511421 -0.1650459
000240 98 93 90 bd de 95 80 bd 41 80 e7 3d 98 8f 85 bc
       -0.07059401 -0.06278585 0.11303759 -0.016303822
000250 76 be 9a bd 2f 39 85 3c 08 0d 9a bd bd 07 9c bd
       -0.07555859 0.016262619 -0.07522017 -0.076186635
000260 57 92 31 bc b8 f5 61 bd 46 5a 71 bd b6 32 64 be
       -0.010838113 -0.055165976 -0.058923982 -0.2228497
000270 a2 4c 10 3e 4c e5 87 bd b6 e2 6b bd 7d 15 59 be
       0.14091733 -0.06635532 -0.057589255 -0.21199603
000280 a3 7d 53 3e 2f 28 1b 3f 45 3c 38 bd ce 6d 1f bd
       0.20653395 0.6060819 -0.044979353 -0.038923077
000290 9b c5 c5 3c ef d7 33 3e 36 37 0b bd 82 69 33 be
       0.024142077 0.17562841 -0.0339882 -0.17520717
0002a0 72 ad 51 3e de d1 d4 bd 40 19 99 bd 12 8f ef bd
       0.2047632 -0.103915915 -0.07475519 -0.1169721
0002b0 74 96 f8 3e e0 de 4c 3f 00 a2 11 be 4b c3 20 3e
       0.48552287 0.8002758 -0.14221954 0.15699498
0002c0 c3 6e fd bb ee 09 45 3e 54 42 63 3d e2 86 a8 be
       -0.007734151 0.19242069 0.055483177 -0.32915407
0002d0 4d c0 0d be 3e ed e7 3d 03 de 51 3e 13 48 cd 3c
       -0.13842888 0.11324547 0.20494847 0.025058782
0002e0 19 68 d0 bd ae f3 92 bc 33 96 4c 3d 57 dd e6 bc
       -0.10176105 -0.017938461 0.04994793 -0.028181715
0002f0 09 97 54 be 20 2c a5 bc 6c cf 7a bd 10 31 06 be
       -0.2076074 -0.020162642 -0.06123297 -0.13104653
000300 f9 d1 c7 3d 0b bc 63 bd 60 94 5e be a9 a5 12 bd
       0.09756846 -0.055599254 -0.21736288 -0.035802517
000310 a3 ca d7 bd 0b b4 6a be 3e ac 22 be c0 ae b2 bd
       -0.10536697 -0.22920243 -0.15886018 -0.08724737
000320 1a 9c 0e 3e 46 a8 8f 3c 7b 6c 09 bd 31 45 c6 bd
       0.13926736 0.017536294 -0.03355072 -0.09681166
000330 7f 40 97 bd b1 70 13 3e f8 ce 15 bd 86 89 69 3e
       -0.073853485 0.14398457 -0.036574334 0.22806367
000340 2e d4 dc 3c 68 a5 c7 be 5a 26 38 3e c1 a3 ba bd
       0.026956644 -0.38993382 0.1798338 -0.09113265
000350 8b 6f cf bd 2b c7 22 be 94 d5 e5 3e fb 52 4e 3f
       -0.10128697 -0.15896289 0.4488951 0.8059537
000360 68 c7 cc bd 8d a8 0b be 61 ce cb 3c c3 45 36 3e
       -0.09998971 -0.13638516 0.024878683 0.1780005
000370 d2 be f7 bd c8 0b 1f be 28 21 10 3e c6 25 61 bd
       -0.12096943 -0.15531838 0.14075148 -0.054967664
000380 bb 22 2c bd 5c ff 93 be 78 c3 3a 3e f8 8e 29 3f
       -0.04202531 -0.2890576 0.18238628 0.6623378
000390 e4 a9 39 be 21 f6 99 bd 80 92 6b bd 57 f8 b2 bd
       -0.18131214 -0.075176485 -0.05751276 -0.08738773
0003a0 36 02 e7 bd 54 8a 2c be 6c 93 53 bd 76 f8 0e bc
       -0.112797186 -0.16849643 -0.051654264 -0.00872623
0003b0 ac 91 08 3e 6d 5d 85 bc 43 42 e4 bc c9 d6 00 3e
       0.1333682 -0.0162799 -0.027863627 0.12581934
0003c0 85 85 20 3d 91 df 9e 3b d5 d7 b3 bd 55 6a 81 3b
       0.039189834 0.0048484285 -0.08781401 0.0039494433
0003d0 76 96 00 bd 76 bb ed bd 4b 46 26 3d c4 74 0f 3e
       -0.03139349 -0.11608021 0.04059438 0.14009386
0003e0 d2 fa a9 be 53 97 29 3d d6 11 76 3d e8 aa df bd
       -0.33199173 0.04140408 0.060075603 -0.1092127
0003f0 65 18 a3 be 64 7e 21 3e 61 20 eb 3d eb 5e cf 3d
       -0.3185455 0.1577087 0.11480785 0.10125526

act_fc1.bias f4 [64]
000000 5d 4f b5 3e 6f b6 46 bd 48 d8 87 3e dd bf 64 bf
       0.35412112 -0.048513826 0.26532197 -0.8935526
000010 c0 c0 53 bd e6 7b f0 bd bd 91 9b bd 83 49 00 40
       -0.051697493 -0.11742382 -0.07596157 2.0044868
000020 97 64 e8 b9 33 c3 24 3e 42 0d d4 3f 70 bc 44 3e
       -0.00044325434 0.16090088 1.6566546 0.19212508
000030 32 47 84 3f 4f 74 e2 bb 0a cc 7d b6 ae 8f d5 bd
       1.0334227 -0.0069108377 -3.7818704e-06 -0.10427795
000040 4e 09 4b be 22 63 4a 3f 46 0e de 3e f5 78 7d ae
       -0.19827768 0.79057515 0.43370265 -5.763297e-11
000050 91 cd 65 bc d5 c9 0d 3f d3 74 49 bd 33 3d 30 b8
       -0.014026062 0.55386096 -0.049183678 -4.2018666e-05
000060 56 15 b5 3f 10 cf 15 3f a5 e7 c2 b5 56 ad 98 3e
       1.4147136 0.5851908 -1.4521544e-06 0.29819745
000070 44 a9 09 bd 2d 22 35 bd c5 cd ab 3f 1d cd c3 ba
       -0.03360869 -0.044222046 1.3422171 -0.0014938448
000080 bb 4f cf 3e 1c 0d b1 3e c7 a4 57 be 48 78 ba 3d
       0.40490517 0.34580314 -0.21058951 0.09104973
000090 c5 3e b6 3f fd bc 49 be 5b c5 cd 3f ec b4 6d be
       1.4237906 -0.19701 1.6075853 -0.23213547
0000a0 01 fb 5a 3e 9f d2 af bf c2 81 f7 bb 42 4a 1a ab
       0.21384813 -1.3736151 -0.00755331 -5.4814844e-13
0000b0 b8 4c 06 bd 6d 69 46 3f 7c 61 8a bd 10 c6 04 b3
       -0.03278801 0.77504617 -0.06756875 -3.091378e-08
0000c0 2c fa 12 40 aa 46 03 3f 38 30 df 3d c9 12 0a 3f
       2.2965193 0.512797 0.10897869 0.53934914
0000d0 00 b6 3b 3f 9d e7 12 be 2a 0e 41 3f 13 37 2b 3f
       0.73324585 -0.14346166 0.7541224 0.6688091
0000e0 8e 27 93 3f d3 dc f3 bd 22 29 c5 b5 c9 10 71 bc
       1.1496446 -0.11907353 -1.4689615e-06 -0.014713475
0000f0 2c 68 71 b6 7c 27 71 3f 65 5f 45 bd 5b 6c 19 3f
       -3.5972434e-06 0.94200873 -0.04818668 0.5993096

act_fc2.weight f4 [64, 64]
000000 9c c6 26 3f d8 50 b7 b8 75 71 0d 3f e0 3a 4f be
       0.65146804 -8.741178e-05 0.55251247 -0.20237303
000010 34 e8 99 bd cc 7e 06 3e 74 da e5 39 be 77 01 bf
       -0.07514992 0.13134307 0.00043841044 -0.5057334
000020 86 72 9c 3b 2f 60 b2 bd de 4e 21 3e cc 40 c9 3d
       0.0047743944 -0.08709752 0.15752742 0.09826812
000030 85 15 87 bf 3f 74 0c bb a6 e5 07 34 48 c6 6e 3d
       -1.0553442 -0.0021431593 1.26564e-07 0.058294564
000040 6c eb 0e bb 54 28 df 3d 8a 6a 96 be f8 76 1f 32
       -0.0021807803 0.10896364 -0.29378158 9.2820684e-09
000050 45 a2 52 39 3b 71 1b 3f aa 1c 0b ba 8c 91 bf 36
       0.00020087611 0.6071965 -0.00053067005 5.7091875e-06
000060 7d 2b ab 3e 07 b9 1a bf 77 49 df 2f 1d e0 d5 3e
       0.33431616 -0.6043858 4.0615664e-10 0.41772547
000070 84 23 09 bb 00 17 c1 bd d1 31 0f 3f 2f 8d 60 3b
       -0.002092571 -0.09428215 0.5593539 0.003426384
000080 8e 05 88 be c9 cb 4b be f2 c8 19 3e f2 8d 76 bd
       -0.26566738 -0.19901957 0.15018061 -0.060193963
000090 f8 25 8f 39 2a e0 f6 bd 0f fe bf 3e ae 13 12 3e
       0.00027303374 -0.12054475 0.3749852 0.1426532
0000a0 f7 29 9e 3e b1 ca 74 be fa 59 61 87 45 dc e8 a4
       0.30891392 -0.23905446 -1.695356e-34 -1.0098711e-16
0000b0 49 4c f4 ba b0 70 39 3f be b4 44 bd b9 75 8d b5
       -0.0018638457 0.7243757 -0.04802393 -1.053958e-06
0000c0 ca 8c d4 be d4 d7 7f bf 7c 50 95 3e ae c6 21 3e
       -0.41513664 -0.999387 0.29162967 0.15798447
0000d0 ac 18 02 bf 2d 1e 2d be 20 6c da bd 99 60 26 3f
       -0.50818896 -0.16906042 -0.106651545 0.64991146
0000e0 15 93 57 3e 5a 9d f3 bb 8a 3e 51 b4 79 47 91 b2
       0.21052201 -0.0074345293 -1.9487393e-07 -1.6912724e-08
0000f0 c1 e3 bc 34 7b 98 29 bf cd 48 e5 b5 4e 3e 3b be
       3.5183442e-07 -0.6624829 -1.7083017e-06 -0.18285486
000100 b5 7b a1 bd f4 52 e8 3b 15 ee 38 be 1e 4d 10 be
       -0.07884923 0.007089967 -0.18059571 -0.14091918
000110 1e 51 40 be e0 85 49 3d 0a 2d 3d bb 5f a9 17 3f
       -0.18780944 0.04919994 -0.0028865957 0.59242815
000120 7b c7 f7 b7 08 3c 21 3e ca 6e 5a be dc 3b 04 bf
       -2.9537585e-05 0.15745556 -0.21331325 -0.5165384
000130 6d 52 a7 be 22 dc dd ba 6e 6d c6 aa ab 42 68 3d
       -0.32680073 -0.0016926567 -3.5247798e-13 0.056704205
000140 ee 79 96 3a 05 82 30 3e 60 61 a1 bc f2 15 49 b8
       0.001148043 0.17237099 -0.019699752 -4.7942573e-05
000150 74 4c 5c 3a ac 72 7f be a1 50 95 3b e7 78 c4 32
       0.00084037264 -0.24946088 0.004556731 2.2872383e-08
000160 d1 25 bd 3e 1c 87 a5 be a3 99 f0 b6 68 8e e4 bd
       0.36942914 -0.32329643 -7.170443e-06 -0.11159974
000170 84 2b b5 bb 53 78 7d bb d8 8a 89 be d1 72 c6 29
       -0.005528869 -0.0038676455 -0.26863742 8.812884e-14
000180 08 0a b6 3d 6a df cb 3e 57 76 8a bd 70 f5 3e bd
       0.08888632 0.3981889 -0.06760853 -0.046620786
000190 1b c7 04 be 23 3b f1 bc 08 4a 7c 3e f5 c0 f4 3d
       -0.12966578 -0.029447144 0.24637616 0.11950866
0001a0 46 66 55 be ad 82 0e 3f 66 8f 3d 82 3c 7e b6 35
       -0.20839795 0.55668145 -1.392668e-37 1.3596796e-06
0001b0 40 9d 6f 3a d7 33 12 3f 27 38 e8 3b c8 23 ca 23
       0.00091405585 0.5711035 0.007086772 2.1916038e-17
0001c0 83 83 b4 be 5d 44 4a 3d b9 ec 97 bc ea c9 b9 be
       -0.35256585 0.049381603 -0.018545495 -0.3628686
0001d0 be 86 99 be 08 32 9a 3a 38 63 77 be 0b d1 49 be
       -0.29985613 0.0011764178 -0.24158943 -0.1970865
0001e0 f8 48 81 3d e7 7d 0a 3d 43 2e a1 ba b3 c2 90 37
       0.06312746 0.033811476 -0.0012297112 1.7256802e-05
0001f0 d9 12 23 b2 7b 46 c4 bd a4 64 2c ba 31 45 7b bd
       -9.492134e-09 -0.095837556 -0.0006576276 -0.061345283
000200 1a e8 56 bc 39 43 77 3c 54 7a 69 be 4e 60 85 3e
       -0.013116861 0.015091711 -0.2280057 0.26050037
000210 ac 52 8a bd 6b 33 02 3e 89 8d 48 3c 4e 0c 92 3e
       -0.0675405 0.12714927 0.012240776 0.28525013
000220 a6 76 0b b9 b5 26 dd 3d 3e 79 82 be bb 46 85 bd
       -0.00013300273 0.107983984 -0.25483125 -0.065076314
000230 7c ed 05 3e 75 2e 5d bb a8 7e c6 b8 00 de 70 3e
       0.13078874 -0.0033749614 -9.464967e-05 0.23522186
000240 ec 22 06 bc 7c 2f 41 be 06 56 2a be bd 0a 15 33
       -0.008187037 -0.1886577 -0.16634378 3.4701532e-08
000250 51 a1 8d bb 6f 93 db 3e f5 80 3c 3a c1 a5 d3 3a
       -0.004322209 0.4288592 0.0007190847 0.0016147421
000260 13 f2 95 3d 7f a1 fa 3b f0 1f 88 37 66 76 e1 bd
       0.073215626 0.0076486464 1.6227335e-05 -0.11008911
000270 da 75 c6 3b c8 ff 59 bb af 4a b1 bd 2d 56 43 ba
       0.0060565295 -0.003326403 -0.08656823 -0.0007451501
000280 90 eb 81 bc e4 8c a0 be 6d ef da bd ad 43 d0 be
       -0.015859395 -0.3135749 -0.10690198 -0.40676633
000290 3d 94 a2 bd 4d ef 21 be 0b 09 9f 3d 23 3a 01 be
       -0.079384305 -0.15813942 0.07765397 -0.12619834
0002a0 6a bb a0 be af 5f 69 3e 0d aa a9 3b 95 6d 03 a2
       -0.31392986 0.22790407 0.0051777423 -1.7811823e-18
0002b0 25 ff 52 3a ed 8a 4a 3e f4 2c ee bc ac d9 0e 36
       0.0008048884 0.19779558 -0.02907417 2.128635e-06
0002c0 0a 0c d4 bc 4d d1 65 3e 8f a1 29 bd 32 99 fd bd
       -0.025884647 0.22443123 -0.04141384 -0.12382735
0002d0 98 78 0c be e2 4a cc bd 18 f1 1b be 60 92 7d 3e
       -0.13717878 -0.0997522 -0.15228689 0.24762869
0002e0 2b ab 2e 3e 8a 92 4d bb dd df 18 ba 8e f3 2e b9
       0.17057483 -0.0031367862 -0.0005831698 -0.00016684664
0002f0 81 16 6e b6 3d 31 3c 3e a9 9e e3 b9 b8 bd 2c bc
       -3.5477863e-06 0.18378158 -0.00043415025 -0.010543279
000300 97 df 82 bc e7 23 c0 bc 86 7c 06 3e 8c 6d e0 3e
       -0.015975757 -0.02345462 0.1313344 0.43833578
000310 01 f6 03 3e 0f 46 78 3d 9f 12 38 bd cf f5 ae 3e
       0.12886812 0.060613688 -0.044939633 0.34171912
000320 0a f1 c8 bb 18 d7 b2 bc 74 37 c1 bd 89 5e 88 be
       -0.0061322497 -0.02183108 -0.09434405 -0.26634625
000330 fb d9 5a 3e f6 8d 8c bc fe aa 9d ab ce db 4b 3e
       0.21372215 -0.017157536 -1.1202981e-12 0.19908068
000340 59 14 90 3c 00 ec 7d bd a1 f0 9f 3b 14 49 93 b4
       0.017587828 -0.061992645 0.00488098 -2.7434055e-07
000350 fa e9 76 ba fb 14 fa be 4a c7 4a ba 4b 44 a3 b8
       -0.00094190205 -0.48844132 -0.0007735385 -7.785166e-05
000360 d1 34 1a be db 23 93 3d e1 a7 7e 19 7a e3 a1 3d
       -0.1505921 0.07184573 1.3165395e-23 0.07904716
000370 a9 94 07 bd 1e 18 fa bb 01 05 ab be 85 39 93 3b
       -0.033100758 -0.0076322695 -0.33402255 0.004492941
000380 00 d1 0b bd ae 0f c6 3e 3c d8 68 3d 28 b3 d9 be
       -0.034134865 0.38683838 0.056846842 -0.42519498
000390 e3 1f ac be 34 1f b6 bc bf 0b b0 3d c5 ab cc bd
       -0.33618078 -0.022231676 0.085959904 -0.099937
0003a0 ca f1 61 be 32 b3 88 3e c8 cf 15 12 6d 5c 41 82
       -0.22064891 0.26699215 4.727222e-28 -1.4205926e-37
0003b0 71 37 95 3b c6 99 08 3e d9 72 33 bc c9 aa 0a b6
       0.0045537283 0.1333991 -0.010952675 -2.0663012e-06
0003c0 5a 23 9c 3d 34 95 4e 3d 83 0f 01 be 34 57 f8 bd
       0.0762393 0.05043526 -0.12603574 -0.12126008
0003d0 50 ad 02 be b1 e4 3b bc e0 2f 28 bd f8 83 a2 3d
       -0.12761426 -0.0114680985 -0.041061282 0.07935327
0003e0 9c 1a da bd 19 aa 2a bd aa 0b ad b9 00 50 39 38
       -0.106496066 -0.041666124 -0.00033005822 4.4181943e-05
0003f0 7a 0f 23 38 a7 76 0a 3e 7f c1 d4 39 22 24 68 bd
       3.8876642e-05 0.13521825 0.00040579957 -0.056675084

act_fc2.bias f4 [64]
000000 40 37 a1 3c 9c f8 29 3e 5a 68 95 3d 71 1b 22 3c
       0.019679666 0.16598743 0.07295294 0.009894238
000010 4c f4 d4 bc 81 7c 35 bd 6d 50 0c 3e d2 69 c0 bd
       -0.025995396 -0.04430819 0.13702555 -0.093951836
000020 1a 06 78 3d 18 4c d6 be 1e 33 32 be 66 de 9a 3e
       0.060552694 -0.4185493 -0.17402312 0.30247802
000030 a5 ef a0 3e de d7 d9 bd a5 c5 0c bf 3e 3a 53 3e
       0.31432834 -0.106368765 -0.5498908 0.20627686
000040 92 8b cc 3d 13 6f 97 be d2 49 ca 3e 6f 51 02 3f
       0.099875584 -0.2957693 0.39509445 0.5090551
000050 33 3f af 3e 1b 7e 5d 3d ff e7 e5 bd ad 20 57 bd
       0.34227905 0.05407534 -0.1122589 -0.052521396
000060 58 73 10 be cc 45 63 3e 5e 55 99 3d c4 40 08 3f
       -0.141065 0.22194594 0.074869856 0.53223825
000070 7d f8 09 3f c1 3a 54 3d 75 2d f5 3d f1 83 c0 3d
       0.5389479 0.051813845 0.11971561 0.09400166
000080 d2 05 bf 3d 73 18 3f 3c 2c d2 08 3e 3c 75 05 3f
       0.09327282 0.011663544 0.13361424 0.5213201
000090 8c 63 03 3f 8c f8 9d 3d 1e d9 6a 3e 3f 9c 06 be
       0.5132377 0.07713422 0.22934386 -0.1314554
0000a0 ef 74 1c bc 36 ef cb bd f1 a1 12 3d 87 27 a7 3e
       -0.0095493635 -0.09957735 0.03579897 0.32647344
0000b0 12 63 ed 3e d1 a2 da 3e 71 46 ae be 60 c4 3b 3d
       0.46364647 0.42702344 -0.34038118 0.045841575
0000c0 d4 04 2a 3e 51 32 05 bf 59 3c 01 be e6 11 9a 3e
       0.16603404 -0.520299 -0.12620677 0.3009178
0000d0 bd 92 97 3e 0f 45 27 be a0 da cb be aa 37 68 3d
       0.2960414 -0.16334938 -0.39815235 0.05669371
0000e0 37 a2 12 be 82 91 16 3e cc 4f b9 bd e3 39 e1 3c
       -0.14319693 0.14703944 -0.09048423 0.027493423
0000f0 aa 76 96 3c 92 6f 8c 3d 2a cd e1 3d b7 a8 5d bc
       0.01836713 0.06857218 0.1102546 -0.013528994

val_fc1.weight f4 [64, 384]
000000 c8 8e 84 bd 8b ee ed be 76 28 82 3c c0 fa 8f be
       -0.06472546 -0.46471056 0.015888434 -0.28120995
000010 49 0a 90 be 10 e1 dd 3d d5 14 38 be ed 9f 11 be
       -0.28132847 0.10833943 -0.17976697 -0.14221163
000020 82 94 44 be 8b 45 3c be e7 f2 c3 bd 39 8c 28 3c
       -0.19197276 -0.18385904 -0.09567814 0.010287338
000030 f3 fa ee bc 26 de b2 3d 5a 6b 20 be 5d c0 8e 3b
       -0.029172396 0.08733778 -0.15665951 0.0043564276
000040 0f 87 f1 bc 46 32 08 bd 01 06 29 be f1 48 f8 3d
       -0.029483346 -0.03325107 -0.16506197 0.121232875
000050 0f 18 69 be 4f b0 9d 3c da ac a6 3c 69 52 b4 bd
       -0.22763084 0.01924911 0.020346094 -0.08804781
000060 f8 22 61 bd 01 55 02 3e f0 35 5e be 9c d1 04 3d
       -0.05496499 0.12727739 -0.21700263 0.03242646
000070 9e 8a b0 3c d5 d7 92 bd 08 25 24 3d 03 45 38 be
       0.021550473 -0.07170073 0.04007438 -0.17995076
000080 b4 e6 8f bd 52 34 ea bd 4d 8b d3 3d 1e 98 b7 3c
       -0.07026425 -0.114357606 0.10329304 0.022411402
000090 29 10 e6 bd 43 44 e4 bd a1 8e d8 3c 31 9e 06 be
       -0.11233551 -0.111458324 0.026435198 -0.13146283
0000a0 98 f9 28 3e 9a 83 77 be 46 71 9a bc 1a b9 83 be
       0.16501462 -0.24171296 -0.018852841 -0.2572716
0000b0 c7 25 8e 3e 58 a3 69 be 28 82 14 3e b2 7e 8c bd
       0.27763197 -0.22816217 0.14502776 -0.06860103
0000c0 79 26 d3 bd 82 ae 64 be 45 41 97 be 49 69 3e be
       -0.103100725 -0.22332194 -0.29541984 -0.1859485
0000d0 30 c9 ea bd d6 cc bc 3c f4 85 a2 3d bc 99 88 bd
       -0.11464155 0.023046892 0.07935706 -0.066699475
0000e0 a6 97 a9 bd 70 ef e5 bc 86 5c 53 bd 6a 87 1f 3d
       -0.08280878 -0.028068274 -0.05160191 0.0389475
0000f0 05 ec 78 bd fb 5e 2d 3e 94 15 fd bd 2b 0f 51 3d
       -0.06077196 0.16930763 -0.12357631 0.051039856
000100 58 a8 d5 3d 8d 6a 10 be dc 96 81 3d 8f d7 30 3e
       0.104325 -0.14103146 0.06327602 0.17269729
000110 f0 55 df bc 4a 3f 57 3e de 0d 2b bd 4b 1e a3 bd
       -0.027262658 0.21020237 -0.04176127 -0.07964762
000120 f5 67 4b bd 62 c1 88 be 84 e8 b0 bc d1 9e 51 be
       -0.049659688 -0.2671004 -0.021595247 -0.2047074
000130 8d 33 23 3d d3 69 93 3d 80 c3 fe bd e9 3c 9c be
       0.039844085 0.07197919 -0.124396324 -0.3051522
000140 bd 34 83 bb 93 62 bc be 73 e9 45 3e 0b a5 1a 3d
       -0.0040040896 -0.36793956 0.19327335 0.037755053
000150 cd 1c c6 3d 24 fc 03 be 00 85 21 3e 14 a1 aa be
       0.09673462 -0.12889153 0.15773392 -0.33326018
000160 e3 ad 0d 3e 02 d8 dd 3d cf b9 71 be 64 f3 c4 be
       0.13835864 0.10832216 -0.23606037 -0.38466942
000170 c4 10 3b 3d 19 4a 8a be 5e 53 58 3e 85 c1 91 be
       0.045670286 -0.27009657 0.21125552 -0.28467956
000180 a6 6c 1d 3e da c7 ad bd 80 7e 4f be c0 ec 4f bb
       0.15373477 -0.08485384 -0.202631 -0.0031726807
000190 3d 21 f5 bd 47 87 1a 3e 26 f5 de bc ab 06 69 3e
       -0.1196923 0.15090667 -0.027216505 0.2275645
0001a0 ad ea 63 be 69 24 17 bd 04 ea 4c 3d 77 60 cb bd
       -0.2225749 -0.036899958 0.050027862 -0.099305086
0001b0 73 91 87 3e ad 05 4f 3e 31 58 fb bb 8e 69 5f 3e
       0.26478156 0.20217009 -0.0076704253 0.2181761
0001c0 5f a4 ce bd 73 28 9e be 33 9a 74 bd aa ca 33 be
       -0.10089945 -0.30890235 -0.05971737 -0.17557779
0001d0 b4 37 31 bd 1b 98 43 bd da 64 ce ba 57 ae 58 be
       -0.043266013 -0.04775248 -0.0015746609 -0.21160255
0001e0 c5 0e 6e bd d5 08 56 be d8 75 94 bd 6a e3 62 bd
       -0.058119554 -0.20901807 -0.072490394 -0.05539266
0001f0 ea c5 b5 3d cc 66 f0 bd a9 1c 19 3d ba c3 18 bf
       0.0887564 -0.11738357 0.037380848 -0.59673655
000200 cb 64 8a 3d bc cc c9 be ec 3e c3 bc ef 51 27 bd
       0.06757506 -0.39414012 -0.023833714 -0.040849622
000210 b7 15 79 be b6 31 bd be be 4a bf ba 3b 83 e6 be
       -0.2432469 -0.3695199 -0.0014594418 -0.45021996
000220 b4 ab 01 bc f1 49 41 bd 71 24 2c 3c 41 16 6b be
       -0.007914472 -0.047189657 0.010506735 -0.22957708
000230 a3 5a a9 3d 50 e7 10 be a4 f9 95 3d 01 a7 16 bc
       0.08269241 -0.14150739 0.07323006 -0.00919509
000240 f5 a3 79 bd e2 73 9a 3d 88 e2 51 be fe 22 12 be
       -0.060947377 0.07541634 -0.20496571 -0.14271161
000250 d6 58 fa bd 79 75 14 3e 71 54 51 3e c9 54 fd 3c
       -0.12223975 0.14497937 0.20442368 0.030924218
000260 20 a7 46 bd 95 06 26 3e dc 08 e1 bd 24 24 e9 bd
       -0.048499227 0.16213448 -0.10988018 -0.113838464
000270 d5 1b 86 bd 29 b5 46 3d 85 38 42 bd 4a 04 1c be
       -0.06548277 0.04851261 -0.047417182 -0.15236011
000280 eb 96 7b bd 57 19 cc bd 2d 47 bc 3c 4f f5 88 3e
       -0.061423223 -0.09965771 0.022983158 0.26749656
000290 e8 32 b1 bd 65 b9 87 3d 64 74 03 be 20 e9 9d be
       -0.08652288 0.06627158 -0.12837368 -0.30841923
0002a0 b8 58 be bd 51 ee da be 64 89 dd bc 0a 91 22 be
       -0.092942655 -0.42759946 -0.027043052 -0.1587564
0002b0 87 db 0d be 44 0c c7 be 24 46 ed bd 34 80 9a be
       -0.13853274 -0.38876545 -0.11585644 -0.30175936
0002c0 af a7 a3 bd c6 00 27 be b5 a0 47 ba 5b 17 a3 bd
       -0.079909675 -0.16308889 -0.0007615195 -0.07963439
0002d0 42 7f 66 3c 93 b6 89 be 67 cf da 3d 00 87 fb bd
       0.014068427 -0.26897106 0.1068409 -0.122816086
0002e0 41 01 bd 3d 07 2e 4e 3d b2 e0 61 be 19 53 f5 bc
       0.09228755 0.050336864 -0.2205837 -0.02994685
0002f0 e0 9c 0f be dd 23 12 be c9 92 8e bd de 6b 02 be
       -0.14024687 -0.14271493 -0.06961591 -0.1273646
000300 e0 1b 24 3d ff cb 8d be 62 64 0b be 24 a7 c4 bd
       0.040065646 -0.276947 -0.13612512 -0.09602192
000310 d9 dc 83 be ad f7 21 3c 37 94 41 bd 1d c4 61 be
       -0.2575443 0.009885711 -0.04726049 -0.22047468
000320 1b b9 04 bc d1 d8 d3 be 96 dd c3 bd 20 9f 62 3e
       -0.008100773 -0.41376355 -0.095637485 0.22131014
000330 33 da 00 be a3 0d 9c be f9 2c 29 3d fd d6 5f be
       -0.12583236 -0.30479154 0.041302655 -0.21859355
000340 9d 4b b9 bd 85 90 69 be 99 c7 09 be a3 ed a7 be
       -0.09047625 -0.22809036 -0.13455047 -0.3279849
000350 9f ba d7 bc b8 1f 64 be 73 29 3b bd 1c 61 76 be
       -0.026334105 -0.22277725 -0.045693826 -0.24060482
000360 c0 b8 96 bc dc 82 31 3e 30 04 05 be 68 34 e7 3c
       -0.018398643 0.17335075 -0.12989879 0.028223231
000370 db 76 be bd 3a 44 9e be 1d 82 f9 bd f3 66 8a be
       -0.09300014 -0.30911428 -0.1218302 -0.2703167
000380 56 b6 2e 3d 95 30 93 bd 96 6e 74 bd 7a ab 6f be
       0.042654358 -0.07187001 -0.059675775 -0.23405257
000390 4f a6 84 3d ae d3 43 3e 41 b6 d0 bd 7c 4f f0 3d
       0.06477033 0.19123718 -0.10191012 0.117339104
0003a0 1b 1f 8b be 61 f5 03 bd c7 d2 03 3e 8f 76 81 3e
       -0.2717217 -0.032216433 0.12873374 0.25285766
0003b0 a5 75 72 bc 2f 02 89 3e 86 f9 f2 bd 06 01 f6 bd
       -0.014798556 0.26759478 -0.11863999 -0.12011914
0003c0 02 78 1b 3e 29 ff fa 3d b6 2a c3 bc 52 17 ba be
       0.15182498 0.12255699 -0.023824077 -0.36345917
0003d0 8a 0c 65 be 05 c8 e9 3e eb b6 ae be 3f 95 31 bf
       -0.22368065 0.45660415 -0.3412393 -0.69368356
0003e0 f9 1b 66 3d 7c 4c d1 be a6 d0 19 be 7a 74 ae be
       0.05617902 -0.40878665 -0.15021 -0.3407324
0003f0 18 ab f9 bd bb 0a f5 be 81 a3 53 3d 98 38 0b bf
       -0.12190837 -0.4785975 0.0516696 -0.5438323

val_fc1.bias f4 [64]
000000 28 2c 99 3c 56 01 09 bf 8d 6d b5 bd 81 2c 61 be
       0.018697813 -0.53517663 -0.08858786 -0.21989633
000010 5d 1f 3d be 25 b8 b9 bd c7 c5 e2 bd 0f 37 10 be
       -0.18468995 -0.09068326 -0.11072879 -0.14083503
000020 6f b4 ac a7 d3 95 74 3e 43 b0 59 be 3d da 0f bd
       -4.7935217e-15 0.23885278 -0.21258645 -0.035120238
000030 f2 e5 c0 be 4c 44 b5 3a 60 3a 01 bf 94 5f d8 be
       -0.37675434 0.0013829558 -0.504797 -0.4226042
000040 9c 6e 2d be ee 5a 04 be 8a dc 77 bd e1 42 0b ae
       -0.16936725 -0.12925312 -0.060513057 -3.166434e-11
000050 10 20 65 3e 06 ad ad ac 49 36 b7 bd b9 72 02 bd
       0.22375512 -4.936165e-12 -0.08945901 -0.03184769
000060 76 5c 4d 3e 17 0b 43 be 80 8c 80 3e af 2c a3 3e
       0.20054802 -0.19047199 0.25107193 0.31870028
000070 dc 1d ad 3e 0b 92 01 be ef 55 05 be 49 7e c2 bd
       0.33811843 -0.12653367 -0.13021062 -0.09496743
000080 3e 8b a5 bc 0f 64 27 bf 37 00 c4 be 5d 95 25 be
       -0.020207997 -0.6538705 -0.38281414 -0.16170259
000090 b2 f7 30 bf 62 74 9d bb b7 52 38 3c 48 3d 9c be
       -0.69127953 -0.0048051337 0.0112501895 -0.30515504
0000a0 2c df 89 be 3c 01 d6 be 91 ab 75 bc 7e 2a df b6
       -0.2692808 -0.41797817 -0.014994518 -6.6508646e-06
0000b0 dd 51 ff bd c2 3d 66 be c6 2e 81 3d d8 d7 10 bf
       -0.12466786 -0.22484496 0.063077495 -0.5657935
0000c0 29 14 19 be 10 a8 2f be 68 8a 8a bc 12 c8 08 be
       -0.14949097 -0.17153955 -0.0169117 -0.13357571
0000d0 47 fa 57 3c d1 3f 8d bd d4 09 38 be c8 7e 4c be
       0.013182229 -0.06896938 -0.17972499 -0.19970238
0000e0 42 16 21 be 8c 21 52 be 35 05 c9 be 90 62 1c be
       -0.15731147 -0.2052061 -0.39261785 -0.15271974
0000f0 c5 82 fd be aa 17 d8 3e 24 cf d7 3e 31 64 26 be
       -0.49513832 0.42205554 0.42150223 -0.16249157

val_fc2.weight f4 [1, 64]
000000 1d 8c 62 3e 87 65 bc 3e e6 59 a8 bc 1d 3b 8a be
       0.22123761 0.3679621 -0.02055068 -0.26998225
000010 89 ff 42 bd b6 a9 58 3e 33 45 ca bd 17 b3 06 3f
       -0.04760698 0.2115849 -0.0987648 0.5261702
000020 7d d9 0c 3b 31 4f 00 3e 30 f8 2b 3e 2c ea 43 bd
       0.0021491938 0.12530209 0.16793895 -0.047830746
000030 f3 aa e0 be 0b 97 02 3d 68 65 c7 be f2 57 1a 3f
       -0.43880424 0.031882327 -0.38944554 0.60290444
000040 65 1c da bd 75 57 a7 bd 54 5f 02 3e fb 62 10 80
       -0.10649947 -0.08170978 0.12731677 -1.504875e-39
000050 c0 e5 27 3e cb a2 47 8c e1 47 df 3d ff 21 ce be
       0.16396236 -1.5379391e-31 0.10902382 -0.40260312
000060 a6 16 17 3e f8 ff 53 be e6 87 6f be 30 d7 1a 3f
       0.14754733 -0.20703113 -0.23391685 0.604846
000070 e2 83 7d 3e 4c dc 22 be de dc b5 bd 71 f1 38 be
       0.2475734 -0.15904349 -0.08880018 -0.18060853
000080 26 db 87 be ad f4 e4 3d 19 d4 d2 3e c2 8e 81 be
       -0.26534384 0.11179481 0.41177443 -0.25304228
000090 4a 0c 92 3e a8 68 c3 bb c3 d4 e1 3e 71 36 ed 3d
       0.28525 -0.0059634037 0.44107637 0.115826495
0000a0 e0 1b ea bd 9a bb 04 be 8b d8 ef 3e d1 a2 1c 80
       -0.11431098 -0.1296219 0.46844897 -2.629801e-39
0000b0 ba 8b fb bd 0b 79 c6 3e 87 b9 aa 3d 29 b6 72 3e
       -0.1228251 0.38764223 0.08336168 0.23702301
0000c0 76 71 a6 bd ac e5 33 be d4 1a 1b 3e 71 37 9d be
       -0.0812711 -0.17568082 0.15146953 -0.3070636
0000d0 9a ff 31 3f de 8a 48 3d 77 6f f2 bc 45 6b be bd
       0.6953064 0.04896056 -0.029594166 -0.09297804
0000e0 d4 73 a5 bd dc 20 c8 3e 4f 63 f6 be 24 68 c7 bc
       -0.08078733 0.3908757 -0.4812264 -0.02434165
0000f0 a2 23 fe 3d a9 1a 8b 3e 1d 53 d8 bd c6 a5 97 3e
       0.1240914 0.27168778 -0.105627276 0.29618663
