Server/src/ml/models/0000/best.model (torch, 217668 bytes, 10 tensors)

layers.0.lin.weight f4 [6, 4]
000000 38 9c 3f 3f 61 31 a5 be 5c 3d 21 3e 52 e6 85 3d
       0.74847746 -0.32264236 0.15746063 0.06538071
000010 03 81 71 3f b4 5c 03 bf 6d f7 91 3e c7 47 eb 3c
       0.9433748 -0.5131333 0.28509083 0.02872075
000020 b6 bd cf bf c8 e4 86 3f 33 a8 fe bd ff 2d ac 3e
       -1.622977 1.0538568 -0.12434425 0.33628842
000030 80 c1 d4 3e bd 16 04 3e 0c 61 24 3e 67 5e 41 bc
       0.4155388 0.12899299 0.16052645 -0.011802292
000040 0a 38 e0 3e cd e9 aa 3f 7d 1d 2e be 45 68 77 3d
       0.43792754 1.33526 -0.17003436 0.060402174
000050 0c 1b 2f bf dd 08 89 be c4 36 ed 3e 73 28 81 be
       -0.68400645 -0.26764575 0.46330845 -0.25226173

layers.1.lin.weight f4 [6, 6]
000000 83 2f 1b bf ed 0f 1d bf ee 1d 51 3e 81 3b c7 3d
       -0.6061937 -0.61352426 0.20421574 0.09728146
000010 5d 8e 02 3f fa 9e 9a bd aa 96 3e bd a8 03 4d bd
       0.5099848 -0.075498536 -0.046530403 -0.050052315
000020 66 2c 43 bd 71 4b 4f b9 b2 a9 3e bd ec 8d 89 b9
       -0.047649764 -0.00019769162 -0.046548553 -0.00026236416
000030 ea 21 bd 3e a1 4c 14 3f 78 c2 b6 bf 55 09 f6 3e
       0.36939937 0.57929426 -1.4278097 0.48053995
000040 20 61 06 3e 9e 3c 77 be 8d 10 bf bd fd 32 ad bd
       0.13122988 -0.24144217 -0.09329329 -0.08456991
000050 67 e8 f9 3e 17 ae a8 be 42 d9 56 be b8 bc 6e 3e
       0.4881012 -0.3294532 -0.20981315 0.23314178
000060 11 fc 86 be f2 05 b2 be 97 fa 51 3e db 5d ed bd
       -0.26364186 -0.3477016 0.20505749 -0.11590167
000070 06 9d 9b 3e ba 9f 86 3e 63 6d 99 3d 97 d7 a6 3c
       0.30393237 0.26293737 0.07491567 0.020366473
000080 dc aa d5 be cc 75 86 3e 7c a5 4a 3f e4 08 1d 3f
       -0.41731918 0.26261747 0.7915876 0.6134169

layers.2.lin.weight f4 [6, 6]
000000 df f4 99 bd 10 3b 5f bd a4 8a 5c 3f 6b ae 73 3d
       -0.075174086 -0.054499686 0.8614905 0.05949251
000010 0a 5e f1 be 16 86 2a 3e 33 88 17 bf 1d 49 cf 87
       -0.4714206 0.16652712 -0.591922 -3.118887e-34
000020 ac ac 04 3f 01 ec ff be bb c5 b0 be b8 e4 af 3e
       0.51825976 -0.49984744 -0.34525856 0.34354186
000030 70 68 31 3f af f8 3c 3d 64 e4 64 be b9 3c 93 be
       0.69299984 0.0461356 -0.22352749 -0.28757265
000040 c2 07 cd 3e 13 03 0a 3f f9 fd 06 3e 7b 93 e2 bc
       0.4004498 0.5391094 0.1318282 -0.027658215
000050 6b 57 88 3e 10 39 74 be 43 6c 84 3c e5 81 1a 3f
       0.26629195 -0.23849893 0.016164904 0.60354453
000060 b4 9c 7e 3e 53 7d 18 3d 71 63 48 3e 66 ab 02 3f
       0.24864465 0.037228893 0.19569184 0.51042783
000070 5d 8e 76 3e 7b c0 be bf a9 a1 24 be 45 ab b0 bd
       0.24077745 -1.490249 -0.16077293 -0.08626417
000080 5e e9 32 3f 45 8d 32 3d 33 42 be be 4c 0f 93 3c
       0.6988734 0.043591756 -0.3715988 0.01795163

act_fc1.weight f4 [64, 384]
000000 5c 69 2a 87 53 9b 88 87 f5 ae f1 a1 da 73 27 88
       -1.2820341e-34 -2.0554297e-34 -1.6377106e-18 -5.0390917e-34
000010 b8 1e 16 07 97 b5 85 06 b7 e1 11 08 c0 0c f9 87
       1.1293773e-34 5.029586e-35 4.3899677e-34 -3.747285e-34
000020 51 28 17 a0 02 3a 14 88 4f 69 1f 89 92 13 c0 07
       -1.2803537e-19 -4.460532e-34 -1.9188445e-33 2.8900452e-34
000030 7a 3f 20 88 fe 1c 37 88 58 12 3e a5 64 48 5e 08
       -4.8222865e-34 -5.510364e-34 -1.6486088e-16 6.689079e-34
000040 7c 79 2e 87 62 e8 82 08 76 7c c9 08 1d 55 8a 87
       -1.3126006e-34 7.878723e-34 1.2126508e-33 -2.0813957e-34
000050 9d 3b bf a3 82 22 5e 06 42 0c 44 89 1e a5 15 88
       -2.0733509e-17 4.1778912e-35 -2.3598405e-33 -4.503215e-34
000060 7e 6b 2b 88 e0 bc 15 84 34 99 e7 a4 68 05 09 08
       -5.1584797e-34 -1.7601593e-36 -1.0043982e-16 4.1233293e-34
000070 06 1b 25 88 ee 99 a2 88 b4 00 84 88 d1 09 32 87
       -4.9684647e-34 -9.786209e-34 -7.944626e-34 -1.3394116e-34
000080 74 6a 71 a6 bd dc c8 86 0a fb 32 08 52 27 f8 87
       -8.375794e-16 -7.5555984e-35 5.386002e-34 -3.7338003e-34
000090 3e 10 4b 08 3b 97 04 08 1c 4f 95 1a ff 72 9e 87
       6.1107183e-34 3.9900076e-34 6.1752764e-23 -2.3840786e-34
0000a0 db 59 b8 09 96 95 8a 88 39 4a 4a 07 c8 98 63 88
       4.438089e-33 -8.34074e-34 1.5218603e-34 -6.848992e-34
0000b0 78 53 b6 9e ea cb 50 87 01 51 40 88 2c 08 b7 88
       -1.9304521e-20 -1.5708106e-34 -5.787312e-34 -1.1015833e-33
0000c0 68 8f da 86 28 08 a8 86 7c 9b 7a a4 04 03 bd 87
       -8.22132e-35 -6.320656e-35 -5.434181e-17 -2.8439332e-34
0000d0 0a 12 d5 08 14 61 b5 87 eb 54 ad 08 36 12 00 08
       1.2823712e-33 -2.729091e-34 1.0432023e-33 3.8540006e-34
0000e0 0c 04 37 b0 50 52 91 07 81 47 c6 09 67 1f 20 87
       -6.6580763e-10 2.1865554e-34 4.7734008e-33 -1.204629e-34
0000f0 2c 7b a5 88 e5 0a 39 87 fb 6e d1 ae ac 90 45 06
       -9.959534e-34 -1.3921055e-34 -9.523934e-11 3.715787e-35
000100 fa 67 6b 06 ba b7 0c 89 ef b1 a3 0b 21 c1 ac 88
       4.4274978e-35 -1.6938275e-33 6.305304e-32 -1.0397278e-33
000110 a0 26 81 b2 97 b9 ca 09 85 08 a6 08 2b 3c 37 09
       -1.5035141e-08 4.880426e-33 9.9927645e-34 2.2056115e-33
000120 73 34 4e 0c 52 67 30 87 84 0e 2f b3 16 be 09 89
       1.5885446e-31 -1.3271131e-34 -4.0758565e-08 -1.6580153e-33
000130 44 eb 67 07 33 d9 83 0a 56 72 8f 08 f2 43 ab 87
       1.7447647e-34 1.2696542e-32 8.63338e-34 -2.5769155e-34
000140 3b 38 ba ae e4 7a d7 08 30 fe 19 08 9e 55 d2 88
       -8.468289e-11 1.2968733e-33 4.634056e-34 -1.2659044e-33
000150 e9 eb 05 08 8b 78 44 07 f9 75 f0 af 98 e1 87 06
       4.0300543e-34 1.4780826e-34 -4.373957e-10 5.1112836e-35
000160 83 87 61 87 be 37 1c 08 fe 72 11 88 14 5f 22 87
       -1.6966942e-34 4.7010067e-34 -4.3769523e-34 -1.2215466e-34
000170 ce 6c f6 19 73 70 6d 87 96 6b dd 09 be 84 11 88
       2.547975e-23 -1.7862944e-34 5.3304988e-33 -4.379039e-34
000180 b4 fc 6b 88 08 0e 4f 06 ef 54 4d aa 92 2f c8 07
       -7.101479e-34 3.894268e-35 -1.8237125e-13 3.0120615e-34
000190 cd fc 1c 07 cd b7 da 87 c6 1f 22 87 84 18 03 87
       1.1810427e-34 -3.2909023e-34 -1.2196863e-34 -9.862549e-35
0001a0 2b 98 a1 ad 61 21 d2 88 7d c4 28 08 64 13 34 88
       -1.8371157e-11 -1.2646763e-33 5.078663e-34 -5.4189573e-34
0001b0 c6 fb f7 0c 30 fe 7d 85 45 96 d0 b3 1f 92 f4 08
       3.8207906e-31 -1.194269e-35 -9.7130886e-08 1.4719569e-33
0001c0 44 64 be 88 92 74 31 0c cc 56 8b 94 80 89 ea 07
       -1.1458781e-33 1.3670663e-31 -1.4069649e-26 3.5289222e-34
0001d0 cb 5b aa b5 c5 29 de 08 f4 35 ed 86 6e f2 1a 19
       -1.2692702e-06 1.3370959e-33 -8.922877e-35 8.010572e-24
0001e0 b8 d9 21 1b ec 1d 77 06 a7 94 9a b4 59 1b 1d 0b
       1.3387957e-22 4.647752e-35 -2.8792894e-07 3.0257674e-32
0001f0 73 bb 96 07 46 a0 a2 1a 71 5a 21 90 3c 1d 17 08
       2.2679664e-34 6.7260565e-23 -3.1821325e-29 4.5474274e-34
000200 40 77 06 b5 6b 6b e0 88 a2 93 13 08 4d 18 b0 0f
       -5.009242e-07 -1.3506763e-33 4.4409745e-34 1.73643e-29
000210 cb 6d e5 08 d0 f1 72 06 9c 85 b5 ad 8c 64 f9 87
       1.3808248e-33 4.5692797e-35 -2.0636652e-11 -3.7524452e-34
000220 e3 14 fe 88 24 cd d3 89 5d d9 1a 88 d3 57 a7 86
       -1.5291979e-33 -5.0989316e-33 -4.65982e-34 -6.2947464e-35
000230 e0 fd 95 ac 9c fc 97 05 55 13 01 08 e8 c9 56 89
       -4.2630205e-12 1.4292766e-35 3.884225e-34 -2.5854249e-33
000240 bd 8c 5f 88 8e 95 76 87 1c 74 0c a8 62 8f 22 08
       -6.727206e-34 -1.8550933e-34 -7.796738e-15 4.8918647e-34
000250 e3 60 c5 88 06 ab dc 87 6e 81 9b 09 97 ce ba 87
       -1.1879284e-33 -3.320244e-34 3.7436608e-33 -2.8107592e-34
000260 6e 85 22 b0 ce 26 de 07 b6 58 b7 08 04 c1 d1 08
       -5.912487e-10 3.3425655e-34 1.1034768e-33 1.2624108e-33
000270 7e c1 da 13 3e 2e 09 08 c6 9e 86 b4 d2 3c 99 08
       5.5221735e-27 4.1281295e-34 -2.5074968e-07 9.222651e-34
000280 5a ed 97 07 1c de 52 94 29 57 49 a6 72 cb 6d 09
       2.2859458e-34 -1.0646094e-26 -6.985401e-16 2.8623497e-33
000290 ac d0 83 b5 69 48 5c 90 87 fc 06 89 51 5a 07 a5
       -9.820992e-07 -4.3443133e-29 -1.6248401e-33 -1.1739984e-16
0002a0 41 91 0f a4 fe 04 2e 88 fc 52 e1 b6 f8 3d 35 0d
       -3.1131217e-17 -5.236709e-34 -6.715183e-06 5.5849523e-31
0002b0 b3 46 b8 07 83 9d 3e a3 bf f5 58 1b 44 c9 e5 86
       2.7726796e-34 -1.0333275e-17 1.7946506e-22 -8.643596e-35
0002c0 48 8f 43 b4 a9 48 bd 8b fb f9 ce 07 b4 b6 c1 1a
       -1.8212916e-07 -7.290948e-32 3.114236e-34 8.01181e-23
0002d0 dd 55 69 0c f4 b1 29 07 87 e7 bc b2 6e 75 97 09
       1.7975506e-31 1.2766443e-34 -2.1991367e-08 3.6462358e-33
0002e0 8b 5e ec 07 1b bf 0b 8b c4 bc 11 08 7c 28 01 07
       3.55649e-34 -2.6914198e-32 4.3856243e-34 9.716779e-35
0002f0 f3 ef 7a a9 4e d6 d4 07 c6 19 43 08 6a b1 ac 09
       -5.5719274e-14 3.2024172e-34 5.8710975e-34 4.1574333e-33
000300 fe 0b ad 07 bd 7d 66 87 ff e9 f0 a6 64 49 3b 07
       2.6037195e-34 -1.7340228e-34 -1.671677e-15 1.4089884e-34
000310 1b ca 4d 09 b6 4e be 08 54 82 66 8a ba 25 6f 07
       2.4771007e-33 1.1453714e-33 -1.1098609e-32 1.7991448e-34
000320 02 db 29 b1 ae 81 16 06 82 04 5d 08 78 f0 63 0c
       -2.4717228e-09 2.8307138e-35 6.6510067e-34 1.7559807e-31
000330 0e 08 a8 8d 7e 3a 6a 07 96 e8 01 b3 37 0f 2b 88
       -1.03557385e-30 1.7621393e-34 -3.024669e-08 -5.1476326e-34
000340 a6 8f a3 08 98 2c 27 12 86 59 70 a3 a1 3d 20 86
       9.843977e-34 5.2750875e-28 -1.3029383e-17 -3.0137933e-35
000350 db ca 6b b6 b2 39 3f 0d 60 f8 b1 07 34 fa 9f a2
       -3.5135806e-06 5.8925867e-31 2.6777982e-34 -4.336195e-18
000360 d0 98 a5 a7 2c db c9 09 89 57 88 b5 cd a7 0c 12
       -4.596238e-15 4.8595098e-33 -1.0158266e-06 4.438304e-28
000370 12 fa d2 09 82 91 a8 a6 fc 25 cc 17 02 c2 c8 08
       5.0790826e-33 -1.1696782e-15 1.319278e-24 1.2082673e-33
000380 fd cd 10 b5 cd de 16 0c 7c 7b cb 88 0f 1e 75 19
       -5.394393e-07 1.1622626e-31 -1.2246649e-33 1.26722734e-23
000390 b7 a4 0e 0c 20 a9 18 07 fa 3d d2 b2 6c 2a d6 07
       1.0988849e-31 1.148491e-34 -2.4475401e-08 3.2224075e-34
0003a0 1e b8 00 89 8e 32 9a 0b 04 14 95 07 a3 f8 8c 87
       -1.5494011e-33 5.939471e-32 2.2430792e-34 -2.1210994e-34
0003b0 46 fd 11 aa 6b 04 6e 88 c6 01 c0 08 7a 5d e8 07
       -1.2966459e-13 -7.1625713e-34 1.1555997e-33 3.496242e-34
0003c0 d9 06 23 08 24 38 84 87 7d 12 77 ac 39 d7 a9 88
       4.9059078e-34 -1.989415e-34 -3.5111074e-12 -1.0221916e-33
0003d0 d0 66 3c 89 8f 74 ab 09 bf 60 d0 07 f6 22 89 08
       -2.2678019e-33 4.1276364e-33 3.1353224e-34 8.253607e-34
0003e0 4f 17 e5 ac b0 6e 05 08 8d 86 71 08 97 4a 49 07
       -6.5111592e-12 4.0153344e-34 7.2681463e-34 1.5143479e-34
0003f0 66 94 15 0c 42 3e bd 88 a9 8c 46 b4 0e ca e6 09
       1.15232e-31 -1.13896605e-33 -1.8491359e-07 5.5560497e-33

act_fc1.bias f4 [64]
000000 1d a3 3b bd 2e 85 66 bb ba 46 c0 bd 7c 5e 52 bf
       -0.045809854 -0.0035174596 -0.0938849 -0.8217542
000010 63 fa 46 bd 9f a1 d4 bc 65 dd a3 bd 6a ba 05 3f
       -0.04857863 -0.025955973 -0.08001212 0.5223757
000020 ae e1 7b bb f3 8b 16 bd 15 15 9c 3f b3 09 97 3e
       -0.0038434076 -0.03675456 1.2193934 0.29499587
000030 89 0a 97 be bc 73 19 bd 18 3c b8 bc e8 9a 71 bd
       -0.29500225 -0.03746389 -0.022489592 -0.05898562
000040 16 c1 1d bc 26 07 fe 3e 94 f2 86 bb bd d2 d8 bb
       -0.009628555 0.4961483 -0.004118273 -0.006616919
000050 4c ad d7 bd 29 9f dc 3e 9e 3f 31 bc 95 9d 84 bb
       -0.10531101 0.4309018 -0.01081839 -0.0040471056
000060 d2 43 73 3f 79 81 0e bc 42 96 97 bb b6 b8 89 bd
       0.9502536 -0.008697861 -0.0046260664 -0.06724684
000070 50 a3 a6 bc 10 85 98 bc e2 ec 86 3f 6c 34 49 bb
       -0.020341545 -0.018618137 1.0541041 -0.0030701412
000080 10 95 aa bb 3d 89 ff bd 1e 0e 54 bb 0e 65 e5 bc
       -0.005205758 -0.12477348 -0.0032357047 -0.028002288
000090 42 f9 4e 3f 76 ff 2a bc aa 5b 12 3f a3 d5 97 bc
       0.8084909 -0.010436883 0.5717112 -0.018534487
0000a0 0c 01 b4 3d 32 db 78 3e 47 21 12 bc ee 61 eb bc
       0.08789262 0.24302366 -0.008919067 -0.02873322
0000b0 1e f6 9e ba 00 d5 a5 bb 62 26 f0 bb 25 6c d9 bc
       -0.0012127792 -0.005060792 -0.0073287943 -0.026540825
0000c0 31 68 ea 3f ad a3 b7 bc 4c 91 ab bb c5 8e 2b ba
       1.8313047 -0.022416914 -0.0052358266 -0.00065444066
0000d0 72 c2 42 3e 72 df 83 bd da 4a 2f bc 57 4a 9e bb
       0.19019488 -0.06439103 -0.010698998 -0.0048306393
0000e0 32 a9 8d 3f 84 8d 3c be 9a e5 d1 bb 2b c1 43 be
       1.1067259 -0.18413359 -0.0064055445 -0.19116656
0000f0 6e ac e4 bc c2 93 e3 b9 e8 cf 13 ba 92 9e 04 3f
       -0.027914252 -0.00043406902 -0.00056385854 0.5180446

act_fc2.weight f4 [64, 64]
000000 07 f0 be 8b 23 80 95 86 e6 02 95 bd 22 d9 e1 3e
       -7.354649e-32 -5.623585e-35 -0.072759435 0.44110972
000010 c9 07 8e 0a a0 93 c3 0a d2 6f 84 89 03 d6 f8 3d
       1.3677031e-32 1.8833347e-32 -3.1883e-33 0.121501945
000020 d0 c5 20 07 b9 51 0b be 8e d2 34 be e6 18 76 3d
       1.2095194e-34 -0.13605393 -0.17658445 0.06008234
000030 db 6f 44 bd 8f 52 11 b1 4b 6f f8 85 e6 1b ee b6
       -0.047958236 -2.1147206e-09 -2.336269e-35 -7.0962005e-06
000040 90 18 21 87 78 44 1e 3e c7 eb 0d 86 70 3e 30 09
       -1.2119512e-34 0.15455806 -2.6692374e-35 2.1214587e-33
000050 13 78 ff 3d 7a 43 07 3e b0 7d fd 06 14 e7 e0 85
       0.12474074 0.13209334 9.5352704e-35 -2.1149743e-35
000060 1d 93 76 3d 84 51 31 86 d2 9e b9 85 69 79 90 3c
       0.060198892 -3.3349888e-35 -1.7455658e-35 0.017636018
000070 d4 3c 11 87 ab 17 8e 07 c9 71 91 be 9b ce 8c 05
       -1.0926463e-34 2.1379696e-34 -0.28407124 1.3241432e-35
000080 9c 36 26 87 36 2d 65 be f0 82 ae 84 32 b3 67 bf
       -1.25045e-34 -0.22380528 -4.102745e-36 -0.90507805
000090 79 f0 11 3e a0 84 50 83 19 6c 28 3d 52 e1 22 09
       0.1425189 -6.1277952e-37 0.041118715 1.9605986e-33
0000a0 89 94 3b bf 05 a9 29 3e 0a b2 6f 06 c6 d8 08 13
       -0.7327352 0.16568382 4.5081706e-35 1.727249e-27
0000b0 a9 84 9b 05 d3 ac 17 06 59 81 68 85 60 83 35 0a
       1.4624862e-35 2.8526915e-35 -1.0932345e-35 8.739542e-33
0000c0 6b 13 69 bd 8f 26 5e 37 99 67 c8 05 4c 80 00 05
       -0.056903284 1.3241209e-05 1.8845965e-35 6.0420955e-36
0000d0 03 d4 17 be d6 06 ba 18 b8 5f 62 87 e8 1a 64 07
       -0.1482697 4.8086776e-24 -1.703048e-34 1.7160721e-34
0000e0 b3 89 12 be 54 45 8a be 6b 0c b9 84 de 65 e9 bb
       -0.1431034 -0.27006018 -4.3504695e-36 -0.007122739
0000f0 3d 81 12 8b fb 04 5f 07 e0 7c c7 03 46 37 0a 3e
       -2.8215805e-32 1.6778119e-34 1.1724839e-36 0.13497648
000100 75 1c d1 37 db e0 99 38 66 ea 12 be cd 1f da be
       2.4927993e-05 7.337491e-05 -0.14347228 -0.42602387
000110 b9 09 f2 36 ca 21 7a 38 e5 b9 39 3c fd af 34 3f
       7.213294e-06 5.9636113e-05 0.011335825 0.70581037
000120 b8 59 3d 39 c0 07 9f bc ec e3 24 bf c9 86 12 be
       0.00018057867 -0.019412875 -0.6441028 -0.14309229
000130 08 8c a1 bd ab f0 e8 38 79 f0 ae 31 d2 ea 11 ba
       -0.07888037 0.0001110745 5.091405e-09 -0.0005566302
000140 f0 d7 47 34 46 77 20 3f ee 7b 02 99 e6 9a da 37
       1.8611877e-07 0.62681997 -6.74587e-24 2.6059755e-05
000150 5a ee a2 bc 8b 70 28 3e 26 b5 01 3c 2a ea 8b 98
       -0.019889046 0.16449182 0.007916724 -3.6167103e-24
000160 9b e7 02 3d 3b b4 92 35 4d a1 a5 39 a8 10 95 be
       0.031959157 1.0930302e-06 0.0003159143 -0.2911427
000170 91 b3 25 2f e8 d8 41 39 ad 12 e6 be 70 36 3c 0d
       1.5070457e-10 0.00018486718 -0.44936123 5.79975e-31
000180 44 66 a9 24 f2 bd 97 3e 8b c6 aa 99 d2 88 cb be
       7.346531e-17 0.29637104 -1.7657779e-23 -0.39752823
000190 9f fb 45 bf 48 f9 c6 2e 95 53 a1 3e f0 14 d5 3a
       -0.7733707 9.048279e-11 0.3150908 0.001625685
0001a0 bb a3 2b bf e1 0f be 3e 37 ca d5 36 77 c5 9f 39
       -0.6704671 0.3712149 6.3714356e-06 0.00030473966
0001b0 f6 9b 49 87 fa 72 a7 99 04 42 07 09 9e d0 42 37
       -1.5167392e-34 -1.7313834e-23 1.6281074e-33 1.1611874e-05
0001c0 0b 15 f6 3d fe 7e 84 b4 00 b8 16 9a 23 58 40 06
       0.120157324 -2.4679315e-07 -3.1167907e-23 3.617594e-35
0001d0 a3 ec 90 be 83 0f 11 3d bc 11 36 37 75 04 97 39
       -0.2830554 0.035415184 1.08521745e-05 0.00028804285
0001e0 f0 27 15 3e dc b0 56 be 3f c5 22 28 df 86 f9 3c
       0.14566016 -0.20965904 9.0355774e-15 0.03045982
0001f0 b0 7c 18 38 c1 57 c7 38 dd ab a3 24 9c b1 43 3e
       3.635575e-05 9.505405e-05 7.098113e-17 0.19110721
000200 dc db 45 b1 25 be 1d 87 d9 f9 a0 be ad 82 38 3f
       -2.8792249e-09 -1.1867246e-34 -0.3144062 0.72074395
000210 06 fc f4 af 84 59 c2 29 98 85 3a 0a 79 e1 4e 3e
       -4.4562415e-10 8.630859e-14 8.9807004e-33 0.20203198
000220 af c5 03 08 f1 8d 3a 3b 5c 86 45 be c0 96 bb ba
       3.9653754e-34 0.0028465951 -0.19289535 -0.0014311895
000230 37 fc 2e be fd 7a d5 3d 4d ab 66 09 ac ac d1 37
       -0.170884 0.10423849 2.7765788e-33 2.4995148e-05
000240 e0 64 81 86 c6 72 91 bd 02 12 f9 06 7d 59 83 8b
       -4.867263e-35 -0.071019694 9.368985e-35 -5.059401e-32
000250 1f d3 83 3a 23 a1 0f 3e 23 9d 95 0a e7 18 7d 86
       0.0010057426 0.14026313 1.4407286e-32 -4.7602307e-35
000260 75 e3 d1 3d ec 4f 9d 07 35 0e ac 08 f8 8b 2a be
       0.10248462 2.3669708e-34 1.03552135e-33 -0.16654956
000270 b2 f4 ca 12 31 a3 72 a4 68 9e bb be be 13 b5 06
       1.2808314e-27 -5.2613614e-17 -0.36644292 6.811364e-35
000280 80 53 10 87 87 65 66 be f6 8d f0 06 a1 aa a9 be
       -1.0857894e-34 -0.22499667 9.048656e-35 -0.33137992
000290 ae 43 88 be e8 53 d7 06 bd 3a b7 3c c4 c4 8c 1a
       -0.26614136 8.09973e-35 0.022366876 5.8220535e-23
0002a0 40 78 d1 be ff 28 2a 3e 59 3f 0c 8a 3f 3e 49 b3
       -0.40912056 0.16617201 -6.752669e-33 -4.6855572e-08
0002b0 39 51 06 85 4b b7 c0 06 5c 1e 9e 06 ad 0d f4 2c
       -6.315568e-36 7.24917e-35 5.9477603e-35 6.9364154e-12
0002c0 67 3b a1 be 39 bc d0 39 9e ab bd 06 84 86 89 85
       -0.31490633 0.00039813088 7.134607e-35 -1.2932831e-35
0002d0 48 d2 af be f0 99 0b 27 d5 24 c5 88 93 22 b3 06
       -0.3434012 1.9373575e-15 -1.1865165e-33 6.738312e-35
0002e0 d8 0d c4 be ea 4d dd 3d a8 11 eb 05 2e 5a 45 3d
       -0.38291812 0.108058766 2.210578e-35 0.048181705
0002f0 21 33 6d a9 b8 15 26 08 2a 24 15 86 b1 cf 44 3d
       -5.266892e-14 4.997934e-34 -2.8050354e-35 0.048049632
000300 f4 07 e6 ae e7 43 3d 07 b4 d2 17 3e 55 ec f9 3e
       -1.0460602e-10 1.4238734e-34 0.1482647 0.4881312
000310 98 9c 83 ab a5 83 c7 12 5d 82 ac 8a c1 c2 c2 3e
       -9.351573e-13 1.25911185e-27 -1.6612035e-32 0.3803921
000320 18 6a 56 85 80 b0 6f 3d 10 78 5d bd 64 f2 44 3e
       -1.0081718e-35 0.058517933 -0.05406958 0.1923309
000330 7b d5 e9 3d 17 53 8b af 35 85 46 89 c9 01 b6 b2
       0.11417671 -2.5342992e-10 -2.3896017e-33 -2.11884e-08
000340 b3 98 3f 8b c3 bb 12 be 09 a5 d7 87 80 13 fc 08
       -3.690014e-32 -0.14329438 -3.2446603e-34 1.5171283e-33
000350 40 c4 37 b8 53 25 13 bd c6 b4 21 8b c7 75 e4 06
       -4.3813372e-05 -0.035924267 -3.114347e-32 8.5937126e-35
000360 91 5f 47 3d 70 29 a5 0a e5 8d 99 85 e5 c0 4d 3e
       0.048675124 1.5904509e-32 -1.4440175e-35 0.20093115
000370 34 83 ce 8a a7 db 59 8a 2c 19 96 be 0f af 78 07
       -1.9886432e-32 -1.0489482e-32 -0.2931608 1.8708891e-34
000380 1a 12 30 07 0d 5e 85 3d c8 ca 81 07 9c 39 4c be
       1.3246088e-34 0.065120794 1.9528947e-34 -0.19943851
000390 48 65 84 bd c8 77 84 87 46 3f f7 3e 6c 4d bd 0b
       -0.0646463 -1.9931554e-34 0.4829046 7.2916643e-32
0003a0 be 49 b3 be 57 c3 c7 3e 9f 44 f9 8b ae 1e e7 ad
       -0.35017198 0.3901622 -9.601456e-32 -2.6275284e-11
0003b0 93 ee 3c 87 4c d4 0e 88 57 13 d3 87 e7 b5 1c a2
       -1.4213659e-34 -4.2981124e-34 -3.1759118e-34 -2.123824e-18
0003c0 07 65 b9 be 70 f1 09 2f e9 a6 23 07 eb ce 12 06
       -0.3620989 1.2545853e-10 1.2311808e-34 2.7611567e-35
0003d0 c5 2d 55 bd 4c ed c7 37 32 7b 0d 0c bc ee d4 86
       -0.052045602 2.3833149e-05 1.0899318e-31 -8.0096325e-35
0003e0 82 a4 59 bd 08 78 27 3e 54 2d f3 06 2b c5 40 bd
       -0.053135403 0.16354382 9.1473044e-35 -0.047063034
0003f0 8a 13 c8 0b 22 19 74 08 91 24 3f 87 78 74 a3 3e
       7.7066597e-32 7.3455623e-34 -1.4379989e-34 0.31924796

act_fc2.bias f4 [64]
000000 81 a2 2e bf e2 43 45 3e 10 2d bb be 7e d1 66 be
       -0.6821671 0.19264176 -0.36557817 -0.22540852
000010 4f 31 33 be fd 80 c2 be 35 82 ad 3d 04 cb 32 bf
       -0.17499278 -0.37989035 0.08472101 -0.6984103
000020 12 7d 2e 3e 56 df a6 be fe 4f 35 be 0a 66 a4 3e
       0.17039898 -0.32592267 -0.17706296 0.321091
000030 4e 5f 74 3e 1d e2 05 3d b9 e1 ce be 21 d4 71 3d
       0.23864481 0.03268634 -0.40406588 0.059040193
000040 55 10 ba be 23 10 99 be 5b 95 6a 3d c6 6a fc 3e
       -0.36340585 -0.29895124 0.057271343 0.49300212
000050 f7 13 33 3f b6 b5 a9 3e 56 d4 02 be 58 04 f7 be
       0.6995234 0.33146447 -0.12776312 -0.48245502
000060 f8 47 90 be 15 6e 89 3e 76 2c c2 3e ea 58 94 3e
       -0.28179908 0.26841798 0.37924546 0.28974086
000070 e1 71 f4 3e 4e 2c 0a 3f 30 54 54 3e a3 ff 70 be
       0.47743133 0.53973854 0.2073524 -0.23535018
000080 3b 98 1a be 29 36 83 3e ed 57 e6 3e 3f bb da 3e
       -0.15097134 0.25627258 0.44988957 0.42720982
000090 03 e3 8a 3e a0 24 c9 3e 18 7e dd 3d 1a 44 a1 be
       0.2712632 0.39285755 0.10815066 -0.3149727
0000a0 dd 75 db be f1 99 9f be aa ca a5 3e 34 50 e5 3e
       -0.4286336 -0.31172135 0.32381183 0.44787753
0000b0 db 9c 2a 3f 3d 7e 96 3e 9f 7a ac be 78 71 f6 be
       0.6664559 0.29393187 -0.33687302 -0.48133445
0000c0 60 37 ec 3d 8b 16 c0 be ea 43 84 bc 82 bf a2 3e
       0.115339994 -0.375172 -0.016145665 0.31786734
0000d0 21 dd a5 3e 88 80 4d be 73 99 95 be 34 83 81 3e
       0.3239527 -0.20068562 -0.29218635 0.25295413
0000e0 b1 cc 32 bf 7a 4d 6c 3c cf fa e0 be bd a7 11 be
       -0.69843584 0.014422769 -0.43941352 -0.14224143
0000f0 16 ca 90 be 0d 45 ae be 61 cb 5d 3e 4a 7d 30 bf
       -0.2827918 -0.34037057 0.21659614 -0.68941176

val_fc1.weight f4 [64, 384]
000000 87 fd a4 3c 9c ae d3 b8 b3 af 48 bd 23 26 e0 3b
       0.020140423 -0.000100937876 -0.048995685 0.0068404838
000010 41 96 60 bc 2b bb 27 3c 9c 8c 31 ba 51 49 6b 36
       -0.013707698 0.010237495 -0.00067729666 3.5060405e-06
000020 0b cc 4d bc ec b4 81 39 11 85 6b bc 99 1f 1e ba
       -0.012560855 0.00024739595 -0.014374987 -0.000603193
000030 9e e3 17 ba 1a 85 2a b7 b7 28 de bc 22 89 b7 39
       -0.00057941105 -1.016378e-05 -0.027119024 0.00035006652
000040 13 39 1c bc bf b3 8d ba cf 73 8f 39 9f db b7 b4
       -0.009535092 -0.0010811015 0.0002736137 -3.4246202e-07
000050 8d 50 88 bc 76 fc b6 ba 03 7a 39 bb 33 6f b5 b9
       -0.016639972 -0.0013960737 -0.0028301484 -0.0003460586
000060 aa 3f 6e 3b 72 79 ce b4 b1 0e 4b bd f2 73 e9 ba
       0.0036353865 -3.8458853e-07 -0.049574558 -0.0017811044
000070 73 15 13 bb e2 99 ba 3a 9d 90 3c 3a aa 32 ff b5
       -0.0022443205 0.0014236534 0.000719318 -1.9013726e-06
000080 9f 19 ed bc d6 b5 ae ba 22 a1 18 bc 85 47 fd 38
       -0.028942881 -0.0013329338 -0.009315761 0.00012077302
000090 5d 7c f8 3b 3b c9 fb 37 18 a8 c7 ba c3 bf 09 ba
       0.0075831846 3.0015237e-05 -0.0015232591 -0.000525471
0000a0 a5 8d 9d bb c8 74 91 3b 3b a7 89 3c bf c7 3e b8
       -0.004808145 0.0044389702 0.016803375 -4.5485558e-05
0000b0 5b 68 23 bd 5d 69 06 3c d1 49 7f bc 2c 63 0a 3c
       -0.039894443 0.0082038315 -0.015581564 0.008446496
0000c0 da f6 ef 3a 42 b4 02 38 6a 68 9a bc 8e cd d5 39
       0.001830782 3.1162293e-05 -0.018848617 0.00040779676
0000d0 4c 92 20 bc b2 75 8a 3a a5 4c 35 ba 7c e9 80 b6
       -0.009800505 0.001056364 -0.0006916023 -3.8418784e-06
0000e0 a4 ed 13 bd 9a 42 70 3b 0a fd 8b bb 58 68 d0 39
       -0.036115304 0.0036660791 -0.004272108 0.00039750594
0000f0 cc 82 26 bc 19 96 1d b8 6b 9c aa 3d e7 d6 54 bc
       -0.01016302 -3.7571506e-05 0.083306156 -0.01299069
000100 44 2a 76 ba 94 f8 0e bc 1a 5f d0 3b 8e ca 76 b7
       -0.00093904533 -0.008726258 0.0063589932 -1.4709904e-05
000110 e0 24 c5 bd 5b 9c 1f bc a4 d6 d1 bb 83 76 ff 3a
       -0.09626174 -0.009741868 -0.006403761 0.0019490275
000120 b8 00 4f 3c 16 b1 56 ba d3 b5 a7 bd 3f 62 3c bc
       0.012634449 -0.000818984 -0.08188977 -0.011498033
000130 e6 fd 1a bc b6 c4 db 3b 18 b7 a7 bb e1 6e 0e 39
       -0.009459948 0.0067067994 -0.005118262 0.00013583481
000140 e1 f1 4b 3d 97 af 8d bc 8f 72 09 ba f1 2d 94 bb
       0.04979122 -0.017295642 -0.0005243206 -0.004522078
000150 fc b5 34 bc 1f c7 f3 b7 64 74 96 3c 46 8c bc bb
       -0.011029717 -2.906058e-05 0.018366046 -0.0057540266
000160 74 de 5e bc af 33 03 bc e8 f0 60 3c 72 fa d0 38
       -0.013602842 -0.008007928 0.0137293115 9.964862e-05
000170 85 b5 9c 3c 4c d2 03 3b 03 c5 44 ba 8d 41 d3 3b
       0.019129524 0.002011436 -0.00075061637 0.0064470232
000180 c4 8c 49 3c 8e 3a 85 b7 36 2c 27 bd 24 d9 49 3a
       0.012301628 -1.5882102e-05 -0.040813647 0.0007699898
000190 f0 96 61 3b c3 4f e8 3b 74 ab 5f bc 72 d2 ad 36
       0.003442224 0.0070895865 -0.013651717 5.180301e-06
0001a0 c1 4c 90 3d 2d 19 34 bc a7 b5 31 3b a9 e1 18 bc
       0.0704589 -0.0109923305 0.002711633 -0.009331145
0001b0 37 c3 8a bc d7 ea 16 bb 94 dd 28 bd 2f 61 c4 bc
       -0.016938789 -0.002302816 -0.04122694 -0.023972122
0001c0 92 a9 56 bc 45 f0 9c bc 7e 45 e7 3c ae 46 9e bb
       -0.013101952 -0.019157538 0.028231379 -0.004830203
0001d0 ac b8 ae bd 8c a1 f0 bb 1a f1 02 bc 2b 41 17 3c
       -0.08531317 -0.0073434766 -0.007992053 0.009231846
0001e0 5f c8 39 3d 56 9d 71 bb b4 2d f1 bd 89 10 93 bb
       0.045357104 -0.0036867461 -0.11776295 -0.004488055
0001f0 b4 77 0f bc 4d 07 d1 3c f6 d9 a8 38 38 45 ce ba
       -0.008756567 0.025516177 8.051463e-05 -0.0015737182
000200 69 c1 9b bc 95 48 b7 bc 10 d7 a0 bc 28 58 0c bb
       -0.019013124 -0.022373477 -0.0196338 -0.002141485
000210 24 62 b6 bb 86 4b a1 38 4b 4a 6e 3d 2d ba 53 bc
       -0.0055658985 7.6911456e-05 0.05817632 -0.012922806
000220 03 2f 5d 3b 59 a9 80 bb 48 28 eb 38 ae 4b 67 b7
       0.0033749945 -0.003926438 0.00011213176 -1.37862935e-05
000230 0f 68 68 bd a2 14 1c 3a d9 1e 21 bc 4e 99 1f ba
       -0.056739863 0.0005954002 -0.009834015 -0.0006088213
000240 d6 21 23 3b 55 18 ae b6 39 62 60 bd 34 9c e2 ba
       0.0024891994 -5.1884367e-06 -0.054781172 -0.0017288984
000250 15 d1 89 3b ca 6e 49 3a 4e 3d c7 3b 76 7c d6 b9
       0.0042058327 0.00076840504 0.006080306 -0.0004090999
000260 0c 97 a3 bd c5 54 3c bc 6c ce 1d bb 07 f9 71 3b
       -0.07987794 -0.01149482 -0.0024079336 0.0036922114
000270 67 f2 2b 3c e0 38 53 bb be f0 28 bd bf a0 9f bb
       0.010494805 -0.0032229945 -0.041245215 -0.0048714573
000280 05 89 d0 bb 75 66 bb 3a 98 47 6f 3d d7 70 91 ba
       -0.0063639903 0.0014297502 0.058417886 -0.0011096251
000290 27 8b 2c be 7b fe ec 3c cf f1 3e bb 8b d7 4e 3d
       -0.16849957 0.02892994 -0.0029135828 0.050498527
0002a0 d2 96 87 3d a8 b4 b5 bb 12 d2 21 be 4e ff 11 3d
       0.066205636 -0.0055452175 -0.15802792 0.03564387
0002b0 03 7a a7 bb 8a f0 5d 3d 4f 4a 1c 3d 28 a4 55 bb
       -0.0051109805 0.054184474 0.038156804 -0.0032599065
0002c0 7c c0 8b bd 37 d6 85 b8 72 fd 16 bc 48 f3 99 3c
       -0.06823823 -6.381835e-05 -0.0092156995 0.018792763
0002d0 8a 9f d6 3b b0 9e b5 b9 3b f7 78 bd 48 56 23 bb
       0.0065497803 -0.00034641242 -0.060782652 -0.0024923254
0002e0 b2 85 d5 bb 15 f5 29 3b 68 61 ab 3c 7e 74 a8 36
       -0.006516182 0.0025933434 0.02092047 5.0203516e-06
0002f0 cb 4b 47 bd c6 8c 12 3b fe 17 7b 3b 7a 4d f8 3b
       -0.048656266 0.002236174 0.003831386 0.0075775953
000300 b5 83 68 38 5c 20 39 b7 48 f3 8c bd a1 0a 99 bb
       5.5435772e-05 -1.10343935e-05 -0.0688234 -0.0046704565
000310 bc fe 63 39 21 63 18 ba 5c 55 40 bc d6 90 31 b9
       0.00021743303 -0.0005813111 -0.011739101 -0.00016933991
000320 7a 97 29 bd b7 c8 74 bc 51 fe a3 bb 8d 8b bc bb
       -0.041404225 -0.014940432 -0.005004682 -0.0057539404
000330 68 f3 86 3c d7 28 e2 ba 2c 61 50 bd 89 1f 3e bc
       0.016473487 -0.0017254603 -0.05087392 -0.011604198
000340 44 af 11 bc bf ef bb 3b 1d 97 52 3d 7f 17 98 bb
       -0.008891884 0.005735367 0.051413644 -0.004641473
000350 5f 1d 14 be 62 4b 41 3d 4f f9 a4 bb 9b 3b 23 3d
       -0.14464329 0.04719103 -0.0050346027 0.039851766
000360 6f a2 50 3d db f6 97 bb 4c eb 02 be b3 a6 09 3d
       0.05093616 -0.0046375818 -0.12785071 0.033606242
000370 be 1d 91 bb 04 d9 2e 3d 1d 67 ec 3c d3 f3 c0 bb
       -0.0044285944 0.04268743 0.028857762 -0.005888441
000380 9e a8 12 bd 25 1a f3 3b 9f 4d 42 bc 9d ab 01 3c
       -0.035805337 0.007418888 -0.011859327 0.007914451
000390 4a 03 a9 3a 62 70 08 b9 ae 69 ef bc b8 12 a6 bb
       0.0012894657 -0.00013011837 -0.029225197 -0.0050681494
0003a0 dc 04 0e bb 5a 71 27 3a 09 ac 29 3c 3a ab 73 b7
       -0.0021670377 0.0006387435 0.010355958 -1.45237955e-05
0003b0 60 ca 22 bd 08 f2 59 3a 21 b7 fa 3a 0d 3b 0d 3b
       -0.03974378 0.00083139585 0.0019128063 0.002155009
0003c0 8c 75 30 bc b7 8f 62 b9 47 0c 5f bd c9 b0 d3 bb
       -0.010770213 -0.00021606578 -0.054455068 -0.0064602834
0003d0 92 81 14 bc 78 e7 ed bb 3e 72 b0 bc 7d 50 0f b7
       -0.009064095 -0.0072602592 -0.02153885 -8.542204e-06
0003e0 ba 30 88 3d a7 45 5a bc de 3b c8 bb b1 ef 69 bc
       0.06649919 -0.0133222705 -0.0061106523 -0.014278338
0003f0 5c 7a d3 bc a5 25 3e ba b8 c6 28 3d 8c 4b da bc
       -0.025815181 -0.0007253534 0.041205138 -0.026647352

val_fc1.bias f4 [64]
000000 18 e0 44 bd 45 8a 30 bd 57 55 91 be 1a 47 51 bd
       -0.048065275 -0.043100614 -0.28385422 -0.0510932
000010 ac d7 1a b0 93 c8 a4 3c b4 1f 73 bd d6 b0 b4 bc
       -5.633136e-10 0.020115172 -0.059356406 -0.022056978
000020 f5 c2 68 bd 42 70 3d be b8 83 b2 3d aa 83 14 3e
       -0.05682655 -0.18499854 0.087165296 0.14503351
000030 74 02 ac 3c 2d 04 1e 3d e3 07 d5 bb df 17 55 bd
       0.020997263 0.0385782 -0.0065011843 -0.05202472
000040 7f 06 46 3e e0 0f ab bd a5 9a 9e bc e6 5e aa 3a
       0.19338416 -0.08352637 -0.01936085 0.0012998253
000050 7e 46 9a b2 2a 9b 9a b0 ff 90 c4 be cb 90 2f 3c
       -1.7960016e-08 -1.1249075e-09 -0.38391873 0.010715674
000060 bd 14 94 b1 12 a5 22 bd c7 d8 08 bd a3 23 aa 3e
       -4.3097246e-09 -0.039708205 -0.03340986 0.33230314
000070 a5 d2 1b be 43 56 df bd f7 d3 0f bb 27 fc 70 bd
       -0.15217073 -0.10905125 -0.002194641 -0.05883422
000080 f7 39 ae 3d 44 08 e1 bc 49 56 84 bd 41 69 cd ba
       0.0850715 -0.027469762 -0.0646177 -0.0015671627
000090 ee e0 4a 3d dd b7 77 bc 21 7a 2d be 9d 55 73 bd
       0.049530916 -0.01511952 -0.1694112 -0.05940782
0000a0 42 ec 9d bd 6b d9 d5 3d af 77 cd bc 07 9d 2f 3d
       -0.07711078 0.1044186 -0.025081484 0.042874362
0000b0 77 06 26 be b9 99 c7 bd bd 50 07 bf d6 5e a5 be
       -0.16213404 -0.09746117 -0.5285757 -0.32298917
0000c0 fe a9 7c 3b 6c 8a ba bc 62 ad 2d be 08 77 c9 3d
       0.0038553472 -0.022771083 -0.16960672 0.098371565
0000d0 a1 39 3e bb cc ef a8 38 61 4d d5 ba bd b1 54 3d
       -0.0029026049 8.05553e-05 -0.0016273671 0.051927317
0000e0 31 27 82 bd 55 be 7e 3c 26 cd cd b2 d4 04 b1 3d
       -0.063551314 0.015548308 -2.3958432e-08 0.08643499
0000f0 5e a5 5d bd 43 1b 24 3e 01 b8 58 bd 2e e0 68 3d
       -0.054112785 0.16026025 -0.052909855 0.05685442

val_fc2.weight f4 [1, 64]
000000 e9 63 96 bd 0b 8e 15 be b7 6c 9c 3d db 27 5f 3d
       -0.07343275 -0.14604966 0.07637923 0.05448137
000010 56 26 71 85 9e ff 26 bc 8f f4 14 bc 35 d8 39 3d
       -1.1338807e-35 -0.01019278 -0.00909151 0.045372207
000020 41 dc 11 bc 44 c7 77 3d dd 87 df be 7f e6 74 3e
       -0.00890261 0.06049277 -0.43658343 0.23916052
000030 6a c5 37 bd 98 ac bd 3c 81 3f 9e ba 35 68 a0 3d
       -0.044866003 0.023153588 -0.0012073369 0.07832376
000040 2e 07 3c be 51 b8 65 bc b2 ae 4f bb 77 b9 33 be
       -0.18362114 -0.014020995 -0.003168982 -0.17551218
000050 09 98 63 ba ea 92 7e 84 c0 1a ee 3e fa 5c 2e be
       -0.0008682018 -2.9925016e-36 0.46504784 -0.17027655
000060 bb ae 1d 37 8d c5 b3 3d e2 47 ae be 32 73 36 3e
       9.398612e-06 0.08777914 -0.34039217 0.17817381
000070 8d 9d ca bd b9 e9 08 be 41 cf e0 bb f1 c3 0f 3c
       -0.09893332 -0.13370408 -0.006860644 0.008774743
000080 5e 04 71 be 51 6d 68 be 7d a8 30 bd 5c 0f 3b bd
       -0.23536822 -0.22697951 -0.043129433 -0.045668945
000090 8e de 08 3d b6 3b 14 bf 98 3a 47 3d 4d a0 17 be
       0.03341537 -0.5790361 0.048639864 -0.14807244
0000a0 fb bb b6 bc 14 8f 5c be 70 62 8f 3d c4 b5 e6 bd
       -0.022306433 -0.21538955 0.07001197 -0.11265138
0000b0 62 e2 8f be 2f 64 0e bd 74 43 23 bf c0 d9 c4 bc
       -0.28102404 -0.03476351 -0.637748 -0.024029613
0000c0 53 52 b1 bd 30 65 88 3c fd 68 25 3c 0f 83 19 be
       -0.0865828 0.016649812 0.010095832 -0.14991401
0000d0 76 ba c4 3c 5a f7 64 be 8b e2 5e be d6 cf 7f be
       0.024014693 -0.22359982 -0.21766107 -0.24981627
0000e0 c9 2b af be 4e f6 03 3f 9b b9 c4 38 0f ff ba bd
       -0.34213093 0.51547706 9.38058e-05 -0.0913068
0000f0 bc 44 ac bd a8 a6 05 3d 65 fe e1 3e d6 d6 0f 3f
       -0.084115475 0.03262964 0.441394 0.5618719
