Server/src/ml/models/example8by8_5/best.model (torch, 217732 bytes, 10 tensors)

layers.0.lin.weight f4 [6, 4]
000000 24 d9 84 3f 0b af 4a bf 5d 43 27 3e e4 a1 47 3d
       1.0378766 -0.79173344 0.16334291 0.048738375
000010 93 99 8d 3f 4c 17 11 bf 5e 82 98 3e c5 b4 c5 3e
       1.1062492 -0.56676173 0.29786962 0.3861448
000020 5f e3 bb bf a1 3f c1 3f 36 04 a7 bd a2 39 5f 3e
       -1.4678763 1.5097543 -0.081551 0.21799329
000030 8e b8 94 3f 37 5e 26 be c3 22 45 bd f2 10 82 be
       1.1618822 -0.16246878 -0.048128854 -0.25403553
000040 f0 b7 83 3f 89 14 d5 3f 21 67 48 3d 48 75 e1 3d
       1.0290508 1.6646892 0.048926476 0.11008698
000050 ae 68 59 3f 71 5f 1a be 8c f2 99 3f ce b3 49 bf
       0.84925354 -0.1507547 1.2027144 -0.78789985

layers.2.lin.weight f4 [6, 6]
000000 c2 98 8c bf 4b d2 99 be c4 ad b6 3e d6 1a b8 be
       -1.0984118 -0.30043253 0.35679448 -0.35957974
000010 9c dc 57 3f ba e9 70 bf 1f 2e 9e 3e 68 04 00 3e
       0.84321 -0.9410664 0.30894563 0.12501681
000020 a1 fc b9 be 84 58 8e 3e 9f 4c a7 be 0c a2 b9 3e
       -0.36325553 0.27801907 -0.32675645 0.36256444
000030 34 43 d6 3e d6 8d 2e 3f ac 6b dc bf b6 5a af be
       0.41848147 0.68185174 -1.7220359 -0.34248894
000040 f6 fe 60 3e ce a3 96 bf 9d 56 a3 3e 87 2b 14 3f
       0.2197226 -1.1768739 0.31902018 0.5787892
000050 a9 8e 89 3e b6 90 c0 bf 68 6a bc bc 08 7b e0 be
       0.26866654 -1.5044162 -0.022999957 -0.43843865
000060 d5 6f 13 bf c2 87 a9 bf 4d 29 05 3f 95 aa f1 bd
       -0.5759252 -1.3244555 0.52016145 -0.11800114
000070 55 31 9c 3e a1 bf 0e 3f d2 80 0a 3e 0f 77 06 3e
       0.30506387 0.5576115 0.13525704 0.13131355
000080 6e 2c 51 bf a8 6c c6 3e d8 ca 8d 3f bb ed 7b be
       -0.8170842 0.38754773 1.1077528 -0.24602406

layers.4.lin.weight f4 [6, 6]
000000 75 e5 ab 3d b2 b2 4b be 51 2a 17 3f 10 3a e1 be
       0.08393375 -0.19892386 0.59048945 -0.4398961
000010 d5 5c 2d bf aa 55 4d 3f d0 4e ca bf 9e 99 ae 3e
       -0.67719775 0.8020884 -1.5805302 0.34101576
000020 23 1f 49 3f 15 bb b4 bf a1 a8 6d bf b5 1b 12 3f
       0.78563136 -1.4119593 -0.9283543 0.5707353
000030 ea 8d 85 3f 7c 4a 24 be e4 12 f2 bd 94 54 c2 be
       1.0433934 -0.16044039 -0.11820009 -0.37955153
000040 2e 47 98 bd 4b c8 30 3f 45 37 81 be 12 19 98 3e
       -0.074354514 0.6905562 -0.2523748 0.29706627
000050 4d 95 c2 be ee 9c f8 bf 9d d5 e2 be 9b 73 f7 3e
       -0.38004532 -1.9422891 -0.443036 0.48330387
000060 2d 93 1b 3f bf 21 cc bd fa 85 d8 be f8 ce e1 3d
       0.6077145 -0.09967374 -0.42289716 0.11025804
000070 f4 46 01 3f 4f 3c fc bf 46 4d 0d bf cd d3 a4 be
       0.5049889 -1.9705905 -0.55196035 -0.3219284
000080 f3 88 ac 3f 0d ad 98 3d 02 0e b5 3f 9a d0 f6 bd
       1.3479294 0.07454882 1.41449 -0.12051506

act_fc1.weight f4 [64, 384]
000000 d7 d8 73 be f3 1f 38 bc 91 e2 c8 3c a2 09 62 3c
       -0.23813187 -0.011238086 0.024522098 0.013796242
000010 dc 14 b5 3d a7 28 2a be 27 05 8f be 2c ad 99 3d
       0.08841869 -0.1661707 -0.27933618 0.07503733
000020 dd d3 ff bd b6 ea 24 3b 16 83 12 3d 32 4e 55 3e
       -0.124915816 0.0025164313 0.035769545 0.2083061
000030 8e cb d5 bc 6d 9d 5a 3d ca 57 33 3e 74 62 19 bc
       -0.026098039 0.05337279 0.17513958 -0.009361852
000040 87 d2 ec 3c 2b de 9f 3d 59 d2 bc bc 87 1b 73 bb
       0.028908981 0.07806047 -0.02304952 -0.0037095265
000050 0b 04 1f 3e ff 61 86 3c 41 de 17 bd 35 76 68 3e
       0.15528886 0.01640415 -0.037077192 0.22701342
000060 32 e6 49 bb 50 51 be 3c e7 7f 79 bd 6c 33 20 3c
       -0.0030807373 0.023232132 -0.060912993 0.009777885
000070 a1 73 7e bc 7b 64 13 be 78 8c 63 bd 49 51 58 3b
       -0.015530498 -0.14393799 -0.055553883 0.0033007434
000080 35 c3 3a bd d3 8e 4c 3d d5 f9 9c 3c bd 27 aa bd
       -0.04559632 0.049940895 0.019162098 -0.08308361
000090 c8 ce 35 be 36 74 83 3b 97 89 1f be c1 8c 20 3d
       -0.17754662 0.004011656 -0.1557983 0.039196733
0000a0 9a 62 32 bd 98 04 55 bd ff 50 85 bc e6 be 61 bc
       -0.043551065 -0.052006334 -0.016273974 -0.013778424
0000b0 74 ad a5 bb 86 fe f5 3c 49 b7 27 bd 52 6e 48 bd
       -0.0050560776 0.030028593 -0.04094628 -0.048933335
0000c0 91 72 7d be 9a 28 29 3e ed 9f d9 bd 09 a0 8b bb
       -0.24750735 0.16519395 -0.106262065 -0.004261021
0000d0 50 11 b3 3d 1a 53 94 3e 63 ee a8 bd 6f 8d 5e 3d
       0.087435365 0.2896965 -0.08248594 0.0543341
0000e0 ee 79 e7 3d 1f ba 7a bc ff 20 81 3d 19 86 df bc
       0.11302553 -0.015303164 0.06305122 -0.027285622
0000f0 87 aa c1 bc 69 ee b3 3d fd 24 49 3d e0 cd 28 be
       -0.023640884 0.087857075 0.04910754 -0.16484785
000100 b6 c0 46 3c bc 0a 28 3f c1 76 9a bd 29 ef 89 bd
       0.012130907 0.6564138 -0.07542182 -0.06735069
000110 f9 8b a9 3d 5e ff c7 ba b6 ce 76 bd ef c0 0d be
       0.08278651 -0.00152586 -0.06025573 -0.1384313
000120 15 52 da bd 0f 7b 78 bd ec 62 15 3e e8 78 b0 3d
       -0.10660187 -0.060664233 0.14588517 0.08616811
000130 8e 80 b9 bd 78 b0 09 bc bb bd 90 3c 27 15 ba 3d
       -0.09057723 -0.00840389 0.017668596 0.09086066
000140 80 65 b0 be 54 43 fc 3d 2f e6 cb 3d f9 e8 97 be
       -0.34452438 0.12317529 0.099560134 -0.29669932
000150 a9 94 37 3d 60 8c a2 3d 3f 01 0e be ca 4f d7 3d
       0.044819508 0.07936931 -0.13867663 0.105132654
000160 33 05 91 3d 91 a4 05 be 9a 00 15 be a0 da c8 37
       0.0708107 -0.13051058 -0.1455101 2.3943663e-05
000170 ba 1f 34 be e4 7b 56 3d 7f 7f 29 be 25 d1 f1 bd
       -0.17590228 0.052364245 -0.16552542 -0.11807469
000180 9d c5 5e bd 91 bb 3e bc 84 11 7f 3d d9 9c 46 bd
       -0.054387677 -0.011641399 0.062272564 -0.048489425
000190 91 07 b9 3b 1a 9f bc bd d6 75 6d bd 02 40 d0 3d
       0.005646654 -0.09210034 -0.057973705 0.101684585
0001a0 a7 03 8d 3b ce 4f 31 be 78 06 a8 3d db 8c 21 3f
       0.004303414 -0.173156 0.08204359 0.63105553
0001b0 86 21 54 be 88 a1 c4 bc 36 ac d5 3d 38 e2 06 be
       -0.20715913 -0.024002805 0.10433237 -0.13172233
0001c0 38 c7 08 bd 6a 17 70 bd ef 4f 1b 3e aa 7d 6e bd
       -0.033393115 -0.05861608 0.15167211 -0.05822531
0001d0 83 8c 1c bd 1a a4 7b be 4d 00 1e 3e d2 4a 2a 3f
       -0.03821994 -0.24574319 0.15429802 0.66520417
0001e0 17 a0 95 bd f3 42 d5 3d a3 31 93 bc 29 55 6f 3e
       -0.07305925 0.1041316 -0.017968005 0.2337233
0001f0 83 2d 0d 3d 1e e0 db be 97 fa 4c be c4 01 30 3e
       0.03446723 -0.42944425 -0.20017467 0.17188174
000200 e8 bd 26 3e ea a0 13 3e 54 58 f0 3d c7 ce b1 3b
       0.16283381 0.14416853 0.11735597 0.005426261
000210 51 27 a5 3c 6d 23 09 3e 55 c4 a0 be 97 f6 45 3d
       0.02016035 0.1339242 -0.3139979 0.04833087
000220 84 ed cf 3d ea 34 55 be d5 9a 03 3e bb 95 6d 3d
       0.101527244 -0.20820966 0.12852032 0.058004122
000230 04 ca df bd b7 31 84 3d ad e9 34 3d 83 93 0a be
       -0.10927203 0.06454795 0.044168163 -0.13532834
000240 e9 b2 f3 bc ab 24 e6 bc 6e 70 19 3e 5e 37 5a bb
       -0.029748397 -0.028093657 0.14984295 -0.0033297162
000250 ee 41 97 bd f7 a3 9a 3d 40 13 0d bd e7 98 d7 bd
       -0.07385622 0.07550805 -0.034442186 -0.10527211
000260 99 41 bd 3c a7 ca 97 bd 5b 86 94 bd 6b ce 3a be
       0.023102568 -0.074117 -0.07252189 -0.18242805
000270 9f 4e 37 3e f7 48 21 bd 6a 0c 8e bc 41 84 85 be
       0.17901085 -0.039376225 -0.017339904 -0.26077464
000280 8b 73 76 3e ca b6 31 3f 2c 2c f6 bc 89 bd ec bd
       0.24067514 0.6941954 -0.03005036 -0.115595885
000290 f7 83 8a 3d ea 7a fd 3d f7 2e 88 bd 18 76 09 be
       0.067634515 0.123769596 -0.06649583 -0.13423955
0002a0 a5 a1 74 3e 8d c7 ac bd 5b f6 20 bd 0e 04 17 be
       0.23889787 -0.08436499 -0.039297443 -0.1474764
0002b0 1b b6 f6 3e 7f 12 65 3f e5 3b 10 be 89 4d dc 3d
       0.4818581 0.8948135 -0.14085348 0.10756976
0002c0 f7 a0 ee 3c 26 84 22 3e 45 03 1c 3d 62 ca ae be
       0.029129488 0.15870723 0.038089056 -0.3413878
0002d0 68 0f 05 be de 18 bf 3d cd 78 75 3e 96 17 9f bc
       -0.12994158 0.09330915 0.23971863 -0.019420426
0002e0 66 35 34 bd 22 1d 46 3d 9d 5c 7b 3d 0f 78 20 bd
       -0.043996237 0.048367627 0.06136762 -0.039176997
0002f0 59 8f 26 be 06 37 71 bc 4d 07 0c bd 88 8a 03 be
       -0.1626562 -0.014722591 -0.03418665 -0.12845814
000300 44 de 0c 3e 0e 74 ce bc 66 39 40 be 46 20 1d 3a
       0.13756663 -0.025201824 -0.18771896 0.0005993884
000310 36 d6 a6 bd 4c 6c 4c be af bf d5 bd 4b 80 59 bd
       -0.08146326 -0.19963187 -0.10436951 -0.053100865
000320 de b0 29 3e 94 5b df 3c 2d d8 d4 bb a3 76 9d bc
       0.16571376 0.027265348 -0.0064954967 -0.01922161
000330 56 c9 7f bd a3 4f 82 3d 7f 12 01 ba 99 20 27 3e
       -0.06244787 0.06362846 -0.00049237156 0.16321029
000340 63 3b c4 39 99 9c b1 be d6 24 68 3e 5a e3 3b bd
       0.0003742828 -0.34689787 0.22670302 -0.045871116
000350 c3 d9 83 bd 9a 6c 50 be 6b d0 ea 3e 37 73 65 3f
       -0.06438019 -0.20353928 0.45862135 0.8962893
000360 dc ff b5 bd f8 89 42 be d8 3b 8e 3d 13 2b 07 3e
       -0.08886692 -0.18997943 0.06945008 0.13200025
000370 be ed 0d be b8 b4 20 be c9 53 2a 3e 55 b7 d1 bc
       -0.13860223 -0.15693939 0.16633524 -0.025600115
000380 0a 08 21 3b 4d 04 9e be 7e e2 53 3e 76 66 3f 3f
       0.0024571442 -0.30862656 0.20691869 0.7476572
000390 60 c0 24 be 17 13 d9 bd 66 ac 7b bc 34 66 bb bd
       -0.1608901 -0.10599344 -0.015360927 -0.09150353
0003a0 2f e6 ca bd 82 7e 17 be c7 4c 02 bd c8 a6 90 3c
       -0.09907185 -0.14794353 -0.0318115 0.017657652
0003b0 0c 8e 3a 3e b2 42 a2 bc 5c 2b b7 3c fa eb 33 3e
       0.18218249 -0.019807193 0.022359543 0.17570487
0003c0 aa 65 a9 3d ae 87 3a 3d 2f e0 57 bd f2 04 75 3d
       0.08271344 0.04553955 -0.052704033 0.05981917
0003d0 e2 c3 25 3c aa 2c 88 bd 43 89 5d 3d 11 e2 0a 3e
       0.010117503 -0.06649144 0.05408598 0.135628
0003e0 e8 e8 9c be 97 7c 84 3d 49 7b 68 3d ce dc e7 bd
       -0.30646443 0.06469076 0.0567582 -0.11321412
0003f0 f7 3d 88 be f3 41 2b 3e 74 48 08 3e 6d ca b6 3d
       -0.26609775 0.16724376 0.13308889 0.089253284

act_fc1.bias f4 [64]
000000 47 a7 d2 3e 50 af e8 bc c8 60 9e 3e 1d bd 67 bf
       0.41143247 -0.028403908 0.30933213 -0.9052294
000010 05 79 5f 3c 41 cc bd bd 57 82 9c bc 6b 9e 01 40
       0.013639693 -0.09267474 -0.01910512 2.025294
000020 31 f8 28 bc 53 8d 39 3e 56 a2 d4 3f bc 4c 51 3e
       -0.01031308 0.18120317 1.6612041 0.20439428
000030 ee cb 87 3f ee d9 01 bc dc d5 34 bc e5 e4 f5 bd
       1.0609109 -0.007925494 -0.011037316 -0.12006549
000040 ed 03 e5 bc 98 bd 44 3f c1 29 eb 3e d7 9d 56 bc
       -0.027955974 0.768518 0.45930293 -0.013099155
000050 17 6a c9 bc 8d dd 11 3f 8a ff b2 bb 73 8c 02 bc
       -0.02458672 0.56978685 -0.0054625915 -0.007968056
000060 8d 0c b1 3f 6d 26 19 3f 53 00 06 bc 77 9e a0 3e
       1.3831955 0.5982426 -0.008178788 0.313709
000070 5f 76 c4 bc 0a 02 68 3b af f6 ac 3f e7 de 4c bc
       -0.023982225 0.0035401606 1.3512782 -0.012504316
000080 5f 42 d6 3e 39 d9 be 3e f3 70 ef bd e5 6f 9b 3d
       0.41847512 0.37275103 -0.11691465 0.075897016
000090 0e 1c bb 3f cd dd 35 be 65 bb cf 3f 2d 12 9b bd
       1.4617937 -0.17760392 1.6229063 -0.07571826
0000a0 31 a1 5a 3e e5 2c b2 bf 52 46 6c 3c 67 7d a5 bc
       0.21350552 -1.3919951 0.014421063 -0.020201398
0000b0 c6 a6 7b bb af be 43 3f e1 9a 32 bb 15 f2 a7 bc
       -0.0038398965 0.76462835 -0.002725296 -0.020501176
0000c0 11 44 13 40 0d 06 02 3f 86 25 27 3e aa bf 07 3f
       2.3010294 0.5079048 0.16322908 0.5302683
0000d0 e4 08 45 3f 24 63 90 bd 9d 11 45 3f 9e 32 32 3f
       0.7696669 -0.070501596 0.7698 0.69608486
0000e0 28 d6 92 3f 05 54 1e bd de 79 7e bc 66 c9 d1 ba
       1.1471605 -0.038654346 -0.015531985 -0.0016005456
0000f0 9b 16 2c bc 8b 31 7b 3f 7d 05 bf bc 59 21 19 3f
       -0.010503436 0.9812247 -0.023318047 0.5981651

act_fc2.weight f4 [64, 64]
000000 80 ba 0d 3f d1 9e 81 bc ee 66 e0 3e f7 a9 63 be
       0.553627 -0.0158228 0.4382853 -0.22232805
000010 12 88 00 3c 97 b2 b7 3d 47 62 0e 3d 0f 61 02 bf
       0.007844942 0.0896961 0.034761693 -0.5092935
000020 f2 bd 8c 3c 65 44 13 be 15 06 09 3e cf 3f 83 3d
       0.017180417 -0.14381559 0.13381226 0.06408655
000030 6a c6 85 bf 56 6e 8e 3c 70 27 82 3c 86 4a a5 3d
       -1.0451176 0.017386597 0.015887946 0.08070855
000040 5d 16 77 35 72 2e 64 3d 6d bb 92 be 09 1e 92 3c
       9.2047213e-07 0.055708356 -0.2865862 0.017836588
000050 5c 46 37 3c 3b 00 19 3f 2d 9d e5 3b f6 ff c1 3c
       0.011186209 0.59765977 0.007007262 0.023681622
000060 29 76 87 3e f1 92 20 bf 0d ae bc 3c e2 65 d3 3e
       0.26457337 -0.62724215 0.023032213 0.41288668
000070 df 54 98 bc cc 01 03 bd cb 7f 06 3f 70 5d 92 3c
       -0.018595157 -0.031984136 0.52538747 0.01786682
000080 d4 43 6f be bc db 3a be 62 c9 ff 3a f5 f6 c1 bd
       -0.23365718 -0.18247885 0.0019514973 -0.094709314
000090 bc 8b 09 bd 89 2a a4 bd 1a cd b9 3e 6c a5 05 3c
       -0.033580527 -0.080159254 0.36289293 0.008157115
0000a0 16 ab 81 3e 14 62 70 be 59 01 01 3d d2 c2 2d bc
       0.2532584 -0.23474914 0.031495426 -0.010605531
0000b0 5c fc 19 bc 13 bd 3a 3f 80 a0 87 bc e2 ed 99 3c
       -0.009398546 0.72944754 -0.016556025 0.01879019
0000c0 f4 4c ed be ec 40 81 bf 97 50 48 3e e2 69 b9 3d
       -0.46347773 -1.0097938 0.19561993 0.09053399
0000d0 78 b7 0e bf 9c 81 07 bd e5 cb 2a be 4c d2 07 3f
       -0.557487 -0.03308259 -0.16679342 0.5305526
0000e0 ce 04 55 3e a9 2e f4 b9 46 87 9b 3c 06 c4 b1 3c
       0.20802614 -0.0004657407 0.018985402 0.021699917
0000f0 28 54 86 3c 54 53 05 bf af 32 ba bb e6 c4 27 be
       0.01639755 -0.52080274 -0.0056823115 -0.16383705
000100 8b 3a 26 be 8c 2f 0d 3c 1d e0 99 bd 46 bf 24 be
       -0.1623327 0.008617293 -0.07513449 -0.1608859
000110 c2 79 e9 bc 23 c6 fd bc 63 ff a8 bc 2f 20 fc 3e
       -0.028500441 -0.030978268 -0.02062959 0.49243304
000120 f0 64 c8 bb 87 a2 14 3e e1 8a 6d be 2c fb 15 bf
       -0.0061155483 0.14515124 -0.2319751 -0.5858638
000130 49 d9 d8 be c2 13 bd bc c6 9e 52 bc 99 8e 81 3d
       -0.42353275 -0.02308071 -0.012855237 0.063260265
000140 08 af d0 b5 0b 22 3c 3e 65 ee 53 bd 3f 69 56 bc
       -1.5548148e-06 0.18372361 -0.051741023 -0.013086616
000150 db 44 2a 3c dc 0b 63 be 41 a6 0a bc 1f f2 51 bc
       0.010392393 -0.22172493 -0.00846249 -0.012814074
000160 b2 1b 9e 3e 1b e5 d4 be 55 58 0c bc d3 42 fd bd
       0.30880505 -0.41581044 -0.008565982 -0.12366261
000170 20 52 cc bc 59 ab 1e 3d 93 68 aa be f9 65 e5 bb
       -0.024941504 0.03873763 -0.3328291 -0.0070006815
000180 95 44 4b 3d 56 ba bc 3e c8 ac 9d 39 ef 97 e3 bd
       0.04962595 0.36860913 0.00030074106 -0.111129634
000190 f2 63 49 be 78 a6 f5 3b 66 1f 27 3e 48 2c 28 3b
       -0.19667032 0.0074966513 0.16320571 0.002566116
0001a0 2f b4 63 be 53 0a 0f 3f ad f1 15 bd e5 3c b3 bb
       -0.22236703 0.5587513 -0.036607433 -0.0054699057
0001b0 46 54 0a bb 88 a5 0e 3f 00 08 73 3c 01 67 44 bc
       -0.002110736 0.5572133 0.01483345 -0.011987449
0001c0 84 a9 a5 be 5d 55 36 3c 10 a5 fe bc a4 ea bf be
       -0.32355893 0.011128751 -0.031084567 -0.37483704
0001d0 e1 28 a2 be 5b 2c 00 bc 8c c4 53 be de 61 4d be
       -0.31671813 -0.007823075 -0.20680445 -0.20056865
0001e0 32 d4 f3 3b 14 67 4e 3d d6 ad 43 bc aa 43 9b 3a
       0.007441067 0.05039127 -0.011943301 0.0011845727
0001f0 bd a8 3b bc d1 62 85 bd b4 20 b5 bb 65 d1 3f bd
       -0.011453805 -0.06512988 -0.00552758 -0.046830554
000200 b5 12 1e bd da 4d a3 3c b3 b5 cc bd 07 b0 79 3e
       -0.03859206 0.019934583 -0.09995594 0.24383555
000210 9b 77 c6 bc 20 2d a3 3d 9a 61 c4 bb 96 ad 47 3e
       -0.024226954 0.07967591 -0.0059930803 0.19499812
000220 10 a5 1a bb c2 d7 88 3d 8c 05 c1 be 2b 64 d6 bd
       -0.002359692 0.066817775 -0.37699544 -0.10468324
000230 85 ac 88 ba c2 9d 59 bd d5 24 95 bc 24 6d 5d 3e
       -0.0010427391 -0.053128965 -0.01820604 0.21623665
000240 76 b6 0c 35 e1 44 d6 bd d3 1b 2e be 72 63 a4 bc
       5.241958e-07 -0.10462356 -0.17002802 -0.02006695
000250 68 fc 03 3c 7d 1d a9 3e 87 e4 85 3a e3 76 9e bc
       0.008055784 0.3303031 0.0010215201 -0.019343799
000260 02 35 bc 3d c8 8f d5 bc eb cf 08 bc dc 52 ed bd
       0.09189798 -0.026069537 -0.008350353 -0.1158807
000270 28 12 85 3c 2b 4b f7 bc 68 73 e9 bd ab da 8d 3a
       0.01624401 -0.03018721 -0.11398965 0.0010822614
000280 b7 02 4f bd cd de b6 be 64 c9 27 ba a1 72 ef be
       -0.0505397 -0.35716859 -0.0006400554 -0.46767142
000290 88 e0 04 be c0 8c 3b be 9f a0 2b 3d bb 8f 6c bb
       -0.12976277 -0.1831541 0.041901227 -0.0036096412
0002a0 0f a1 b4 be 15 67 2e 3e 72 1b 67 bc 23 b4 c3 3c
       -0.35279128 0.1703151 -0.014105665 0.023889607
0002b0 cd 15 0a 3c fb 61 9e 3d e8 66 de 3b 96 5b 77 bc
       0.008428049 0.07733532 0.0067871697 -0.015097519
0002c0 5c c0 b5 3c ca 38 50 3e b8 a3 03 bd 14 cc 16 be
       0.02218645 0.20334163 -0.032138556 -0.14726287
0002d0 19 56 08 be c0 ad 0b bd 26 dd 25 be 2a 9c 7d 3e
       -0.13314094 -0.034101248 -0.16197643 0.24766603
0002e0 5e 87 ea 3d 07 94 ad bc 99 59 99 bc 09 92 c8 bb
       0.114516005 -0.021188749 -0.018719481 -0.0061209244
0002f0 14 61 99 bc e3 33 38 3e 84 d9 a8 3c aa da 4a 3d
       -0.018723048 0.17988543 0.020611532 0.04952494
000300 e2 6a 9d bd fb b5 97 3c 22 70 c3 3d ec 2d dc 3e
       -0.07686402 0.018519392 0.09542872 0.43003786
000310 d0 36 10 ba 44 11 62 3d 62 4c 6d ba b9 08 82 3e
       -0.0005501332 0.055192247 -0.00090522144 0.2539728
000320 7b 19 8b bc c4 05 a9 bd 32 73 12 be 6b 9f a8 be
       -0.016979923 -0.08253053 -0.14301756 -0.32934126
000330 0f b0 17 3e 6c 48 2b bd a1 a7 95 bc b2 4d 47 3e
       0.14813255 -0.041817114 -0.018268408 0.19463232
000340 4c 99 f5 35 6d ad dd bc f8 53 f0 3c 87 9a 99 bc
       1.8298538e-06 -0.027060235 0.029336914 -0.018750442
000350 2f 9c 9e ba 00 ab 04 bf f1 75 83 3b 46 18 63 bc
       -0.001210099 -0.51823425 0.0040118624 -0.013860768
000360 53 70 e1 bd 7e 75 09 bc 67 a0 0a bc ac 98 b8 3d
       -0.11007752 -0.008389829 -0.008461094 0.09013495
000370 88 cf ec 3b d2 11 86 3b 0a 1c b4 be 94 7f 47 bb
       0.007226888 0.00409148 -0.35177642 -0.0030441033
000380 11 74 a6 bd c4 f1 b1 3e 1a 85 2f ba 9c 6f 05 bf
       -0.08127607 0.34754765 -0.0006695554 -0.5212343
000390 95 3f ec be ef fe d0 bc 89 0c 2a bd 40 c0 bd 3b
       -0.4614226 -0.025512187 -0.04151586 0.0057907403
0003a0 e8 a3 88 be e4 b8 84 3e 46 a1 11 bd 1d 4b b6 3b
       -0.2668755 0.2592231 -0.035554193 0.0055631534
0003b0 5e 2c 13 bc 18 a3 f6 3d fb 1a 45 3b 26 32 96 bc
       -0.008982746 0.120428264 0.0030075896 -0.01833446
0003c0 a3 09 bc 3d 45 da 6d 3d 6e e9 fc bd 3d 80 17 be
       0.091815256 0.058069486 -0.12349211 -0.14795013
0003d0 ab ea 0c be 0a 15 59 3c e0 e0 4a bd b3 72 b1 3d
       -0.13761394 0.013249645 -0.049530864 0.08664455
0003e0 a1 28 ed bd b5 e2 21 bd 0e 3b 6a bc 89 da ba bc
       -0.11580015 -0.039522845 -0.014296306 -0.022809284
0003f0 e1 cb 83 bc e4 f7 02 3e b1 16 92 bb c0 06 2a bd
       -0.016088428 0.12789875 -0.0044582714 -0.041510344

act_fc2.bias f4 [64]
000000 63 76 b5 3c 42 db 0f 3e 34 5b 10 3d 4c 08 c5 ba
       0.022151178 0.14048484 0.035243228 -0.001503238
000010 0d 8e ff bb b6 54 9a bd 32 2c b1 3d ac e2 ca bd
       -0.007798916 -0.075356886 0.08651008 -0.099065155
000020 bb fa 1e 3d b5 3e d6 be a5 2e 45 be 9a 65 98 3e
       0.038813334 -0.41844717 -0.19256075 0.29765016
000030 9e 63 a8 3e 9e 96 da bd 44 47 0d bf 28 97 22 3e
       0.32888502 -0.10673259 -0.5518687 0.15877974
000040 3d 87 74 3d 9e 5f a6 be c8 3d cb 3e a8 87 fb 3e
       0.059699286 -0.32494825 0.39695573 0.49126935
000050 90 ba a8 3e 86 37 73 3d 3b 6a e0 bd 54 d0 be bd
       0.32954836 0.059379123 -0.10957762 -0.09317079
000060 07 19 18 be b5 1a 73 3e 8e a8 89 3d 2d fd 06 3f
       -0.14853297 0.23740657 0.067216024 0.52730066
000070 f1 f0 06 3f da da 92 3d 1a c9 d9 3d c1 ed ec 3d
       0.527114 0.07170649 0.1063406 0.115687855
000080 8d ca a9 3d c2 86 ae bb a6 d4 06 3e df 15 04 3f
       0.082905866 -0.005326123 0.13167056 0.5159587
000090 b8 7b 03 3f 2f 98 93 3d 3b a4 71 3e 81 a0 12 be
       0.51360655 0.07206761 0.23597805 -0.1431904
0000a0 35 aa 5d bd 23 53 ff bd 2a ae 20 3d 7b 5e aa 3e
       -0.0541174 -0.12467029 0.039228596 0.33275208
0000b0 27 ba f0 3e 09 61 dc 3e 91 55 af be c0 ba 36 3c
       0.47017023 0.43042782 -0.3424497 0.011152923
0000c0 65 41 f8 3d d0 09 01 bf 3a d8 e2 bd 95 c9 a5 3e
       0.12121848 -0.504056 -0.11076398 0.32380357
0000d0 5a 00 9d 3e a5 2e 20 be 08 56 c8 be 00 ac 02 3d
       0.3066433 -0.15642793 -0.39128137 0.031902313
0000e0 4e 37 1e be fb 84 ec 3d 4f ca 06 be ce 9b 07 3d
       -0.15450785 0.115488015 -0.13163112 0.03310757
0000f0 e6 56 df 3c 8d 35 2e 3d b4 26 cf 3d b8 a7 d7 bc
       0.027263116 0.04253154 0.10114804 -0.026325092

val_fc1.weight f4 [64, 384]
000000 73 bb 6e 3c 6c a8 b0 be 49 dd 7e 3d 04 9c 81 be
       0.014571059 -0.34503496 0.062222753 -0.25314343
000010 fe ef 79 be 13 da 36 3e aa 51 eb bd c8 f2 3a bd
       -0.24407956 0.17856626 -0.114901856 -0.04564169
000020 a1 5a 19 be 3d fd 1f be c7 85 88 bd 28 87 8a 3d
       -0.14975978 -0.15623946 -0.06666141 0.0676406
000030 82 37 f8 3c de b0 09 3e 8f 40 e6 bd 4a bd 47 3b
       0.030299906 0.13446376 -0.11242782 0.0030477815
000040 be 75 f5 3c 2f 3f 83 3c a4 8d 10 be 92 b4 fd 3d
       0.02996337 0.01602134 -0.14116532 0.12387957
000050 33 5c 4d be 2a f3 b2 3b 77 33 57 3d de c0 53 bd
       -0.20054702 0.0054611163 0.052539315 -0.051697604
000060 cc b6 c0 bc e7 63 f1 3d fd cc 49 be 05 98 98 3b
       -0.023524664 0.11786633 -0.19707103 0.004656794
000070 37 b1 81 3d 8b c6 16 bd bf 42 74 3d e1 33 01 be
       0.06332629 -0.03681044 0.059633967 -0.12617446
000080 00 1c 96 bd 53 50 eb bd 7b 98 69 3d a9 3a ab 3d
       -0.07329559 -0.1148993 0.057030182 0.08360798
000090 37 64 93 bd 30 bc 1d bd de e1 63 3c 18 e8 e8 bd
       -0.07196849 -0.038509548 0.013908831 -0.11372393
0000a0 e8 54 e7 3d 04 ff 20 be 08 29 01 3d 20 f5 26 be
       0.112954915 -0.1572228 0.03153327 -0.16304445
0000b0 34 95 6d 3e ab 83 55 be b0 3a 9b 3d a8 30 52 3c
       0.23201448 -0.20851009 0.07579553 0.012828983
0000c0 7f 74 47 bd bd 23 0e be 33 05 86 be e1 df 17 be
       -0.048695084 -0.1388082 -0.26175842 -0.14831497
0000d0 ae 25 de bd b5 50 94 3d 7e 82 04 3e 32 3f b5 3c
       -0.108470306 0.07241956 0.12940404 0.02212486
0000e0 ab e6 36 bd 68 9c 8c bc e9 85 ac bd 1e c0 c7 3d
       -0.044653576 -0.017164424 -0.08423979 0.0975344
0000f0 af af 0b bd 60 84 30 3e 8e be cf bd 06 ec 17 3d
       -0.03410309 0.17237997 -0.10143767 0.037090324
000100 b1 87 b9 3d c9 a6 02 be 4f 2d cd 3c 3f fe 30 3e
       0.09059084 -0.12758936 0.025046019 0.17284487
000110 9a 79 95 3b f6 cc 3b 3e 4d a5 c0 3b 54 40 98 bd
       0.004561615 0.18339905 0.0058790804 -0.074341446
000120 a1 6d 87 bd 5c 32 71 be 54 51 1e bc f0 74 36 be
       -0.06612707 -0.23554367 -0.009662945 -0.17818046
000130 d4 8b ba 3d 2f b7 17 3d d9 52 1b be e4 c9 94 be
       0.09108701 0.037039932 -0.15168323 -0.2906028
000140 9d fa 07 bc 63 d4 a6 be 01 c9 f8 3d 99 c0 21 3d
       -0.008299497 -0.32583913 0.121477135 0.039490316
000150 76 b3 b0 3d 1b 59 a4 bd 9a 75 09 3e 07 02 9e be
       0.086279795 -0.08024808 0.13423768 -0.30860922
000160 23 3d da 3d 5d 02 10 3e 61 07 5c be 44 06 a2 be
       0.10656192 0.14063402 -0.2148719 -0.31645405
000170 6b 5c f9 3c ce f1 67 be fe e5 42 3e 86 5b 4d be
       0.030439576 -0.22650835 0.19033048 -0.20054445
000180 14 15 25 3e b5 ce dd bc a8 1a 2d be 64 8c c0 3b
       0.16121322 -0.027076105 -0.169047 0.005876111
000190 5a 7f ee bd 9b f8 21 3e a1 91 2e ba 6e 15 60 3e
       -0.11645384 0.15817492 -0.00066592736 0.21883175
0001a0 38 1f 5a be dc c9 9a ba c1 e7 8c bb 8b 96 db bd
       -0.21300972 -0.0011809426 -0.004300088 -0.10722073
0001b0 60 e2 62 3e aa 51 45 3e 34 c0 61 3c 05 e3 40 3e
       0.22156668 0.19269434 0.013778735 0.18836601
0001c0 b7 c5 43 bd fb 2b b0 be 69 8c a1 bd 7d 3a 23 be
       -0.047795977 -0.34408554 -0.07888109 -0.1594028
0001d0 84 f4 2a bd 04 1a 07 bd ab b9 76 3d 4f 42 7a be
       -0.041737095 -0.032983795 0.06023566 -0.24439357
0001e0 b7 4d dc bd 1c 23 6a be 21 0c 7c bd 10 6e 1b bd
       -0.107570104 -0.22864956 -0.061535005 -0.03794676
0001f0 34 97 1d 3e 63 7a 1b be 2f 59 bc bc 39 fc 10 bf
       0.1538971 -0.15183406 -0.022991745 -0.5663486
000200 5e 78 6d 3d 7e 91 b7 be 6c 4f 06 3d cb 7a 5a bd
       0.05797612 -0.3585319 0.032790586 -0.05333976
000210 99 33 8a be 00 a1 be be a4 de 93 bc 23 6c df be
       -0.2699249 -0.37232208 -0.0180505 -0.4363719
000220 56 c4 a3 bc d2 66 71 bd 4c d2 a0 3b 31 4c 3e be
       -0.019991081 -0.058935948 0.004907882 -0.18583752
000230 e4 57 5e 3d 35 78 02 be 7b 2b 42 3d 36 47 8a 3c
       0.054283038 -0.12741168 0.047404747 0.01687966
000240 b5 fc 74 bd 6e 07 bb 3c 3f 6b 43 be bc fb 18 be
       -0.059811313 0.022830691 -0.1908388 -0.14939779
000250 f3 e9 f3 bd a8 7b 0b 3e 25 23 2c 3e 11 5a 0f 3d
       -0.11909857 0.1362139 0.16810282 0.034998003
000260 68 c9 b2 bc a0 c8 f5 3d 26 09 82 bd 6b ef 05 be
       -0.021824554 0.12001157 -0.06349401 -0.13079612
000270 c7 a4 a4 bd c3 36 13 bd 73 2b 4b bd 7c 35 0f be
       -0.08039241 -0.035940897 -0.049601983 -0.13985246
000280 47 94 13 3b 81 ee fd bd 51 2a 40 bd 7f 95 43 3e
       0.00225188 -0.12399007 -0.046915356 0.19099997
000290 11 20 9f bd f1 21 f4 3c 6b 5c ab bd 61 b3 b1 be
       -0.07769788 0.02980134 -0.08367237 -0.34707168
0002a0 ce fa 08 be 3a a4 d7 be 39 e6 00 bd 0b 47 0f be
       -0.13376924 -0.42117482 -0.031469557 -0.13991944
0002b0 12 d0 95 bd 79 84 d0 be ba f6 28 be e5 d8 a0 be
       -0.07315077 -0.4072607 -0.16500369 -0.31415477
0002c0 19 65 9a bd 69 50 29 be 3e 91 83 3d 51 c1 28 be
       -0.07538814 -0.1653458 0.06424187 -0.16479994
0002d0 bd 61 d5 3b ef 0f 73 be d3 ad c3 3d 57 6a 00 be
       0.0065118955 -0.23736547 0.09554639 -0.12540565
0002e0 45 ef 01 3e 93 0e b8 3c 38 34 64 be b1 7f 05 bd
       0.1268893 0.022467887 -0.22285545 -0.03259248
0002f0 dd ff ff bd ce cf 2f be 04 11 96 bd c8 0f dd bd
       -0.12499974 -0.17169115 -0.07327464 -0.10794026
000300 e2 d8 d1 bb 74 a5 8d be 91 7a fb bd d5 39 f9 bd
       -0.0064040283 -0.27665293 -0.12279237 -0.12169234
000310 b3 c1 3c be a4 a7 12 3c e8 c8 69 bd b8 2d 5d be
       -0.18433265 0.008951101 -0.057076365 -0.21599472
000320 91 09 14 bc 2a 79 cd be 02 1b 65 bd a4 2d 62 3e
       -0.009035484 -0.40131503 -0.05593396 0.22087723
000330 a9 ef 18 be 4d 13 a1 be 3f f2 38 3d 11 3b 5a be
       -0.14935173 -0.31460038 0.0451529 -0.21311595
000340 75 b4 c9 bc 8f 95 88 be 1d 41 31 be e8 d4 ae be
       -0.024622181 -0.26676604 -0.17309995 -0.3414681
000350 66 fb db bc ae 51 55 be 32 e6 bf 3c 66 e5 6b be
       -0.026853275 -0.2083194 0.023425195 -0.23036727
000360 1e 6f 76 bd 11 59 02 3e 78 a8 ef bd b8 c1 0e bc
       -0.060164563 0.12729289 -0.11702055 -0.008713178
000370 57 12 22 bd 9e ff b8 be 8c 90 0a be 5c 4d 55 be
       -0.03956827 -0.3613252 -0.13531703 -0.20830292
000380 59 cf 20 3d 29 bd 99 bd 46 47 3f 3d d2 84 43 be
       0.039260242 -0.075067826 0.04669883 -0.19093636
000390 db a5 8c 3d 43 d7 44 3e 9a 7e aa bd a0 5b 6d 3d
       0.06867572 0.19222741 -0.083249286 0.05794871
0003a0 97 74 4b be 21 10 23 bd d1 fa 1d 3e 5c d4 79 3e
       -0.19868694 -0.039810304 0.1542771 0.24397415
0003b0 11 d7 cf bc 3c 87 36 3e 2b 9f 0e be 6c 8a e2 bd
       -0.025371106 0.17825025 -0.13927905 -0.11061558
0003c0 1c c4 19 3e f6 85 0e 3e 99 7b aa bc e2 21 bc be
       0.15016216 0.1391829 -0.02081089 -0.367446
0003d0 39 d0 3b be 84 7c f7 3e 98 fa b9 be c7 70 29 bf
       -0.1834115 0.48337185 -0.36324 -0.6618771
0003e0 3e 52 22 3d 8a 7e c6 be 29 b6 bb bd 75 7d a1 be
       0.039629214 -0.38768417 -0.09165604 -0.3154103
0003f0 f4 e2 12 be c3 40 e1 be 53 88 32 3d ec 0c 06 bf
       -0.14344388 -0.43994722 0.04358704 -0.5236347

val_fc1.bias f4 [64]
000000 4a 47 ea 3b ef e4 f5 be f7 6b c4 bd 63 f2 8e bd
       0.0071496116 -0.48026225 -0.09590905 -0.06979825
000010 b9 94 99 bc c4 09 14 3d 14 32 84 3c cd dd 2b be
       -0.018747674 0.036142126 0.01613716 -0.16783829
000020 00 d5 aa 3b a3 07 47 3e cb c8 d4 bd 8f b1 8e bc
       0.00521338 0.19436507 -0.10389861 -0.01741865
000030 75 39 d0 be 3b c8 09 bc e8 35 02 bf 09 02 d5 be
       -0.40668836 -0.008409555 -0.50863504 -0.41603115
000040 3d dc 31 be 62 96 bd 3b f8 48 88 3b 44 5f 0c 3c
       -0.1736917 0.0057857493 0.004159089 0.008567635
000050 e1 94 5d 3e b3 d0 38 bd ec 99 c9 bd a6 f9 a4 bd
       0.21638824 -0.045120906 -0.098438114 -0.08055429
000060 9e 00 42 3e da a9 b8 bc 5f 0a 6c 3e 22 a4 91 3e
       0.18945548 -0.022541929 0.23050831 0.28445536
000070 62 60 aa 3e 0e e6 10 be 27 3c 2f bc 5a 86 ed bd
       0.3327666 -0.14150259 -0.010695494 -0.11597891
000080 d7 47 8f bc 16 16 2b bf 03 90 44 be 47 6f ac bd
       -0.01749031 -0.66830575 -0.19195561 -0.08419662
000090 ba 10 47 bf 4f b1 99 bc d1 97 08 3d 45 28 f3 bd
       -0.777599 -0.018761305 0.03334791 -0.11872915
0000a0 b1 f5 73 be b3 e9 e1 be 4d fb 19 3d a0 57 4d bd
       -0.23824193 -0.4412361 0.037593175 -0.050132394
0000b0 d7 b6 9c 3c 9b 81 69 be cc 0f 89 3d 08 c0 05 bf
       0.019130154 -0.22803347 0.06692466 -0.5224614
0000c0 46 87 cb ba 72 1b 0c be dd 60 21 bc 93 64 d5 bd
       -0.0015527986 -0.13682345 -0.009849754 -0.10419574
0000d0 96 96 42 bc 26 9e fb bc 07 11 18 be 74 d7 6c be
       -0.011876723 -0.03071506 -0.14850245 -0.23129064
0000e0 d5 64 8b bb f5 66 3c be ce 31 4e be 8e 8b 28 bb
       -0.0042539635 -0.1839865 -0.20136186 -0.0025717947
0000f0 d8 1d bb be c5 18 c5 3e 23 35 e1 3e 8e d3 43 bd
       -0.36546206 0.3849546 0.43985853 -0.047809176

val_fc2.weight f4 [1, 64]
000000 c5 e6 84 3e e6 b4 b3 3e 17 46 a0 bc 87 79 6e be
       0.25957313 0.35098952 -0.019564671 -0.23288547
000010 ca 19 d3 b5 b4 30 91 3e 59 d4 5a 3d 29 fc 02 3f
       -1.5728231e-06 0.2835747 0.053425167 0.51166016
000020 ea f1 62 3b f9 c8 a0 3d cd c9 3f 3e d2 1b 31 bc
       0.0034629055 0.078508325 0.18729325 -0.010809856
000030 38 6e d4 be df 82 5c 3c 8f d6 b9 be ce 10 1a 3f
       -0.4149034 0.0134589365 -0.36296508 0.6018189
000040 1e 5b cb bd 1a db 9c bb e6 2a aa 3d c1 50 46 3c
       -0.099294886 -0.004786861 0.083089635 0.012104214
000050 17 8e 3e 3e 35 96 3e bc 3f 9a 07 3e 9e 4b ba be
       0.1860889 -0.011632492 0.13242434 -0.36385816
000060 08 2c 82 3d 08 c2 0c bd 93 d3 41 be fb ce 25 3f
       0.063560545 -0.03436473 -0.18928365 0.6476895
000070 c4 93 71 3e 35 c9 18 be b4 93 68 3c ac b5 1d be
       0.23591524 -0.14920504 0.014195371 -0.15401334
000080 fd 0b 86 be 57 ca ba 3d 82 16 61 3e 36 00 a4 be
       -0.2618102 0.091206245 0.21981242 -0.3203141
000090 9d f6 79 3e 4c 18 18 3c e0 43 04 3f 74 29 35 b9
       0.24410482 0.009283137 0.5166607 -0.00017276948
0000a0 b7 fd 08 be ce ef 62 bd 5a a4 f8 3e 5c 7b 62 bc
       -0.13378035 -0.055404477 0.4856289 -0.0138233565
0000b0 4e c0 7f bc 4f a8 c3 3e 34 67 15 3e f2 0d 91 3e
       -0.015609814 0.38214347 0.1459015 0.28330952
0000c0 33 c1 e5 38 ce a2 6b be 12 3e 13 3e e1 81 a1 be
       0.00010955557 -0.23011324 0.14379147 -0.31544402
0000d0 47 25 23 3f d4 b6 d4 3a 1e ea 27 bd 44 3c 9b bd
       0.63728756 0.0016228803 -0.040994756 -0.07579854
0000e0 7a 54 af 38 dc 2a d2 3e aa 17 93 be c2 f9 28 b6
       8.360385e-05 0.41048324 -0.28728992 -2.517933e-06
0000f0 c2 6b 22 3e ee 37 77 3e 6d 75 12 be 32 7c a4 3e
       0.15861419 0.24142429 -0.14302607 0.32126004
