Server/src/ml/models/example8by8_5/curr.model (torch, 217732 bytes, 10 tensors)

layers.0.lin.weight f4 [6, 4]
0	0x3f8aca23	1.0842937
1	0xbf316300	-0.69291687
2	0x3e9066ff	0.2820358
3	0x3e462736	0.19350895
4	0x3f84ac82	1.0365145
5	0xbf327f8f	-0.6972589
6	0x3e684739	0.2268342
7	0x3ebac3c1	0.36477473
8	0xbfa9fc52	-1.3280127
9	0x3fcf237b	1.6182703
10	0xbd64aa47	-0.05582645
11	0x3e47aa8c	0.19498652
12	0x3f9bf53b	1.2184213
13	0xbd962f2e	-0.073332176
14	0xbeaccaf8	-0.33748603
15	0xbe02d267	-0.12775575
16	0x3f6d5b16	0.9271711
17	0x3fd18e63	1.6371578
18	0x3e901759	0.28142813
19	0x3e176a96	0.14786753
20	0x3f8192c4	1.0122914
21	0xbe037ef2	-0.12841395
22	0x3f673b3a	0.9032475
23	0xbf175a56	-0.59122217

layers.2.lin.weight f4 [6, 6]
0	0xbf9eb50e	-1.2399004
1	0xbed3d854	-0.41375983
2	0x3f0321ee	0.5122365
3	0xbefde589	-0.49589184
4	0x3f5a3b6e	0.8524693
5	0xbf53e42a	-0.82770026
6	0x3ed9be3f	0.4252796
7	0x3e42b638	0.19014823
8	0xbeafec5d	-0.34360018
9	0x3ec482f4	0.3838116
10	0xbe8fcae1	-0.28084472
11	0x3ee34384	0.44387448
12	0x3ea3effe	0.32019037
13	0x3f1d6bf0	0.61492825
14	0xbfdc6220	-1.7217445
15	0xbed0abe4	-0.40756142
16	0x3e2a88f6	0.16653809
17	0xbf923316	-1.142184
18	0x3ebf1a7b	0.3732489
19	0x3f1aa641	0.60409933
20	0x3eb06cc5	0.34457985
21	0xbfb94af0	-1.4475994
22	0x3c5932c7	0.013256735
23	0xbf631760	-0.8870754
24	0xbefb47f9	-0.49078348
25	0xbf95f023	-1.1713909
26	0x3ee941db	0.45558056
27	0x3db0d063	0.086334966
28	0x3ec1458c	0.37748373
29	0x3f350ad9	0.7071968
30	0x3e5737f7	0.21017443
31	0x3e718840	0.23587132
32	0xbf5d6206	-0.86477697
33	0x3ea356b8	0.319021
34	0x3f88c393	1.0684685
35	0xbe543a36	-0.2072533

layers.4.lin.weight f4 [6, 6]
0	0xbdfae2f8	-0.12250322
1	0xbe835dd7	-0.25657532
2	0x3efc48a1	0.4927416
3	0xbed22053	-0.41040286
4	0xbf2ffdda	-0.6874672
5	0x3f524b36	0.8214601
6	0xbfc2c4b5	-1.521628
7	0x3c13f98e	0.009031666
8	0x3f59f9e2	0.85146916
9	0xbfa605d1	-1.2970525
10	0xbf9c3206	-1.2202766
11	0x3f05fbe1	0.5233746
12	0x3f77576f	0.9661779
13	0xbeec7746	-0.46184748
14	0x3d19b4f5	0.03752609
15	0xbeeee075	-0.46655622
16	0x3e4e075d	0.20119996
17	0x3f325f4a	0.6967665
18	0xbea6d902	-0.3258744
19	0x3ef0ba21	0.47017005
20	0xbf3e56ef	-0.743514
21	0xc010ea20	-2.2642899
22	0xbedd275a	-0.43194085
23	0x3f0aae85	0.54172546
24	0x3f3ae0bf	0.72999185
25	0xbebfcb8b	-0.37459978
26	0xbe0f07ee	-0.13967869
27	0x3c622b34	0.013804246
28	0x3f3dcd48	0.7414136
29	0xbfeecc5a	-1.8656113
30	0xbf41dbf4	-0.75726247
31	0xbebeb07d	-0.37244025
32	0x3f9cefe8	1.2260714
33	0x3d606ce1	0.054791335
34	0x3fa7708c	1.3081222
35	0xbe5e52ab	-0.21711223

act_fc1.weight f4 [64, 384]
0	0xbe2d5f7e	-0.16930959
1	0xbcecbfcf	-0.028900055
2	0xbd2490ad	-0.040177036
3	0xbd9ee3ed	-0.07758317
4	0xbd82c6fa	-0.06385608
5	0xbd904b43	-0.07045605
6	0xbe8257dc	-0.25457656
7	0x3cd53985	0.026028404
8	0xbe50acf6	-0.2037848
9	0xbd681def	-0.056669172
10	0xbcf680c2	-0.030090693
11	0x3e387d7e	0.18016621
12	0xbd298d44	-0.041394487
13	0xbc8571c6	-0.016289603
14	0x3dbe3322	0.092870966
15	0xbd6ff4ff	-0.058583256
16	0x3ca8a56a	0.020586688
17	0x3d2c6fb1	0.042098705
18	0xbdb6430d	-0.08899508
19	0xbd1dfab3	-0.038569164
20	0x3cfd73b1	0.030938955
21	0xbb6c45a6	-0.0036052256
22	0xbc4dabf9	-0.0125532085
23	0x3e013e99	0.12621535
24	0xbc9edaba	-0.019391406
25	0xbc73730b	-0.014858971
26	0xbdb61900	-0.08891487
27	0x3bca383b	0.006171254
28	0xbcc9090f	-0.024540452
29	0xbe0ae6d5	-0.13564618
30	0xbd87831d	-0.06616805
31	0xbce06e46	-0.027396332
32	0xbdd6ccad	-0.104882576
33	0xbc87c252	-0.016572151
34	0xbd53484a	-0.051582612
35	0xbda82ac5	-0.08211283
36	0xbe087bb3	-0.13328438
37	0xbc31ab27	-0.010844029
38	0xbdedcba5	-0.11611108
39	0x3c4d49cf	0.012529804
40	0xbd74b2da	-0.05974088
41	0xbd57721b	-0.052599054
42	0xbcfe825a	-0.031068016
43	0xbcbbeee3	-0.022941059
44	0x3c12a22c	0.008949798
45	0xbbb51572	-0.005526238
46	0xbd2e6c8b	-0.042583983
47	0xbd73152c	-0.059346363
48	0xbe5bf197	-0.21478878
49	0x3de14661	0.10999752
50	0xbe3c509b	-0.18390124
51	0xbd3006b4	-0.042975143
52	0x3d55725d	0.05211102
53	0x3e745c57	0.2386335
54	0xbd8d4c15	-0.06899277
55	0xbcf4b747	-0.02987255
56	0x3d3e1f10	0.046416342
57	0xbd8742a8	-0.066045105
58	0x3cdf1226	0.027230334
59	0xbc9052fa	-0.017617691
60	0xbdf521a2	-0.119693056
61	0x3cacf395	0.021112243
62	0xbd848d6f	-0.06472289
63	0xbd76a11b	-0.060212236
64	0x3d34bad1	0.044123475
65	0x3eddba3c	0.43306148
66	0xbdffa62f	-0.12482869
67	0x3c3c15cd	0.011479807
68	0x3cc27e49	0.023741858
69	0x3da12a53	0.07869401
70	0xbc43dd69	-0.011954644
71	0xbe369f15	-0.17834122
72	0xbe6f4a1e	-0.23368117
73	0xbd9a1358	-0.07523221
74	0x3cf1be85	0.029509792
75	0x3d3cd36a	0.046100058
76	0xbdcb4cc2	-0.0992675
77	0xbdfde1d0	-0.12396586
78	0x3c75afa7	0.014995492
79	0x3dc79dcd	0.09746895
80	0xbeab4579	-0.3345144
81	0x3dd553bb	0.10416361
82	0x3d4fe2fb	0.050753575
83	0xbe177cc2	-0.14793685
84	0xbd8d9f3a	-0.06915136
85	0xbc5b6415	-0.013390561
86	0xbe52a583	-0.2057095
87	0x3b816036	0.003948237
88	0xbd1fa0bb	-0.038971644
89	0xbddf98cb	-0.10917815
90	0xbe00ab6c	-0.12565392
91	0xbcd07f2d	-0.025451267
92	0xbdfdd6e9	-0.123945065
93	0x3ca1a653	0.01973263
94	0xbdac7d22	-0.08422305
95	0xbdb6cdc7	-0.08925968
96	0xbd76a58b	-0.060216468
97	0xbd5978e4	-0.053093806
98	0x3c913cfd	0.017729277
99	0xbd43f32c	-0.04783933
100	0x3c689853	0.014196473
101	0xbdbbf9e8	-0.09178525
102	0xbe056b5e	-0.13029239
103	0x3d12ee6c	0.035871908
104	0xbdb7dc57	-0.08977573
105	0xbd2f0e6f	-0.042738374
106	0x3d9242fc	0.071416825
107	0x3ed49136	0.41517037
108	0xbe7c1c07	-0.24620067
109	0xbd06e627	-0.032934334
110	0x3d364d61	0.044507388
111	0xbb993bf2	-0.0046763355
112	0x3d0cb65b	0.034353595
113	0xbde4543f	-0.11148881
114	0xbd4c02af	-0.049807247
115	0xbdde4f60	-0.10854983
116	0xbe1016b0	-0.14071155
117	0xbdda0a05	-0.10646442
118	0xbd1f1b13	-0.03884418
119	0x3ebaa58b	0.36454424
120	0xbddd8923	-0.108171724
121	0x3e6740d6	0.22583327
122	0xbd1d9a09	-0.038476977
123	0x3e98c031	0.2983413
124	0x3dd2148b	0.102578245
125	0xbe5d5093	-0.21612768
126	0xbe9b5c0b	-0.3034366
127	0x3dadda85	0.08488945
128	0x3d6dab03	0.058024418
129	0x3dab6cdf	0.08370375
130	0xbdfa357c	-0.122172326
131	0xbd996bfa	-0.07491298
132	0x3cda0297	0.026612563
133	0x3d96e484	0.07367805
134	0xbe8f7a0c	-0.28022802
135	0x3d2ddd59	0.04244742
136	0x3d06a1bf	0.032869097
137	0xbdd21c8f	-0.10259353
138	0xbb277b05	-0.0025555503
139	0x3acc06ea	0.0015566025
140	0xbe3d1630	-0.18465495
141	0x3aa4e594	0.0012580627
142	0xbd6fccaf	-0.05854481
143	0xbe0f80f9	-0.14014043
144	0xbdeaff91	-0.11474527
145	0xbc91c3ac	-0.017793499
146	0x3d355d95	0.0442787
147	0x3ce34306	0.02774192
148	0xbd5ce69e	-0.05393087
149	0xbd5df065	-0.054184336
150	0xbdb0cb6d	-0.086325504
151	0xbcf76007	-0.030197157
152	0xbc0bc208	-0.008530147
153	0x3c9ef340	0.0194031
154	0xbcc52650	-0.02406612
155	0xbe383cd1	-0.1799195
156	0xbc915454	-0.017740406
157	0xbd9440f2	-0.0723895
158	0xbdf1ad34	-0.11800614
159	0xbdd4c663	-0.10389402
160	0xbcd4cc3b	-0.02597629
161	0x3ed04834	0.40680087
162	0xbe09e98a	-0.13467994
163	0x3d08346b	0.033253115
164	0x3cf75264	0.030190654
165	0x3e8bcff4	0.27307093
166	0x3dbb91f6	0.09158699
167	0xbd9f8635	-0.0778927
168	0x3cbfb1e8	0.023400262
169	0xbe4f349d	-0.20234914
170	0xbe0f162c	-0.13973302
171	0xbd96dc8f	-0.07366287
172	0xbc52ab9d	-0.012858299
173	0x3f017752	0.50572693
174	0xbe16917a	-0.14703932
175	0x3e27f8da	0.16403523
176	0x3cb480aa	0.022034008
177	0x3e6f22d4	0.2335313
178	0x3de92a46	0.11385016
179	0xbe0aac09	-0.13542189
180	0xbe65598b	-0.22397439
181	0x3d0f187b	0.034935456
182	0x3de89a87	0.11357599
183	0x3cc444f2	0.023958657
184	0xbde51602	-0.11185838
185	0xbdcd35e3	-0.10020044
186	0x3cf8d54c	0.030375145
187	0xbc82b207	-0.01595403
188	0xbe195d44	-0.14976984
189	0x3c0a50a2	0.008442076
190	0xbd802250	-0.062565446
191	0xbde7aada	-0.11311884
192	0x3d52d714	0.051474646
193	0xbcd20623	-0.025637692
194	0xbe431cd1	-0.19053961
195	0x3b3a711b	0.0028448764
196	0xbdbddff4	-0.09271231
197	0xbe46685b	-0.19375746
198	0xbe553d9f	-0.20824288
199	0xbd2b894d	-0.041878987
200	0x3d836b65	0.06416968
201	0x3d187826	0.037223957
202	0xbdd76038	-0.10516399
203	0xbe036098	-0.12829816
204	0xbdcffeb5	-0.101560034
205	0x3e1ab42c	0.15107793
206	0xbd6a007b	-0.057129364
207	0x3e6fb767	0.23409806
208	0x3df256ab	0.11832937
209	0xbe09c795	-0.13455041
210	0x3c5d6a6c	0.0135141425
211	0xbdf5f9e5	-0.12010554
212	0xbe317404	-0.17329413
213	0xbde53360	-0.1119144
214	0x3c83b99f	0.016079722
215	0x3f0badf2	0.54562294
216	0xbe3da48c	-0.18519801
217	0x3ca375fe	0.019953724
218	0x3d24b869	0.04021493
219	0x3e85e21b	0.26149067
220	0x3d418361	0.047244433
221	0xbd8cb2ec	-0.06870064
222	0xbd1db498	-0.038502306
223	0xbdf86542	-0.121286884
224	0xbdd6963c	-0.10477874
225	0xbd9a9785	-0.07548431
226	0x391009b4	0.00013736525
227	0x3eca3bf3	0.39498863
228	0xbe2f3903	-0.17111592
229	0xbcb81811	-0.022472413
230	0xbcfc0900	-0.03076601
231	0x3cce9f79	0.025222527
232	0xbc995c1e	-0.018720683
233	0xbe3454a5	-0.17610414
234	0xbdc54fbf	-0.09634351
235	0x3b4059f8	0.00293505
236	0x3d3ec9bd	0.04657911
237	0x3d18f387	0.03734162
238	0xbcc475ef	-0.023982016
239	0xbc2974dd	-0.010342804
240	0xbc69b42d	-0.014264149
241	0xbbfccfbb	-0.007715193
242	0xbdd597c9	-0.10429341
243	0x3a480a61	0.0007630941
244	0xbd316dfe	-0.043317787
245	0xbe387e23	-0.18016867
246	0x3d4d181b	0.050071817
247	0x3da1357a	0.07871528
248	0xbea567d9	-0.32305792
249	0x3d518708	0.051154166
250	0xbc15c4de	-0.009141175
251	0xbdcb416a	-0.09924586
252	0xbea629de	-0.32453817
253	0x3daeeed8	0.085416496
254	0x3cfe13ec	0.031015359
255	0x3d4fda69	0.0507454

act_fc1.bias f4 [64]
0	0x3e9c60a7	0.3054249
1	0xbaa07d12	-0.0012244305
2	0x3ecb9dea	0.39768916
3	0xbf45402c	-0.77051044
4	0xbd875f41	-0.06609965
5	0xbe159e25	-0.14611109
6	0xbb41ed2d	-0.002959083
7	0x3ff20bfb	1.8909906
8	0xb7c457cc	-2.3405904e-05
9	0x3d890418	0.06690234
10	0x3fda8cab	1.7074178
11	0x3e115ef9	0.14196385
12	0x3f85121b	1.039615
13	0x3c75be72	0.014999019
14	0xb8ff9d47	-0.00012188643
15	0xbdba7b75	-0.09105579
16	0xbc64f3be	-0.013974128
17	0x3f506b3c	0.81413627
18	0x3f17aef6	0.59251344
19	0xbb4fd517	-0.0031712705
20	0xbd197860	-0.037468314
21	0x3f192f87	0.59838146
22	0xbe3a1fbb	-0.18176167
23	0xbe0039c3	-0.12522034
24	0x3fa84d7c	1.3148646
25	0x3f256dac	0.6462047
26	0xbc11b209	-0.008892545
27	0x3e921578	0.28532004
28	0xb833bf18	-4.2854896e-05
29	0xbbae5e31	-0.005321287
30	0x3fb1329e	1.3843572
31	0xbba429ff	-0.005009889
32	0x3ebac165	0.36475673
33	0x3ea87b1d	0.32906428
34	0xb01fc5ff	-5.812523e-10
35	0x3ddeecd9	0.10885019
36	0x3fbe2f3b	1.4858164
37	0xbdfc0e38	-0.123073995
38	0x3fcd57d6	1.604243
39	0xbc9f2617	-0.019427342
40	0x3e7033ce	0.23457262
41	0xbfb2432c	-1.3926749
42	0xbe1b747a	-0.15181151
43	0xb925e173	-0.00015819613
44	0xbd80a8ba	-0.06282182
45	0x3f3ce43d	0.73785764
46	0xbcac7d13	-0.021055734
47	0xb970c93d	-0.0002296315
48	0x40166024	2.349618
49	0x3ef8b5cd	0.48576203
50	0x3e6d9e72	0.23204973
51	0x3ef5869a	0.47954255
52	0x3f3dac67	0.7409119
53	0xbcdee49b	-0.027208617
54	0x3f2a409e	0.6650485
55	0x3f20a779	0.62755543
56	0x3f95ec53	1.1712745
57	0xbb9d6f80	-0.0048045516
58	0xb8abecef	-8.198048e-05
59	0xb9d2141a	-0.00040069298
60	0xb8d9d303	-0.0001038667
61	0x3f521db9	0.82076603
62	0xb91d1282	-0.00014979581
63	0x3f0be8a8	0.5465188

act_fc2.weight f4 [64, 64]
0	0x3ed72e11	0.42027333
1	0xbbbf6bba	-0.0058416994
2	0x3da8ac4d	0.08235989
3	0xbe8f59a6	-0.27998084
4	0x3cb2e24d	0.021836424
5	0xbdb20e5a	-0.086941436
6	0x3c88e520	0.016710818
7	0xbec385f8	-0.38188148
8	0x3b4c2d01	0.0031154754
9	0xbe6c92e7	-0.23102914
10	0x3e4e4281	0.20142557
11	0x3dd1926f	0.10233008
12	0xbf4d76fc	-0.8025968
13	0xbcc14f16	-0.023597281
14	0x3b22e988	0.0024858434
15	0x3cfa604b	0.030563494
16	0xbd1fb72f	-0.038993057
17	0x3e2161ee	0.15760013
18	0xbeb0b535	-0.3451325
19	0x3b03368c	0.0020021526
20	0xbc303ccc	-0.010756683
21	0x3f099aa8	0.5375161
22	0xbdfe7670	-0.12424934
23	0xbd2507ce	-0.040290646
24	0x3eab77f8	0.33489966
25	0xbf26b797	-0.65123886
26	0xba9f8acb	-0.0012172101
27	0x3ef9e1da	0.48805124
28	0xba6e1eca	-0.00090835674
29	0xbca497f3	-0.020091986
30	0x3eff36bb	0.49846444
31	0xbad6f8d5	-0.0016401062
32	0xbcad76f0	-0.021174878
33	0xbe9006ae	-0.28130096
34	0x02c9e0d8	2.966335e-37
35	0x3dbf20f4	0.09332457
36	0xbbe83d75	-0.0070874044
37	0xbc8c6aa5	-0.017140696
38	0x3ef5d57e	0.48014444
39	0x3b435c04	0.0029809484
40	0x3ed31279	0.4122503
41	0xbe9c2bf3	-0.3050228
42	0x3e330426	0.17482051
43	0xbaa548db	-0.0012610214
44	0xbc545f37	-0.012962154
45	0x3f41176b	0.7542636
46	0xbc7448d5	-0.014909943
47	0x3b67217a	0.0035267756
48	0xbe9b81ef	-0.3037257
49	0xbf8cf686	-1.1012733
50	0xbcb81ac1	-0.022473695
51	0x3d91cfd7	0.071197204
52	0xbede4d7a	-0.43418485
53	0xbc106aa3	-0.008814487
54	0xbe941c44	-0.28927815
55	0x3ecc0c8b	0.3985332
56	0x3e3d7e08	0.18505108
57	0xbadd9888	-0.001690642
58	0x3b15c137	0.002285076
59	0x3c0607a4	0.008180533
60	0x3b319b4b	0.0027100618
61	0xbe8b3d98	-0.2719543
62	0xb9ef7ba6	-0.00045677758
63	0x3e25f177	0.16205393
64	0xbcaa87ae	-0.02081665
65	0x3b7b9140	0.0038386136
66	0xbd396f36	-0.045272075
67	0xbdfa3cb2	-0.12218608
68	0xbd64bcce	-0.05584412
69	0xbe8bf532	-0.27335507
70	0xbc18240f	-0.009285941
71	0x3ea01aa7	0.31270334
72	0xb7ab2fe2	-2.0407086e-05
73	0x3e230551	0.15919997
74	0xbdb0abde	-0.08626531
75	0xbf18595d	-0.5951136
76	0xbea0539f	-0.31313798
77	0xbe57a89f	-0.21060418
78	0xb812d33c	-3.500584e-05
79	0x3d382fd5	0.04496749
80	0x3cdebae3	0.027188724
81	0x3e988dce	0.29795688
82	0x3cb47ab5	0.022031168
83	0xb5c7c03b	-1.4882602e-06
84	0x3d71815d	0.05896126
85	0xbe8dd3c8	-0.2770064
86	0x3da639ea	0.08116515
87	0xbc87fcbc	-0.016600005
88	0x3eb23f3b	0.34813866
89	0xbee0a99f	-0.4387941
90	0xbc1b9aca	-0.009497354
91	0xbe2dab27	-0.1695982
92	0xb8a74811	-7.976604e-05
93	0x3ccf6e21	0.025321068
94	0xbd53b74b	-0.051688474
95	0xbb75a6c2	-0.0037483429
96	0x3e5e08cc	0.21683043
97	0x3ec99a30	0.39375448
98	0x01be29f4	6.9855177e-38
99	0x3e1bd7ff	0.15219115
100	0x3dad77da	0.084701255
101	0xbc2a5e24	-0.010398421
102	0x3eacaf7b	0.3372763
103	0x3af6e68a	0.0018837017
104	0xbda87b66	-0.082266614
105	0x3ef8f75b	0.48626217
106	0xbdb97b24	-0.0905669
107	0xb7a0616c	-1.9118852e-05
108	0x3e0e50b3	0.13897972
109	0x3ef26632	0.47343594
110	0x3c00e552	0.007867174
111	0xb9519f89	-0.00019991225
112	0x3e43b10c	0.19110507
113	0xbb8c571c	-0.004282845
114	0x3da5191d	0.080614306
115	0xbe93e0e4	-0.28882515
116	0xbec1d353	-0.3785654
117	0xbb23c154	-0.0024987059
118	0xbdffad10	-0.12484181
119	0x3dfefb77	0.12450307
120	0x3e0b5c43	0.13609414
121	0x3ce2f177	0.02770303
122	0xb5944a6a	-1.1048517e-06
123	0x392c1d62	0.00016414144
124	0xb7522382	-1.2525243e-05
125	0xbd5978eb	-0.053093832
126	0xb7bb7f1a	-2.2351323e-05
127	0xbc2f53b7	-0.0107011115
128	0xbcf96eb6	-0.030448299
129	0x3c4ee46d	0.012627703
130	0xbe6a0360	-0.2285285
131	0x3e63ca54	0.22245151
132	0x3b816188	0.003948394
133	0xbd0c5e9f	-0.034269925
134	0xbb7a08f8	-0.0038152318
135	0x3d004e41	0.03132463
136	0xba160f55	-0.00057243305
137	0x3d81692a	0.063188866
138	0xbec149b9	-0.37751558
139	0xbd1ccceb	-0.038281363
140	0xbc8fd40e	-0.01755717
141	0xbd459e25	-0.04824652
142	0xbb3bdc4f	-0.002866525
143	0x3ea08c82	0.313572
144	0xbbe8e3bf	-0.0071072276
145	0x3d682c12	0.056682654
146	0xbe2223f6	-0.1583403
147	0xbb037eed	-0.0020064667
148	0x3a4dfd00	0.00078578293
149	0x3e95a45c	0.2922696
150	0xbce22c87	-0.027609123
151	0xbc787041	-0.015163482
152	0xbd7d7425	-0.061878342
153	0x3d043e87	0.032286193
154	0x3b3bad86	0.0028637364
155	0xbd51ac07	-0.05118945
156	0x3b7aa448	0.0038244892
157	0xbaac16ac	-0.0013129315
158	0x3c23baeb	0.009993295
159	0x3b8e4b0d	0.004342443
160	0x3c56e38d	0.013115776
161	0xbebd270a	-0.36943847
162	0x8033f624	-4.771909e-39
163	0xbf1a3243	-0.60232943
164	0xbdd59950	-0.10429633
165	0xbd10e6d2	-0.035376377
166	0xbbbb6e7b	-0.0057199574
167	0x3b0b590c	0.0021262793
168	0xbef96dde	-0.48716635
169	0x3e7bc66d	0.24587412
170	0x3cb4e972	0.022083972
171	0x3bcb7efc	0.006210206
172	0x3d20f1a8	0.03929296
173	0x3df5d41b	0.120033465
174	0xba3ac4b2	-0.0007124647
175	0xbb64b6ac	-0.003489892
176	0x3d869096	0.06570546
177	0x3dfde999	0.12398071
178	0x3d8d56bb	0.06901308
179	0xbddc98f0	-0.10771358
180	0xbe0bfdeb	-0.13671081
181	0xbc9707c4	-0.01843632
182	0xbe008ddb	-0.12554114
183	0x3d791e47	0.06081989
184	0x3ddddb21	0.10832811
185	0xbc4509ad	-0.012026233
186	0xbaff2741	-0.0019466655
187	0xbb1889a7	-0.0023275407
188	0xbb4726aa	-0.0030388036
189	0x3d888ef7	0.066678934
190	0x3b96d68c	0.0046032127
191	0x3e0c658c	0.13710612
192	0xbccf1ed3	-0.025283253
193	0x3c66acff	0.014079331
194	0x3c6a5326	0.014302051
195	0x3f1151e6	0.5676559
196	0x3d276236	0.040865146
197	0x3da37131	0.07980574
198	0xb9f13af2	-0.0004601102
199	0x3e017c91	0.12645175
200	0xb9d18ba0	-0.00039967615
201	0x3da1923f	0.07889222
202	0xba61dd20	-0.0008616019
203	0xbe3bb4f6	-0.1833075
204	0x3dc92657	0.09821766
205	0x3b80bd2c	0.003928801
206	0xba4cd327	-0.00078134466
207	0x3e3c813c	0.18408674
208	0xbcab9860	-0.020946681
209	0xbd923dbf	-0.071406834
210	0x3d05c5c6	0.032659315
211	0xb9f3143b	-0.00046363645
212	0xbd1329d3	-0.03592856
213	0xbef810c1	-0.48450282
214	0xbe0ed6c0	-0.13949108
215	0xbe26f3a7	-0.16303883
216	0xbe296586	-0.16542634
217	0x3e0a7132	0.13519743
218	0x3c2d0902	0.01056123
219	0x3e186dbf	0.14885615
220	0x3b0f1981	0.002183527
221	0x3c6e2d67	0.014537192
222	0xbe9d1d44	-0.3068639
223	0x3cddad16	0.027060073
224	0x3d851f75	0.065001406
225	0x3ea75698	0.32683253
226	0x81a41b92	-6.0283647e-38
227	0xbeb63f7c	-0.3559531
228	0xbedfb777	-0.4369466
229	0xbc310521	-0.0108044455
230	0xbda0adc8	-0.07845646
231	0x3be0676f	0.0068482677
232	0xbeaa955c	-0.33317077
233	0x3eaa83bf	0.3330364
234	0xbe09fe0b	-0.13475816
235	0x3ab87639	0.0014073319
236	0x3e027cf6	0.12742981
237	0x3e08be91	0.13353945
238	0x3c9f80cc	0.019470595
239	0xba5681f7	-0.00081828184
240	0x3e0d20f2	0.13782099
241	0x3e26ac22	0.16276601
242	0x3d024d47	0.03181198
243	0xbe7a76ff	-0.24459456
244	0xbe6ba8e1	-0.23013641
245	0x3bc53197	0.0060178745
246	0x3ccbe78b	0.024890682
247	0x3d7bc7b6	0.061469756
248	0x3d1e927a	0.03871391
249	0xbd0d150b	-0.034443896
250	0xb9a56b64	-0.00031551265
251	0xbb584243	-0.003299848
252	0xba3ab224	-0.0007121882
253	0x3d6b42e5	0.057436842
254	0xba1ea198	-0.0006051301
255	0xbcb5e1db	-0.022202423

act_fc2.bias f4 [64]
0	0x3bf284d5	0.0074010887
1	0x3e4a8830	0.19778514
2	0x3ccaae83	0.024741417
3	0x3ce58c01	0.02802086
4	0xbd39ad4f	-0.045331296
5	0xbd0081e0	-0.03137386
6	0x3e1ef772	0.1552408
7	0xbe30562b	-0.1722037
8	0x3e0d9a18	0.13828313
9	0xbebb930a	-0.3663562
10	0xbe5c1c7c	-0.21495241
11	0x3e8e8107	0.27832815
12	0x3e871a31	0.2638717
13	0xbe086ac9	-0.13321985
14	0xbee1a635	-0.44072118
15	0x3e51fd8b	0.20506875
16	0x3d845960	0.064623594
17	0xbea9a688	-0.33134866
18	0x3e9a1b0d	0.30098763
19	0x3ee994d3	0.45621356
20	0x3e9d154c	0.3068031
21	0xbc2b8af2	-0.010470139
22	0xbdebe8f9	-0.115190454
23	0xbd4236ec	-0.04741566
24	0xbdfb7780	-0.12278652
25	0x3e7872de	0.24262568
26	0x3d416684	0.047216907
27	0x3f10cf1f	0.5656604
28	0x3f15940f	0.58429044
29	0x3c90abb1	0.017659994
30	0x3daa81a2	0.08325507
31	0x3dfed17c	0.124423
32	0x3d9b0aab	0.07570394
33	0x3c6a42c4	0.014298145
34	0x3da42d67	0.08016472
35	0x3f0f28a3	0.5592138
36	0x3f134f1d	0.5754259
37	0x3d58173c	0.052756533
38	0x3e7ea817	0.24868809
39	0xbdcb7108	-0.099336684
40	0xbd013277	-0.031542268
41	0xbe255ea2	-0.16149381
42	0xbca0eed7	-0.019645138
43	0x3e88e2e3	0.267356
44	0x3ee7f31f	0.45302674
45	0x3ea51196	0.3223998
46	0xbebeb3e9	-0.37246636
47	0x3cbf293d	0.023335094
48	0x3e3ce05b	0.1844496
49	0xbed55210	-0.4166417
50	0xbe062913	-0.13101606
51	0x3e9f39aa	0.31098682
52	0x3e89a238	0.26881576
53	0xbe1f1379	-0.15534772
54	0xbeaa38d5	-0.33246484
55	0x3dfc8c75	0.123314776
56	0xbe4fa928	-0.20279372
57	0x3e200d19	0.15629996
58	0xbd87cd17	-0.06630915
59	0x3ca64e6a	0.020301063
60	0x3a1033a6	0.000550086
61	0x3d7ba499	0.06143627
62	0x3e310424	0.17286736
63	0xbce59153	-0.028023398

val_fc1.weight f4 [64, 384]
0	0x3e015262	0.12629083
1	0xbe8da461	-0.27664474
2	0x3d75e72f	0.060034927
3	0x3d16d67c	0.036825642
4	0x3e0a1443	0.13484292
5	0x3ed51ba3	0.41622648
6	0xbdaefb83	-0.08544066
7	0x3c068c18	0.008212112
8	0x3d7ad950	0.0612424
9	0x3d4ee50c	0.050511405
10	0x3d04dbe7	0.032436278
11	0x3e2e0f57	0.16998039
12	0x3dd34595	0.10316006
13	0x3d9e22f6	0.07721512
14	0xbdc89d36	-0.097956106
15	0x3d319e9a	0.043364145
16	0xbe909815	-0.2824103
17	0x3e8de008	0.27709985
18	0xbd9058fc	-0.070482224
19	0x3e0170ef	0.12640737
20	0xbda3738a	-0.07981022
21	0x3e7147c7	0.23562537
22	0xbe2a781d	-0.16647382
23	0x3dd1fc04	0.10253146
24	0x3d092a63	0.03348769
25	0x3dbfeeb8	0.09371704
26	0xbd85f90a	-0.06541641
27	0x3e455f4b	0.19274633
28	0x3dd59e69	0.10430605
29	0x3c7f6daf	0.015590115
30	0x3e83f590	0.25773287
31	0x3e8bc582	0.27299124
32	0xbca5e65b	-0.020251444
33	0x3ea72fe1	0.32653716
34	0xbed48af8	-0.41512275
35	0x3e901104	0.28137982
36	0xbd450a3d	-0.048105467
37	0x3dea755a	0.11448164
38	0x3ddd647c	0.108101815
39	0x3e8e93a5	0.2784702
40	0xbe0bbce2	-0.13646272
41	0xbe216bcb	-0.15763776
42	0x3e7aaf98	0.24481046
43	0xbdb051b1	-0.086093314
44	0x3d99a7a2	0.075026765
45	0x3ebff530	0.3749175
46	0xbe4c42a1	-0.19947292
47	0x3dddeb42	0.108358875
48	0xbd66d742	-0.05635763
49	0xbd07847e	-0.03308534
50	0xbd721315	-0.05910023
51	0x3dceb9fc	0.100940675
52	0x3e10d564	0.14143902
53	0x3df36e01	0.11886216
54	0x3e6e3c20	0.23265123
55	0x3d8a0ae2	0.06740357
56	0xbdb638c6	-0.088975474
57	0x3ddd8914	0.10817161
58	0xbe3f4e24	-0.18682152
59	0x3ef71ebb	0.48265633
60	0xbdc9270b	-0.098219
61	0xbd2281a1	-0.039674405
62	0xbdea231d	-0.114324786
63	0x3dd61ca5	0.10454682
64	0xbebaee4f	-0.3650994
65	0xbc612356	-0.013741335
66	0xbde81812	-0.11332716
67	0x3e46dc76	0.19420037
68	0xbd0eca65	-0.034860987
69	0x3e516279	0.2044772
70	0x3ea7959f	0.3273134
71	0x3d8d901c	0.06912252
72	0x3d085414	0.03328331
73	0xbcffff44	-0.03124965
74	0x3d97a0f2	0.07403745
75	0x3e32d0c0	0.17462444
76	0x3efa07e0	0.48834133
77	0x3e66c206	0.22534952
78	0xbddd32dd	-0.10800717
79	0xbe870b70	-0.26375914
80	0x3bdfa8ae	0.006825528
81	0xbb501613	-0.0031751439
82	0xbe84bc36	-0.25924844
83	0xbd3f2bce	-0.046672635
84	0x3eee518d	0.46546593
85	0xbc8f6fb4	-0.017509319
86	0x3d8fb7d6	0.07017486
87	0x3e6c5940	0.23080921
88	0x3de35f1c	0.11102125
89	0x3ede549e	0.43423933
90	0xbdba8a99	-0.09108467
91	0xbd0434f7	-0.032277074
92	0x3b82c9b8	0.003991332
93	0x3ea0c654	0.31401312
94	0xbdad34cd	-0.084573366
95	0xbe3e46f9	-0.18581761
96	0x3e6875a7	0.22701131
97	0xb9900c7f	-0.0002747513
98	0xbe6bc682	-0.23024943
99	0xbe07d698	-0.13265455
100	0xbe076187	-0.13220797
101	0x3f0d15cf	0.551114
102	0xbd38ceef	-0.045119222
103	0x3e1c3f84	0.15258604
104	0xbe5850e3	-0.21124606
105	0x3e32e897	0.17471538
106	0xbeada27e	-0.33913034
107	0xbe004131	-0.12524869
108	0xbc0d9b7d	-0.008643028
109	0x3d22d1cb	0.039750855
110	0xbdb5ff74	-0.088866144
111	0x3c796695	0.015222211
112	0xbe30218e	-0.172003
113	0xbdb9db43	-0.09075024
114	0xbdd685d1	-0.10474742
115	0xbe5aa967	-0.21353684
116	0xbd47e79c	-0.048804864
117	0x3e500a57	0.20316444
118	0xbe08dcae	-0.13365433
119	0xbe817c4e	-0.2529015
120	0xbe92384e	-0.28558582
121	0xbe185fee	-0.14880344
122	0xbd70c3bb	-0.058780413
123	0x3e7a8ad4	0.24467021
124	0xbea9e4e2	-0.33182436
125	0xbdc7e8b8	-0.097611845
126	0x3d225b62	0.03963793
127	0xbf157d55	-0.58394367
128	0x3e08801a	0.13330117
129	0xbba81641	-0.005129606
130	0xbde0ec60	-0.10982585
131	0x3e5a85d0	0.21340108
132	0xbe62ec77	-0.22160517
133	0xbe669a98	-0.2251991
134	0xbdb54aaf	-0.088521354
135	0xbc24a330	-0.010048673
136	0xbf0f0b13	-0.5587627
137	0xbd92e597	-0.07172697
138	0x3e85780e	0.26068157
139	0x3cea6619	0.028613137
140	0xbcc16c78	-0.023611292
141	0x3e87b3ce	0.26504368
142	0x3c5bd071	0.0134163955
143	0x3e8292bd	0.25502577
144	0x3cc58ff7	0.0241165
145	0x3dfe27f0	0.12409961
146	0xbe265f05	-0.16247185
147	0x3e8bbbd6	0.27291745
148	0x3e8ec466	0.27884215
149	0x3d8205d8	0.06348771
150	0x3d3a054e	0.045415215
151	0x3da3f626	0.080059335
152	0xbd8122b0	-0.06305444
153	0xbd746383	-0.059665214
154	0xbd6baeed	-0.05753987
155	0x3e24874d	0.16067238
156	0xbdc253fe	-0.094886765
157	0xbeb17d23	-0.34665784
158	0xbd9dfd1d	-0.07714293
159	0x3e2853e5	0.16438253
160	0xbe4fc319	-0.20289268
161	0xbea6d974	-0.3258778
162	0xbe697246	-0.22797498
163	0x3e2a99ca	0.16660228
164	0xbdad0a20	-0.08449197
165	0x3e325724	0.17416054
166	0xbe445380	-0.19172478
167	0xbe95a579	-0.29227808
168	0xbdcef108	-0.10104567
169	0xbf06d3ed	-0.52667123
170	0x3d1ea59b	0.038732152
171	0x3e77905d	0.24176164
172	0xbe70b302	-0.23505786
173	0xbea08328	-0.31350064
174	0xbe9c4fc8	-0.30529618
175	0xbf307bce	-0.6893891
176	0xbdd7d596	-0.10538785
177	0xbcbbd21b	-0.022927335
178	0xbe8352fc	-0.2564925
179	0xbe842712	-0.25811058
180	0x3beae0d6	0.007167916
181	0xbe3238cd	-0.1740448
182	0x3e06c841	0.13162328
183	0xbe226bc9	-0.1586143
184	0x3e1d9950	0.15390515
185	0x3e5cf77b	0.21578781
186	0xbe6448c3	-0.22293381
187	0x3c453535	0.012036611
188	0xbe266cba	-0.16252413
189	0xbd98ef72	-0.074675456
190	0x3dd11e9e	0.10210918
191	0x3d5ff683	0.05467845
192	0x3cef67a4	0.029224224
193	0xbe389b1a	-0.18027917
194	0xbd996205	-0.07489399
195	0xbdcf5d88	-0.101252615
196	0x3cca5007	0.024696363
197	0x3daadb8d	0.08342657
198	0x3d21e5f8	0.039525956
199	0x3cb634ab	0.02224191
200	0x3cbcf6d6	0.02306692
201	0x3dc0702f	0.09396397
202	0x3e878d7b	0.2647513
203	0x3e160b78	0.14652812
204	0xbea7c55a	-0.32767755
205	0xbec4ac9e	-0.38412946
206	0x3d6f8127	0.05847278
207	0xbbb4dc95	-0.0055194595
208	0xbe335321	-0.1751218
209	0xbe86ab05	-0.26302353
210	0xbe0d3eda	-0.13793507
211	0xbf7d8c50	-0.99042225
212	0x3d4e02be	0.050295584
213	0x3e306ec1	0.1722975
214	0x3d2e4d84	0.042554393
215	0xbee3f993	-0.44526348
216	0xbe4732ee	-0.19453022
217	0xbeeb2574	-0.45927012
218	0xbdd3ac4f	-0.103356
219	0xbcd14642	-0.025546197
220	0xbddb4ea8	-0.10708362
221	0xbeedf49b	-0.46475682
222	0xbe260c8b	-0.16215722
223	0xbecde3d6	-0.40212888
224	0x3dc26e50	0.09493697
225	0xbe0a1a1f	-0.13486527
226	0xbd3f8015	-0.046753008
227	0x3cadffcc	0.021240138
228	0xbd9d81fc	-0.07690808
229	0x3e00fb8f	0.12595962
230	0xbe092310	-0.13392282
231	0xbe4fdfad	-0.2030017
232	0x3e078a5c	0.13236374
233	0x3e398230	0.18116069
234	0x3e0f1385	0.1397229
235	0x3d84055c	0.06446335
236	0x3d06e462	0.032932647
237	0xbd4e74a3	-0.050404202
238	0x3f15baf6	0.58488405
239	0xbc086a3f	-0.008326112
240	0x3eb603d4	0.35549796
241	0x3eec5085	0.46155182
242	0xbd68f0fd	-0.05687045
243	0x3eaf1074	0.3419224
244	0xbef2ad2e	-0.4739775
245	0x3f1310e0	0.57447624
246	0xbe97867e	-0.29594797
247	0xbead8dbc	-0.33897197
248	0x3dcaa2e9	0.09894354
249	0x3d81b358	0.06333035
250	0x3e26af79	0.16277875
251	0xbe9b809a	-0.30371553
252	0xbe20fe5c	-0.1572203
253	0xbf1284db	-0.5723397
254	0x3e01fce9	0.12694134
255	0xbc99c058	-0.018768474

val_fc1.bias f4 [64]
0	0x3d813c75	0.063103594
1	0xbeba8bd2	-0.364348
2	0xbe617d27	-0.22020398
3	0xbc91e235	-0.01780806
4	0x3d14597f	0.036218163
5	0x3c4d0c41	0.012515129
6	0x3d7dbbed	0.061946798
7	0xbe1a7860	-0.15084982
8	0x3d0a1fed	0.033721853
9	0x3e25fc13	0.1620944
10	0xbe5a1ffc	-0.21301264
11	0xbbe90c45	-0.0071120583
12	0xbf057e88	-0.52146196
13	0x3e0eb59e	0.13936469
14	0xbf09f5d0	-0.53890705
15	0xbf128af8	-0.572433
16	0xbe2152e2	-0.15754274
17	0xbbf6dcd9	-0.0075336513
18	0xbbb32367	-0.005466867
19	0xbd0f8712	-0.035040922
20	0x3d85c154	0.06531015
21	0xbce3148c	-0.027719758
22	0xbdbf64bd	-0.09345386
23	0xbe5b44b1	-0.21412922
24	0x3e30289f	0.17202996
25	0x3d9fe8cc	0.07808074
26	0x3e564943	0.20926385
27	0x3e8b8ce9	0.27255943
28	0x3ea4bc6f	0.32175013
29	0xbd9fa598	-0.077952564
30	0x3e0d0daf	0.13774751
31	0xbcaeed9e	-0.02135354
32	0xbe0f3c5f	-0.13987873
33	0xbf21ba50	-0.63174915
34	0xbd7eda54	-0.062219933
35	0xbddad150	-0.106844544
36	0xbf5a9cb1	-0.8539534
37	0xbc827900	-0.015926838
38	0x3e173a5a	0.14768353
39	0xbcaf71c4	-0.021416552
40	0xbe7e96c2	-0.24862197
41	0xbedcc1db	-0.4311665
42	0xbd5eec00	-0.054424286
43	0xbd0cd898	-0.034386247
44	0xbc0a0df6	-0.00842618
45	0xbe84ab40	-0.25911903
46	0x3e4fa31d	0.20277067
47	0xbf0aacdb	-0.54170007
48	0xa9e60b65	-1.02160285e-13
49	0xbc0e5abc	-0.008688625
50	0x3dbb7b78	0.09154409
51	0x3d16828f	0.036745604
52	0xbdffd89f	-0.12492489
53	0xb97e9bd5	-0.0002428138
54	0xbe5a73bf	-0.21333216
55	0xbe89ac21	-0.26889136
56	0xbd439e56	-0.047758423
57	0xbe88cddb	-0.26719555
58	0xbd806447	-0.062691264
59	0xbb9f3c38	-0.0048594736
60	0xbe4950e5	-0.19659765
61	0x3ebe7900	0.3720169
62	0x3ea8aeea	0.3294595
63	0xbe0f3219	-0.13983954

val_fc2.weight f4 [1, 64]
0	0x3ea615c8	0.32438493
1	0x3ec91671	0.39274934
2	0xbea1cb6b	-0.31600508
3	0xbede118a	-0.43372756
4	0xbd102a5d	-0.03519665
5	0x3e2d6406	0.16932687
6	0xbd11b599	-0.035573576
7	0x3f1ae2d4	0.6050236
8	0xbdd70764	-0.104994565
9	0x3e46f75b	0.19430296
10	0x3f045ae1	0.5170117
11	0xbc23a4b6	-0.009988001
12	0xbef12120	-0.47095585
13	0x3e113fdd	0.14184518
14	0xbea3a664	-0.31962883
15	0x3f0cf468	0.55060434
16	0xbdc0584c	-0.09391841
17	0xbbaedfec	-0.005336752
18	0x3cb9fd4a	0.022703785
19	0xbe82c527	-0.2554104
20	0x3e7ec0cc	0.24878234
21	0xbc375b33	-0.011191177
22	0x3e4ad048	0.19806015
23	0xbec2dca6	-0.38058966
24	0xbbd9df22	-0.006648914
25	0xbabd87ec	-0.0014460064
26	0xbe7a0341	-0.24415304
27	0x3f2166c5	0.6304744
28	0x3e082608	0.13295758
29	0xbe215cfd	-0.15758128
30	0x3e2f2c30	0.171067
31	0xbe26c077	-0.16284357
32	0xbea9cbbc	-0.3316325
33	0x3e402540	0.1876421
34	0xbe32218e	-0.17395613
35	0xbedea663	-0.43486318
36	0x3eafef8b	0.34362444
37	0x3bf8c7b8	0.0075921677
38	0x3ef59b8a	0.4797023
39	0x3be9db18	0.0071367137
40	0xbd72d003	-0.059280407
41	0xbeba2149	-0.3635352
42	0x3ed4db81	0.41573718
43	0xbc5bcfd4	-0.013416249
44	0xbec16194	-0.3776976
45	0x3e115c5d	0.1419539
46	0x3ea5a82f	0.32354876
47	0x3e7ffb07	0.24998103
48	0x3be5e717	0.0070160734
49	0xbeb8cbb8	-0.36092925
50	0x3e04aecc	0.12957305
51	0xbeabdebb	-0.33568367
52	0x3ef482fe	0.4775619
53	0x3aae2017	0.001328471
54	0xbdd59105	-0.10428051
55	0xbddb0b97	-0.1069557
56	0x3d537050	0.05162078
57	0x3ede3f4d	0.4340767
58	0x3d8ec0ff	0.06970405
59	0x3ca58c11	0.02020839
60	0x3e367b41	0.17820455
61	0x3ed2266e	0.41044945
62	0xbdc49fe8	-0.09600812
63	0x3f0db7e0	0.55358696
