Server/src/ml/models/1aaa41fa-526e-47c6-916c-07906127df3c/best.model (torch, 124420 bytes, 10 tensors)

layers.0.lin.weight f4 [6, 4]
0	0xbec3bcb1	-0.38229898
1	0xbea9799d	-0.33100596
2	0xbe7591f0	-0.23981452
3	0x3e9b5c27	0.30343744
4	0xbe8ac039	-0.2709978
5	0xbe1d103a	-0.15338221
6	0x3dd52417	0.10407274
7	0xbe3fb9d4	-0.18723232
8	0x3d3d391e	0.04619705
9	0x3e1ae3a6	0.15125903
10	0xbe9a12e0	-0.30092525
11	0xbee85f11	-0.4538503
12	0xbee32187	-0.44361517
13	0xbdfec03c	-0.124390095
14	0xbe95fdf2	-0.29295307
15	0x3b95fbd9	0.0045771417
16	0xbeac6d8e	-0.33677334
17	0x3e92ad40	0.28647804
18	0xbe297056	-0.16546759
19	0x3ed5f953	0.41791782
20	0x3d133b0c	0.035944983
21	0x3ea0b20a	0.31385833
22	0xbe103c07	-0.14085399
23	0xbe56d583	-0.20979886

layers.1.lin.weight f4 [6, 6]
0	0x3e088c71	0.13334824
1	0xbe1453c1	-0.14485075
2	0xbe9c9dd5	-0.30589166
3	0xbe52080b	-0.2051088
4	0xbe842a73	-0.25813636
5	0x3d899982	0.067187324
6	0x3e55795a	0.20847073
7	0xbe95914c	-0.29212415
8	0x3ebcf21f	0.36903474
9	0xbe5b4cc6	-0.21416005
10	0x3e9d2ed7	0.30699798
11	0xbe8c064c	-0.27348554
12	0xbeb2b28b	-0.34901842
13	0x3d68f7c0	0.056876898
14	0x3e12551e	0.14290282
15	0x3e3fd6aa	0.18734232
16	0xbe11a6c8	-0.14223778
17	0x3eb571e8	0.35438466
18	0x3eaefd5f	0.34177682
19	0x3e8cbb82	0.27486807
20	0x3e902ffa	0.28161603
21	0x3d09e2b5	0.03366347
22	0xbdb592b4	-0.08865872
23	0x3eccc5b3	0.39994583
24	0x3e569439	0.2095498
25	0xbc5901c6	-0.013245052
26	0xbe1a7ce7	-0.15086709
27	0x3e9ef469	0.31045845
28	0xbe4fba64	-0.20285946
29	0xbbf40cc2	-0.00744781
30	0xbd8198dc	-0.06327984
31	0x3d1f32fb	0.03886698
32	0x3da7e81a	0.08198567
33	0xbd26fe0d	-0.040769625
34	0xbdbf7770	-0.09348953
35	0x3cf53bce	0.029935744

layers.2.lin.weight f4 [6, 6]
0	0x3e0d315d	0.13788362
1	0xbe94923e	-0.29017824
2	0xbe6647fa	-0.22488394
3	0xbe574a5e	-0.21024463
4	0xbd59a8a3	-0.05313934
5	0x3eaeadd5	0.34116998
6	0xbe9d7a34	-0.30757296
7	0x3d52ab05	0.05143263
8	0x3edda3a8	0.43288922
9	0x3e837a12	0.2567907
10	0xbdfc783f	-0.123276226
11	0x3e4aeb6e	0.19816372
12	0xbea2a19f	-0.31763932
13	0xbe8416b5	-0.25798574
14	0x3e71c60f	0.2361071
15	0x3ebb0b2d	0.36531964
16	0xbe26188a	-0.16220298
17	0x3d1a3a39	0.03765318
18	0xbc9809c6	-0.018559348
19	0x3e6fb1a6	0.23407611
20	0x3e8396a5	0.2570087
21	0x3e5f17bc	0.21786398
22	0xbd7731a7	-0.060350087
23	0x3c749e09	0.014930257
24	0x3e79864d	0.24367638
25	0xbdb60961	-0.08888508
26	0xbea70528	-0.3262112
27	0xbe379cd2	-0.17930916
28	0x3e608c1e	0.2192845
29	0x3e8ebf54	0.27880347
30	0x3d89c61c	0.067272395
31	0xbd12956d	-0.035787035
32	0xbe505370	-0.20344329
33	0x3e8cd8e8	0.27509236
34	0x3e5e0918	0.21683156
35	0x3e9f355d	0.310954

act_fc1.weight f4 [64, 216]
0	0xbbc677bf	-0.0060567553
1	0xbd3c93c1	-0.046039347
2	0x3c7bd9ae	0.015371723
3	0x3d12e94e	0.035867028
4	0x3a25254d	0.0006299809
5	0x3bb8491f	0.005623951
6	0xbc97dd0c	-0.01853802
7	0xbcddc60a	-0.027071971
8	0xbd3bf1db	-0.04588495
9	0xbd6ad693	-0.05733354
10	0xbce274c1	-0.027643563
11	0xba06ae18	-0.00051376363
12	0xbb85af7b	-0.004079757
13	0x3cb30c87	0.02185656
14	0xbd5c1207	-0.05372813
15	0xbc895cd9	-0.016767906
16	0x39f7baf0	0.0004725079
17	0x3c675161	0.014118523
18	0x3c6189d8	0.013765775
19	0x3cc9e814	0.024646796
20	0xbd2fb7f6	-0.04290005
21	0x3d5bbde3	0.053647887
22	0xbbf7fa70	-0.0075676963
23	0x3ccbb66e	0.024867263
24	0x3b99a525	0.004688876
25	0x3d158894	0.036507204
26	0x3cca36d0	0.02468434
27	0xbd8bbe9b	-0.068234645
28	0x3bc7447a	0.006081161
29	0xbccf2afc	-0.025289051
30	0x3bfb9990	0.007678218
31	0xbcdeed68	-0.027212813
32	0x3cce4cf1	0.025183173
33	0x3cdfbf38	0.02731286
34	0xbc1b5b5d	-0.009482232
35	0xbcfc7226	-0.030816149
36	0xbce43e98	-0.027861878
37	0xbbfc794a	-0.0077048885
38	0xbcbc5bd5	-0.022993008
39	0x3c81b7b1	0.015834661
40	0x3bfee133	0.0077783107
41	0xbbd02014	-0.0063514803
42	0x38e35aa0	0.00010841084
43	0xbb3c8e1e	-0.0028771232
44	0x3cf99480	0.030466318
45	0xbc3a7622	-0.011380704
46	0x39165808	0.00014337909
47	0xbbbf9c08	-0.005847458
48	0xbc00846d	-0.007844073
49	0x3cf2a182	0.029618029
50	0xbd5a08fc	-0.053231224
51	0xbc7f4e81	-0.015582682
52	0xbb2aede4	-0.0026081735
53	0x3cc990c0	0.024605155
54	0xbbf70d28	-0.00753941
55	0x3cbcabf6	0.023031216
56	0xbc1fea01	-0.009760381
57	0x3d47f1a6	0.04881444
58	0x3a6b3aac	0.00089732814
59	0x3bbd5f60	0.005779192
60	0x3b9fd6b0	0.0048778877
61	0xbd1c8b88	-0.038219005
62	0xbd506194	-0.050874308
63	0xbd670638	-0.056402415
64	0xb9b5fefa	-0.00034712983
65	0xbc135c10	-0.008994117
66	0x3b8a934d	0.0042289854
67	0xbd69d487	-0.057087447
68	0xbc1ca323	-0.009560379
69	0xbd6aeb3e	-0.05735325
70	0xbc96bdcc	-0.01840105
71	0x3ccb0412	0.024782214
72	0xb8e4f428	-0.00010917365
73	0xbc5e01e3	-0.0135502545
74	0x3c8f27d4	0.017475046
75	0x3d3256e9	0.043539915
76	0xbba8a7f4	-0.0051469747
77	0x3caa03c5	0.02075375
78	0x3cb38585	0.021914253
79	0xbcd9d43a	-0.026590455
80	0x3c9d95e2	0.019236509
81	0xba5eaa3a	-0.00084939937
82	0xbc68c10c	-0.014206182
83	0xbcd5580f	-0.026042966
84	0x391c96ca	0.00014933493
85	0xbd6751c8	-0.056474477
86	0xbd44f94b	-0.048089307
87	0x3c853c8e	0.016264226
88	0x3cb67476	0.02227233
89	0x3c5eaa55	0.013590415
90	0x3bfd4431	0.0077290763
91	0xbd209ee5	-0.039214034
92	0xbcd688aa	-0.026188213
93	0x3d5b1ccf	0.05349427
94	0xba42f532	-0.00074370496
95	0xbcd81293	-0.026376044
96	0x384a34a8	4.8209593e-05
97	0x3c093b9c	0.008376028
98	0xbd437376	-0.047717534
99	0x3cafcdb6	0.021460395
100	0xbce78631	-0.02826223
101	0x3cc883d6	0.024476927
102	0x3c465bac	0.012106817
103	0xbcff16b0	-0.031138748
104	0xbc53a1bc	-0.012916978
105	0xbc811845	-0.015758643
106	0xbc2e7201	-0.010647298
107	0xbd1367ca	-0.035987653
108	0x3a77442c	0.00094324606
109	0xbb1a0252	-0.0023499918
110	0x3d11ceb4	0.035597518
111	0x3d06d3b2	0.032916732
112	0xbc893626	-0.016749453
113	0x3b22f765	0.0024866697
114	0x3bf9bcf1	0.0076214005
115	0xbd91f4a1	-0.071267374
116	0x3c8d4666	0.017245483
117	0xbd0453f2	-0.03230662
118	0xbbdd5da0	-0.0067555457
119	0xbc85ccd2	-0.016333017
120	0x3bd417b2	0.0064725513
121	0xbd0c5a1c	-0.034265622
122	0xbd235a14	-0.039880827
123	0xbd7f613b	-0.062348586
124	0x3b158db8	0.0022820067
125	0xbcc411db	-0.023934295
126	0xbb876616	-0.0041320426
127	0xbd5340be	-0.051575415
128	0x3cc43e51	0.023955496
129	0x3d0fcd3e	0.035107844
130	0x3ce30de4	0.027716585
131	0xbc778a8a	-0.015108714
132	0xba89e442	-0.0010520297
133	0xbd9475d9	-0.0724904
134	0x3cc4658a	0.023974199
135	0xbd832ca5	-0.06405
136	0x39e74fd0	0.00044119218
137	0xbce707ad	-0.028201902
138	0xbcce11dc	-0.025155
139	0x3d43fc15	0.047847826
140	0xbd1ab92d	-0.037774254
141	0xbd41a4a1	-0.047276143
142	0x3c4ec33c	0.01261979
143	0x3ad25e19	0.0016049772
144	0xbbf66d7b	-0.0075203753
145	0xbc64c301	-0.013962508
146	0xbcd340a9	-0.025787668
147	0xbcc0d253	-0.02353779
148	0x3ca06157	0.019577665
149	0xbd11733f	-0.035510298
150	0xb98f85f2	-0.00027374882
151	0xbcf43e8e	-0.029814985
152	0x3cc5b178	0.024132475
153	0xbc3755cc	-0.011189889
154	0xbbd822f6	-0.0065959645
155	0x3c7d1d73	0.015448916
156	0x3b567cee	0.0032728272
157	0x3d06c549	0.03290299
158	0xbc8aec22	-0.0169583
159	0x3bcdad65	0.0062767738
160	0x3be67797	0.007033299
161	0xbd01e24c	-0.031709954
162	0x3a48d724	0.0007661453
163	0x3ca24a39	0.019810783
164	0xbd10e1b3	-0.035371494
165	0x3cf58378	0.029969916
166	0x3b827d7a	0.003982243
167	0xbb5fd34a	-0.0034153038
168	0x3be30f34	0.0069293026
169	0xbc956fab	-0.018241724
170	0xbc4d5274	-0.012531865
171	0xbd5b9eb8	-0.053618163
172	0x3be52f95	0.0069941976
173	0xbbbe0bfc	-0.0057997685
174	0x39387350	0.00017590565
175	0x3bf2c3b6	0.0074085845
176	0xbd65a00a	-0.05606083
177	0xbd19b643	-0.037527334
178	0xbbd334dc	-0.0064455103
179	0xbc46e007	-0.012138373
180	0x3c015ad4	0.00789519
181	0xbd3268fa	-0.043557145
182	0x3c80281c	0.015644126
183	0x3c423329	0.011853018
184	0x3b79ec8d	0.003813538
185	0xbc91c72f	-0.017795173
186	0xbc83cfda	-0.016090322
187	0xbd87e010	-0.066345334
188	0xbceb3f21	-0.028716626
189	0xbcc33957	-0.023831053
190	0xbbfc8e52	-0.0077073956
191	0x3ce02ed6	0.027366083
192	0x3ceb14c9	0.028696435
193	0xbd4616e2	-0.048361667
194	0x3c414fb5	0.011798789
195	0x3c8ef713	0.017451799
196	0x3c27093c	0.010195073
197	0xbd1fb7b8	-0.038993567
198	0x3ba857ce	0.0051374203
199	0x3d4048ee	0.04694455
200	0xbd00d904	-0.031456962
201	0xbca247a3	-0.01980955
202	0x3c6e4c2e	0.01454453
203	0x3b8dd0ed	0.0043278844
204	0xbc9b52dd	-0.01896041
205	0x3d0820ee	0.03323453
206	0xbd8e71a0	-0.06955266
207	0x3d051cd3	0.032498192
208	0xbbb9ed46	-0.005674037
209	0xbc244efc	-0.010028597
210	0x3bcb4fce	0.006204582
211	0xbd6f667e	-0.058447354
212	0xbd3eb110	-0.04655558
213	0xbc2b3337	-0.010449222
214	0xbb0050dc	-0.0019579446
215	0xbc61ba70	-0.01377736
216	0xbbd295ca	-0.0064265477
217	0x3cb89fce	0.022537138
218	0x3c1394f6	0.009007683
219	0x3d2ab611	0.04167754
220	0xbb9d5032	-0.00480082
221	0x3b841a5a	0.0040314617
222	0x39f16c30	0.00046047708
223	0x3d69aae2	0.057047732
224	0x3d5f7354	0.054553345
225	0x3c853f33	0.016265487
226	0x3be59000	0.0070056915
227	0x3cab83fb	0.020936957
228	0x3b77feb5	0.0037841026
229	0x3c92f3cf	0.017938523
230	0xbc400b75	-0.011721482
231	0x3c345ff9	0.01100921
232	0x3bae3b46	0.0053171245
233	0x3c9687cf	0.018375305
234	0x3b891650	0.004183568
235	0x3c9e2eb5	0.019309381
236	0xbcaeabb1	-0.021322103
237	0x3d446ac0	0.047953367
238	0x39b8ef10	0.0003527333
239	0x3cbd24cb	0.023088833
240	0x3b0170b9	0.0019751026
241	0x3cf804eb	0.030275783
242	0x3b9dbaaf	0.004813514
243	0x3c8e2546	0.017351758
244	0xbaf3e72c	-0.0018608323
245	0x3c948076	0.018127661
246	0xbb4f80bd	-0.0031662427
247	0xb9c0c57a	-0.00036768225
248	0x3cdb4f06	0.02677108
249	0x3cf776eb	0.030208072
250	0xbc53b540	-0.012921631
251	0xbd01abaa	-0.031657852
252	0xbb3e5cb4	-0.0029046955
253	0xbd1ac39d	-0.037784208
254	0x3d551c85	0.05202915
255	0x3d17ac98	0.037029833

act_fc1.bias f4 [64]
0	0x3b0d511e	0.0021563242
1	0x3b1fb63a	0.002437009
2	0x3aff68ff	0.0019486247
3	0x3d7275a4	0.059194222
4	0x3be3f8b3	0.0069571375
5	0x3c891df2	0.016737912
6	0x3cd1e9ed	0.02562424
7	0x3cc2a074	0.02375815
8	0xbb63d6ea	-0.003476555
9	0x3d4b49da	0.049630977
10	0x3d550c71	0.05201382
11	0xbbfa31da	-0.0076353373
12	0xbb20d815	-0.0024542857
13	0xba983fb4	-0.0011615665
14	0xbcaba773	-0.02095387
15	0x3d06ea57	0.032938328
16	0xbb80e3a0	-0.003933385
17	0xbc073a3e	-0.008253632
18	0xbc08fdfa	-0.008361334
19	0xbcb412f2	-0.02198169
20	0xbbbafd4c	-0.005706465
21	0x3cce5c9a	0.02519064
22	0x3d9c89e9	0.07643492
23	0x3bcd837f	0.006271779
24	0xbb7084e1	-0.0036700296
25	0x3cac90b5	0.021065095
26	0xbc09722f	-0.00838904
27	0x3da1e03a	0.07904096
28	0x3d203e58	0.039121956
29	0x3da533f9	0.080665536
30	0x3db2c49e	0.08728908
31	0xbc0265c5	-0.007958834
32	0x3b8e13a8	0.0043358393
33	0xbc4c42ff	-0.012467145
34	0xbc1c2a99	-0.00953164
35	0xbcac5a46	-0.02103914
36	0x3d0dbd9b	0.03460465
37	0x3d6c6ad0	0.05771905
38	0xbbb2c628	-0.005455751
39	0x3d29403d	0.041321028
40	0x3c2a72ef	0.010403379
41	0xbc0c6520	-0.008569032
42	0x3d5135af	0.051076587
43	0xbbba05a7	-0.0056769433
44	0x3c273494	0.010205407
45	0x3d83062a	0.0639766
46	0x3ccf2222	0.02528483
47	0x3cc2d70d	0.023784185
48	0x3ce9fada	0.028561998
49	0xbc661eb1	-0.014045403
50	0x3d1e0ef5	0.038588483
51	0x3d989f99	0.07452316
52	0xbbad2c82	-0.0052848468
53	0xbc57dd2e	-0.013175292
54	0xbc7c6d29	-0.015406885
55	0x3d71c963	0.059029948
56	0xbb7ae6e8	-0.0038284604
57	0x3d57412e	0.052552395
58	0xbbee4f1c	-0.007272614
59	0xbc47c395	-0.0121926265
60	0x3d583f7a	0.05279491
61	0xbc2ae294	-0.010429997
62	0x3cda4283	0.026643043
63	0xbc686168	-0.01418338

act_fc2.weight f4 [36, 64]
0	0x3dcb5049	0.099274226
1	0xbd0065f5	-0.031347234
2	0x3c454041	0.012039245
3	0x3d92dc8d	0.07170973
4	0xbdbe833d	-0.093023755
5	0x3c048a93	0.008089679
6	0xbcd6f8ba	-0.026241649
7	0x3ca6e363	0.020372098
8	0x3ba363c4	0.004986258
9	0x3cc27527	0.023737503
10	0xbe111c9b	-0.14171068
11	0xbc03a0f8	-0.008033983
12	0x3c2ecce2	0.010668965
13	0x3b1e354b	0.0024140652
14	0x3a90a2aa	0.0011034806
15	0xbd0cc9f6	-0.034372292
16	0xbd966cd6	-0.073449776
17	0x3d820941	0.06349421
18	0xbd3ba348	-0.045810014
19	0x3d92e72b	0.07172998
20	0x3d841ff6	0.064514086
21	0xbdcf9df2	-0.101375476
22	0xbd98ed0f	-0.0746709
23	0xbda6d608	-0.08146292
24	0xbd1e2d6a	-0.03861753
25	0x3dd6ccb5	0.104882635
26	0x3d7475f1	0.05968279
27	0x3d5858cd	0.052819062
28	0x3b9a9ae4	0.0047181714
29	0xbdac1b6e	-0.08403669
30	0x3da84b4c	0.08217487
31	0xbbd0d9dd	-0.0063736276
32	0xbd7d9325	-0.061907906
33	0x3af51b4c	0.0018700152
34	0x3d61d45e	0.05513417
35	0xbbcdbf70	-0.0062789246
36	0xbdd34271	-0.10315407
37	0x3d44e3a5	0.04806866
38	0x3c01737d	0.00790107
39	0x3dbb2c11	0.091392644
40	0xbcf23e39	-0.029570686
41	0xbda3d890	-0.080002904
42	0xbd8d6aaa	-0.0690511
43	0x3b92793c	0.0044700187
44	0x3d558322	0.05212701
45	0xbdfc96ec	-0.123334736
46	0x3da67fdb	0.08129855
47	0xbd05cbed	-0.032665182
48	0xbd1f574e	-0.03890162
49	0xbb222673	-0.0024742156
50	0x3d9a4b39	0.07533879
51	0xbd3dc51c	-0.046330556
52	0x3d8db2db	0.069188796
53	0x3cb0e8fe	0.021595474
54	0xbda50734	-0.080580145
55	0xbd5fe180	-0.054658413
56	0xbd75a920	-0.059975743
57	0xbc628c9a	-0.013827467
58	0xbbb9fcbf	-0.0056758816
59	0x3d54e882	0.05197955
60	0x3d511ad0	0.05105096
61	0x3b4c8421	0.0031206685
62	0xbe104946	-0.14090452
63	0xbd9e1f52	-0.077208176
64	0xbd90dbdc	-0.07073185
65	0x3c9139b2	0.017727707
66	0xbb98e9fc	-0.004666565
67	0x3d9c9006	0.07644658
68	0x3d90d81a	0.07072468
69	0x3c2fc3bc	0.010727819
70	0x3d1d5502	0.038411148
71	0x3daa0c9b	0.083031856
72	0x3d4fb531	0.050709907
73	0xbd3afeee	-0.045653276
74	0x3d558829	0.052131806
75	0xbd938ad7	-0.07204216
76	0xbdf801e6	-0.12109737
77	0x3d2dc41b	0.04242335
78	0xbbed519b	-0.007242394
79	0xbd9a363f	-0.07529878
80	0xbc632a08	-0.0138650015
81	0xbc301f3a	-0.0107496325
82	0xbda2af0d	-0.079435445
83	0xbbfd2a7a	-0.007726011
84	0x3bdf364c	0.0068118926
85	0x3cc67a88	0.02422835
86	0x3d56e4bb	0.052464228
87	0x3c1e8364	0.009674881
88	0xbc9d3a46	-0.019192826
89	0x3dc25f3e	0.09490822
90	0xbdacc26d	-0.08435521
91	0x3cb7883b	0.022403827
92	0xbd580579	-0.052739594
93	0xbd52264b	-0.05130605
94	0x3df61d11	0.12017263
95	0x3d59976e	0.05312293
96	0xba0e58dc	-0.0005430111
97	0xbbb54d5e	-0.0055329045
98	0xbd724503	-0.059147846
99	0x3cce2888	0.025165811
100	0x3dbbb480	0.09165287
101	0x3a2d98ac	0.0006622176
102	0x3d332e1c	0.043745145
103	0x3d1bf864	0.03807868
104	0xbb72ba34	-0.0037037255
105	0xbd8b571a	-0.06803723
106	0xbd9905cc	-0.07471809
107	0x3d5b513b	0.053544264
108	0xbb666eb9	-0.003516121
109	0xbde03cb6	-0.1094908
110	0xbba72518	-0.0051008575
111	0x3b33ac9a	0.002741611
112	0xbd817c1e	-0.063225016
113	0x3b9af76b	0.0047292016
114	0xbd1bf7fe	-0.0380783
115	0xbd07f267	-0.033190157
116	0xbb5eb95c	-0.0033984995
117	0xbd4e4dee	-0.05036729
118	0x3da2eb07	0.07954984
119	0xbc83d623	-0.01609332
120	0xbd8761ae	-0.06610428
121	0xbdd315f0	-0.103069186
122	0x3d9c6ea9	0.07638294
123	0xbb57f45d	-0.0032952048
124	0x3c67abca	0.014140079
125	0xbbfb18a6	-0.0076628504
126	0x3b991486	0.004671636
127	0x3ca9ba27	0.020718647
128	0xbc1ba020	-0.009498626
129	0xbd985076	-0.07437222
130	0xbc38de16	-0.011283418
131	0xbd446eb3	-0.047957134
132	0x3dac566d	0.08414922
133	0xbd2d7d32	-0.042355724
134	0x3d490815	0.049079973
135	0x3dd64c3d	0.1046376
136	0x3c838c8c	0.016058229
137	0x3c89b71a	0.016810942
138	0xbdab61d1	-0.083682664
139	0xbbc9ae8a	-0.00615484
140	0x3d277003	0.040878307
141	0xbd9f65dc	-0.077831
142	0xba11d9ae	-0.0005563748
143	0xbc5adc73	-0.013358223
144	0x3c4ef248	0.012631007
145	0x3cfa00d4	0.030517973
146	0x3ca94572	0.020662997
147	0x3b09e98c	0.0021043746
148	0xbd518665	-0.05115356
149	0x3dad532b	0.08463129
150	0xbdb6530f	-0.08902561
151	0xbcd81099	-0.026375102
152	0x3d0d1afb	0.03444956
153	0xbdafd816	-0.08586137
154	0xbd242e6f	-0.040083345
155	0xbded4423	-0.11585262
156	0x3dacfb1a	0.08446331
157	0x3d60fef3	0.05493064
158	0xbdacdc6c	-0.0844048
159	0x3be7d738	0.0070752166
160	0x3ad8d82a	0.0016543914
161	0x3c0c79a1	0.0085739205
162	0xbcb0e063	-0.02159137
163	0xbb91ec02	-0.004453183
164	0xbd75ced8	-0.060011715
165	0xbdae624d	-0.08514843
166	0xbab42cfd	-0.0013746318
167	0xbcb9bc6c	-0.022672854
168	0x3de144c7	0.10999446
169	0xbd816f04	-0.06320003
170	0xbdc0347f	-0.09385013
171	0xbd0757db	-0.03304277
172	0xbde67b15	-0.11253945
173	0xbc9c9181	-0.01911235
174	0xbc599c1e	-0.01328185
175	0x3c055172	0.008137094
176	0xbcfdcb51	-0.030980738
177	0x3c1211f9	0.008915418
178	0xbdcb087b	-0.09913727
179	0x3cb1d345	0.021707186
180	0xbb4071f9	-0.0029364808
181	0xbc95c94f	-0.018284468
182	0x3bc833ba	0.006109682
183	0xbdd42e90	-0.103604436
184	0xbd63d16c	-0.055619642
185	0xbdc431a1	-0.095797785
186	0xbc019010	-0.007907882
187	0xbcf37011	-0.029716523
188	0x3de310d3	0.11087193
189	0x3d834a86	0.064106986
190	0xbda1fb07	-0.07909208
191	0xbda91ee0	-0.08257842
192	0xbd890054	-0.06689516
193	0x3d153553	0.036427807
194	0x3c986eb5	0.018607477
195	0x3e1084e5	0.14113195
196	0xbc3bd930	-0.011465356
197	0x3b9cce1c	0.0047853123
198	0x3d9b7848	0.07591301
199	0x3e0b91e5	0.13629873
200	0x3c7ff8d2	0.015623288
201	0xbceae77c	-0.028674833
202	0xbd9acab7	-0.07558196
203	0xbb9a1fb6	-0.0047034873
204	0xbcd33b18	-0.025785014
205	0x3c8ed907	0.017437471
206	0xbcc21e26	-0.023696017
207	0xbc5f52fc	-0.013630625
208	0x3b4e7b41	0.003150657
209	0xbc779694	-0.015111584
210	0x3da7945e	0.08182596
211	0xbbc501a4	-0.0060121585
212	0xbbdc8a3c	-0.006730346
213	0x3df31200	0.118686676
214	0x3e216ace	0.15763399
215	0x3d0daf91	0.03459126
216	0x3bdc2a43	0.006718905
217	0xbd97a4ce	-0.07404481
218	0x3daa1a91	0.083058484
219	0x3dd87dee	0.10570894
220	0xbd06cebe	-0.03291201
221	0xbccf1965	-0.025280664
222	0x3e08b4d8	0.13350236
223	0x3b9fc6ef	0.0048760097
224	0x3d284eef	0.041090902
225	0x3d1e4a65	0.038645167
226	0x3daa990a	0.08329971
227	0x3c525995	0.012838741
228	0x3dba5136	0.09097521
229	0x3bb31fde	0.0054664453
230	0x3d77dd04	0.06051351
231	0x3da8f6d0	0.08250201
232	0x3d4a16d2	0.04933817
233	0x3d290fee	0.041274957
234	0xbc678522	-0.014130862
235	0x3babe797	0.0052461135
236	0x3cc0f896	0.023556035
237	0x3e00753b	0.1254472
238	0x3ddd2320	0.10797715
239	0xbd94ad82	-0.072596565
240	0x3e11e32d	0.14246817
241	0x3d23be20	0.03997624
242	0xbcf02eb7	-0.02931915
243	0xbb13ba9d	-0.002254165
244	0xbbbf4926	-0.0058375774
245	0x3d349a02	0.044092186
246	0x3d89c126	0.06726293
247	0xbd004709	-0.031317744
248	0xbd30b185	-0.043138046
249	0xbda80298	-0.0820362
250	0x3d530eeb	0.0515279
251	0xbda651dc	-0.08121082
252	0xbcd3404e	-0.025787499
253	0x3bd45ecc	0.006481027
254	0x3e01ae51	0.12664153
255	0xbd462633	-0.048376273

act_fc2.bias f4 [36]
0	0x3cd2ae78	0.025717959
1	0x3c92227f	0.017838715
2	0x3db014a7	0.08597689
3	0xbb780386	-0.0037843897
4	0xbc8d9a98	-0.01728563
5	0xbdbbd857	-0.09172123
6	0x3d93805a	0.072022155
7	0xbd97e2e3	-0.07416322
8	0x3da0190d	0.07817278
9	0xbd3072e3	-0.043078315
10	0x3c7a7f6a	0.015289167
11	0x3de1ad1e	0.110193476
12	0x3d546610	0.051855147
13	0xbdeb3f85	-0.11486725
14	0x3e1563d2	0.1458886
15	0x3cf12629	0.029437141
16	0xbd59ff49	-0.053221975
17	0x3d882829	0.06648285
18	0x3da0120b	0.078159414
19	0x3d98c055	0.074585594
20	0x3de8cfc3	0.113677524
21	0x3e0983c2	0.13429168
22	0xbdfcc9eb	-0.123432
23	0xbb99d83f	-0.004694968
24	0x3d8ef91f	0.0698111
25	0x3d97c554	0.07410684
26	0x3d6cc6f2	0.057806917
27	0x3c6a9aa3	0.014319095
28	0x3c9d4665	0.019198606
29	0x3d50004d	0.050781537
30	0x3d1fcd28	0.03901401
31	0xbc78dfd2	-0.015190082
32	0x3da6d6e3	0.08146455
33	0x3d20d8b6	0.03926917
34	0xbc2da060	-0.010597318
35	0xbdb7a719	-0.08967418

val_fc1.weight f4 [64, 216]
0	0xbbecd447	-0.007227454
1	0xbd9a0f20	-0.07522416
2	0xbd867d47	-0.065668635
3	0xbc6f3aca	-0.014601419
4	0x3bfdf486	0.0077500967
5	0xbd8fe151	-0.070253976
6	0xbc91de60	-0.017806232
7	0x3c12362c	0.008924048
8	0xbd7fd95e	-0.062463157
9	0x3d0c5796	0.034263216
10	0xbb9ee735	-0.0048493394
11	0xbd44c952	-0.048043557
12	0x3bd1eb4c	0.0064062234
13	0x3c2e1434	0.010624934
14	0xbd080959	-0.03321204
15	0x3cedb6bb	0.029017797
16	0x3cb082ad	0.021546686
17	0xbcf45b4a	-0.029828686
18	0x3bde3e11	0.0067823012
19	0xbd99ade3	-0.075038694
20	0xbd05d320	-0.032672048
21	0x3d0435bb	0.032277804
22	0x3c00a4ea	0.007851819
23	0x3ab1d464	0.0013567326
24	0xbb6d6eff	-0.003622949
25	0x3cd9dca8	0.026594475
26	0xbdbbc719	-0.09168834
27	0xbd059e94	-0.032621935
28	0x3caa7fca	0.020812888
29	0x3b5d6d6f	0.0033787151
30	0xba1b9098	-0.0005934327
31	0xbd012f75	-0.0315394
32	0xbbf5df52	-0.0075034285
33	0x3a362d38	0.0006949487
34	0xbc891527	-0.016733719
35	0xbd8fb835	-0.070175566
36	0x3ce119a3	0.027478045
37	0x3c8a3215	0.016869584
38	0xbd0149f9	-0.031564686
39	0x3ca70cae	0.020391788
40	0x3bd6e404	0.0065579433
41	0x3cfb9893	0.030712401
42	0x3b20fabc	0.0024563512
43	0xbd043897	-0.03228053
44	0xbbf0e482	-0.007351459
45	0x3ce66c43	0.028127795
46	0xbb63ba7b	-0.0034748602
47	0xbcb64d4f	-0.02225366
48	0xbcdd74c3	-0.027033215
49	0xbce523d9	-0.027971195
50	0xbd58b413	-0.052906107
51	0x3d80a6a3	0.062817834
52	0xbcafd1c3	-0.021462327
53	0xbdbed2dc	-0.09317562
54	0x3be4ccbc	0.006982414
55	0xbd76a863	-0.06021918
56	0xbd433586	-0.047658466
57	0xbd3005e1	-0.042974357
58	0x388e983e	6.799445e-05
59	0xbdab9535	-0.08378068
60	0xbc562f0a	-0.013072738
61	0x3ccdefab	0.025138697
62	0xbce0ca30	-0.02744016
63	0xbd0a42ce	-0.033755116
64	0x399f6557	0.00030402347
65	0xbd3ce853	-0.04612
66	0x3b212bbf	0.0024592725
67	0xbd424b3a	-0.047435023
68	0xbd6fea32	-0.058572955
69	0x3cb413e1	0.021982135
70	0xb9fbb15c	-0.00048006594
71	0xbdb3f93c	-0.08787772
72	0x3ccd008d	0.025024677
73	0x3d5c7a43	0.053827535
74	0x3d232bc9	0.03983668
75	0xb91ac0f0	-0.0001475846
76	0x3ca48dac	0.020087086
77	0xbd98ffd7	-0.074706726
78	0xb9f7bac1	-0.00047250654
79	0xbd653d23	-0.055966508
80	0x3cad4196	0.021149438
81	0x3b3b8353	0.002861221
82	0xba80fd4c	-0.0009841113
83	0x3cd633e4	0.02614779
84	0xbcc9be5e	-0.024626907
85	0x3d24bff9	0.040222142
86	0x3be5ccad	0.0070129246
87	0xbc071326	-0.008244311
88	0x3c96c61d	0.018405015
89	0xbd4729ae	-0.048623733
90	0xbc991208	-0.018685356
91	0xbd4cbda5	-0.049985547
92	0x3cf2a18e	0.02961805
93	0xbd2cc0da	-0.042176105
94	0x3cdc1741	0.026866557
95	0xbd97f5cb	-0.07419928
96	0x3ce08f55	0.027412096
97	0xbd17b6dd	-0.037039626
98	0xb9f11900	-0.00045985729
99	0xbc4b23c4	-0.012398664
100	0x3bedb24f	0.007253922
101	0xbd6b8e18	-0.057508558
102	0x3c0c5ebe	0.00856751
103	0xbd3967bf	-0.045264956
104	0xbd4ee2e7	-0.05050936
105	0xbc84b91e	-0.016201552
106	0x3c9a1522	0.018808905
107	0xbd6bdbd7	-0.057582702
108	0x3c047b19	0.008085989
109	0x3c6d29f5	0.014475335
110	0x3cbf0dc6	0.023321997
111	0xbcac53d0	-0.021036059
112	0xbb00181d	-0.0019545623
113	0xbbecbe0f	-0.007224805
114	0xb9be183d	-0.00036257683
115	0x3c70e65e	0.014703361
116	0xbbf7c6da	-0.0075615468
117	0xbcd1f83c	-0.025631063
118	0x3bc402be	0.005981772
119	0xbc9fcd6d	-0.019507134
120	0x3cb0f2b5	0.021600107
121	0xbd11519f	-0.03547823
122	0xbd4cbc5e	-0.04998433
123	0x3d721314	0.059100226
124	0xbc871460	-0.016489208
125	0x3c81e59e	0.01585656
126	0x3b8c1134	0.0042745117
127	0x3d3debf4	0.0463676
128	0xbd02411f	-0.031800386
129	0xbd41e053	-0.047333073
130	0xba228548	-0.000619967
131	0xbdc15d1e	-0.09441589
132	0xbb55d3e4	-0.0032627517
133	0xbd1f4d03	-0.038891803
134	0x3c9131f6	0.017724019
135	0x3d212938	0.03934595
136	0x3bfec361	0.007774756
137	0xbdb97f18	-0.09057444
138	0x3be79707	0.0070675644
139	0x3d499d08	0.049222022
140	0xbda59f1e	-0.0808699
141	0x3d1c6482	0.03818179
142	0xbbb5255c	-0.005528135
143	0xbd03048a	-0.03198675
144	0xbc00eb75	-0.007868637
145	0xbc8849cc	-0.016636752
146	0xbd5d7ef8	-0.054076165
147	0xbcdfa930	-0.027302355
148	0x3cd3d0f4	0.025856473
149	0xbc291684	-0.01032031
150	0xbcd7def0	-0.026351422
151	0x3d1083c9	0.03528193
152	0xbdb5516c	-0.088534206
153	0x3d1f0d49	0.03883103
154	0x3bcfc143	0.0063401773
155	0x3c3a1cf6	0.011359444
156	0x3cbd3259	0.023095297
157	0xbc69a5e1	-0.01426074
158	0xbd898f86	-0.06716828
159	0x3d3cb5fa	0.046071984
160	0x3bff01d6	0.0077822013
161	0xbcd04916	-0.025425475
162	0x3a414c92	0.00073737756
163	0xbc8ba7a7	-0.017047716
164	0x3cfc0827	0.030765606
165	0xbc369f8d	-0.011146438
166	0xbc97577e	-0.018474337
167	0x3c8030cd	0.01564827
168	0xbbc5b86c	-0.0060339477
169	0xbd2b7e11	-0.041868273
170	0x3b7e4a69	0.0038801676
171	0x3d808254	0.06274858
172	0xbc2ab762	-0.010419698
173	0xbb71153d	-0.003678634
174	0x3c6025ea	0.013680914
175	0xbd7e64c5	-0.06210782
176	0xbb171e46	-0.0023058816
177	0x3c0275ab	0.007962625
178	0xbb1760d4	-0.0023098486
179	0xbda7a26f	-0.081852786
180	0x3cd6b3a8	0.026208714
181	0xbbbfc1a9	-0.0058519435
182	0xbdca7055	-0.09884707
183	0xbced8183	-0.02899242
184	0x3a0671ae	0.0005128634
185	0xbdb12840	-0.08650255
186	0x3c3e9b48	0.011633702
187	0x3ced6fb6	0.028983932
188	0xbd33ce19	-0.043897722
189	0xbc6989c0	-0.014254034
190	0xbccb09a1	-0.024784865
191	0xbda0d572	-0.078532115
192	0xbbe82592	-0.007084557
193	0xbd97fd4d	-0.0742136
194	0x3ca4cdda	0.020117689
195	0xbcb7176b	-0.022350034
196	0xbbec9f7c	-0.0072211605
197	0xbbcdd1ae	-0.0062810993
198	0x3bfaaf29	0.0076502752
199	0xbc833969	-0.016018586
200	0xbcfacf16	-0.030616324
201	0x3d831197	0.06399839
202	0xbcdaa5e9	-0.02669044
203	0xbb8c1662	-0.004275129
204	0xbacd9f56	-0.0015687745
205	0xbd0ca519	-0.034337137
206	0x3c2d1796	0.010564705
207	0xbd740f9a	-0.05958519
208	0x3c169f44	0.009193245
209	0xbce681f9	-0.028138148
210	0xbc84d914	-0.016216792
211	0x3d284f4c	0.04109125
212	0xbdb7dcd2	-0.08977665
213	0xbd020d51	-0.03175098
214	0xbc008089	-0.007843145
215	0xbd9fe310	-0.078069806
216	0x3c39bc64	0.01133642
217	0x3d5460ff	0.051850315
218	0xbce0a35f	-0.027421651
219	0x3c03ab6c	0.008036476
220	0x3bfe6b50	0.0077642575
221	0x3d28e285	0.04123165
222	0xbbdf0598	-0.0068060867
223	0xbd1918c0	-0.03737712
224	0x3ca09e90	0.019606858
225	0x3d220080	0.039551258
226	0x3bd37b6e	0.006453923
227	0xbd1edaa1	-0.03878272
228	0xbceaae2d	-0.028647507
229	0xbc36bbe6	-0.011153197
230	0x3b880eab	0.004152139
231	0xbd3d7360	-0.04625261
232	0xba982a98	-0.0011609374
233	0xbd399a34	-0.045313075
234	0x3c2a48ca	0.010393331
235	0x3acdc6d6	0.0015699517
236	0xba2d65eb	-0.0006614613
237	0xbd012ecd	-0.031538773
238	0x3c8385a8	0.016054943
239	0xbc2d47fb	-0.0105762435
240	0xbbd2bd00	-0.006431222
241	0xbd85a3e4	-0.065254
242	0xbce0a0bc	-0.027420394
243	0xbd34bf40	-0.044127703
244	0x3c73d302	0.014881851
245	0xbd519c96	-0.051174723
246	0x38bccf6c	9.003174e-05
247	0x3ac4ed3b	0.0015024313
248	0xbcfe32bd	-0.031030053
249	0xbcef02d6	-0.029176157
250	0xbb7e4961	-0.0038801061
251	0xbd8e83a4	-0.06958702
252	0x3b948eca	0.0045336233
253	0xbd989942	-0.074511066
254	0x3d12b5b6	0.035817824
255	0xbcfb4782	-0.030673746

val_fc1.bias f4 [64]
0	0x3d38a16e	0.045075826
1	0xbc9f7159	-0.019463228
2	0x3d1756ce	0.036948018
3	0x3d5d8ce0	0.054089427
4	0x3d238296	0.03991946
5	0xbc19c2be	-0.009384809
6	0x3d162cf2	0.036663957
7	0xbb9460b3	-0.004528129
8	0x3bac523c	0.0052588265
9	0xbbe3a411	-0.0069470485
10	0x3d4b365e	0.049612395
11	0x3c22757e	0.009915708
12	0x3d737973	0.059441995
13	0x3c1fc964	0.009752605
14	0x3d70724a	0.058702745
15	0xbc8a40d5	-0.016876617
16	0xbc8f9906	-0.017529022
17	0x3d192e0a	0.037397422
18	0xbc62616b	-0.013817172
19	0x3d770922	0.060311444
20	0xbcd8d914	-0.026470698
21	0x3a32fd74	0.00068279286
22	0xbcd2042d	-0.025636757
23	0x3d2be5fe	0.041967385
24	0xbb83e7fe	-0.0040254584
25	0x3d59e156	0.053193413
26	0x3d7350e0	0.0594033
27	0xbc060b1f	-0.008181362
28	0xbbe24615	-0.006905327
29	0x3d3b49ae	0.045724563
30	0x3d142554	0.03616841
31	0xbbab5f9d	-0.005229904
32	0xbbdd75e6	-0.0067584394
33	0x3d094bb6	0.03351947
34	0xba8eadd2	-0.0010885543
35	0xbbd2f7a6	-0.0064382134
36	0x3d03c4e3	0.032170188
37	0xbc0628f4	-0.008188475
38	0xbce8f62f	-0.028437702
39	0x3c1e1c2e	0.009650273
40	0x3b89d75e	0.004206582
41	0xbb0b7ba0	-0.0021283403
42	0x3d648303	0.055789005
43	0x3be46239	0.006969717
44	0x3ce0054a	0.027346272
45	0x3d3488c6	0.04407575
46	0x3cd5168c	0.026011728
47	0xbc041e36	-0.0080638435
48	0x3d1b71ff	0.037950512
49	0x3d7f3bbd	0.06231283
50	0x3cfa881f	0.030582486
51	0xbcc37946	-0.023861539
52	0xbbd254ed	-0.0064188153
53	0xbc9232c7	-0.017846478
54	0xbbdab5fc	-0.0066745263
55	0xb9f426a8	-0.00046568108
56	0xba8bda22	-0.0010669867
57	0x3c87fa72	0.016598914
58	0xbc80ce83	-0.015723472
59	0xbc74c0cf	-0.014938547
60	0x3b9f444f	0.004860438
61	0x3cd449e3	0.025914138
62	0x3d829066	0.06375198
63	0x3c145f98	0.009055994

val_fc2.weight f4 [1, 64]
0	0x3d8559a4	0.06511238
1	0x3d811638	0.06303066
2	0x3c9ef37f	0.019403217
3	0xbd253210	-0.040330946
4	0x3dee1d8d	0.1162673
5	0xbb6b5f77	-0.0035915056
6	0xbdd8fe75	-0.10595409
7	0x3c9bbb3e	0.019010182
8	0x3d772a7d	0.060343254
9	0xbcb93f91	-0.022613319
10	0xbd8dacd1	-0.06917728
11	0xbd842f77	-0.06454366
12	0xbca6e58c	-0.020373128
13	0x3c47d8ad	0.012197656
14	0x3d5d360e	0.05400663
15	0xba3ce3e2	-0.0007205588
16	0xbbe8ce1e	-0.007104649
17	0x3cb78506	0.022402298
18	0x3af61cfe	0.0018776951
19	0x3d9d8638	0.07691616
20	0xb9f17060	-0.00046050828
21	0xba6b4da0	-0.00089761056
22	0x3d122868	0.035683066
23	0x3d5a65ee	0.053319864
24	0xbb2b4aaa	-0.0026137033
25	0x3e0650a6	0.13116702
26	0x3d90d582	0.070719734
27	0x3c1019e5	0.008795236
28	0xbb14f834	-0.0022730948
29	0x3ce938c7	0.028469456
30	0x3c64311e	0.013927726
31	0x3bbdae8c	0.00578863
32	0xbc15d861	-0.009145827
33	0xbe04b555	-0.12959798
34	0x3d62d4ce	0.055378728
35	0xbcea4015	-0.02859501
36	0x3d43a824	0.047767773
37	0xbd75c156	-0.059998833
38	0x398c5160	0.0002676351
39	0x3e01e3cc	0.12684554
40	0xbe13bc7a	-0.14427367
41	0x3d64363d	0.05571579
42	0x3ce55856	0.027996223
43	0x3e04e756	0.12978873
44	0xbcd2a83b	-0.025714984
45	0xbdf341b2	-0.11877765
46	0xbde808fa	-0.11329837
47	0xbd314bc5	-0.04328515
48	0xbc19ab18	-0.009379171
49	0xbdd96297	-0.10614508
50	0x3c591594	0.0132497735
51	0x3d59209d	0.053009618
52	0xbd3d4a77	-0.046213593
53	0xbc8e21cc	-0.0173501
54	0x3d7df628	0.06200233
55	0x3d8489c3	0.064715885
56	0x3b6921d4	0.0035573142
57	0xbcbadd82	-0.022810701
58	0x3c3e4b2b	0.011614601
59	0x3d8fa4b8	0.070138395
60	0xbdac0f62	-0.084013715
61	0xbdfcf260	-0.12350917
62	0xbd974b51	-0.07387412
63	0xbdbf748b	-0.09348401
