Server/src/ml/models/1aaa41fa-526e-47c6-916c-07906127df3c/curr.model (torch, 217732 bytes, 10 tensors)

layers.0.lin.weight f4 [6, 4]
000000 07 35 99 3f 91 fa 52 bf b7 fe 60 3e 4e 49 cc 3d
       1.1969308 -0.82413584 0.21972166 0.09974919
000010 29 02 8c 3f 67 85 0f bf 80 00 cd 3e a1 6e df 3e
       1.0938159 -0.5606293 0.40039444 0.4363909
000020 ea 72 d1 bf f6 0a d1 3f 93 f2 9c be a6 d9 b0 3e
       -1.6363194 1.633147 -0.3065382 0.34541053
000030 5e c1 9a 3f 8f 94 48 bd 1a 0c 69 be bd 16 98 be
       1.2090261 -0.0489698 -0.22758523 -0.29704848
000040 bd 7c 7c 3f f6 42 d3 3f 9e d6 9e 3e 60 6b 25 3e
       0.98627836 1.650481 0.31023115 0.16154242
000050 9b 7d 2d 3f 4e c7 75 be 14 7c ae 3f 9a 27 a1 be
       0.67769784 -0.2400181 1.3631616 -0.31475526

layers.2.lin.weight f4 [6, 6]
000000 d0 09 a5 bf c4 49 aa be cb 1b 26 3f ba e5 ac 3d
       -1.289362 -0.33259404 0.6488616 0.08442254
000010 ca 2a 5a 3f e6 a5 13 bf f1 74 86 3e 54 b2 f9 bc
       0.8522154 -0.57675016 0.26261094 -0.030480541
000020 48 6f 98 be 63 9b 66 3e 56 05 69 bf 73 2f 0a 3f
       -0.297724 0.22520213 -0.91023767 0.5397865
000030 a1 1d 9e 3e 51 1a 12 3f 34 c8 d8 bf d5 e7 61 bd
       0.3088198 0.57071406 -1.6936097 -0.055152733
000040 f6 81 8d 3e 45 63 97 bf e7 e9 c1 3e e2 f5 20 3f
       0.27638215 -1.182717 0.37873766 0.6287519
000050 e3 b7 be 3e 03 f9 e0 bf e0 1a 8b be ae 78 43 be
       0.3724967 -1.7575992 -0.27168941 -0.19089004
000060 1c f1 00 bf 99 7c bb bf 03 c2 17 3f ad b7 74 3d
       -0.50367904 -1.4647399 0.59280413 0.05974548
000070 fb 77 ce 3e 9c 5d 66 3f cf d1 7d 3d ca 4d 44 3e
       0.40325913 0.89986587 0.061967667 0.19170299
000080 bf d2 7e bf b8 fa af 3e ba ca 86 3f f0 da 4c 3c
       -0.99540323 0.3437097 1.0530617 0.012503371

layers.4.lin.weight f4 [6, 6]
000000 d8 d1 71 be 7d db 0f bf 97 b6 4a 3f 88 c3 b9 be
       -0.23615205 -0.5619429 0.7918486 -0.3628199
000010 84 f6 99 be 74 c1 25 3f 85 c6 e3 bf 75 00 03 3f
       -0.3007089 0.6474831 -1.7794958 0.5117257
000020 38 04 90 3f 89 1c e6 bf 4f aa a7 bf 90 4c 25 3f
       1.1251287 -1.7977458 -1.3098849 0.6456995
000030 c7 93 79 3f d3 fc 0c bf dd ac ac be a2 44 fc be
       0.97491115 -0.5507328 -0.33725634 -0.49271113
000040 08 16 b3 bd 6c b4 5a 3f 91 af 03 bf ad 83 0d 3f
       -0.087444365 0.8543155 -0.5143977 0.55279046
000050 a7 38 11 bf a0 ca 93 bf 42 29 3c bf 6b 07 14 3f
       -0.5672707 -1.1546211 -0.73500454 0.5782382
000060 a5 e9 32 3f 3d c4 20 3d c8 3a c9 be e5 01 d4 3d
       0.69887763 0.039249647 -0.3930266 0.10351924
000070 2a 4a d6 3e 30 be ee bf ab 3e 18 bf a9 3d 1d bf
       0.41853458 -1.8651791 -0.59470624 -0.6142221
000080 7b 9d 59 3f 2b 49 47 3e 61 5e d3 3f a5 c4 16 be
       0.8500592 0.19461505 1.6513177 -0.14723451

act_fc1.weight f4 [64, 384]
000000 09 52 d1 bd 7b d5 1f be ea a6 81 bd b7 06 13 bd
       -0.10220725 -0.1560878 -0.063306645 -0.035895076
000010 49 8f 07 bd 36 93 23 be 5a 45 aa bc 1a 4a a3 bd
       -0.03309563 -0.15974125 -0.020785023 -0.07973118
000020 46 8d 5a be a6 b5 6d bd 28 04 21 be a0 0e 9f 3e
       -0.21342954 -0.05803456 -0.15724242 0.31065845
000030 27 8c 3e be b2 c2 e1 bc 3b a3 90 bb 97 6a 1a bd
       -0.18608151 -0.027558658 -0.00441399 -0.03769931
000040 77 95 04 be 6c d3 0a be 6e ea 3a be e2 27 4f 3d
       -0.12947641 -0.13557214 -0.1825349 0.050575145
000050 92 6d 0c 3e 59 99 42 bd 3d 23 49 bd 1e 92 8f 3d
       0.13713673 -0.047509525 -0.04910587 0.070102915
000060 61 1e d3 bd 45 6e de bc d9 27 df bc e5 bf 8b bd
       -0.10308529 -0.02715219 -0.02724068 -0.0682371
000070 ba 49 b5 3c d8 2e 31 be 42 f2 52 3c 66 b1 75 bd
       0.022129882 -0.17303026 0.012875142 -0.059983633
000080 a5 e5 17 3c d0 58 9d bd 90 e5 57 3e a8 49 28 3d
       0.00927106 -0.07682955 0.21083665 0.04108587
000090 d7 74 3b bd 71 20 a5 3d 16 cc dc 3d 35 e0 71 bd
       -0.045765724 0.08062828 0.10781114 -0.05905171
0000a0 63 b5 8e 3d a5 f2 b4 3d 61 31 b1 bb 39 db 89 3d
       0.069681905 0.08835343 -0.0054074978 0.067312665
0000b0 07 3b c2 3c 74 6a 80 bd 3a 3a 81 3d ed 26 66 3e
       0.023709787 -0.06270304 0.06309934 0.22475787
0000c0 de 23 05 bc 11 55 ce bd 07 12 1b be ba ed e5 bc
       -0.008126227 -0.10074819 -0.15143596 -0.028067458
0000d0 8b 18 a8 bd 9e f6 9b 3e 72 23 1b be 5c cc b4 bd
       -0.08207806 0.3046159 -0.1515024 -0.08828041
0000e0 69 17 ec bc 16 ba 76 bd da cd 95 3d 4e 19 0c be
       -0.028819757 -0.06023606 0.07314654 -0.13681528
0000f0 95 2b 18 bd 09 94 4b 3d 02 d2 2b bc dc 97 99 bd
       -0.037150938 0.049701724 -0.0104870815 -0.07499668
000100 e8 a1 df bd 5d 12 14 3f 29 9b 9a be 70 91 29 bc
       -0.10919553 0.5784052 -0.30196503 -0.010349616
000110 0f 8f f5 bd f6 b9 67 3d 44 0a c9 bd 82 06 b7 be
       -0.11990177 0.05657383 -0.09816411 -0.35747153
000120 bc 35 e6 be cd 1f 3f be e2 f5 21 3e 5b 0e ff ba
       -0.4496287 -0.18664475 0.15816453 -0.0019459234
000130 5d 50 4a bc 9f 43 9e bd d2 45 a2 3d 15 1c 04 3e
       -0.012348262 -0.077277415 0.079234734 0.12901337
000140 45 05 7b be 51 d1 df 3d 5d 67 07 3d 97 77 df bd
       -0.24513729 0.10928596 0.03305756 -0.10911482
000150 77 f4 0a 3d b6 f3 97 3c a6 ae 4e be 32 40 ab 3d
       0.033924546 0.018548828 -0.2018381 0.08361854
000160 d2 d2 63 3e e5 9d f5 3d f0 bf 0a 3d 9b ca e5 3d
       0.2224839 0.119930066 0.033874452 0.112202846
000170 63 11 98 3d f1 b6 4e 3c e2 72 ac bd 42 a5 4c 3e
       0.07425191 0.012616859 -0.0842035 0.19984916
000180 13 f7 82 bd e8 4d 85 3d dd f1 7b bb 0d 9a b0 3d
       -0.06394782 0.06509 -0.0038443722 0.08623133
000190 39 e5 f2 3c c7 d3 4f be b2 f2 7e bc 46 46 11 3d
       0.029650318 -0.2029563 -0.015560793 0.03546741
0001a0 5f 7f 10 bd ff 68 86 ba 0e 1c 35 be 5d 4d 08 3f
       -0.03527772 -0.001025468 -0.17686483 0.53243047
0001b0 95 6c 77 be 18 8c b5 bd 6b 75 16 be 31 c6 5c 3d
       -0.24162515 -0.088646114 -0.14693229 0.053899948
0001c0 cc 7f 2d be 37 33 7a be dc 3f 80 3e 3b 2a 96 be
       -0.16943282 -0.244336 0.2504872 -0.29329094
0001d0 51 04 b6 bd e0 66 ae be 08 f3 82 be f2 31 25 3f
       -0.08887542 -0.34062862 -0.25576043 0.64529335
0001e0 0e bc 49 be 3a 80 cd 3d 73 f7 8c bd 7d 0e 0a 3e
       -0.19700643 0.10034223 -0.06883135 0.1348209
0001f0 11 10 f3 bd 1c 14 e2 be 69 67 d7 be 65 07 92 be
       -0.11868299 -0.44155967 -0.42071083 -0.28521267
000200 10 f6 4e 3e e6 b6 1a 3e 30 89 63 bc 6c 9c cd 3c
       0.20211053 0.15108833 -0.0138876885 0.025099002
000210 c1 03 50 3d 3a 9a 02 3e ff 7d f6 bd af 9f 18 3d
       0.05078483 0.12754145 -0.120357506 0.03726166
000220 a2 d6 55 3d 4e 2a 9b bc c3 93 75 3d 6d be 23 bd
       0.052206643 -0.01894107 0.05995537 -0.039976526
000230 d1 c1 ef bd 2a 0c e0 3c 09 85 c0 3d 5e e3 93 3d
       -0.117068894 0.02734955 0.094003744 0.07221101
000240 b7 5f 74 be 54 f6 68 3d 41 be 26 3e c8 4c 86 3d
       -0.23864637 0.05687554 0.16283514 0.065576136
000250 ba 8f 01 bd 4c f7 56 bd 84 8d 58 be 14 6c 80 3d
       -0.03163121 -0.052481934 -0.21147734 0.06270614
000260 7b 3b fd bd 41 a6 fc 3d 73 b9 14 3b 0e 60 af be
       -0.123648606 0.12336398 0.0022693544 -0.3425297
000270 31 e8 8d 3e 6f 4c bb be 5b 5c 9b bd fe 3f 9a be
       0.2771621 -0.36581752 -0.07585975 -0.30126947
000280 10 f8 79 be d3 04 2a 3f db 7d 22 3d de f1 31 3e
       -0.24411035 0.6641361 0.039670806 0.17377421
000290 e4 78 fd bc 44 ca 4d 3e ec ff 16 be 3f 5b ad be
       -0.030941434 0.2009669 -0.14746064 -0.33858678
0002a0 6e 56 cd 3e 9b 78 95 be 55 c6 0e be 04 24 f9 be
       0.40105003 -0.29193577 -0.13942845 -0.4866029
0002b0 f1 98 4c be 85 a4 60 3f d3 f8 6f be 01 75 04 3e
       -0.19980218 0.87751037 -0.23434763 0.12935258
0002c0 35 95 f9 3c d3 28 02 3e ad 30 e5 bd 50 a2 da be
       0.030466655 0.12710886 -0.11190925 -0.4270196
0002d0 6c 18 f2 be b0 22 6f bd 33 df 33 3e b5 73 ea bc
       -0.47284257 -0.05838269 0.17565612 -0.028619627
0002e0 0b 44 21 bd 58 db d9 bd c8 25 5c 3c f0 59 26 3e
       -0.03937153 -0.106375396 0.013436742 0.16245246
0002f0 1d 3f 26 bd 89 5a 29 3d 6a d6 fa 3d b9 12 4c bc
       -0.040587533 0.041346107 0.122479275 -0.012455636
000300 1a a2 92 bc 2c fb f7 3d 17 cd ad bd e7 cf 36 3d
       -0.017899562 0.12108454 -0.084863834 0.044631865
000310 6f 43 00 3e 87 fe ea bd 5b 17 eb be 3c 23 51 bd
       0.12525724 -0.114743285 -0.45916256 -0.051058993
000320 de 0e 4d 3e 92 f1 c1 3d d0 1a 42 bd 85 ee 9b bd
       0.20025203 0.09469904 -0.04738885 -0.07613853
000330 04 40 1a be c6 3d 7e 3e cc 33 05 3c 52 13 38 3e
       -0.15063483 0.24828252 0.008130025 0.1797612
000340 35 14 40 bd 06 a5 e5 be fa cb c1 3e 65 48 ab be
       -0.04689427 -0.44852465 0.37850934 -0.3345367
000350 35 b6 10 be d1 e3 c8 be 7d 5f 41 be bd de 5b 3f
       -0.14132006 -0.3923631 -0.18884082 0.85886747
000360 08 db 80 3b 96 76 06 3e a5 f9 ef bc f1 53 59 3e
       0.0039323606 0.13131174 -0.029293844 0.21223427
000370 45 ac 1b be 4a 02 95 be 5d 5c 87 3e 90 e8 a1 be
       -0.15202434 -0.2910331 0.26437655 -0.31622744
000380 9d 0e 02 be 18 42 b1 be 18 48 77 be 4a 44 3b 3f
       -0.12700887 -0.34620738 -0.24148595 0.73151076
000390 7e ca 87 be ef a1 41 bc e4 0c f3 bd 0b ea 9a 3d
       -0.26521677 -0.011818393 -0.11867693 0.075641714
0003a0 b5 cc 83 bd 7d 8b 88 be eb f5 51 be 2a 3c 94 3d
       -0.06435529 -0.2666892 -0.20503967 0.07238038
0003b0 5b ab 1d 3e 42 05 8a 3b ba 85 a4 bc c4 5c 4c bd
       0.15397398 0.0042120526 -0.020083297 -0.049893156
0003c0 62 2e 93 3c 77 61 a0 3d e1 0c a0 bd 8f c2 96 3d
       0.017966453 0.0783109 -0.078149565 0.07361328
0003d0 6d 7a 6e 3e 43 41 1c 3d 83 9c 17 3d 27 55 29 3e
       0.23288889 0.038148176 0.037014496 0.1653639
0003e0 bb 29 31 be c4 6f d5 3d e2 2a 62 3d 5b 31 09 be
       -0.17301075 0.10421708 0.055216677 -0.13397734
0003f0 00 28 d7 be a6 3a 26 be 23 55 81 3e e8 59 7d 3e
       -0.42022705 -0.1623331 0.25260267 0.24741328

act_fc1.bias f4 [64]
000000 9c 5f 55 3f ce e0 03 bd 7c ef dc 3d d8 92 49 bf
       0.83349013 -0.032196812 0.107878655 -0.7873969
000010 c1 cd ec bc ff 55 ad bd 29 19 9d 3e af 42 05 40
       -0.028906705 -0.08463668 0.30683258 2.082195
000020 25 d8 c2 bc ab 3b 8c 3e 70 45 e0 3f 5f b0 e6 3e
       -0.023784706 0.27389273 1.7521191 0.45056435
000030 24 d9 85 3f 1e fa 08 8f dd a1 0d bd 6d 7f 44 be
       1.0456891 -6.7534885e-30 -0.034578193 -0.19189234
000040 7f c7 f9 b9 64 d6 94 3f ab 9b a3 3e 36 45 b6 a6
       -0.00047641617 1.1627927 0.31954703 -1.2647547e-15
000050 f4 88 50 bd 47 87 25 3f c9 88 c6 bc 18 34 52 bc
       -0.05091186 0.6465954 -0.024235146 -0.012829803
000060 87 d6 14 3f f0 48 f1 3e 26 71 94 3e f4 3b d8 3e
       0.5813984 0.4712596 0.28992575 0.4223324
000070 98 b9 95 bd 02 f5 b0 bd aa 7d a9 3f f1 d8 1d bc
       -0.0731079 -0.086404815 1.3241475 -0.009634242
000080 a9 00 b4 3d 6b 1f 1d 3f e0 ff 91 bd 23 d8 84 3e
       0.087891884 0.61376065 -0.071288824 0.2594615
000090 79 39 a0 3f 61 e7 86 bc ce e9 88 3f 8f 12 1b be
       1.2517539 -0.016467752 1.0696352 -0.15143798
0000a0 15 d6 d1 3e e0 19 d0 bf 2d 82 47 b8 b0 d1 8c bc
       0.40983644 -1.6257896 -4.7566533e-05 -0.01718983
0000b0 8e 5e b4 b7 37 ce 0c 3f 58 1c 86 bc b0 3f 09 ae
       -2.1501703e-05 0.5500216 -0.016370937 -3.120676e-11
0000c0 a1 3c 0d 40 8c c9 51 3f 23 9b da 3d 9a f1 c7 3e
       2.2068255 0.8194816 0.10674121 0.39051515
0000d0 30 e9 3b 3f be 79 6f bc 65 62 5b 3f da cd 7a 3f
       0.7340269 -0.014616428 0.85697013 0.97970355
0000e0 2e 4e a0 3f 8f 72 e7 b8 bd 69 c3 9a d6 8e ec bc
       1.2523859 -0.000110362766 -8.082094e-23 -0.028876703
0000f0 c9 66 98 ba 4a ed 94 3f ef 5f 90 90 7f 20 13 3f
       -0.0011627312 1.1634915 -5.6945794e-29 0.5747146

act_fc2.weight f4 [64, 64]
000000 bf 2b 61 3f 7f 19 a0 ba 3b 86 d0 3e 12 f1 b5 be
       0.87957376 -0.001221463 0.4072741 -0.35535485
000010 5f 0e d4 bd 22 c5 22 3d 08 94 94 b8 14 58 91 be
       -0.103543036 0.03973878 -7.084763e-05 -0.2838751
000020 9e 0a 03 3d 7d d3 9b bd 24 24 31 3e 43 e9 2b 3e
       0.031992547 -0.076086976 0.17298943 0.16788201
000030 5b 77 bd be d3 76 6a 8b 58 df 8e be 07 f4 98 3e
       -0.37005123 -4.5156154e-32 -0.27904773 0.29873678
000040 22 ba 2e b8 6d d4 08 bf e7 52 66 be fd f6 1f 97
       -4.1658182e-05 -0.53449136 -0.22492562 -5.1687414e-25
000050 30 f8 1d 3d 9f 52 c9 3e 61 af f1 3c b0 d8 8c bc
       0.03856677 0.39320847 0.029502572 -0.017193168
000060 a7 fc 18 bd d0 33 bf be 15 11 ad 3d 8d cf de 3e
       -0.037350323 -0.37344217 0.08450524 0.43517724
000070 7e 3e b1 3b 4c 0d 3b 3c f7 c3 c2 3e e4 3a 16 3a
       0.005409061 0.011416744 0.38040134 0.0005730821
000080 d1 ac 8b 3e 6e 80 c9 bd a6 2a 2b 3d 80 2d 31 3d
       0.27280286 -0.09838949 0.04178872 0.043256283
000090 f0 cf b3 be f3 72 23 3c 44 86 1b 3c 3c 46 d9 3d
       -0.3511958 0.0099761365 0.009492461 0.10609099
0000a0 d3 3c a7 3e 01 d4 97 bd 27 02 1f ac 76 e5 a3 b9
       0.32663593 -0.074134834 -2.2596454e-12 -0.00031260744
0000b0 16 2b 6e b1 bc 66 f4 3e 84 f7 04 bd 51 9d 1f a6
       -3.465805e-09 0.4773463 -0.03246261 -5.537741e-16
0000c0 2a 7d eb be 6f 5a 33 bf 3f b2 1e 3f 5d 31 ce 3d
       -0.4599393 -0.70059866 0.6199073 0.10068009
0000d0 d1 6a 12 bf f0 59 20 3d b3 a5 07 3e d0 20 3a 3f
       -0.5719424 0.03914827 0.13246803 0.7270632
0000e0 b7 1b 82 3e 94 ba bc b5 30 6c da 80 bd 7f 99 3d
       0.2541177 -1.4061393e-06 -2.0058949e-38 0.07495067
0000f0 a0 17 c2 3a 25 61 a0 3e 9f b6 6d 80 50 cd e3 be
       0.0014808066 0.31324115 -1.0075581e-38 -0.44492579
000100 be 94 46 be 0d 74 94 b7 0e 7c 33 be 6b 2b 27 bd
       -0.19392678 -1.7697015e-05 -0.17527792 -0.04081289
000110 5a f3 91 bc e0 b5 80 3d 87 05 32 bc ff 13 38 3c
       -0.017816234 0.0628469 -0.010865576 0.011235236
000120 e3 6c 65 bd f9 e9 7b 3e 48 b5 28 be f7 93 e1 be
       -0.056012046 0.24600972 -0.16475403 -0.440582
000130 50 fa d2 be ad f8 92 07 db b1 38 3d d4 2c c0 3d
       -0.41206598 2.2113797e-34 0.04509149 0.0938355
000140 4b a2 3d b9 f9 98 1e be 44 c6 47 be 63 fc 12 00
       -0.00018084903 -0.15488042 -0.19509226 1.743578e-39
000150 98 31 55 3d 0b 79 24 bd 92 35 18 3d db b4 46 bd
       0.05204925 -0.040154498 0.037160464 -0.04851232
000160 50 a6 29 be 54 8d b3 be 41 1b c3 bc 53 c6 e2 be
       -0.1656735 -0.35068762 -0.023816707 -0.44291934
000170 4e 6b 7f b9 e2 bb 01 bc 51 f3 da bd 91 a9 ab b8
       -0.00024358669 -0.00791833 -0.1069094 -8.1854996e-05
000180 06 a5 08 3e 80 df 03 3f d5 9e f0 bb 77 3d 44 3e
       0.13344201 0.5151291 -0.007343153 0.19164072
000190 e0 39 8d 3d b7 5c 08 3d 65 4d 13 3e a7 ef 73 bd
       0.068958044 0.033291545 0.14384992 -0.059554722
0001a0 45 ba d9 be 77 0e a5 3e 46 30 a5 b4 42 53 b2 b8
       -0.42524925 0.32237598 -3.0768769e-07 -8.5032094e-05
0001b0 ff 4a b1 37 16 59 46 3f 04 3e 48 3d 20 38 0a 97
       2.1134967e-05 0.77479684 0.048887268 -4.4661045e-25
0001c0 fd f2 1a bc 23 0b 30 3d 21 f7 c9 bd 48 09 c2 bd
       -0.009457347 0.04297937 -0.09861589 -0.094744265
0001d0 c8 94 95 be ba ef 32 bc de 21 2b 3e fe 31 a5 bd
       -0.29215074 -0.010921413 0.16712138 -0.08066176
0001e0 d2 e5 b7 3d 6e 28 a9 3a 9d ff 8c ab 75 5c 7a bd
       0.089793816 0.0012905726 -1.0018545e-12 -0.06112333
0001f0 77 0b 9e ba 15 11 e1 3d ae 83 95 1f 2b 9f cf be
       -0.001205786 0.10989586 6.33218e-20 -0.40551123
000200 5a 57 76 bd 35 f3 01 b5 53 d8 d6 be 56 f7 ba 3e
       -0.0601419 -4.841016e-07 -0.41961917 0.36516827
000210 96 7f 64 bc 11 cc 2d bd b4 56 5d be 1b 39 24 be
       -0.0139464345 -0.04243094 -0.21615106 -0.16037409
000220 2d 92 ac bc ed 26 33 3d 36 70 94 be c5 57 ba 3d
       -0.021065796 0.043738294 -0.2899186 0.09098772
000230 28 d6 23 be 15 32 7f 1a 1f 5f c7 3e c6 41 db 3e
       -0.15999663 5.277322e-23 0.3893976 0.4282362
000240 f0 c3 d2 b6 04 22 30 3d d7 60 7b 3d 07 31 99 a9
       -6.281298e-06 0.04300119 0.06137165 -6.80307e-14
000250 87 fc 3b 3d db f1 bb 3e 3f fc 21 3b b2 38 fd b7
       0.045895126 0.3670796 0.0024717 -3.0186351e-05
000260 89 ec 0e be 8e 2c 6f bd 03 22 bc bd 64 fc 87 3d
       -0.13957419 -0.0583921 -0.09186175 0.066399366
000270 56 57 dd ba 90 8a ae 3c 04 2f 73 be ec 99 9c 3a
       -0.001688699 0.021306306 -0.23748404 0.0011947728
000280 01 b0 61 3e 9b f7 e0 bd 7e ae a7 3c dc b4 f1 be
       0.22039796 -0.10984727 0.020468947 -0.47208297
000290 c0 fb 9a bc 7a d3 85 3d 55 f3 1a 3e 74 21 a2 bd
       -0.018918872 0.065344766 0.15131886 -0.07916537
0002a0 0c 22 55 be 00 9e 71 3e 01 4c 1c a9 d0 92 2b ba
       -0.20813769 0.23595428 -3.470488e-14 -0.0006545009
0002b0 6e 73 ff 35 de 94 fb bd 62 de c0 ba e5 5b 81 b0
       1.9032575e-06 -0.122842535 -0.0014714713 -9.412103e-10
0002c0 21 a0 1c 3e 7d 03 88 3d f8 50 db 3d e1 33 55 be
       0.1529546 0.0664129 0.10708803 -0.20820571
0002d0 52 0c 55 be 67 70 f5 3c c3 55 1d 3d a5 34 6e 3d
       -0.20805481 0.029960824 0.038411867 0.058155674
0002e0 56 ea 27 3e 39 62 2c b6 1d 19 0c 80 2b 1f 9a bc
       0.16397986 -2.568717e-06 -1.111035e-39 -0.01881369
0002f0 22 bf ab 3a d9 ee e3 bd 3a 58 23 8d d7 86 95 be
       0.0013103227 -0.11129541 -5.033445e-31 -0.29204437
000300 43 91 1c be 62 16 2e ba 73 86 84 bd bb a6 02 3f
       -0.15289788 -0.00066409085 -0.06470957 0.5103566
000310 a5 1c 6b bc 87 07 cd 3d cf 9e 27 be 76 44 bb 3b
       -0.014350091 0.10011201 -0.16369174 0.0057149483
000320 81 a5 a5 3e 53 27 30 bc 27 0d 95 bd fe 86 93 be
       0.32352832 -0.010751563 -0.07277899 -0.28813928
000330 ed 2b a5 bd e9 14 1a 80 3e a0 03 3e 9f b3 f6 3d
       -0.08065019 -2.395224e-39 0.12854096 0.12045979
000340 87 04 ba b9 f6 11 a2 3d cc 77 16 3d fe 6d 14 af
       -0.00035480058 0.07913582 0.03673534 -1.3499599e-10
000350 29 13 64 bd 09 b2 ab be 95 ae bd 3c eb 5a 35 bd
       -0.055682335 -0.33534268 0.023154536 -0.04427616
000360 94 9e b7 bd 46 05 ce bc 7a 32 30 be c1 ce 4b 3e
       -0.08965793 -0.025148999 -0.17206755 0.19903089
000370 f4 f8 82 3d 84 12 22 3c a6 97 39 be 5c 66 04 b8
       0.0639514 0.00989211 -0.18124256 -3.1566582e-05
000380 aa 8c 0f bd 2e ed 51 3e d1 5c 49 3c a2 ca d8 bd
       -0.035046257 0.20500633 0.012290196 -0.10585524
000390 4e 42 09 bf 73 39 b1 3b 67 9a f0 3d 90 b6 86 bd
       -0.536168 0.00540846 0.117482 -0.0657779
0003a0 44 52 80 be ee 3f b1 3e 4a f6 38 36 93 4e c0 ba
       -0.25062764 0.34619087 2.7561496e-06 -0.0014671854
0003b0 fa 09 7a 39 37 29 8b 3d 68 15 10 bd d2 9c 09 b5
       0.00023845574 0.067949705 -0.035176665 -5.126468e-07
0003c0 c2 18 9e 3c b9 99 fe 3d 7c c7 31 3d 76 da b8 be
       0.019298915 0.12431664 0.043403134 -0.36104172
0003d0 70 75 c1 bd 25 5c f7 3c a0 af a8 3c 0c 2f f9 bd
       -0.094462276 0.030195305 0.020591557 -0.121671766
0003e0 5f 8f 88 3e c2 ef 15 b9 56 f7 8e 15 a2 a5 9f bc
       0.26671883 -0.00014299064 5.774357e-26 -0.01948816
0003f0 88 3a 57 ba 47 a4 22 bd ca 94 e7 ae ef b0 03 bd
       -0.0008210321 -0.03970745 -1.0531094e-10 -0.03215116

act_fc2.bias f4 [64]
000000 f6 5d bc bd 40 a0 22 3e 09 13 0f 3d cd c9 9f bd
       -0.09197609 0.15881443 0.034930263 -0.07802162
000010 d0 16 e4 bd 36 27 53 3d 4c 54 21 3d 2e ea 1d be
       -0.11137164 0.051551066 0.039387032 -0.15421364
000020 69 d3 d0 3d 50 3a 8c be 32 79 f8 bd 2b d9 6a 3e
       0.10196573 -0.2738824 -0.12132491 0.22934406
000030 ef 5d 72 3e a6 7e dd b8 a6 63 b8 be 73 93 ba 3d
       0.23668645 -0.00010561691 -0.36013526 0.09110155
000040 cd 62 22 3e 96 cc 81 be 8f 58 3d 3e 91 d5 d8 3e
       0.15858002 -0.253514 0.18490814 0.42350438
000050 0f 62 52 3e de c3 19 be 65 79 82 3d 46 f1 76 3d
       0.20545219 -0.15016124 0.063708104 0.06028869
000060 09 ba fb bd de ba 6a 3e 19 b7 ef 3d 20 c8 d1 3e
       -0.12291343 0.22922847 0.11704845 0.40972996
000070 58 14 ec 3e f7 6e 03 3e 5a fa d8 3d ce ef d2 bb
       0.4610927 0.12835298 0.10594626 -0.0064372784
000080 a7 c5 9f 3d 40 9d 61 3d ef 5d 53 3e 9e 6f e4 3e
       0.07801371 0.055081606 0.20641302 0.44616407
000090 fb db f8 3e 91 e7 c7 3d ca f9 6a 3e 20 2e 1b be
       0.48605332 0.09760965 0.2294685 -0.15154314
0000a0 18 bd da 3d 30 07 fb bc 4f 00 24 be 6e 9f 86 3e
       0.10680598 -0.030643076 -0.16015743 0.2629351
0000b0 ca 0d ee 3e 37 4f 48 3e 2d c0 5a be 20 79 d5 3d
       0.46494895 0.19561468 -0.21362372 0.104234934
0000c0 42 dd 8c 3d ef 87 a6 be 8e 67 df 3c 31 53 6a 3e
       0.06878139 -0.32525584 0.027271058 0.22883298
0000d0 8d 11 88 3e 05 02 50 bd 93 6b 9a be 12 fb 1c 3e
       0.2657589 -0.050783176 -0.30160198 0.1533015
0000e0 cf 4e 1c be 8d 6c fd 3c 1b fc ac 3d 71 4c 85 bd
       -0.15264438 0.03093555 0.08446523 -0.06508721
0000f0 c0 d5 2d be 11 66 8d 3d 4c 20 0c 3e 06 9b 83 bd
       -0.1697607 0.06904233 0.13684195 -0.06426053

val_fc1.weight f4 [64, 384]
000000 8d 25 80 bc 34 09 ef ba 0d 52 60 bc 47 4d bf 3d
       -0.015642906 -0.0018236996 -0.013691437 0.09340911
000010 ab 80 01 be 01 19 0e bd 4e 8f 67 3c 5a 57 c1 bc
       -0.12646739 -0.034691814 0.014133288 -0.023601223
000020 6f e0 f1 3d 77 63 d1 bc e0 bb 8a bd 3e 25 9d bc
       0.118103854 -0.025560124 -0.067741156 -0.019182798
000030 66 1f 4e bd 6b ea c8 bd e1 4d d8 3d fd 08 87 bd
       -0.050322913 -0.09810337 0.10561729 -0.06593511
000040 8d 2e f6 bc 35 fc d3 bc 5a 71 2b 3d 83 e4 1f be
       -0.030051494 -0.025877098 0.041856147 -0.15614514
000050 97 d5 44 3e 64 c5 98 bd 1b f7 01 3e b6 48 80 3d
       0.19222103 -0.07459524 0.1269192 0.062638685
000060 09 41 29 3d c2 54 15 be 3f 05 51 3e e3 36 d1 bd
       0.041321788 -0.14583114 0.20412157 -0.10215547
000070 43 e4 50 3e 79 1f b4 3d 83 8d 0d bc 04 82 9b bd
       0.20399575 0.087950654 -0.008639696 -0.07593158
000080 96 f0 20 3e 93 44 37 bd d7 5a 2d 3e d2 04 f6 3d
       0.15716776 -0.04474313 0.16929184 0.12012638
000090 a4 4f ca bc 9c d7 6d bd 89 b6 5c 3e b1 c5 77 be
       -0.024696179 -0.05806695 0.21554007 -0.24196507
0000a0 c8 f5 86 3e 8d 0c f9 3d 99 1c cb bd 27 15 ca 3c
       0.2635939 0.12160597 -0.09917564 0.02466829
0000b0 77 48 8d bd 81 9d df bd 83 7b 86 3d 19 34 d3 3d
       -0.06898587 -0.10918713 0.06566527 0.10312671
0000c0 6a 3b 43 3d 7a 23 f9 3c 71 b9 fc 3d d9 7a ca bb
       0.047664084 0.030412424 0.12340058 -0.0061791954
0000d0 44 de cb bd 32 26 f9 3c 22 ad 1a 3d 23 a2 42 bc
       -0.09954503 0.03041372 0.03776277 -0.011879477
0000e0 0a 0d 97 3d d5 ad 2e bd 7c 4d 22 3d 83 52 ba bc
       0.07375534 -0.042646248 0.039624676 -0.022744423
0000f0 7a e7 e1 3c 06 65 50 be 24 62 2f 3e 6d 9c e2 bd
       0.027576197 -0.20351037 0.17127281 -0.11064992
000100 07 ce 56 bc bb 37 f6 bd 1a 82 43 3e 95 ee 52 bd
       -0.013110644 -0.120223485 0.19092599 -0.05149706
000110 2b 9c e0 3d 98 c7 02 be 58 1b d0 3d 64 24 ff 3c
       0.10967287 -0.12771451 0.101614654 0.031145282
000120 a9 0f 2b 3e 9f 26 11 3d 4b 32 1a 3e 19 10 c7 bd
       0.16705193 0.035437223 0.15058248 -0.09719867
000130 73 a3 db 3d eb 66 cb 3d 01 57 83 3c 42 7f 17 be
       0.10724535 0.099317394 0.016032698 -0.14794639
000140 07 0c f5 3d c7 2d 38 be 9b 49 91 3d 3c 39 6b 3d
       0.11965185 -0.17986213 0.07094117 0.05742763
000150 70 1a 31 3d 67 5a a3 3c bb 95 83 bd 3e ce 37 be
       0.043238103 0.019940568 -0.06425043 -0.17949769
000160 86 67 22 bc af 6e 24 3e a1 20 21 bd 49 2d 4c bd
       -0.009912377 0.16057847 -0.039337758 -0.049847875
000170 f9 a4 ad 3d 33 c3 87 be 30 64 6c 3d e9 4c dd 3d
       0.08478732 -0.26516113 0.057712734 0.10805685
000180 75 12 11 3e 23 7e 04 3e 51 7e 9f bd 67 e5 f0 3d
       0.14167197 0.12938742 -0.07787765 0.11762505
000190 3b fe a8 bd e4 c4 95 3d 4f a6 08 bd 30 dd 45 be
       -0.082516156 0.073129445 -0.03336173 -0.19322658
0001a0 2d 3f c2 3d 79 18 cb bd f7 09 03 be d4 77 08 be
       0.09484706 -0.09916777 -0.1279677 -0.13326961
0001b0 a6 d2 28 3d ce 61 1c bd ab b4 46 3c a5 cb 6b bd
       0.041216515 -0.03817921 0.012128036 -0.057567257
0001c0 4b ff f7 bd f2 d7 35 be 2c 3f cc 3d 3a 37 ec bc
       -0.1210924 -0.17758158 0.099729866 -0.028834928
0001d0 44 bf d8 3d 33 e1 bf bd 56 ca 2c be 2b ca 34 be
       0.10583356 -0.09369125 -0.1687406 -0.17655246
0001e0 08 09 42 3e 45 8f 4b 3d 2e 72 c8 3c 88 bc 8a bd
       0.18948758 0.04969718 0.024468508 -0.06774241
0001f0 cb bd 7e bd 18 f4 e5 bd 0f c3 18 3e bd 8d 84 3d
       -0.06219272 -0.11228198 0.14918159 0.06472347
000200 f5 21 16 3d 9b 5b f1 bd f6 70 ce bd 15 a6 ae 3d
       0.036653478 -0.117850505 -0.10080139 0.085277714
000210 f4 57 33 3c 91 2b 6b be 32 4b 48 3d dd 5e 83 be
       0.010946263 -0.22965838 0.048899837 -0.25658312
000220 11 4d bb bd 25 81 95 3d a9 0f b0 3d 45 46 a2 bd
       -0.091455586 0.07300023 0.08596737 -0.07923559
000230 c5 d6 80 bd e5 0e 64 be 4f 34 9a bd 0a ba 33 3e
       -0.06290964 -0.22271307 -0.07529508 0.17551437
000240 b4 5c e6 3d 4d 66 bd bd ac df 84 3c c3 15 4c 3c
       0.112481505 -0.09248028 0.016219936 0.01245636
000250 0b d1 0a 3e 95 60 84 bd 8d 0f ce 3d bc 09 dc 3a
       0.13556306 -0.06463734 0.1006156 0.0016787569
000260 e4 52 47 bc a4 cd b7 3d dc 9d ca 3d 1c 7b 2d be
       -0.012165759 0.0897477 0.098933905 -0.16941494
000270 c4 6a 61 3c c9 79 14 be 5f 44 62 3d df b5 f9 3c
       0.013758365 -0.14499582 0.055240985 0.03048223
000280 fb 7d 77 3d 1b 32 a6 be 6a d6 30 3e 78 51 39 3e
       0.06042288 -0.32460102 0.17269292 0.18097484
000290 b8 e8 20 3a 83 a8 5d 3e 29 55 51 3d a4 59 d6 be
       0.00061381934 0.21646313 0.051106606 -0.41865265
0002a0 1a ce 28 3e 73 a0 35 3e 79 72 fb 3c 6f 84 68 3e
       0.16484872 0.17736988 0.030694233 0.2270677
0002b0 57 10 2b 3d 67 ea ae be b1 1d 46 3e 07 9a 02 3e
       0.04176363 -0.3416321 0.19347264 0.1275407
0002c0 20 a6 90 bc b0 a4 0f 3d 1a 27 23 be 6d 26 e7 bd
       -0.01765734 0.035069168 -0.15932885 -0.11286626
0002d0 30 f6 42 3e c5 43 22 be fa fd 9b 3c 63 10 45 be
       0.19039226 -0.15846165 0.019042004 -0.19244532
0002e0 1e ec 98 bc 92 06 0a 3e 9b 53 89 3d c7 6c 65 be
       -0.018667277 0.13479069 0.067053996 -0.22404777
0002f0 d2 cf ea bb 50 ac 40 be 82 24 0a 3e d0 66 ad 3d
       -0.0071658874 -0.18815732 0.13490489 0.084668756
000300 2d b4 98 3d b8 bf c5 bd 12 59 9e 3c 94 dc 89 3d
       0.07456241 -0.09655708 0.019329581 0.06731525
000310 6a d4 53 3d 20 90 b7 bd 3c 70 31 bd f3 3c 93 bc
       0.051716246 -0.089630365 -0.043319926 -0.017973399
000320 b2 91 03 ba 35 1f e7 3d 6b c0 74 3e dc eb 68 be
       -0.0005018964 0.11285249 0.23901527 -0.22746223
000330 9d b9 17 3d bb f9 9d bb c2 fb d3 3c 29 bc 2a 3d
       0.03704225 -0.00482103 0.025876883 0.04168335
000340 77 11 18 3d bd 21 92 be 04 3d a3 3d b5 1f 8a 3d
       0.03712603 -0.28541365 0.07970622 0.06744329
000350 ef d7 97 3c 6e 35 ad 3e b0 93 50 3e aa 71 b4 be
       0.018535582 0.33829826 0.20368838 -0.3524297
000360 32 81 66 3e 41 bc 83 3e 24 e6 41 bd fd e6 7b 3e
       0.22510222 0.25729564 -0.04733862 0.24599834
000370 ca 45 70 3d 67 c3 ba be 4c 11 20 3e 1c 60 0a bd
       0.058660306 -0.36477205 0.15631598 -0.033783063
000380 1f f1 14 3d 1c 1c ec bd d1 82 b9 bc 2e c1 40 bd
       0.036362763 -0.11528799 -0.022645386 -0.04705923
000390 8e 07 e8 3d 0e 94 d2 bd f6 42 5c bd 05 53 6e bd
       0.11329566 -0.102821454 -0.053774796 -0.058184642
0003a0 72 26 35 3d 40 e6 c9 3c c4 03 7a 3d 55 10 84 be
       0.044226117 0.024645925 0.061038747 -0.2579371
0003b0 0b ef 85 3c 05 e8 5e be d0 c4 f3 3d 71 c3 0e 3e
       0.016349336 -0.21768196 0.119027734 0.13941742
0003c0 44 59 b5 bd 9f f3 a6 bd 30 08 0c bd e5 2c 53 bd
       -0.08854917 -0.08151936 -0.034187496 -0.051556487
0003d0 a9 3f 9b bc 0d 3d ed bd 93 34 e6 bd 4a 5a 4c be
       -0.018951254 -0.1158391 -0.112404965 -0.19956318
0003e0 84 ba da 3a fa 7b 23 be bb 18 ae bc 10 07 97 bd
       0.0016687666 -0.15965262 -0.021252027 -0.07374394
0003f0 bc ee 3f bc 34 88 b7 3d cd 52 6d bc af 87 12 bd
       -0.011714634 0.089615256 -0.014485073 -0.03577393

val_fc1.bias f4 [64]
000000 02 2d 13 bd d4 9e 00 bf 77 ea b6 be 89 72 59 be
       -0.035931595 -0.5024235 -0.35725757 -0.21235098
000010 74 fb 88 be 04 a8 93 be af ce 9b b9 73 c0 02 bf
       -0.26754344 -0.28839123 -0.00029717895 -0.51074904
000020 ad 7a 15 be 85 a8 08 3f 98 e7 89 be 30 9d 70 b8
       -0.14597578 0.5338214 -0.26934505 -5.736685e-05
000030 0a 10 e6 bd ca a8 2c be 65 29 58 bf 8f db 83 be
       -0.11233528 -0.16861263 -0.84438163 -0.25753447
000040 bf 4f 1f bf db a9 c3 be 5d 76 58 3d 00 b4 0c be
       -0.6223106 -0.38215527 0.052847255 -0.1374054
000050 aa cf 02 3e e3 9f c1 3d 8d 11 91 ae f6 96 3d be
       0.1277453 0.09454324 -6.596954e-11 -0.18514618
000060 66 25 b0 3c c4 b1 8e be fb 11 1d 3d 47 49 2a be
       0.021502208 -0.2787 0.038347226 -0.16629516
000070 0a 08 4e 3e 9a db eb bd 9b 1f 57 b9 9d 36 a9 be
       0.20120254 -0.11516495 -0.00020515772 -0.3304948
000080 3b 7a 4a be b7 79 88 be e6 7e 95 be ea 4f 42 be
       -0.1977319 -0.2665536 -0.29198378 -0.18975797
000090 0c 90 9b bd af ef 66 be 90 83 69 be cc fe 8a be
       -0.07595834 -0.2255237 -0.22804093 -0.2714752
0000a0 bf 93 ba be f2 4c 1d bd 46 8a a2 be 10 1b 1f be
       -0.36440846 -0.03840346 -0.3174612 -0.15537667
0000b0 24 86 d4 b5 21 77 25 bd 7d 79 c9 bb 76 58 9f ad
       -1.5834271e-06 -0.040396813 -0.0061485157 -1.8115492e-11
0000c0 ff 95 85 bd cc 25 8e be 5a 0e 8f ae b2 91 11 3e
       -0.0652275 -0.27763212 -6.5054365e-11 0.14215735
0000d0 98 74 be be f6 7d d1 3d df 5a f9 be e5 54 35 be
       -0.3719833 0.10229103 -0.48702142 -0.17708166
0000e0 0d 0b 63 ba bf 7e a4 be d7 8a 95 3e a4 93 2a ad
       -0.00086610095 -0.3212795 0.2920749 -9.696164e-12
0000f0 a1 4a f8 be 7d f1 1d 3d b8 3b b6 3d 53 fe 64 be
       -0.48494437 0.03856038 0.08898109 -0.22362642

val_fc2.weight f4 [1, 64]
000000 ec d0 dc 3d fb 19 3c 3e 6b 99 09 be b6 30 06 be
       0.10782036 0.18369286 -0.1343743 -0.13104519
000010 c1 ed e8 3e db 05 ba 3e e2 2d 30 bc a1 17 03 3f
       0.45493892 0.36332592 -0.010753127 0.5120793
000020 d4 8f f8 3d 12 46 d8 3b 5a bb f2 3e ff 04 15 bc
       0.12136808 0.00660015 0.47408563 -0.009095429
000030 e4 86 85 be fb ef 8d be 62 4f c0 be bd d9 9f be
       -0.26079476 -0.27722153 -0.37560564 -0.3122081
000040 72 cb 08 bf e7 ce 95 be fc 9e 9f 3d 59 a9 6e be
       -0.5343543 -0.29259416 0.07793996 -0.23306789
000050 94 2e d7 3e db 67 6f 3e 83 fd 2e 39 59 2a b7 be
       0.42027724 0.23379461 0.00016688374 -0.35774496
000060 eb 92 99 bd bd e7 b3 be 9f 26 46 3d f6 e8 eb 3e
       -0.074987255 -0.3513774 0.048376676 0.46076173
000070 12 65 29 3e 37 67 37 be 2e 24 19 bc 9c b2 65 3e
       0.16542462 -0.17910467 -0.009347005 0.22431415
000080 da 5b 35 3e e0 92 d9 be cd f7 bb 3e 00 4c ab be
       0.1771082 -0.4249487 0.36712494 -0.3345642
000090 25 29 cc 3d 95 5d 59 3e 6f c1 72 3f cc 93 aa be
       0.09968785 0.21227105 0.94826406 -0.33315885
0000a0 16 7c 97 be 00 23 35 3e 1c 18 00 3f f4 9c 3e be
       -0.29586858 0.17689133 0.5003679 -0.1861456
0000b0 de e0 a5 bb f1 08 06 3e b8 ed ad 3c d8 c5 00 bb
       -0.0050622066 0.13089348 0.021231517 -0.0019649174
0000c0 1d 82 8f 3e 68 81 25 be f9 a5 b7 ba 06 1d 87 bd
       0.28028956 -0.16162646 -0.0014011256 -0.06597333
0000d0 ef 07 7d 3e 29 16 91 be 79 1f de be 42 be d6 3e
       0.24710058 -0.2833722 -0.43383387 0.4194203
0000e0 cc 2c 79 bc 5a ae 05 3f b5 4c 43 3d 31 0c bb ba
       -0.015208434 0.52219164 0.047680575 -0.0014270601
0000f0 6b e6 2a 3e 8b a9 71 3e bb 07 09 be be c5 0b 3e
       0.1668946 0.23599832 -0.13381855 0.13649651
