Server/src/ml/models/1aaa41fa-526e-47c6-916c-07906127df3c/curr.model (torch, 124548 bytes, 10 tensors)

layers.0.lin.weight f4 [6, 4]
000000 32 b6 a9 bf 45 3a 52 3f 35 fa 88 3d 12 bc 03 bf
       -1.3258727 0.8212016 0.06688348 -0.5145885
000010 4a 8f 67 be cf 35 9a be f8 56 1d 3d 39 f1 8c 3e
       -0.22613254 -0.30119178 0.038413018 0.27527788
000020 8b 04 1c bf 77 a2 f8 3d 38 ab 32 bf ae a1 48 be
       -0.6094443 0.12140363 -0.6979251 -0.19592926
000030 3f d6 a4 3f fb 29 9f bf 77 80 33 3f d0 44 73 bc
       1.2877883 -1.2434686 0.70117897 -0.014847949
000040 ac 84 53 3f 34 bf 63 bd 7a 73 98 be 90 4f b1 bb
       0.82624316 -0.055602267 -0.29775602 -0.005411096
000050 70 d4 1b 3f 87 a1 b7 3f 63 5d 16 be 1f 03 80 3e
       0.6087103 1.4346169 -0.14684062 0.2500238

layers.1.lin.weight f4 [6, 6]
000000 d2 c1 04 bf 76 63 24 be dd 32 97 be 60 23 87 bf
       -0.51858246 -0.16053566 -0.29530993 -1.055767
000010 e3 45 03 bf 33 07 1f 3f ad 4f 04 bf d3 b0 17 3e
       -0.51278514 0.6212036 -0.51684076 0.14813547
000020 95 27 03 bf 77 9b 20 be ad 5e 9a 3e 11 89 be 3e
       -0.5123227 -0.15684305 0.30150357 0.37213948
000030 7b 52 3e 3f 13 0e 30 3c de eb 2d 3f f4 3b e1 bf
       0.74344605 0.010745543 0.6793803 -1.7596421
000040 de 92 62 bf 0b 39 ee 3e 76 5d 89 3f 9d a2 16 bf
       -0.8850535 0.46527895 1.0731647 -0.5884188
000050 59 27 ba 3e 38 7a f4 be 93 ca 76 3d c4 0b a5 3d
       0.36358145 -0.47749496 0.060251784 0.08058885
000060 9c ef 06 bf 6b 57 50 bf fa 08 a0 3d 18 46 2a be
       -0.52709365 -0.8138339 0.07814212 -0.16628301
000070 05 da 8a 3e 88 8b 44 3f 6e 96 c5 be fd 78 28 be
       0.2711946 0.7677541 -0.3859133 -0.16452403
000080 e2 1e e7 be 19 c8 ae 3f 0b 0d 10 3f 30 3c 39 3d
       -0.4514075 1.3654815 0.562699 0.045223415

layers.2.lin.weight f4 [6, 6]
000000 20 c3 ed be 4e 36 14 bf de a2 01 3f 23 69 88 3f
       -0.4643793 -0.5789536 0.5063914 1.0657085
000010 c8 a2 7b bd bb a3 4c bf 87 18 ba bd c7 a5 53 bd
       -0.061434537 -0.7993733 -0.090867095 -0.05167177
000020 dc 01 58 3f da b5 db 3e 8d 48 12 3e 21 c6 a2 bf
       0.8437784 0.4291218 0.14285488 -1.2716714
000030 aa 1f e0 be a0 8d 2b bd 48 b9 65 bf 5d 43 7c bc
       -0.43774158 -0.04188311 -0.8973584 -0.01539692
000040 76 fc 45 3f 45 77 fd 3e 03 bb 51 3f 5f 32 1f be
       0.7733835 0.49505058 0.8192598 -0.15546559
000050 2f 6a 23 3f b9 79 31 bf 84 f2 4b 3f 54 4e 3b bf
       0.638339 -0.6932636 0.79666924 -0.73166394
000060 71 70 8a be 5b 03 fa 3e ba 86 5b bf 7b 1c b6 bd
       -0.2703891 0.48830685 -0.8575245 -0.08892151
000070 c3 6f 1b 3f 77 f1 6a be e5 00 85 bf 00 41 11 3e
       0.6071741 -0.22943674 -1.0390898 0.14184952
000080 ff 37 96 bf ca 9c 8b bf 07 3f f6 3e 14 49 23 3f
       -1.1735839 -1.0907223 0.4809496 0.63783383

act_fc1.weight f4 [64, 216]
000000 47 4a 20 be cf 44 81 be 39 6b 13 3e 5d 18 79 be
       -0.15653335 -0.2524781 0.14396371 -0.243257
000010 12 ad 20 bc de e1 6e 3e 40 10 70 be 6d 76 63 be
       -0.009806888 0.23328349 -0.23443699 -0.22213145
000020 88 32 66 bd 18 7c 8b be aa 9d a2 bd 2a ca 44 3c
       -0.056200534 -0.27243114 -0.07940228 0.01201109
000030 5c 7c 97 3d bb 95 8e 3d 6a 68 b8 3d 96 08 b9 3d
       0.073967665 0.069621526 0.090042904 0.09034841
000040 16 8f 90 3c dd e0 5a 3e 03 4e 81 bd 4a 93 1b bc
       0.017646354 0.21374841 -0.06313708 -0.009495566
000050 6d 27 46 be 98 b6 40 be ec 13 ae bc ab 27 3c bd
       -0.19350977 -0.18819654 -0.021249734 -0.045936268
000060 55 62 a9 be 6a 5b 96 be 6a c2 a2 3d 3c 7a df bd
       -0.33082834 -0.29366618 0.07947238 -0.10911986
000070 11 8e b2 bd 61 da a0 3e 8f 32 53 be 61 37 84 3e
       -0.08718503 0.3141661 -0.20624755 0.258235
000080 3f 9a 31 3e fe 7a 1c 3f 56 b9 46 3c 0e e3 14 3e
       0.17343996 0.6112517 0.0121291485 0.1453974
000090 6b f6 a6 be 25 8c bf be 21 48 9a bc 9f 64 69 be
       -0.32609877 -0.3741161 -0.018833222 -0.2279229
0000a0 ab 5e 13 bd 9c 83 d2 3d 97 37 a4 bd aa f1 40 3d
       -0.035978954 0.10279009 -0.080184154 0.04710547
0000b0 1c 03 a2 3e 63 c5 b5 3e 54 86 55 3e b1 69 da 3e
       0.31642997 0.35502157 0.20852023 0.4265876
0000c0 31 38 98 bc 60 e5 37 be 13 47 7d 3d 42 0b f7 be
       -0.018581482 -0.17958593 0.06183536 -0.48250777
0000d0 1a 59 53 be c1 3e 1d 3e d9 31 a9 3d 02 45 0a 3e
       -0.20639458 0.1535597 0.08261461 0.13502887
0000e0 f6 3b f2 bd a2 40 35 3c 55 7b 97 3e 2d 1f 0b be
       -0.11827843 0.011062773 0.29586282 -0.13586111
0000f0 ec 96 68 3e 95 a7 68 3d b8 d7 eb be 1c fe 72 be
       0.22713822 0.056800444 -0.46063018 -0.23729748
000100 42 23 78 3d b2 43 f9 be 79 d6 c1 be 53 b8 81 be
       0.0605805 -0.4868446 -0.37858942 -0.2533594
000110 b2 62 f8 3d bd 01 51 bd b4 82 a2 bb 89 7b 01 3e
       0.121282 -0.05102705 -0.0049594287 0.12644781
000120 7a 38 0c bd 8b 89 e7 bc 28 ba 87 3e da c9 81 3e
       -0.034233548 -0.028263828 0.26509213 0.25349313
000130 a6 ab 7f 3e 21 d9 a4 3e 2d 70 14 be 11 5e be be
       0.24967822 0.32196906 -0.14495917 -0.37181142
000140 56 37 37 3e 60 75 0c bf 55 e0 6f bd 0f 77 94 3e
       0.17892203 -0.548666 -0.05856355 0.28997084
000150 69 da 01 3e 30 a9 fa 3e 6c 21 52 3e 14 cb 00 3f
       0.12680973 0.48957205 0.20520562 0.5030987
000160 a7 e1 e9 3e dd 93 ec 3d a4 1b 65 38 00 a7 ec bc
       0.45679972 0.1155164 5.4623597e-05 -0.028888226
000170 fa 99 e4 3e 51 0b f6 be d1 7a 30 be ae 3d 0c 3f
       0.44648725 -0.4805551 -0.1723435 0.54781616
000180 fd 92 87 bc d6 f5 98 3c 1e 1d 92 bd 63 7d 90 3d
       -0.016549582 0.018671911 -0.0713446 0.070551656
000190 17 06 a5 3e e7 57 0c be 68 b4 90 3c f3 be 74 3d
       0.3223121 -0.13705407 0.01766415 0.059752416
0001a0 a2 32 62 be ae 72 3b bd dd 0f 90 3d d2 ce 13 be
       -0.22089627 -0.045763664 0.07034276 -0.14434364
0001b0 72 07 12 be dc 69 02 be 72 cf 86 be 74 02 70 be
       -0.14260653 -0.12735695 -0.26330143 -0.23438436
0001c0 6d 46 2f 3c 8f ac 37 be 3b a4 1c 3a c3 d3 86 bb
       0.010697943 -0.1793692 0.00059754 -0.0041145994
0001d0 f3 dd 0f be b2 d6 8e 3e 9e 18 cb 3e 58 d1 6a be
       -0.1404951 0.27898175 0.3966722 -0.22931421
0001e0 e9 a7 0a be 80 35 6c be 57 be bc 3e 0f 55 1d bf
       -0.13540615 -0.23067284 0.36863968 -0.61457914
0001f0 2c 9d 5e bd 93 57 ea 3e 5f 85 b1 3c 70 38 a6 3e
       -0.05434911 0.4576994 0.021670042 0.32464933
000200 2a d4 5d 3e 23 3b ff 3e 67 a9 be 3e 05 10 4c 3e
       0.21662965 0.49849805 0.3723862 0.19927986
000210 d7 c8 c3 bc c0 d3 e6 bd d3 28 58 3e 73 91 bd be
       -0.023899479 -0.11270857 0.21109323 -0.3702503
000220 52 48 fe bb 5b 36 86 3e 74 33 fb bc 92 8c 31 be
       -0.007760086 0.26213345 -0.030664183 -0.1733878
000230 40 f0 50 3d dd 94 c0 3d e1 11 83 3d e9 16 ea bb
       0.05101037 0.094033934 0.063998945 -0.0071438444
000240 78 0c 7e bd a0 22 76 bd 85 62 33 3e ae 78 c9 bd
       -0.06202361 -0.060091615 0.17518051 -0.09837471
000250 f6 28 22 3d 06 c3 0f 3f c1 92 21 3e 2b bb 75 bd
       0.039589845 0.5615696 0.15778638 -0.05999295
000260 db 22 6b be e2 3c 39 3d 71 a0 8a bd 4a fa 09 be
       -0.22962515 0.045224078 -0.06768883 -0.13474384
000270 22 00 53 3c 0f d8 3e 3d 11 ef 24 be 67 ea 44 3e
       0.01287845 0.04659277 -0.16106822 0.19230042
000280 69 22 75 3e 68 87 84 be 55 98 fd 3c a2 13 67 be
       0.23938908 -0.25884557 0.030956427 -0.22566083
000290 15 8c 23 3e 14 d7 ff be 35 1f a6 bd 24 a4 55 3e
       0.15971406 -0.4996878 -0.08111421 0.20863396
0002a0 b9 2b 91 3c 36 5b 56 3d 3e ea 4f 3e ee 93 6d 3e
       0.017721044 0.05233308 0.203042 0.23200962
0002b0 d4 0c 89 3a 7b 5e 20 3e 65 00 36 3d 36 39 6e bd
       0.0010456094 0.15661041 0.04443397 -0.05816003
0002c0 c9 b0 05 be 80 c2 be bd d2 10 51 3d 99 d3 29 be
       -0.1305572 -0.09314442 0.05104143 -0.16584624
0002d0 dd 62 84 3e e5 a9 d0 3e b9 14 4c 3e 5a f8 d0 3e
       0.25856677 0.4075462 0.1992978 0.40814477
0002e0 c4 21 ba bd d4 fa 80 3e c0 34 16 be bc d1 de bd
       -0.090884715 0.25191367 -0.1466856 -0.108798474
0002f0 9a d6 87 3d 44 00 54 be 3d fa fa bd 4b d8 ad 3e
       0.06632729 -0.20703226 -0.122547604 0.3395408
000300 fd 8f eb 3d e3 53 7b 3e 67 d8 8c be 90 09 c5 3d
       0.11502073 0.24543719 -0.27508852 0.096209645
000310 d8 74 96 bc a4 2f 4b be 67 14 03 3d 16 54 02 3e
       -0.018366262 -0.19842392 0.03200188 0.12727389
000320 9b cc 0a bd 8d f5 2a 3e 29 49 85 bd c1 2b ab bc
       -0.033886533 0.16695233 -0.06508095 -0.020894887
000330 49 36 37 3c 0e 4c 43 be 82 d6 6d be a8 73 8d bd
       0.011182376 -0.19071981 -0.2322636 -0.06906825
000340 c0 68 99 3d be 40 82 be 7d 2a e1 3d 00 52 8a bc
       0.074906826 -0.2544002 0.10994432 -0.016884804
000350 88 1e 3f be f0 b3 5a be 8e 1b cc bd bc c8 11 be
       -0.1866399 -0.21357703 -0.09966193 -0.1423673
000360 1d fc 31 3e 6f a2 4f 3e 01 5d a0 3b 77 88 7c 3e
       0.1738133 0.20276807 0.0048938994 0.24661432
000370 e9 39 d1 bd 88 46 c7 3d 1f 3f 8f 3d f9 88 30 3e
       -0.102161236 0.0973025 0.06994461 0.17239751
000380 b5 f2 83 bc 9a 10 9f 3d 87 19 be 3c 15 53 58 bb
       -0.016106943 0.07766838 0.023205532 -0.0033008505
000390 57 da a9 bc 2f 08 ac bd b6 a5 78 be cc 8d 43 3e
       -0.020733995 -0.083999984 -0.24281964 0.1909706
0003a0 93 2f 24 3e 4a 96 ec bd 01 13 94 3d 61 43 50 3e
       0.16033773 -0.11552103 0.07230187 0.20338203
0003b0 e6 ff 48 3d 61 9c 93 3e 9b 86 0c bd e8 5f 50 3e
       0.04907217 0.28830245 -0.034308057 0.20349085
0003c0 6b b3 e9 bd 26 ea a8 bd 20 af 35 be 24 03 08 be
       -0.114111744 -0.08247785 -0.17742586 -0.13282448
0003d0 47 5c 58 be 3c 41 fe bd 70 78 41 bd 4a 90 ba bd
       -0.21128951 -0.12414786 -0.047234 -0.09109552
0003e0 35 fd ac 3e f6 83 ee be b9 38 35 be 2b ab e7 3e
       0.33786932 -0.46585053 -0.17697419 0.45247778
0003f0 a2 19 dd 3d a9 91 76 3e 1e 51 be bd 57 43 6f 3e
       0.10795905 0.24079002 -0.092928156 0.23365532

act_fc1.bias f4 [64]
000000 28 e1 f2 bd 04 1d ab 3e d7 c9 06 be 13 26 03 3f
       -0.118593514 0.33420575 -0.13162933 0.5122997
000010 c8 5b 8c 3f 9d 70 bb 3f 34 04 14 be 3e cd 0c be
       1.096551 1.4643742 -0.14454728 -0.13750169
000020 ad 48 8b 3c a4 1d 34 be 8a 74 97 be a5 e2 26 3f
       0.017002428 -0.17589432 -0.295811 0.6518958
000030 e9 0e 58 bd 6f 8c 41 3f 0a d8 a5 be b0 04 4a be
       -0.052748594 0.7560491 -0.32391387 -0.1972835
000040 65 61 0b 3f 01 5a 6a be d7 4e 02 be dd a9 52 be
       0.5444549 -0.22885896 -0.12725388 -0.2057261
000050 8a d8 2e be 68 cd 81 be ff 45 2e be 57 2d 1b be
       -0.1707479 -0.25352025 -0.17018889 -0.15154015
000060 e1 c6 c0 bd 38 0b 54 be 0a ca a5 3f 21 71 7f be
       -0.09412933 -0.20707405 1.2952282 -0.24945499
000070 42 d4 2d bd 09 8a 70 be f7 e9 12 bc 1c 28 49 be
       -0.042438753 -0.23490156 -0.008966914 -0.19644207
000080 5b e6 5f be 5f d4 95 3f 0f f8 a1 be 04 60 6f be
       -0.21865217 1.1705436 -0.31634566 -0.23376471
000090 d7 11 b6 3e 7a 61 62 be 1a 0c 3b be 53 bd bd be
       0.35560486 -0.22107497 -0.18266335 -0.37058505
0000a0 4f 22 a4 be 59 c4 2c 3d 03 ce 28 bb d6 7f 13 be
       -0.32057425 0.04217944 -0.0025757558 -0.14404234
0000b0 2b 7d 66 be c4 dc cc be ae 8b b6 be fb 79 eb be
       -0.22508685 -0.4001218 -0.35653442 -0.459915
0000c0 0f 7d 5a 3f 05 79 55 be cd 3d c3 3c 05 53 2d be
       0.85347074 -0.20846947 0.02383318 -0.169262
0000d0 9e c8 bd bd 0c 8d 1a be ba 36 8d bd 45 e8 62 3f
       -0.0926678 -0.15092868 -0.06895204 0.88635665
0000e0 28 52 74 be 11 45 a6 be db ec ca bd 5c af 7c 3d
       -0.23859465 -0.32474568 -0.09908458 0.061690673
0000f0 05 8d 83 be 27 27 83 be 98 49 1a bf a2 0d a7 3d
       -0.25693527 -0.25615808 -0.60268545 0.08156897

act_fc2.weight f4 [36, 64]
000000 f2 fc 85 3e d6 81 35 3d eb 4c 25 bd 25 ac 1b bd
       0.26169544 0.044313274 -0.040356558 -0.038005967
000010 79 f3 80 bf 12 cb 5f bf 55 92 4e 3f 8c 26 c3 be
       -1.0074302 -0.87419236 0.80692035 -0.38115346
000020 eb ab 6f be ee 02 c6 be 5d b2 5c be a5 74 ca be
       -0.23405425 -0.3867411 -0.21552415 -0.39542118
000030 dd 54 4d 3d 07 0b 59 be 96 ca 2e be db 42 52 3e
       0.05012976 -0.21195613 -0.17069468 0.20533316
000040 fe 7c 64 3e bc 6c 9e 3d af 2a 01 be dd 6a 20 3f
       0.22313306 0.07735583 -0.12613939 0.6266306
000050 7d 97 ec be 86 1c 93 bd bf ab 28 3e 57 ab cf 3d
       -0.46209326 -0.07183175 0.16471766 0.10140102
000060 df b1 2e bf 3f 9e d3 bd 70 23 ed 3e 1c dd 48 be
       -0.6824016 -0.103329174 0.463161 -0.19615597
000070 ba bc 3c 3e 01 2b ba 3d da 5d 86 be 29 97 c7 be
       0.18431368 0.090902336 -0.26243478 -0.38982514
000080 ff 24 f1 3e 76 a8 ee 3d fa 5c 94 be 79 ec 3a bf
       0.47098538 0.11653225 -0.28977185 -0.7301708
000090 6c bb 28 3e af fc 51 3d 48 f2 94 be 95 20 8f be
       0.16477746 0.05126637 -0.29091096 -0.27954546
0000a0 a5 8a c3 3d 83 1b 1f bf f8 64 d9 aa b5 ec c0 be
       0.09547929 -0.62151355 -3.8617005e-13 -0.37680593
0000b0 ba 29 9d 3d 0d 0c d2 be d1 7d 9c 3e c3 a3 02 bb
       0.07673974 -0.4102482 0.3056474 -0.0019934035
0000c0 e5 cb 99 be 08 68 39 be aa 94 a2 be 58 06 80 be
       -0.30038372 -0.18106091 -0.31754047 -0.2500484
0000d0 f7 0d 30 3e 1f 08 14 be 01 23 26 be e0 62 a1 be
       0.17192827 -0.14456223 -0.1622429 -0.31520748
0000e0 1c c7 dc 3e e3 5f fc bd 99 53 95 3e 41 73 87 3f
       0.43120658 -0.123229764 0.29165342 1.0582048
0000f0 3c 84 83 be c9 65 dc bc 82 98 1b 3e e0 6c 0c be
       -0.25686824 -0.026904004 0.15194896 -0.13713408
000100 15 61 9b be 9d 1c 88 3e 8d 8e 5c be b2 76 56 be
       -0.30347505 0.2658433 -0.21538754 -0.20943716
000110 e8 fb 3a be e1 df 1f bf 3c 8c 57 be ca 8b b2 bd
       -0.18260157 -0.6245099 -0.21049589 -0.08718069
000120 db 3f e8 bd c9 18 5c 3e 99 7f ec be dc 4e db 3d
       -0.113403045 0.2149383 -0.461911 0.107084006
000130 5c 3d 0a bf d1 03 5b be f6 e7 01 be d3 b6 dc bd
       -0.53999877 -0.21388175 -0.12686142 -0.107770585
000140 55 9d 91 be 00 75 2e 3e 3e 61 86 3d 42 75 d8 be
       -0.28440347 0.1703682 0.06561516 -0.4227696
000150 55 bf 66 be a4 8a 70 3e 0b 21 12 be 32 43 a5 3e
       -0.22533925 0.23490387 -0.14270417 0.32277828
000160 20 d4 02 3e 07 3e bc be 06 e6 b7 3e 13 e3 c2 3d
       0.12776232 -0.36766073 0.3591768 0.09515967
000170 23 36 26 3c 5d 0e a1 3c d6 4f ca bd 9b 2d fb bd
       0.010144743 0.01966017 -0.09878509 -0.12264558
000180 05 28 bf bd 09 a7 8c be 61 cd ac bd 8a ca 9f bd
       -0.09333805 -0.27471188 -0.084376104 -0.07802303
000190 80 68 50 be 2d 97 94 be 68 97 8a 3e 30 a5 d5 be
       -0.20352364 -0.29021588 0.2706864 -0.4172759
0001a0 e4 f9 1b 3f 13 28 d8 be 65 37 38 2c a6 d9 b4 bd
       0.6092818 -0.42218074 2.6178723e-12 -0.08830576
0001b0 fb 30 96 be 24 d1 0e 3e 94 bc 6e be 2b 4e 05 be
       -0.29334244 0.13946968 -0.23314124 -0.130181
0001c0 7a d5 5a be 04 59 b3 3e 05 6d 25 3e 96 79 16 be
       -0.21370497 0.3502885 0.16154869 -0.14694819
0001d0 82 89 3b be aa aa b9 be e0 1a 45 bf 8b c8 1a bf
       -0.18314174 -0.3626302 -0.76994133 -0.60462254
0001e0 e4 a8 98 be 2f 0c 2a be cf 83 7e be b9 0c 05 bd
       -0.29816353 -0.1660621 -0.24854968 -0.032482836
0001f0 56 90 67 be 02 e2 3c 3e 41 6a 06 3f ee 82 a6 3e
       -0.22613654 0.1844559 0.5250588 0.32521766
000200 c3 aa 02 3e b7 13 08 bf 79 83 4d be e5 07 ac be
       0.12760453 -0.5315508 -0.20069684 -0.33599773
000210 52 3f 79 bf e4 2e 5a bf 9b 0f 20 bf a9 e4 bb 3d
       -0.97362244 -0.852278 -0.6252381 0.09174473
000220 ec c8 27 be 7b dd b1 be 9a 9d f9 3e 9d 3f bc 3e
       -0.1638524 -0.3473929 0.48753053 0.36767283
000230 ef 2a 19 3f 08 29 a4 be 83 47 ec 3d 46 79 c3 3d
       0.59831136 -0.32062554 0.11537077 0.095446154
000240 12 10 89 be 95 30 0f bf ed a9 ab 3d 35 7b 7a be
       -0.26770073 -0.55933505 0.0838202 -0.24461062
000250 76 56 97 be 27 45 41 bd 0f d4 8b bd 38 fb 08 bf
       -0.29558152 -0.04718509 -0.06827556 -0.5350833
000260 c7 e7 ac 3d 0e f0 f6 3d d8 8c 1c 3f 01 74 88 bd
       0.084426455 0.120575055 0.6115241 -0.06662751
000270 1f 29 a1 be 20 90 4e 3e 27 3c d6 bd cf 7c 04 bf
       -0.31476685 0.20172167 -0.10460692 -0.5175294
000280 53 46 86 3d 46 47 36 bf 4a 86 08 3e b8 81 5b bd
       0.06556382 -0.71202505 0.13332477 -0.053590506
000290 df 89 10 3f 18 c6 3f 3e 53 55 c9 3e ee df 9d 3c
       0.56460375 0.1872791 0.3932291 0.019271817
0002a0 27 e2 44 3e ee f6 17 3e e3 7a 16 29 8e 37 ea bc
       0.19226895 0.1484029 3.3413278e-14 -0.028590944
0002b0 7a a9 3c 3e b6 f5 15 be 78 ae 20 be 69 4b 79 bc
       0.18424025 -0.14644513 -0.15691555 -0.015215733
0002c0 7a c7 33 be 1d 0f ee 3d 4d 14 31 be c9 aa 8e be
       -0.17556563 0.116239764 -0.172929 -0.27864674
0002d0 7a d2 0b bf df 27 c5 3e a0 51 55 3e 30 f1 8c bb
       -0.54618037 0.38506982 0.20831919 -0.0043012127
0002e0 38 39 cb bd a4 b1 b2 bb 41 9e 30 3e a7 61 15 bf
       -0.09923023 -0.0054533053 0.17247869 -0.5835213
0002f0 ce be 82 bd c0 56 85 be cd 3d fd 3e 5d d4 88 be
       -0.06384049 -0.26042747 0.49461213 -0.2672452
000300 ea e5 7d be 7f ba f1 be 1a da b8 3e f3 1f 28 bf
       -0.24794737 -0.47212598 0.36103898 -0.6567375
000310 51 eb f3 be d4 7b 1b bf 57 97 83 bc 54 66 f4 ba
       -0.4764047 -0.6073582 -0.016063375 -0.0018646219
000320 9e 55 5e 3d 83 1f 10 be f8 f2 90 3e bf f8 4f bf
       0.05428087 -0.14074521 0.2831037 -0.8123893
000330 88 bf b8 be 0b 56 e5 3d 21 b5 09 bf 9c a2 d8 be
       -0.36083627 0.11198052 -0.53792006 -0.4231156
000340 39 b8 59 bd b5 12 95 3e 2e 93 6b 3d 63 6c 2a be
       -0.053154204 0.29115835 0.05751341 -0.16642909
000350 02 c2 44 bd 67 3f 89 bb 0d 52 e0 be 07 99 71 3d
       -0.048036583 -0.0041884664 -0.438126 0.05898383
000360 74 10 ca 3e 08 e8 f7 b9 e8 26 56 3e 1f 8d 44 be
       0.39465678 -0.00047284388 0.20913279 -0.19194458
000370 81 d8 f2 be 01 a0 e1 3d cd 20 86 3e f7 e6 94 3d
       -0.47430804 0.110168464 0.261969 0.072706155
000380 84 f4 ac 3d 57 f0 81 bf 3d 21 d1 3e 2b 09 0d bf
       0.08445075 -1.0151471 0.4084567 -0.55092114
000390 d4 81 df be 6e fc 85 3e 22 da 14 3e d4 a5 95 3d
       -0.43653738 0.2616915 0.14536336 0.0730702
0003a0 ce 88 a5 3e 1f a3 40 be 57 a7 29 2e 5d fa cc bd
       0.32330936 -0.18812226 3.857478e-11 -0.100086905
0003b0 43 dc 28 3c 7b 9b c0 3e 57 38 b9 be 2b 39 9b 3d
       0.010306421 0.37618622 -0.36175796 0.07579263
0003c0 e9 b4 53 be c8 a9 d9 3d 9b 5b 05 bf 39 42 b3 3d
       -0.2067448 0.10628086 -0.52092904 0.08752865
0003d0 ec 6f 77 3f 9d 4e 1d be 67 b9 6d 3e cc b7 bb be
       0.96655154 -0.1536202 0.23215257 -0.36663663
0003e0 7d d5 b3 be 7f e5 7a bd 52 02 39 bd 0a b0 f1 be
       -0.35123816 -0.06125402 -0.04516823 -0.4720462
0003f0 c6 af b1 be 5c ed 7f be f8 87 3c be ea 60 32 bd
       -0.34704417 -0.24992889 -0.18411243 -0.043549456

act_fc2.bias f4 [36]
000000 ee 8a 14 bf 77 5f cc be 27 d9 9a be 80 02 7d be
       -0.5802449 -0.39916584 -0.302438 -0.24707985
000010 85 a5 fa be ad a4 1a bf 77 85 dc be e8 e1 a0 be
       -0.48954406 -0.60407525 -0.43070576 -0.31422353
000020 8d 19 01 3f b4 aa 05 3f a9 4a a0 bd e7 bb d0 be
       0.5042961 0.522136 -0.0782674 -0.40768358
000030 a1 3d 81 be 22 73 ef 3e 18 48 1d 3f 49 c7 e8 3e
       -0.25242332 0.46767527 0.6143813 0.45464543
000040 63 75 b2 3e ac 44 ed bd 30 b2 07 be 12 9b 96 3e
       0.34855184 -0.11585364 -0.13251567 0.29415184
000050 6c ba ef 3e 91 64 15 3f d2 b4 0d 3f 7e 4e 54 be
       0.46821916 0.5835658 0.55354035 -0.20733067
000060 86 d7 12 bf 0a 3a d3 bc ee 9b e8 3e 0d cd 01 3f
       -0.5736011 -0.025784511 0.45431465 0.5070351
000070 19 32 94 be 97 03 a7 be ca 5e ce be d7 2a f7 be
       -0.2894447 -0.32619926 -0.40306693 -0.48274872
000080 68 58 24 be 10 48 1f be 2f a2 ec be 82 e6 1c bf
       -0.1604935 -0.15554833 -0.46217486 -0.61289227

val_fc1.weight f4 [64, 216]
000000 f1 02 67 3d 80 0a 10 bd 07 28 54 be 15 a3 68 be
       0.05639929 -0.035166264 -0.20718394 -0.22718461
000010 b9 c8 92 be ac 87 00 be db fe 15 be c2 64 ac be
       -0.28668764 -0.12551755 -0.14648001 -0.33670622
000020 9c fd 62 be c2 5a be be 4f ee 12 be 08 a1 9c be
       -0.22167057 -0.37178618 -0.1434872 -0.30591607
000030 18 08 84 3c e0 a8 23 be c2 fe ec bc ea 04 31 be
       0.01611714 -0.1598239 -0.028930072 -0.17287031
000040 dc bc 1a bd 35 f9 02 be b3 48 46 3d 43 0b 05 be
       -0.037777767 -0.12790377 0.048409175 -0.12992577
000050 a8 7e 6a 3e c1 9d 5b be bb d8 99 3d db b7 06 3e
       0.22899878 -0.21446897 0.07512041 0.13156073
000060 66 1f d0 3d 20 f9 c8 bd c3 2c 4a 3e f1 87 eb be
       0.10162239 -0.09813142 0.19743638 -0.46002153
000070 a6 e6 4b bb 4f d6 41 3e 66 63 5f 3e d0 ad 67 3d
       -0.003111282 0.18929408 0.21815261 0.056562245
000080 e8 c2 f9 3e d9 f6 88 be a4 8a 92 3d 75 91 ed 3e
       0.48781514 -0.2675083 0.0715535 0.46400037
000090 af 4a 80 bd 7b 6b f3 bd 68 68 45 be 92 b6 9f be
       -0.06264245 -0.11885735 -0.19278109 -0.31193978
0000a0 11 fb 61 be 60 3d 4a be d8 37 92 bd 8e 66 6e be
       -0.2206843 -0.19749975 -0.071395576 -0.23281309
0000b0 c2 13 a1 bc 74 2a 2e be be 55 52 3c 36 d8 be bd
       -0.019662742 -0.17008382 0.012837825 -0.09318583
0000c0 43 a6 7a 3d 1d 1c c1 bd 6e 15 a6 3c a0 0c 68 be
       0.061193716 -0.0942919 0.02027389 -0.22661066
0000d0 59 40 15 3e 84 f0 b0 bd fd 02 e1 3d 1d 55 31 3d
       0.14575328 -0.08639625 0.10986898 0.04329406
0000e0 ce 3d 99 3e 42 8a 91 be f4 6f 3b 3e cd 27 a9 3e
       0.29929966 -0.28425795 0.18304425 0.33038178
0000f0 cd 02 9a 3d 0e 1b ee bb 01 90 a6 3e ce ca 49 be
       0.075200655 -0.0072664088 0.3253174 -0.1970627
000100 30 d7 a2 3e 8e 0a 83 3e 95 eb 01 bd 01 da 4d be
       0.318048 0.2559399 -0.03171881 -0.20102693
000110 a1 58 d3 3d 23 20 d7 be d0 f3 49 be af 7d 10 3e
       0.10319639 -0.42016706 -0.19721913 0.14110444
000120 0e e7 53 3e fb 53 46 3e db 96 a3 bd 15 61 0a 3e
       0.20693609 0.19367974 -0.07987758 0.13513596
000130 bc 4e 04 bb 25 4b 7b bd bb 48 de 3d 2c 35 cb 3d
       -0.002018853 -0.06135096 0.10853716 0.09922251
000140 73 e9 d5 bd ef d5 20 bb a6 7d c2 bd 5a c5 46 bd
       -0.104449175 -0.0024541577 -0.09496622 -0.048528053
000150 8c 68 b5 3c bc 7b dc 3c d9 34 a4 3d 25 ba d1 3d
       0.022144578 0.02691447 0.080178924 0.102405824
000160 9d c3 91 3e 85 3c 68 bc 50 d5 a6 3d 5a 65 d8 3d
       0.28469554 -0.014174585 0.08146155 0.10566206
000170 b7 3d a7 3d 3e e4 a2 bc 7f 92 8b 3e 67 0d be bc
       0.08166068 -0.019884225 0.27260205 -0.02319975
000180 05 d6 b3 3d 2e fc c7 3c 71 5d 94 3e 14 ac eb bd
       0.08781055 0.02441224 0.2897754 -0.11507431
000190 c2 cf d1 3d 4e c1 81 3e f4 70 a9 bc 6c f5 17 be
       0.10244705 0.25342792 -0.020683743 -0.14839715
0001a0 40 26 25 3e 2d 68 d7 bd 94 c7 29 3e 7c 9e 1c bd
       0.16127872 -0.10517917 0.1658004 -0.03823708
0001b0 27 d4 50 3e f8 6d d1 3d f4 a7 a0 3c 56 e6 d2 bd
       0.2039343 0.10226053 0.019611336 -0.10297839
0001c0 6a ba 1a be 5b 7f 52 bd d0 69 f7 3d 21 0a 7f 3d
       -0.15110174 -0.051390987 0.12080729 0.06226552
0001d0 5f ec 85 be fa af 62 3d 0d 70 33 bd 7c e5 8e be
       -0.261569 0.055343606 -0.04380803 -0.27909458
0001e0 83 fc 2a 3e fe 4f f2 3d 71 99 4d be b2 9d aa 3d
       0.16697888 0.118316635 -0.20078065 0.08330859
0001f0 c7 ff a7 3d a8 79 cd be 2a 47 38 3d e9 2f 42 3d
       0.082030825 -0.4013188 0.044989742 0.047408972
000200 1e 53 f5 3d 6c e9 58 3d 6f cd b2 3e 1f 0e 45 3e
       0.11978744 0.052956983 0.34922358 0.19243668
000210 de 0d c2 3d 88 96 df bc 62 9f b8 bc 75 7f 74 bd
       0.09475301 -0.027293459 -0.022536937 -0.059691865
000220 c6 6b 52 3e 06 fb 35 be 72 98 17 bd 68 a8 bf bd
       0.20548925 -0.17771539 -0.037010618 -0.09358293
000230 05 45 1b 3d e1 7d 5f bd 48 01 02 be 08 99 f4 bd
       0.03790762 -0.054563407 -0.12695801 -0.11943251
000240 c1 d7 70 3e 24 3f bb 3d 43 5b 27 be ba 35 8a be
       0.23519804 0.091429025 -0.16343407 -0.26994115
000250 0b be 19 be c8 2a 0a be 1d ae 41 3e 04 c2 2b 3d
       -0.15013902 -0.13492882 0.18914075 0.041933075
000260 65 dc c8 bd 57 ef 70 be a5 21 87 be 6f 7e 00 be
       -0.09807662 -0.23528801 -0.26392856 -0.1254823
000270 08 75 10 3e eb 40 3e bb 85 6d ef bd 5d 4d 80 bb
       0.14107144 -0.0029030393 -0.11690811 -0.0039154724
000280 2c 45 07 3e 8d a7 9f be 51 5e 77 3e 84 94 55 3e
       0.1320998 -0.3118252 0.24157073 0.20857435
000290 1a d0 ea bd 4d db ba bc 2e e2 c2 3c 20 0c fe bc
       -0.114654735 -0.022809649 0.023789492 -0.031011641
0002a0 ee 91 35 3d af c0 8d bc 33 36 4a 3e d7 06 1d be
       0.044328623 -0.017303793 0.19747238 -0.1533464
0002b0 49 18 ba 3d 9f ad 92 3e b5 42 2e bd b8 3a 98 be
       0.09086663 0.28648087 -0.042544086 -0.297323
0002c0 f9 93 4d be 0d 53 e6 be 80 45 d3 bd 83 87 96 be
       -0.20075978 -0.44985238 -0.103159904 -0.29400262
0002d0 21 fc 20 3e 2a c3 f2 bb 58 9f ff 3c d4 a1 a2 be
       0.1572118 -0.0074085193 0.03120391 -0.3176409
0002e0 97 45 94 be 2f 68 8e 3d 7f b4 2b 3e ff 9b 04 bd
       -0.28959343 0.06953465 0.16768073 -0.032375332
0002f0 3f bf 4f be 4d 99 8f be b6 a7 25 be e5 27 24 be
       -0.20287798 -0.28046647 -0.16177258 -0.16030844
000300 0e 58 81 3e 6c a6 1f 3d 29 42 9d bd eb 29 7f bd
       0.25262493 0.03897707 -0.07678635 -0.062295835
000310 5f 0a f0 bd fa fa 30 be 05 e2 6c 3e 69 5f 8d 3d
       -0.11720728 -0.1728324 0.23133095 0.06902964
000320 ec 97 60 3e ac a0 21 3d df bc 54 3e 4d c1 42 3e
       0.21932954 0.03945987 0.20775174 0.19019051
000330 c0 1f 74 3c 9e 66 3c be 63 72 32 be 86 ff bf be
       0.014900148 -0.1839852 -0.17426448 -0.37499636
000340 cd 5b 28 be 6e 2b 83 be 22 84 38 3e 0c 55 bb 3d
       -0.16441269 -0.25619072 0.18019155 0.09147081
000350 f6 5b 24 3e 40 4e 01 be a9 94 25 be d8 ee 5e 3e
       0.16050705 -0.12627506 -0.1616999 0.21770799
000360 39 12 11 3e 92 eb 29 3e 20 18 e9 bd e8 62 ab 3d
       0.14167108 0.16593769 -0.113815546 0.08368474
000370 09 38 af bd dc 3d 11 be 1b 51 1a bd 0f 93 43 bc
       -0.0855561 -0.14183754 -0.037675004 -0.011936917
000380 82 82 7a bd 27 3e 31 be 99 2d d1 bd e5 87 9f bd
       -0.06115962 -0.17308865 -0.10213775 -0.07789592
000390 7c 5a 04 be 1b 50 ff 3c 0e c8 e4 3d aa 50 96 bd
       -0.12925142 0.031166127 0.1117097 -0.07339604
0003a0 c7 3d 0f bd 75 d8 1e 3e 4a 32 1d be 31 a7 26 3d
       -0.034971025 0.1551226 -0.15351215 0.04068679
0003b0 78 5b 80 3d 6d 1e 0d 3c 99 ed c4 3b 6d 5a d7 3d
       0.06267446 0.008613211 0.006009769 0.10515294
0003c0 77 36 22 be 73 5f 67 bd 6b b8 a9 bb 14 3c 3e bd
       -0.15841089 -0.05648751 -0.005179455 -0.046444014
0003d0 7e 0a ec bc 5e 25 93 bd 3d 5c 4d 3c 17 b1 2a 3e
       -0.028813597 -0.071848616 0.012534198 0.16669117
0003e0 bb 9e bb bc 69 2e 48 3e 72 94 c5 bc 34 2b ca bc
       -0.022902837 0.19548954 -0.024118636 -0.024678804
0003f0 50 44 0c bd 9a 71 be bc 2e 68 31 3d b9 93 54 be
       -0.034244835 -0.023247529 0.043312244 -0.20759477

val_fc1.bias f4 [64]
000000 08 d3 01 3e 36 11 6b 3e 3e f5 9b be 00 72 13 be
       0.12678158 0.22955784 -0.30460542 -0.14398956
000010 5b 5a 10 be e5 31 6d bd 65 99 07 bd 4e 2c 14 3d
       -0.14096968 -0.05790891 -0.033105273 0.036175065
000020 b9 a9 d9 bd a8 aa c8 bd 72 9d 60 bd 22 12 f1 3d
       -0.10628075 -0.09798175 -0.05483765 0.11771037
000030 9c 4b 44 bd 0e db 07 3e cd 5d 0d be ba 23 16 3c
       -0.04792367 0.13267156 -0.13805313 0.009163791
000040 3f 42 be 3d 49 9c 2e 3c 32 51 90 bd 8a fb 9d bd
       0.09289979 0.0106573785 -0.07046737 -0.07713993
000050 0a a0 43 be e1 96 ad bd 59 80 8b bd 31 4a 88 3c
       -0.19104019 -0.084760435 -0.0681159 0.01663694
000060 72 b9 8a be 21 7f 16 be 64 40 01 bd ad 38 06 be
       -0.2709461 -0.14696933 -0.03155555 -0.13107558
000070 7e d9 51 be 94 3b 22 3e 56 c2 2e be 92 35 26 be
       -0.20493123 0.1584304 -0.17066321 -0.16231373
000080 7f 2f 04 3d 67 a7 e1 bd f5 b3 24 be d6 dc 83 be
       0.03227186 -0.110182576 -0.16084273 -0.25754422
000090 68 76 ef 3b 96 61 7a be ad 67 89 bd dc 36 83 be
       0.0073078163 -0.24451289 -0.06709228 -0.25627792
0000a0 77 5f 81 be b3 f1 ac bc 9c f9 4b 3d 73 d2 6a bd
       -0.25268146 -0.021111345 0.049798593 -0.057329606
0000b0 76 24 4d 3c e0 e3 2b 3d 19 5d d6 bd 17 23 0c be
       0.0125209 0.041965365 -0.10466976 -0.1368526
0000c0 79 1e 13 bd 0a 55 9b bd 52 cc 2a 3d 11 02 ef bd
       -0.035917733 -0.07584579 0.04169876 -0.11670316
0000d0 2a a5 21 be a9 e7 a0 bc df 6a a5 bd 52 69 40 be
       -0.15785661 -0.019641714 -0.08077025 -0.18790177
0000e0 f3 9f 42 be 89 29 65 bd 4b 94 23 3d f2 7b 39 be
       -0.19006328 -0.055947814 0.039936345 -0.18113688
0000f0 aa af 38 be c9 70 65 3d 58 8f b5 bd 96 5a 54 3d
       -0.1803576 0.056015763 -0.08865231 0.051844202

val_fc2.weight f4 [1, 64]
000000 82 ee 52 3e 77 98 a1 bc 36 a5 13 bf 38 40 8b be
       0.20598796 -0.019726021 -0.57673967 -0.27197433
000010 dd a8 81 b9 0b b2 ec be 28 de ca 3c 3a fd c8 3d
       -0.0002473061 -0.46229586 0.024764135 0.09813924
000020 17 48 76 be ee 14 e7 be 2a fe d6 bc 30 f0 1b be
       -0.24050938 -0.45133156 -0.026244242 -0.15228343
000030 9c 53 21 3e fa 44 a9 3e 46 76 94 be 30 79 31 3e
       0.1575455 0.33060437 -0.28996485 0.17331386
000040 6c fd fa 3d 7f aa 33 bf 55 4b d1 3e ea 17 36 bd
       0.12255368 -0.7018203 0.40877786 -0.0444564
000050 c3 53 07 bf 14 29 db be 3e 06 1d bf 44 30 e2 be
       -0.52862185 -0.42804778 -0.6133765 -0.4417745
000060 8c 58 14 3e 32 66 eb be 85 7c 18 3e 04 a1 53 3e
       0.14486903 -0.45976406 0.1489125 0.20666891
000070 3d d7 d9 be 17 d4 36 bd 0a b1 46 bf be e6 e2 3e
       -0.42547026 -0.04463586 -0.7761389 0.44316667
000080 42 6d 86 3e 15 72 e3 3e 39 17 12 bf be de 29 bf
       0.26255232 0.44422975 -0.57066685 -0.663555
000090 e9 fd c5 bc f9 47 3e 3f 90 11 a6 3e f1 8f d4 be
       -0.024168925 0.7432857 0.32435274 -0.4151607
0000a0 1a bd 9c 3e 92 e1 8d bb 13 00 dd 3e a1 1d 68 bd
       0.30613023 -0.0043298686 0.4316412 -0.05666888
0000b0 c3 e7 90 3d 74 4c cc be 41 e5 e6 bc a1 ce d6 be
       0.07075455 -0.3990208 -0.028185489 -0.4195452
0000c0 d4 c7 0c bf 6c 74 6d be 88 dc 7c be 0c ab c8 bd
       -0.54992414 -0.23188943 -0.24693501 -0.097982496
0000d0 e5 52 ff bc 47 7e 15 3c 98 3f 19 bf 7c ba bb 3d
       -0.031167457 0.009124345 -0.5986266 0.091664284
0000e0 a8 1b b1 3e 8b de 1e 3e 3c 97 fd 3c 7e 9a 3b 3f
       0.34591413 0.15514581 0.030955903 0.7328261
0000f0 7e 16 94 3e 48 2b fe 3d a5 b6 e2 be 87 25 c8 3e
       0.2892341 0.12410599 -0.44279972 0.3909113
