Server/src/ml/models/1aaa41fa-526e-47c6-916c-07906127df3c/curr.model (torch, 124420 bytes, 10 tensors)

layers.0.lin.weight f4 [6, 4]
-1.869897 0.99256504 -0.074870184 -0.8626099 -0.6587338 -0.12186147 -0.54959667 0.45570588
-0.028664129 0.7868537 -1.892004 -0.6461765 1.9067162 -1.3284591 0.28464934 -0.09897266
1.4822878 0.016844815 -0.19874203 0.026323434 0.99261314 1.9418874 0.0399596 0.17777826
00000000: c958 efbf be18 7e3f 8a55 99bd 01d4 5cbf
00000010: c7a2 28bf 8292 f9bd 5eb2 0cbf 4852 e93e
00000020: 09d1 eabc 3e6f 493f 302d f2bf d36b 25bf
00000030: 470f f43f f30a aabf 8fbd 913e 2eb2 cabd
00000040: 9bbb bd3f 23fe 893c 0883 4bbe 3ea4 d73c
00000050: e51b 7e3f c48f f83f adac 233d 810b 363e

layers.1.lin.weight f4 [6, 6]
-0.042183917 -0.3027582 -1.3181645 -1.0734578 -0.4415396 1.0079285 -0.72634864 0.6051541
-0.6428594 -0.93310255 0.49821246 0.45016053 1.1675279 0.37630183 0.3259262 -2.253732
-1.3835641 0.7287882 0.98614794 -0.94582456 1.4889295 -0.8071972 0.1491945 0.20873258
-1.257184 -0.7617095 0.18009342 -0.68310183 1.0184146 0.98860836 -0.50347716 0.3372751
-0.8506476 1.808917 0.6282102 0.116408594
00000000: 0bc9 2cbd 1f03 9bbe 9db9 a8bf 1167 89bf
00000010: 7a11 e2be cd03 813f fcf1 39bf 61eb 1a3f
00000020: 6f92 24bf cfdf 6ebf b415 ff3e 717b e63e
00000030: 8e71 953f a2aa c03e cddf a63e 253d 10c0
00000040: a118 b1bf dd91 3a3f 3174 7c3f 8f21 72bf
00000050: 3e95 be3f 7aa4 4ebf 71c6 183e febd 553e
00000060: 68eb a0bf 65ff 42bf 696a 383e c3df 2ebf
00000070: 695b 823f 7015 7d3f e1e3 00bf 52af ac3e
00000080: 0bc4 59bf 988a e73f 62d2 203f a167 ee3d

layers.2.lin.weight f4 [6, 6]
-1.0764284 -1.2643845 0.32133108 1.4301057 -0.1762688 -0.22750987 0.28533772 0.09930239
0.4054643 0.44520402 0.5535555 -2.065564 -0.48882052 -0.4291555 -0.89728874 -0.5688554
1.398322 0.2388053 0.94573313 -0.3969952 0.7696634 -0.5952594 0.9517226 -0.66267556
-0.48827305 0.8947563 -1.4472785 0.43176335 1.1035937 -0.80393463 -2.3958635 -0.079232946
-4.4157104 -1.4484677 0.5132006 0.8556518
00000000: 68c8 89bf 5ad7 a1bf 8285 a43e b40d b73f
00000010: cf7f 34be 59f8 68be c917 923e 0d5f cb3d
00000020: 0499 cf3e c8f1 e33e d0b5 0d3f 3332 04c0
00000030: af46 fabe 45ba dbbe b7b4 65bf 82a0 11bf
00000040: 37fc b23f 6089 743e 911b 723f f442 cbbe
00000050: a908 453f ec62 18bf 18a4 733f 1ba5 29bf
00000060: edfe f9be c00e 653f 6c40 b9bf 1610 dd3e
00000070: 8f42 8d3f a9ce 4dbf d455 19c0 e244 a2bd
00000080: 804d 8dc0 6467 b9bf 1d61 033f ff0b 5b3f

act_fc1.weight f4 [64, 216]
-0.2084468 -0.17165239 0.13766855 -0.31264234 0.094169416 0.3775081 -0.010149919 0.052741904
-0.17122024 -0.22427395 -0.05512238 0.16633601 -0.09438363 -0.34276 0.032480266 -0.15804999
0.14699872 -0.028221222 0.03219234 0.10573937 -0.02733077 0.26500615 0.1285232 -0.11334814
-0.074351415 0.022938281 0.11431666 0.0123896925 0.26738808 -0.061268564 -0.012136209 0.3468944
-0.060091056 0.30847132 0.12889951 -0.22084604 0.07309442 0.39026392 -0.11798627 -0.0009914254
0.06689478 0.14299051 -0.041849565 -0.07739524 0.22823557 -0.083164796 0.20769961 0.13680856
0.30647522 -0.24946712 0.06569521 -0.28382385 -0.1987965 0.3650767 0.056270413 -0.2570547
-0.2131178 0.1044654 0.03617708 -0.46688512 0.027291954 0.047350604 0.15365127 -0.0012800444
0.23076122 -0.23540789 -0.105031855 -0.07764693 0.41080767 -0.121637054 0.26650918 0.52598035
4.5086723e-05 -0.015484746 0.072243005 -0.019707186 0.13916916 -0.005476106 0.24746363 -0.04503535
0.039088357 -0.30487993 0.002493213 0.23266484 0.35085967 -0.018139048 -0.4197599 0.4910166
-0.37488893 -0.15613602 0.18286517 -0.3858558 0.43279955 -0.93340594 -0.39797604 0.11620029
0.12993805 -0.14512064 -0.25138935 0.11674164 -0.033956155 -0.46265355 0.08670896 0.19559032
-0.08797571 0.005977586 -0.066172816 0.023350196 -0.038007885 0.06720122 -0.08891487 -0.093084306
-0.10101839 -0.17475294 0.034715082 -0.040275797 -0.16564062 0.15163484 -0.105557814 0.00426483
0.27298138 -0.3137982 0.49360874 -1.1203929 -0.5429781 0.27711073 0.37631738 0.119654365
-0.39060998 0.6457121 -0.3515755 -0.32308477 0.21098486 -0.08960407 0.1617624 -0.4085782
-0.12932664 0.3089264 -0.08628774 -0.17020568 -0.06639893 0.087474376 0.09993383 -0.09283129
-0.23156945 -0.121487126 0.34905297 -0.27378184 0.09465207 0.3557288 0.054323375 0.02371576
0.042107876 -0.29040802 -0.15867282 -0.19558144 0.112880364 -0.06815393 -0.06377955 0.11828831
0.030559283 -0.10415231 0.14867064 -0.2044558 0.098567925 -0.3239719 -0.12537503 0.28383297
-0.035953242 -0.119070105 0.19878857 -0.006696805 0.0786247 0.08863824 0.043226156 0.07585534
-0.05575597 -0.1130123 -0.10171015 0.2608305 -0.0779424 -0.020967042 -0.15348895 -0.091223106
-0.17934367 -0.10573021 -0.24547243 -0.1751474 0.21907623 -0.387269 0.074690744 0.22931997
-0.09162686 0.10562655 -0.19018662 0.119126536 -0.2147395 -0.06707736 0.0069029676 0.0005737649
0.08653638 -0.08700001 0.031568773 -0.10922951 0.069458306 0.17692854 -0.178337 -0.06677276
-0.08304321 0.01506334 -0.13151383 -0.18642549 0.14715934 -0.22794744 -0.03649624 0.3170079
-0.08866255 -0.24872053 0.20191857 -0.22357903 0.50585073 -0.10369104 -0.24086544 -0.34854594
0.3578449 -0.21538153 0.48848167 -0.06092165 -0.09226127 -0.28604552 -0.31438178 0.23886412
0.057318844 -0.24615219 -0.22344853 -0.05229993 0.10784767 0.12777318 0.18616503 -0.07665217
-0.11408753 -0.1396216 0.010712018 -0.10411898 -0.10843675 -0.07186667 -0.20103882 -0.062874384
-0.22492692 -0.12618072 -0.11743807 -0.29745084 -0.16208078 -0.1332448 0.40834352 -0.17970152
00000000: 1473 55be a5c5 2fbe fcf8 0c3e a812 a0be
00000010: e5db c03d be48 c13e d94b 26bc e507 583d
00000020: 5c54 2fbe 12a8 65be 01c8 61bd fd53 2a3e
00000030: 344c c1bd 3d7e afbe 070a 053d dbd7 21be
00000040: d586 163e 3130 e7bc 1ddc 033d e28d d83d
00000050: c7e4 dfbc e3ae 873e 969b 033e 1223 e8bd
00000060: 8e45 98bd 10e9 bb3c da1e ea3d 23fe 4a3c
00000070: 17e7 883e bff4 7abd f3d6 46bc 259c b13e
00000080: 0a22 76bd f4ef 9d3e 3cfe 033e 7725 62be
00000090: 87b2 953d acd0 c73e c9a2 f1bd b7f2 81ba
000000a0: 2100 893d 1b6c 123e 736a 2bbd 6581 9ebd
000000b0: 96b6 693e 4e52 aabd 35af 543e 8b17 0c3e
000000c0: 52ea 9c3e 4f74 7fbe 368b 863d 5c51 91be
000000d0: 4f91 4bbe 55eb ba3e ce7b 663d ac9c 83be
000000e0: 8d3b 5abe f5f1 d53d 6b2e 143d 910b efbe
000000f0: 6093 df3c b5f2 413d c256 1d3e 2ac7 a7ba
00000100: ab4c 6c3e c40e 71be f11a d7bd 5b05 9fbd
00000110: 6255 d23e d91c f9bd e473 883e a6a6 063f
00000120: 801b 3d38 bbb3 7dbc 24f4 933d f770 a1bc
00000130: 5c82 0e3e e870 b3bb 1b67 7d3e fd76 38bd
00000140: 1d1b 203d 3919 9cbe 2c65 233b b13f 6e3e
00000150: e1a3 b33e 5798 94bc c5ea d6be 8766 fb3e
00000160: 71f1 bfbe 1fe2 1fbe 0241 3b3e e48e c5be
00000170: e797 dd3e b1f3 6ebf 84c3 cbbe 6bfa ed3d
00000180: 7b0e 053e 819a 14be 1bb6 80be 3e16 ef3d
00000190: 9c15 0bbd ede0 ecbe 7894 b13d d448 483e
000001a0: 9c2c b4bd a0df c33b 9d85 87bd e948 bf3c
000001b0: 28ae 1bbd cba0 893d 0019 b6bd fca2 bebd
000001c0: bbe2 cebd 6ff2 32be 6731 0e3d 3cf8 24bd
000001d0: b29d 29be 2a46 1b3e b22e d8bd fdbf 8b3b
000001e0: 37c4 8b3e 28aa a0be 49ba fc3e 0969 8fbf
000001f0: 9d00 0bbf 75e1 8d3e acac c03e 590d f53d
00000200: 08fe c7be 634d 253f b401 b4be 5e6b a5be
00000210: 6a0c 583e 5782 b7bd 0ba5 253e 2931 d1be
00000220: 346e 04be 9a2b 9e3e a0b7 b0bd 664a 2ebe
00000230: 2afc 87bd c425 b33d 1caa cc3d 551e bebd
00000240: 8b20 6dbe 3ece f8bd 12b7 b23e 222d 8cbe
00000250: f2d8 c13d 1622 b63e 3082 5e3d 8e47 c23c
00000260: 4f79 2c3d 5cb0 94be 217b 22be 8046 48be
00000270: d22d e73d 4a94 8bbd da9e 82bd 2441 f23d
00000280: 7657 fa3c ce4d d5bd 1e3d 183e dc5c 51be
00000290: fbdd c93d a5df a5be 5062 00be 8e52 913e
000002a0: b543 13bd 07db f3bd 3b8f 4b3e df70 dbbb
000002b0: fd05 a13d f787 b53d e90d 313d 0b5a 9b3d
000002c0: 5f60 64bd fe72 e7bd 694d d0bd 938b 853e
000002d0: 44a0 9fbd 13c3 abbc 352c 1dbe 2ed3 babd
000002e0: dea5 37be 1589 d8bd 205d 7bbe d759 33be
000002f0: 8555 603e 1f48 c6be 76f7 983d dbd2 6a3e
00000300: dda6 bbbd bc52 d83d 48c0 42be 9df8 f33d
00000310: ace4 5bbe db5f 89bd 4a32 e23b b668 163a
00000320: fc39 b13d 102d b2bd 424e 013d b9b3 dfbd
00000330: 2840 8e3d c12c 353e f99d 36be 28c0 88bd
00000340: 8f12 aabd 3acc 763c 90ab 06be 53e6 3ebe
00000350: f0b0 163e 0e6b 69be 157d 15bd dc4e a23e
00000360: b694 b5bd 98b0 7ebe bec3 4e3e e7f1 64be
00000370: 6f7f 013f f85b d4bd 6ea5 76be 9d74 b2be
00000380: 7237 b73e fa8c 5cbe 451a fa3e fb88 79bd
00000390: 7af3 bcbd 8f74 92be a6f6 a0be cc98 743e
000003a0: 2ac7 6a3d 520f 7cbe b1cf 64be 7438 56bd
000003b0: 3ddf dc3d f9d6 023e 0ca2 3e3e d0fb 9cbd
000003c0: b9a6 e9bd f7f8 0ebe 7681 2f3c 553c d5bd
000003d0: 1614 debd d52e 93bd 1fdd 4dbe 49c4 80bd
000003e0: 3e53 66be 8535 01be 5f83 f0bd 7a4b 98be
000003f0: 81f8 25be 5371 08be 6712 d13e ad03 38be

act_fc1.bias f4 [64]
0.041897994 0.18530336 -0.54023004 0.50225276 1.6760561 1.8191606 -0.04897496 -0.22688499
-0.16380738 -0.12533788 -0.050170824 0.8794436 0.080677465 1.0589039 -0.45554426 -0.066573136
0.583129 -0.1386811 -0.5589765 -0.80843556 -0.36537042 0.045036618 -0.7375183 -0.12730779
0.093220115 -0.5100091 2.6068068 -0.009622916 -0.040626027 -0.47718123 0.17852202 -0.17957804
-0.20604219 1.7782965 -0.4279273 -0.07636308 0.42931715 -0.5344071 -0.7797652 -0.14361915
-0.19569725 0.30924404 -0.3409065 -0.4945974 -0.23936789 -0.3728052 -0.1790049 -0.189031
0.8332223 -0.62246865 0.13644513 -0.44720846 0.013451505 -0.7096848 0.052003182 1.1512333
-0.20467013 -0.22533858 -0.27741328 0.07583553 -0.37414977 -0.25988364 -0.8811304 0.6171005
00000000: 3b9d 2b3d 2ac0 3d3e 844c 0abf a393 003f
00000010: 0289 d63f 41da e83f f899 48bd 8a54 68be
00000020: 1fbd 27be 9358 00be ec7f 4dbd 3723 613f
00000030: 3a3a a53d 2a8a 873f 193d e9be 7f57 88bd
00000040: f147 153f 6b02 0ebe 1519 0fbf a2f5 4ebf
00000050: d511 bbbe 5178 383d 00ce 3cbf f95c 02be
00000060: 30ea be3d f58f 02bf ecd5 2640 6fa9 1dbc
00000070: 7a67 26bd 1951 f4be 7ace 363e 4ee3 37be
00000080: b9fc 52be 389f e33f 4919 dbbe 3f64 9cbd
00000090: 75cf db3e e7ce 08bf b19e 47bf e610 13be
000000a0: dc64 48be 3c55 9e3e 4c8b aebe df3b fdbe
000000b0: db1c 75be 53e0 bebe 0f4d 37be 5891 41be
000000c0: 0f4e 553f 1b5a 1fbf 46b8 0b3e 82f8 e4be
000000d0: b463 5c3c e7ad 35bf 4a01 553d 9d5b 933f
000000e0: 0c95 51be 28bf 66be 1d09 8ebe a94f 9b3d
000000f0: 8f90 bfbe 780f 85be c391 61bf 4cfa 1d3f

act_fc2.weight f4 [36, 64]
0.5128061 -0.059393562 -0.020388115 -0.048028067 -0.56093246 -0.57464683 1.0581397 -0.052564703
0.20194566 -0.056827873 -0.06962052 -0.05893837 -0.050631687 0.022657592 -0.4187974 -0.2595267
-0.009343349 -0.098620996 0.14168686 0.86346024 0.056639187 -0.23997416 0.120317064 -0.22016522
-1.0133446 -0.24960046 0.53240454 -0.24129038 0.047102593 -0.0963157 -0.24554932 -0.35681918
-0.22927667 0.2352878 0.016159654 0.06717407 -0.031816535 -0.024121365 -0.009349911 -0.0020719818
-0.020928478 -0.25406092 -0.1298882 0.21794097 0.13591753 -0.51657516 -0.08671047 0.18881777
-0.14966169 0.2733474 0.088983566 0.21239108 -0.22998922 0.14212157 -0.29675272 0.32774323
0.027577901 0.2701956 -0.093391754 1.0678772 0.19837153 0.2152102 -0.22382568 0.09571694
0.1838768 -0.41380835 0.18569583 -0.020243054 -0.5343639 -0.2428439 -0.0477503 0.3025648
-0.06717996 0.58180505 -0.075278334 0.22177835 -0.32585123 -0.05298409 0.04733793 -0.20030546
0.04407869 0.35038015 -0.037669446 -0.19400044 -0.029117554 0.09299232 -0.12189958 0.10586793
-0.60386884 -0.2440989 0.24522872 -0.1795836 -0.1894165 -0.28127348 -0.0751844 -0.35211655
0.17645893 0.58608955 -0.10105693 -0.07861723 -0.49614584 0.26359028 0.48422083 0.33601844
0.22056334 0.05407341 -0.24365345 0.43356326 0.50149477 -0.36394405 -0.21477543 -0.12373439
-0.09005938 0.658773 0.0051040733 0.4465522 -0.46116254 -0.13839293 -0.24412887 -0.07481749
-0.33048114 0.082981676 -0.18496464 -0.3262684 0.036099862 -0.09697729 0.48523128 0.07145072
0.02839014 -0.40849042 0.13604003 -0.2267415 -0.45428652 -0.2665606 -0.3134716 -0.1181504
-0.094996296 -0.38289103 1.0117022 0.008840984 0.335262 -0.2741501 0.40113518 0.81790084
0.054875355 -0.13186552 -0.27841577 -0.012530716 -0.4872442 -0.119384006 0.3309709 -0.2348587
0.028942352 0.28410298 0.47822857 0.3443322 -0.367801 -0.11630771 -0.39080742 -0.30112094
0.8473639 -0.11532828 0.022041328 -0.48964295 0.4972427 -0.024690602 0.027334955 -0.25206873
0.3444882 -0.6421406 0.26070967 0.6990721 -0.44031614 -0.15753202 -0.26761693 -0.297618
0.07869224 -0.3444104 0.3698575 -0.13187364 -0.172699 0.29152307 0.52941287 -0.3504711
-0.1526365 0.26696327 0.065654315 0.13220936 -0.0520564 -0.33978856 -0.03310885 -0.11158788
-0.049879834 -0.3078854 0.12516539 0.14805788 -0.22078675 -0.10656416 -0.2124486 -0.055126294
0.29532003 0.63171047 0.3065056 -0.55953544 0.53906554 -0.15026161 -0.23402615 -0.6902883
-0.28019533 -0.14504036 -0.2976938 0.03224364 0.07626458 0.59631705 0.066362835 -0.6648626
0.62610865 -0.6379002 0.5234348 -0.455709 -0.82698625 0.0007000185 -0.58316404 0.44579664
-0.24772033 -0.46792912 0.019263418 -0.25260082 -0.12761873 0.2748047 -0.12849832 0.38662085
0.17958146 0.39896852 -0.20430985 0.01901531 0.58973086 0.15605254 -0.0731417 0.015520749
0.1915939 0.141125 -0.122904964 0.931652 0.52352566 0.3527394 -0.30053073 -0.40965658
-0.48881257 -0.13783287 -0.0897362 -0.4756954 0.48221052 -0.013698855 -0.09620863 0.0037468474
00000000: 4347 033f aa46 73bd fa04 a7bc 14b9 44bd
00000010: 4599 0fbf 0e1c 13bf 1f71 873f 164e 57bd
00000020: d8ca 4e3e 58c4 68bd 3495 8ebd 5c69 71bd
00000030: 2c63 4fbd 6a9c b93c 9d6c d6be afe0 84be
00000040: d914 19bc cef9 c9bd 5c16 113e bb0b 5d3f
00000050: 7efe 673d c9bb 75be cb68 f63d fe72 61be
00000060: 47b5 81bf 4397 7fbe aa4b 083f d314 77be
00000070: a6ee 403d 2a41 c5bd 4871 7bbe 01b1 b6be
00000080: 81c7 6abe 49ef 703e 4061 843c 8f92 893d
00000090: 0e52 02bd 2b9a c5bc 5e30 19bc 16ca 07bb
000000a0: 3372 abbc 4614 82be 6a01 05be eb2b 5f3e
000000b0: f72d 0b3e 453e 04bf 4295 b1bd 7259 413e
000000c0: ea40 19be 31f4 8b3e 043d b63d 0c7d 593e
000000d0: 4b82 6bbe 5188 113e f9ef 97be f6cd a73e
000000e0: 0deb e13c 1457 8a3e 2d44 bfbd 33b0 883f
000000f0: e821 4b3e 1060 5c3e 8f32 65be 3e07 c43d
00000100: 334a 3c3e b0de d3be 0c27 3e3e c3d4 a5bc
00000110: 13cc 08bf 12ac 78be d295 43bd c6e9 9a3e
00000120: a695 89bd 2df1 143f 872b 9abd dd19 633e
00000130: f9d5 a6be d805 59bd 6be5 413d e01c 4dbe
00000140: db8b 343d 0765 b33e 474b 1abd 0da8 46be
00000150: f087 eebc c272 be3d 7da6 f9bd 49d1 d83d
00000160: 2697 1abf 10f5 79be 3d1d 7b3e c3e4 37be
00000170: 66f6 41be 1403 90be 47fa 99bd 9f48 b4be
00000180: a6b1 343e f709 163f f0f6 cebd 1202 a1bd
00000190: d406 febe 4ef5 863e cbeb f73e 9c0a ac3e
000001a0: 5bdb 613e 147c 5d3d 4a80 79be 01fc dd3e
000001b0: f661 003f e056 babe 17ee 5bbe 7568 fdbd
000001c0: 0d71 b8bd 59a5 283f 1240 a73b 7da2 e43e
000001d0: 7f1d ecbe e0b6 0dbe ebfc 79be ea39 99bd
000001e0: d334 a9be 4cf2 a93d 5f67 3dbe a70c a7be
000001f0: 73dd 133d 089c c6bd 3c70 f83e c154 923d
00000200: 7092 e83c a825 d1be 144e 0b3e ec2e 68be
00000210: 3e98 e8be a27a 88be 597f a0be d6f8 f1bd
00000220: 6b8d c2bd 4b0a c4be 757f 813f c6d9 103c
00000230: 76a7 ab3e 675d 8cbe 9761 cd3e f361 513f
00000240: fbc4 603d c107 07be 838c 8ebe a24d 4dbc
00000250: 1278 f9be 9a7f f4bd 0575 a93e cd7e 70be
00000260: 8318 ed3c f275 913e 60da f43e 4f4c b03e
00000270: 6a50 bcbe bd32 eebd e917 c8be 862c 9abe
00000280: d7ec 583f 3c31 ecbd 0490 b43c 7bb2 fabe
00000290: 9896 fe3e f243 cabc 8eed df3c 270f 81be
000002a0: c260 b03e 5463 24bf bd7b 853e 64f6 323f
000002b0: 1e71 e1be 1350 21be 1605 89be 6361 98be
000002c0: 6629 a13d 8f56 b0be f65d bd3e e209 07be
000002d0: 02d8 30be 8342 953e 9a87 073f f370 b3be
000002e0: be4c 1cbe 69af 883e c575 863d e461 073e
000002f0: 1739 55bd c4f8 adbe 259d 07bd 3088 e4bd
00000300: cc4e 4cbd 28a3 9dbe 5b2b 003e 7c9c 173e
00000310: ec15 62be 4f3e dabd 208c 59be 1ccc 61bd
00000320: 3034 973e c7b7 213f 4dee 9c3e b73d 0fbf
00000330: 3300 0a3f 2ede 19be 8da4 6fbe bcb6 30bf
00000340: c375 8fbe 7685 14be 526b 98be e811 043d
00000350: 9b30 9c3d 3ca8 183f 3de9 873d 6f34 2abf
00000360: a848 203f 6d4d 23bf d3ff 053f b152 e9be
00000370: 5fb5 53bf 7281 373a 3d4a 15bf 753f e43e
00000380: 66aa 7dbe 6894 efbe 51ce 9d3c e554 81be
00000390: 7cae 02be 34b3 8c3e 1095 03be 2bf3 c53e
000003a0: 34e4 373e 9a45 cc3e 9a36 51be ffc5 9b3c
000003b0: 9af8 163f 3dcc 1f3e 51cb 95bd bd4a 7e3c
000003c0: 3131 443e 1283 103e 99b5 fbbd bf80 6e3f
000003d0: c705 063f 429a b43e 2adf 99be 82be d1be
000003e0: a445 fabe 0f24 0dbe 9dc7 b7bd 598e f3be
000003f0: 4ce4 f63e 2a71 60bc 0809 c5bd ab8d 753b

act_fc2.bias f4 [36]
-0.5588264 -0.49542502 -0.5379417 -0.44285908 -0.42026347 -0.36054933 -0.38421255 0.12029882
0.68976355 0.77746814 0.092460446 -0.40130243 -0.3452638 0.5063362 0.48980787 0.5163362
0.4259741 -0.23492156 -0.12752324 0.37018052 0.41687647 0.46935487 0.43072242 -0.3112446
-0.43551552 0.08933104 0.693917 0.5147923 0.14054534 -0.533095 -0.39316812 -0.53484553
-0.3581057 -0.35439172 -0.47366926 -0.4488568
00000000: 3f0f 0fbf 59a8 fdbe 8cb6 09bf 6dbe e2be
00000010: c62c d7be ec99 b8be 82b7 c4be 3a5f f63d
00000020: 5894 303f 2708 473f e75b bd3d 8377 cdbe
00000030: 6bc6 b0be 409f 013f 19c8 fa3e 9c2e 043f
00000040: 4719 da3e 478f 70be 7495 02be 4d88 bd3e
00000050: d570 d53e 484f f03e a687 dc3e 745b 9fbe
00000060: e4fb debe 31f3 b63d 8ba4 313f 6ec9 033f
00000070: 1eeb 0f3e ea78 08bf 554d c9be a3eb 08bf
00000080: a159 b7be d572 b5be c784 f2be 8fd0 e5be

val_fc1.weight f4 [64, 216]
-0.10814296 -0.045921423 0.14719458 0.08411912 0.009034177 0.1870361 -0.087685786 -0.15224388
0.115847446 -0.057096 0.015742088 0.21921194 -0.04193533 0.06259595 0.1264685 0.09855101
0.052993108 0.122893274 -0.078663796 -0.06418712 0.07391431 0.0121686375 -0.0513273 0.19106154
-0.027432501 -0.030218923 0.0045362324 0.21514946 0.117325015 -0.2160086 -0.12958705 -0.084729366
0.038033757 0.17296146 -0.0067290124 -0.015182412 -0.1279838 -0.19288372 0.10913838 -0.12248401
0.05124396 0.075679325 -0.102633506 -0.111643136 -0.036399953 -0.14319734 -0.0021190294 0.031613134
-0.12350001 -0.35416993 -0.023545764 -0.4899984 -0.108415306 0.16335307 -0.10368896 -0.08508254
0.14136791 -0.10998232 -0.07572786 0.12566596 -0.1381336 -0.12108448 0.03329822 0.049961634
-0.0476428 0.2744138 -0.08246421 -0.07078622 -0.00026151273 0.22523782 0.094451144 -0.14149718
-0.09972333 -0.02279548 -0.17586972 -0.12140833 -0.12218518 -0.11421482 -0.16839081 -0.19574301
-0.05517481 -0.43933865 -0.09952513 -0.0042149858 -0.14190875 -0.10522681 -0.12005734 -0.4661286
-0.25131577 0.20498668 -0.09540499 -0.19695696 -0.023741418 -0.5540961 -0.13827676 0.07171052
-0.08824213 -0.18610722 0.1158881 -0.18859582 -0.060879093 0.074846 -0.17838374 -0.03273228
-0.038125813 -0.046809997 -0.060559727 0.0494493 -0.0543479 -0.102896646 -0.0012611739 -0.039575316
-0.11242319 0.2795097 0.09815982 0.07331434 -0.26776445 -0.1413706 -0.114783 0.26752365
-0.023824302 -0.0891709 -0.2508028 -0.52092963 -0.31486735 0.003808251 -0.051820505 -0.049538296
0.04221391 -0.430154 -0.201264 0.25910053 -0.061676346 -0.2188887 -0.035813265 -0.34930408
-0.08749142 0.041377828 -0.03735626 0.011531139 -0.06146703 0.09966983 -0.0831816 0.050913684
0.089944646 -0.041445866 0.09927637 -0.16980274 -0.082860865 0.41455323 -0.005304128 -0.09290904
0.06591391 -0.029768521 0.0065786806 0.06942041 0.08240391 0.082677774 -0.07436129 -0.20205459
-0.048685495 0.2650628 -0.019292092 -0.027360596 -0.04848683 -0.1561091 -0.16034411 0.22027048
-0.041822564 -0.096678615 -0.0149639 -0.05550912 0.00805669 -0.07888345 0.018185198 -0.13909072
-0.019026907 -0.05946 -0.071178325 0.12926729 -0.060470343 -0.15184495 -0.02582307 0.07463827
-0.04039697 -0.20858096 0.052282706 -0.12074233 0.23229644 -0.21434718 0.07871397 0.4037797
-0.025870072 -0.03856137 0.09276165 0.06897454 0.028146103 0.08684177 -0.054475244 -0.15549935
0.08906177 -0.12290456 0.12193192 -0.09512401 0.013188228 -0.18463437 -0.015551499 -0.03868934
-0.05222979 0.03999379 -0.020336352 -0.21598086 0.0085583115 0.12890506 -0.011610518 0.06885258
-0.07849467 0.041656025 -0.22743487 -0.14915225 -0.03184863 -0.32042167 -0.043870274 0.2874892
0.00465667 0.18432927 0.1662061 -0.03386927 -0.041714214 0.04036803 0.07509558 -0.037768733
0.0011656489 0.09065324 0.022561235 -0.029509932 0.2629938 -0.031344768 0.15742724 0.46269804
0.10398486 0.09405245 0.029924788 -0.20853876 -0.11498648 0.18485442 0.011584783 -0.09007323
0.17125161 -0.37100548 -0.13220297 0.24303688 0.1099523 0.2569163 -0.2951513 -0.020241896
00000000: 0e7a ddbd 1a18 3cbd 2dba 163e a546 ac3d
00000010: 1604 143c 6486 3f3e 9b94 b3bd d2e5 1bbe
00000020: 6d41 ed3d 7fdd 69bd 8df5 803c 1879 603e
00000030: 61c4 2bbd 4e32 803d f580 013e 1dd5 c93d
00000040: 4d0f 593d 78af fb3d 7c1a a1bd 8974 83bd
00000050: 6360 973d f75e 473c 933c 52bd a3a5 433e
00000060: 20ba e0bc ad8d f7bc ada4 943b 2450 5c3e
00000070: 1948 f03d 5c31 5dbe 78b2 04be 9786 adbd
00000080: 49c9 1b3d cf1c 313e 0c7f dcbb a7bf 78bc
00000090: 2f0e 03be 4f83 45be f183 df3d e6d8 fabd
000000a0: 30e5 513d c3fd 9a3d 8431 d2bd 28a5 e4bd
000000b0: 1e18 15bd 53a2 12be 6adf 0abb c67c 013d
000000c0: 93ed fcbd c355 b5be 0ce3 c0bc 12e1 fabe
000000d0: d808 debd 0746 273e e15a d4bd c13f aebd
000000e0: c0c2 103e 693e e1bd 3517 9bbd 94ae 003e
000000f0: e572 0dbe 24fb f7bd b763 083d 92a4 4c3d
00000100: 1925 43bd f77f 8c3e ffe2 a8bd 5ef8 90bd
00000110: a51b 89b9 bea4 663e 9a6f c13d a3e4 10be
00000120: bf3b ccbd 96bd babc 3117 34be eea4 f8bd
00000130: 393c fabd 76e9 e9bd a46e 2cbe db70 48be
00000140: fbfe 61bd fff0 e0be d5d3 cbbd dd1d 8abb
00000150: 8750 11be 2781 d7bd 9fe0 f5bd 68a8 eebe
00000160: 76ac 80be 07e8 513e b163 c3bd 16af 49be
00000170: 5d7d c2bc 3ed9 0dbf 6c98 0dbe f7dc 923d
00000180: 4ab8 b4bd e492 3ebe bd56 ed3d 431f 41be
00000190: 5b5c 79bd dc48 993d 3aaa 36be 4912 06bd
000001a0: d029 1cbd d7bb 3fbd 7a0d 78bd 598b 4a3d
000001b0: e79b 5ebd 7abb d2bd f94d a5ba ba19 22bd
000001c0: 213e e6bd e51b 8f3e 0408 c93d d425 963d
000001d0: 6c18 89be 74c3 10be 5913 ebbd dcf8 883e
000001e0: 2f2b c3bc 3c9f b6bd 3969 80be a55b 05bf
000001f0: 4b36 a1be d993 793b bd41 54bd abe8 4abd
00000200: 7ee8 2c3d 253d dcbe 2618 4ebe d3a8 843e
00000210: 56a0 7cbd 5c24 60be eeb0 12bd fcd7 b2be
00000220: b42e b3bd cc7b 293d e102 19bd 1aed 3c3c
00000230: dac4 7bbd b21f cc3d 1d5b aabd de8a 503d
00000240: e634 b83d 24c3 29bd 6951 cb3d c5e0 2dbe
00000250: f5b2 a9bd 5240 d43e 40ce adbb 1847 bebd
00000260: dffd 863d 1ddd f3bc f991 d73b 4a2c 8e3d
00000270: 62c3 a83d f752 a93d bb4a 98bd 66e7 4ebe
00000280: 716a 47bd 50b6 873e 730a 9ebc 5423 e0bc
00000290: 209a 46bd 10db 1fbe 3f31 24be 968e 613e
000002a0: 234e 2bbd 70ff c5bd 252b 75bc 885d 63bd
000002b0: 3500 043c a58d a1bd 20f9 943c cc6d 0ebe
000002c0: 51de 9bbc 548c 73bd f1c5 91bd a55e 043e
000002d0: c0af 77bd 3e7d 1bbe e78a d3bc f3db 983d
000002e0: 4b77 25bd 3f96 55be 6426 563d c147 f7bd
000002f0: 1edf 6d3e d47d 5bbe ca34 a13d 36bc ce3e
00000300: 79ed d3bc 87f2 1dbd d2f9 bd3d 8642 8d3d
00000310: a892 e63c 19da b13d 6f21 5fbd 393b 1fbe
00000320: 0466 b63d 63b5 fbbd 71b7 f93d 61d0 c2bd
00000330: 7013 583c cb10 3dbe b7cb 7ebc b778 1ebd
00000340: e7ee 55bd 87d0 233d 6c98 a6bc 162a 5dbe
00000350: 2938 0c3c b0ff 033e 0b3a 3ebc 9502 8d3d
00000360: d0c1 a0bd 829f 2a3d b0e4 68be 5ebb 18be
00000370: b673 02bd 4f0e a4be 51b1 33bd c931 933e
00000380: fb96 983b d0c0 3c3e ef31 2a3e 81ba 0abd
00000390: 86dc 2abd f358 253d b6cb 993d 63b3 1abd
000003a0: b0c8 983a 68a8 b93d 57d2 b83c d0be f1bc
000003b0: 20a7 863e 5f63 00bd 9b34 213e c2e6 ec3e
000003c0: 04f6 d43d 929e c03d d424 f53c 2f8b 55be
000003d0: 087e ebbd 7a4a 3d3e 1ace 3d3c 5078 b8bd
000003e0: 955c 2f3e 6ef4 bdbe 3760 07be a9de 783e
000003f0: ac2e e13d 898a 833e 121e 97be 55d2 a5bc

val_fc1.bias f4 [64]
-0.88959414 -0.73578465 -0.25936934 -0.14226948 -0.4539997 -0.5296959 -0.37380707 -0.15152161
-0.21836734 -0.5188323 -2.3523698e-06 -0.56639177 -0.44363225 0.22534102 -0.4701231 -0.5403564
-0.2133001 -0.2929323 0.5633622 -0.046333592 -0.24688174 -0.48479095 -0.16429791 -0.268608
-0.1456013 -0.15511025 -0.31373897 -0.49930453 -0.28035384 0.08698003 -0.59250396 -1.0214483
0.08874661 -0.3643808 -0.883781 -0.4338374 -0.45589304 -0.2785975 -0.4709729 -0.32129544
-0.88872796 -0.67395854 -0.06696994 -0.11371547 -0.2721243 -0.039667692 -0.1847148 -0.008164343
-0.00036683574 -0.23515676 -0.59304494 -0.46535367 -0.31687173 -0.39657304 -0.27511314 -0.5597252
-0.06971158 -0.01753454 -0.24281023 -0.4779712 -0.31889978 -0.2963203 -0.35908976 0.2381482
00000000: 71bc 63bf 625c 3cbf 0fcc 84be 17af 11be
00000010: a672 e8be 279a 07bf a463 bfbe 7b28 1bbe
00000020: b09b 5fbe 32d2 04bf 68dd 1db6 0dff 10bf
00000030: c423 e3be ccbf 663e fab3 f0be cc54 0abf
00000040: 576b 5abe 39fb 95be 8138 103f 4bc8 3dbd
00000050: 91ce 7cbe 8536 f8be b63d 28be fd86 89be
00000060: 8218 15be 39d5 1ebe 65a2 a0be d8a4 ffbe
00000070: 8a8a 8fbe 9622 b23d 57ae 17bf d1be 82bf
00000080: c8c0 b53d 1f90 babe 793f 62bf f01f debe
00000090: d06a e9be 55a4 8ebe 5c23 f1be d680 a4be
000000a0: ad83 63bf 8c88 2cbf 8927 89bd a8e3 e8bd
000000b0: e053 8bbe 977a 22bd e025 3dbe bdc3 05bc
000000c0: dc53 c0b9 efcc 70be cbd1 17bf d642 eebe
000000d0: 033d a2be 9f0b cbbe a1db 8cbe 274a 0fbf
000000e0: f2c4 8ebd 98a4 8fbc 3fa3 78be a4b8 f4be
000000f0: d546 a3be 4bb7 97be 9dda b7be 1fdd 733e

val_fc2.weight f4 [1, 64]
0.4140335 0.6177822 0.4448555 0.44973576 0.2164303 -0.6269156 -0.26051685 0.3013713
-0.10300146 -0.52585125 0.0032139535 -0.48434412 0.21538626 0.14193407 -0.7083998 0.4319469
-0.055820808 -0.13326824 0.3761584 -0.30697903 0.057821378 0.23831211 -1.3600261 -0.33232313
0.047541857 -0.4335935 0.45113418 0.35100502 -0.3954752 -0.03505148 -0.46211076 0.57902306
0.4449434 0.3766088 -0.7296301 -0.7592791 -0.39543763 1.0376468 0.24405791 -0.17203712
0.52505517 0.5070384 0.5611047 0.20568146 0.27908227 -0.13283151 0.321103 -0.020485643
-0.0015460064 0.24417344 -0.626947 -0.6181684 -0.33532968 0.48681036 -0.97991896 0.41539046
0.84152645 0.117039576 0.30141076 0.6866545 0.10798181 0.1966204 -0.24085963 0.25735334
00000000: 33fc d33e f926 1e3f 1ac4 e33e c443 e63e
00000010: e89f 5d3e 8a7d 20bf 7762 85be 574d 9a3e
00000020: 6ef2 d2bd 309e 06bf 31a1 523b f4fb f7be
00000030: 378e 5c3e 2a57 113e b059 35bf 2528 dd3e
00000040: 5ca4 64bd 7877 08be d597 c03e 5b2c 9dbe
00000050: 1cd6 6c3d 1708 743e 5615 aebf 4226 aabe
00000060: 40bb 423d f8ff ddbe 0ffb e63e eeb6 b33e
00000070: ba7b cabe 2492 0fbd c899 ecbe db3a 143f
00000080: 9fcf e33e ded2 c03e 0ac9 3abf 1d60 42bf
00000090: cd76 cabe 9cd1 843f 51ea 793e 802a 30be
000000a0: 046a 063f 45cd 013f 8fa4 0f3f 299e 523e
000000b0: dfe3 8e3e fc04 08be 9d67 a43e 82d1 a7bc
000000c0: 5ea3 caba 9a08 7a3e 997f 20bf 4940 1ebf
000000d0: 55b0 abbe 353f f93e f8db 7abf 0fae d43e
000000e0: 476e 573f 72b2 ef3d 8352 9a3e 97c8 2f3f
000000f0: 9125 dd3d dc56 493e e8a3 76be d1c3 833e
