Server/src/ml/models/1aaa41fa-526e-47c6-916c-07906127df3c/curr.model (torch, 217732 bytes, 10 tensors)

layers.0.lin.weight f4 [6, 4]
000000 8e 5d 94 3f fb c9 86 bf 2b 22 5c 3e 0b 04 21 3e
       1.1591051 -1.053039 0.21497409 0.15724199
000010 5c 40 93 3f 9e c3 00 bf 72 63 98 3e cd f1 dd 3e
       1.1504016 -0.5029849 0.2976337 0.43348542
000020 3c c5 d4 bf 9f 5b d3 3f 80 1d 8b be ac 11 be 3e
       -1.6622691 1.6512336 -0.27170944 0.37122858
000030 4f 56 99 3f 17 ff c5 3d be 23 10 3c 0a 2f cd be
       1.1979464 0.09667795 0.008797584 -0.4007495
000040 ae 6e 83 3f a7 fc de 3f af 99 be 3e c9 87 36 3e
       1.0268152 1.7420853 0.37226626 0.17825235
000050 b5 21 1c 3f 57 18 99 be 03 33 af 3f 17 a7 56 be
       0.6098893 -0.29901382 1.3687443 -0.20962177

layers.2.lin.weight f4 [6, 6]
000000 85 a3 ad bf d8 41 a6 be 7e c7 19 3f 50 4e 7f be
       -1.3565527 -0.3247211 0.60070026 -0.24932218
000010 2b 70 5e 3f e6 3b 2f bf b6 70 77 3e 14 84 26 bd
       0.86889905 -0.6845077 0.2416409 -0.040653303
000020 b7 56 19 be f2 b6 52 3e 46 c2 63 bf 50 3d 00 3f
       -0.14974485 0.205776 -0.8896831 0.50093555
000030 73 27 94 3e 93 21 06 3f b8 80 f5 bf 15 88 9c 3d
       0.28936347 0.5239498 -1.9179907 0.07643143
000040 73 9b 84 3e 8d e7 88 bf 73 f4 d5 3e 9e 0a 20 3f
       0.25899848 -1.0695664 0.41788062 0.625162
000050 54 0d 0e 3f 41 23 eb bf b7 96 9f be a5 e6 81 be
       0.5548909 -1.8370134 -0.31169674 -0.2537128
000060 67 2f 2f bf c2 e2 cc bf 83 fb 19 3f f4 51 b8 bd
       -0.68431705 -1.6006701 0.601494 -0.09000006
000070 c7 47 b7 3e cd b9 58 3f dd 4a 69 3d 3d ec 72 3e
       0.3579695 0.8465851 0.05695616 0.2372293
000080 64 70 72 bf fe aa 9b 3e b7 3d 93 3f 9a e3 72 3d
       -0.94702744 0.30403894 1.1503209 0.05929909

layers.4.lin.weight f4 [6, 6]
000000 8f 10 8d be 0f d6 fc be f2 55 57 3f d2 cd 6b be
       -0.27551696 -0.49382064 0.8411552 -0.23027733
000010 4c fd 89 be d0 fd 3c 3f 3e 28 dc bf f6 fa e6 3e
       -0.26951063 0.7382479 -1.7199781 0.45113343
000020 96 08 85 3f cb be f4 bf 8a 15 b0 bf af 1d 1a 3f
       1.0393245 -1.9120725 -1.3756573 0.60201544
000030 19 62 82 3f eb 87 eb be 8b af 95 be 31 66 12 bf
       1.0186187 -0.46002135 -0.2923549 -0.5718718
000040 14 4e 30 bd 1e 8c 73 3f 5d dc d9 be 7f 41 fd 3e
       -0.04304321 0.95135677 -0.42550936 0.49464032
000050 b2 5d 2a bf 48 7f b1 bf 06 9f 07 bf 30 36 2d 3f
       -0.6654922 -1.3866968 -0.52977026 0.6766081
000060 ef 45 39 3f 0d e7 f9 37 c7 e3 2a be 44 df 49 3e
       0.72372335 2.9790705e-05 -0.16688453 0.19714075
000070 e8 2c 71 3e 62 b4 c5 bf 05 28 15 bf 5c 22 b9 be
       0.23552287 -1.5445673 -0.5826419 -0.36159027
000080 bb d4 73 3f b0 1b 82 3e 60 71 dd 3f 10 ee f7 bd
       0.95246476 0.2541175 1.7300224 -0.12105954

act_fc1.weight f4 [64, 384]
000000 a7 6e 74 be c8 d0 9e bd 11 64 19 3c d4 80 32 3e
       -0.23870336 -0.077546656 0.009362237 0.17431957
000010 31 35 08 3b 6e 65 8f be 38 51 26 be 99 f6 8b be
       0.0020783658 -0.28007072 -0.1624192 -0.27336577
000020 8b 7a 52 be 78 e2 0b be 48 96 39 be a5 ab 82 3e
       -0.20554559 -0.1366061 -0.18123734 0.2552158
000030 7e a0 3f be 9c 2b 04 be 47 f8 84 3d 86 f6 58 bd
       -0.18713567 -0.1290726 0.06492668 -0.052969478
000040 a5 ca 74 bd c1 5b ab bd dc 4d 2a 3d ba de 85 3d
       -0.05976357 -0.0836711 0.04157816 0.06536622
000050 7f f7 e6 3c 23 7a b0 bc 52 d4 00 3c 33 f2 83 3e
       0.028194187 -0.021542614 0.007863121 0.2577072
000060 b8 fd 71 3d d0 40 f1 3d 7b 7e 86 bd 83 f8 bc bc
       0.059079856 0.1177994 -0.06567093 -0.023067718
000070 73 11 2f 3d af 2c 08 bd 89 d5 62 3d c2 9f 64 3c
       0.04274125 -0.03324574 0.055379424 0.013954105
000080 c1 e6 ef bd 1c 28 e6 3d 39 e5 cb 3d f7 f4 b6 bc
       -0.11713935 0.11238119 0.0995583 -0.022333605
000090 e9 a4 93 bc f3 65 ad 3b 43 1d c6 3d 32 e2 2b bb
       -0.018022971 0.0052916943 0.0967355 -0.0026227352
0000a0 56 aa 14 3d 23 87 80 3c 10 cc 7e bd 6b 8d a7 3d
       0.036295258 0.015689438 -0.062206328 0.0818127
0000b0 63 05 a8 3d 2d 34 9a 3d f0 e9 05 be 6d 87 55 bd
       0.082041524 0.07529483 -0.13077521 -0.052131105
0000c0 a5 bd 18 be 6e ff 84 be 44 10 0f be 64 85 2b be
       -0.14916094 -0.25976127 -0.13971049 -0.16750103
0000d0 58 6f fa bd fb f7 81 3e 40 99 ee bd 4f ae af bd
       -0.122282684 0.25384507 -0.11650324 -0.085781686
0000e0 c0 66 50 3d f6 ed 94 bd 41 89 d0 3d 29 22 c9 bd
       0.05087924 -0.0727195 0.10182429 -0.09820969
0000f0 69 22 d7 bc 54 1f 33 be 81 34 83 3c 52 b5 a5 bd
       -0.026261525 -0.1749242 0.016016247 -0.08091225
000100 45 20 a5 3d ed c9 1f 3f ca 66 39 be 69 86 ce 3d
       0.080627955 0.6241749 -0.18105617 0.100842305
000110 8e 68 cd 3c 81 69 76 bc 6c 9d cd 3b 0f 20 11 be
       0.02507427 -0.0150398025 0.0062748697 -0.14172386
000120 22 4e e8 be ee b2 40 be 99 08 10 3e d4 38 0a 3e
       -0.4537211 -0.18818256 0.1406578 0.1349824
000130 5c 16 ec bc b0 8f 1d be 62 09 5b 3d 42 2e 76 3e
       -0.028819256 -0.15386844 0.053475745 0.24041083
000140 d9 58 59 be 71 7f 16 3e 1f cf c0 3d 30 a6 ac bd
       -0.21225299 0.14697053 0.09414505 -0.08430135
000150 43 d4 04 be 16 4d 30 3e b2 2e 38 be 43 88 4d 3e
       -0.12971596 0.17216906 -0.17986563 0.20071511
000160 27 09 dc 3d af 07 0f be a9 73 58 bc 77 9b 15 3d
       0.10743933 -0.13967775 -0.013211169 0.036525216
000170 ef 51 f8 3d 1d ee 83 3c de 80 d2 bd f1 8f b3 3d
       0.121250026 0.016104752 -0.10278486 0.08767689
000180 30 59 a2 bd 89 b3 12 bd 40 09 92 3d 7f ee 03 be
       -0.079271674 -0.03581575 0.071306705 -0.12883948
000190 d8 29 c4 3d 78 82 d8 bd 3d 4e bc bc 7b 6a 4a be
       0.095782936 -0.1057176 -0.022986526 -0.19767182
0001a0 d2 08 a3 bc 6d cf ac bd 50 ea 02 bd bd e4 1e 3f
       -0.019901667 -0.08438001 -0.03196174 0.62067777
0001b0 c7 07 5d be 1d a7 3f 3d b5 48 74 3c 09 38 bd bd
       -0.21584998 0.04679023 0.014909913 -0.092392035
0001c0 ac f7 0f be a0 30 34 be 0a c5 24 3e a4 95 78 be
       -0.14059323 -0.17596674 0.1609079 -0.24275833
0001d0 70 e6 44 bd 15 da fb bd e8 c5 25 be 78 92 19 3f
       -0.048071325 -0.12297455 -0.16188776 0.5998912
0001e0 94 85 01 be be 57 20 3e a9 1c e8 bc da d1 77 3e
       -0.12648612 0.15658471 -0.028333979 0.24201146
0001f0 e5 aa f7 bc 23 96 ae be c2 77 07 bf 16 b1 60 be
       -0.030232856 -0.3409892 -0.5291711 -0.21942553
000200 f6 95 30 3e c9 c9 94 3e 05 43 09 3c 73 de b0 bd
       0.17244706 0.290602 0.008377795 -0.08636179
000210 7e 81 ec 3c 31 8c 74 3e 81 e8 cd bd 26 68 83 3d
       0.02887034 0.23881604 -0.10054112 0.06416349
000220 0c 36 14 3e 80 c6 8c 3c 5c d0 ab 3b 45 a2 e4 bd
       0.14473742 0.017184496 0.005243344 -0.11163763
000230 e7 74 ef bd ae 34 08 bd 84 e3 f8 3c 29 6a c5 bd
       -0.11692219 -0.033253364 0.030381925 -0.09639389
000240 d7 f6 61 bd 5c 14 ff 3c 6d 24 1e 3d f5 63 c4 3d
       -0.055167045 0.031137638 0.038608957 0.09589378
000250 54 dc cf 3c 28 ee ee 3d c9 14 23 be a7 65 54 3d
       0.025373615 0.116665184 -0.15925898 0.051854756
000260 4a a9 56 3c e1 73 a1 bc 72 bd db bb 73 09 0d be
       0.013101885 -0.019708576 -0.0067059333 -0.13773136
000270 c3 45 37 3e 99 a2 d3 be 13 e8 5a bd ff 0e e9 bd
       0.17897706 -0.4133499 -0.05344398 -0.113798134
000280 be 02 e8 bd e2 3e 1d 3f 22 b0 a9 3d ee 74 a0 3e
       -0.11328648 0.61424077 0.08285548 0.3133921
000290 91 a0 bd ba 41 60 73 3e 3d eb 73 be 23 8b bd be
       -0.0014467408 0.23767187 -0.23820205 -0.37020215
0002a0 24 88 a5 3e 49 90 bc be 1d bf e3 bd 22 1e 0c be
       0.3233043 -0.3682883 -0.11120436 -0.1368337
0002b0 f6 8a 96 bd 0d 91 46 3f 90 1c 45 be ed 61 6e 3e
       -0.073507234 0.7756508 -0.19249177 0.23279543
0002c0 2c ca 0f 3d 07 d0 66 3e 6f 28 8b bc 2b ab a4 be
       0.035104915 0.22540294 -0.016987054 -0.3216184
0002d0 e8 10 ca be 86 53 1a be b9 2a e8 3d 53 fb ae 3d
       -0.39466023 -0.15070924 0.11336274 0.0854403
0002e0 e3 e6 5d 3a fe 62 9f bd d6 be d9 bc 99 af f5 3d
       0.0008464886 -0.07782553 -0.026580255 0.11996383
0002f0 be 68 c6 bd a3 c4 90 bd 3b 92 7a 3d 22 a9 09 bd
       -0.09687947 -0.070687555 0.061174612 -0.033608563
000300 6a 2e 6a bd 4b 07 e0 3d 7c 24 1e be fc e8 93 bd
       -0.05717317 0.10938891 -0.15443605 -0.072221726
000310 e3 5e 01 3d 43 64 6a bd 57 83 d9 be be fe fc bd
       0.03158463 -0.057224523 -0.42483017 -0.12353276
000320 4c d8 f1 3d c0 0a 5f 3e ea 24 15 be 2a 53 69 bd
       0.118088335 0.21781445 -0.14564863 -0.056964077
000330 18 f0 f2 bd 3f 6b 79 3e 75 ef 7c 3d 81 98 5c 3e
       -0.118622005 0.24357317 0.0617518 0.2154255
000340 68 4a 05 bd 86 5b b0 be 22 bd 9c 3e 2b dd cb be
       -0.032541662 -0.34444827 0.30613047 -0.39817175
000350 d1 04 fc bd 93 ea 18 be 65 ad 0e 3d a3 3e 38 3f
       -0.12305606 -0.14933233 0.03483333 0.71970576
000360 13 83 56 ba af 3c 82 3e 6b 8f b2 bc bb a8 a1 3e
       -0.0008182984 0.25436923 -0.021796903 0.31574044
000370 b8 fe 2c be d6 e0 b2 be 03 9a 20 3e f9 01 8b be
       -0.16894042 -0.3493716 0.15683751 -0.27149943
000380 a0 6f cd bd e6 14 2b be f5 e4 23 be f8 c5 2d 3f
       -0.100310564 -0.16707191 -0.16005309 0.678802
000390 26 71 45 be 48 d2 a0 3d 64 8c 7e bd 4a e0 0e bd
       -0.19281444 0.07852608 -0.062145606 -0.034881867
0003a0 fb 76 1b bd f5 d8 ea bd 49 c3 46 3c de 27 7b 3c
       -0.037955265 -0.114671625 0.012131521 0.015329329
0003b0 2e da 20 bc b5 d1 48 3c cb b6 f3 3c c8 9f a1 3d
       -0.009817643 0.012257029 0.029750248 0.07891804
0003c0 0f 71 5e bd 46 55 8d 3c 8c b9 47 be e4 fd 79 3d
       -0.05430704 0.017252576 -0.19504374 0.061033145
0003d0 3b e6 1e bd eb 9d b7 bd f8 74 1b 3c e6 2a 53 3e
       -0.038793784 -0.08965667 0.009488337 0.20621833
0003e0 0c 5b 2b be 59 3d 53 3d ef 18 b7 3d 34 bb 40 bd
       -0.1673395 0.051572178 0.089403026 -0.04705353
0003f0 79 d9 ff be 61 e6 81 be ae 02 34 3e 63 43 ae 3e
       -0.49970606 -0.25371078 0.17579147 0.34035787

act_fc1.bias f4 [64]
000000 7b 7f 62 3f 46 61 0a ba 58 b4 f5 3d 2a 91 4e bf
       0.8847577 -0.0005278777 0.119972885 -0.8069025
000010 4b 04 c6 b9 fc 5b 15 3d 32 7f b9 3e 55 96 05 40
       -0.000377687 0.036464676 0.36229855 2.0873005
000020 38 df e8 bb cd fd 93 3e fb ef dc 3f 68 ba cb 3e
       -0.007106688 0.28904572 1.7260736 0.39790654
000030 35 83 86 3f c0 65 53 bc c3 6b 99 bd a7 27 62 be
       1.0508791 -0.012902677 -0.07491257 -0.22085439
000040 c0 13 4f b1 78 ee b0 3f ec 76 85 3e 96 7f 25 bd
       -3.013369e-09 1.3822775 0.26067293 -0.04040488
000050 85 f8 14 b9 88 4e 23 3f d5 52 b6 b9 b5 94 2d b7
       -0.0001420696 0.63791704 -0.0003477546 -1.0346227e-05
000060 4b db 2d 3f 88 e1 d6 3e 34 ae ed 3d 03 a1 d8 3e
       0.6791274 0.41968942 0.11605492 0.42310342
000070 b4 3f e2 ba eb f6 bd bb e5 e6 a8 3f 50 bb 56 b8
       -0.0017261417 -0.005797257 1.3195463 -5.1196024e-05
000080 8a c2 0b be 7c 9e 1d 3f 7b d7 ca bb 16 59 a3 3e
       -0.1364843 0.6156995 -0.006190238 0.31903905
000090 f5 b1 a7 3f 0c 82 12 b7 73 8f 8e 3f d1 a5 95 bd
       1.3101183 -8.732557e-06 1.1137527 -0.073070176
0000a0 3b 7b cd 3e 34 7d c6 bf 2f f4 9e a7 c2 bc 52 b7
       0.4013308 -1.5506959 -4.4118554e-15 -1.2560924e-05
0000b0 f4 e1 a0 a7 3e ef e8 3e fb bb 7c bd 94 a9 97 bd
       -4.46539e-15 0.45495027 -0.06170271 -0.07405391
0000c0 f7 65 0e 40 da 40 3d 3f e8 3e ac 3d ba 95 ce 3e
       2.2249734 0.7392708 0.08410436 0.40348607
0000d0 1b 6f 41 3f fb 6f 9d b7 28 ac 5e 3f 96 17 71 3f
       0.7556016 -1.8768003e-05 0.8698144 0.94176614
0000e0 be 9d 9d 3f c8 ff 83 aa 27 d1 04 bc e2 ca 56 b9
       1.2313764 -2.3447758e-13 -0.008106506 -0.0002048421
0000f0 22 8b 89 b4 fe a7 91 3f c3 1a 40 bc a9 36 0c 3f
       -2.561947e-07 1.1379392 -0.0117251305 0.54770905

act_fc2.weight f4 [64, 64]
000000 2e 14 5e 3f ce 5c bc af 4e 7a fa 3e ac 85 b9 be
       0.8674954 -3.4262942e-10 0.48921436 -0.36234796
000010 8c c2 7b bc b1 72 ea 3b cf 3a cd 3c 6d b3 a2 bd
       -0.015366208 0.0071547856 0.025052456 -0.07944379
000020 ec 03 29 3b 5f c9 a6 3d b7 ee a1 3d fc ce 60 3e
       0.002578969 0.08143877 0.07906859 0.21953958
000030 fe fe dc be ed 7f a8 b9 88 00 97 bc 58 40 90 3e
       -0.43163294 -0.0003213877 -0.01843287 0.2817409
000040 51 a2 fb a9 72 53 83 be fa 6a 00 bd 07 ff ff 3c
       -1.11747966e-13 -0.256496 -0.03135202 0.031249536
000050 0b b9 8a 37 16 6c fb 3e 8f 79 b6 3b 7b a5 7e ba
       1.653705e-05 0.491059 0.00556869 -0.00097139896
000060 32 d2 0e be ef 2d 94 be ad e1 ca 3d 55 ba c7 3e
       -0.1394737 -0.28941295 0.099063255 0.39009348
000070 be 43 9c 36 8e ad 89 39 da 09 df 3e f6 6f ce 31
       4.6570485e-06 0.00026259985 0.43562204 6.0081176e-09
000080 9d d3 7e 3e db 4e 36 bd d1 64 a4 3b 70 09 fd bd
       0.24885412 -0.044508796 0.005016901 -0.12355316
000090 63 0d 9c be b9 82 13 37 37 d7 6a 3d 2a 55 a0 3d
       -0.30478963 8.792319e-06 0.05733415 0.07828744
0000a0 bc f6 bf 3e 10 b1 06 3d e8 4e 0e 00 c8 85 1e ae
       0.3749293 0.032883704 1.314003e-39 -3.6043862e-11
0000b0 a6 9d b8 09 bb 9f d5 3e 7b a4 d0 bc 2c 59 0c 3d
       4.444464e-33 0.41723427 -0.025469055 0.03426473
0000c0 b3 4f 87 be b8 55 1b bf b5 99 f5 3e 92 07 83 3d
       -0.26427993 -0.6067767 0.47968832 0.06397928
0000d0 2f 76 0b bf ad f2 a2 39 7e 43 c3 bc be 97 4b 3f
       -0.5447721 0.00031079855 -0.023835894 0.79528415
0000e0 d9 0d 6d 3e b8 25 8b 9d 7e d6 a4 ba 19 ea 1f 3b
       0.23149814 -3.6831994e-21 -0.0012576131 0.0024401008
0000f0 a4 5b dd 32 78 ea 92 3c 0f c7 ab b9 e8 2d ad be
       2.576946e-08 0.017934069 -0.00032763972 -0.33824086
000100 25 02 d2 3d 36 d4 17 a7 0a cd 95 be 1f a4 4d 3d
       0.10254315 -2.10705e-15 -0.29257995 0.050205346
000110 10 d2 ee ac 48 4e 7d 3e 3b 2f 6c bd d8 ca 9b 3e
       -6.7876885e-12 0.24736893 -0.05766223 0.30428195
000120 ab f1 03 bb 1a aa 36 3e 6a 5a a1 be af 19 ea be
       -0.002013306 0.17838326 -0.31514293 -0.4572272
000130 08 fc ac be 7f 2e c0 b9 32 c0 7c 3d 76 10 e8 3d
       -0.33786035 -0.00036655736 0.06170673 0.11331265
000140 23 f5 d0 ae e8 fa 76 3e a8 4d 28 be e6 fb 1c 3a
       -9.50229e-11 0.2411915 -0.16435874 0.00059884635
000150 2a 92 2d 3a 03 66 8e ba b9 b1 dd 39 87 1d d1 bb
       0.00066212064 -0.0010864142 0.00042284818 -0.0063816938
000160 b1 23 ac bd 6b 68 95 bd da c1 a5 bd 6f c7 cb be
       -0.08405245 -0.07295307 -0.08093615 -0.39800593
000170 47 8d 9b b2 b2 89 b5 b4 5a 61 30 3d ba b1 aa ac
       -1.810862e-08 -3.3814064e-07 0.04306159 -4.851422e-12
000180 8c 17 ef 3d c0 c5 21 3f 8b 1f bc ba 2f 55 49 3e
       0.11674413 0.6319237 -0.0014352662 0.19661401
000190 c7 41 03 3e 32 06 bf 3b c3 8f de 3e fd 75 b0 bc
       0.12818061 0.005829596 0.43469056 -0.021540636
0001a0 72 ef b9 be d2 20 9f 3e fa 17 9d 9a bc 13 0b aa
       -0.36315495 0.31079727 -6.4972414e-23 -1.2352527e-13
0001b0 57 b4 91 28 54 29 3c 3f 16 c9 a8 bd 0e 12 ae 3d
       1.6176444e-14 0.7350056 -0.08241479 0.084995374
0001c0 9e 38 1a 3e 72 f6 05 3d 54 fc 58 bc 46 80 02 3c
       0.1506066 0.03270573 -0.013243753 0.007965153
0001d0 e6 55 75 be 73 2a f0 b7 0f 08 0d 3e 21 c9 a3 3e
       -0.23958549 -2.8629996e-05 0.13772605 0.31989387
0001e0 52 0d 98 3d e0 e4 21 32 1b 3d 89 ba b1 ed 26 ba
       0.07424416 9.423474e-09 -0.0010470481 -0.0006367816
0001f0 32 5a 2c b2 93 85 98 3d ff 4f 3c b9 bf 8a 7f be
       -1.0032226e-08 0.07447352 -0.00017958878 -0.24955271
000200 16 53 01 bd 4a e9 b1 98 be 4d d5 be b8 52 ac 3e
       -0.031573378 -4.598899e-24 -0.41660875 0.3365686
000210 ec dd 06 bb 22 2b 83 3d 34 db 2b 3d 73 1c 61 3e
       -0.0020579053 0.06404711 0.041957095 0.21983509
000220 9c 33 20 ba e2 2c 01 be 32 37 9c be 52 46 81 39
       -0.0006111206 -0.12614778 -0.3051086 0.0002465719
000230 e9 4e 99 bd be ac 27 bc bc 1f 03 3e fa a3 ea 3e
       -0.07485754 -0.010234056 0.12805074 0.4582823
000240 f0 9c 55 a2 33 dc 27 3e 32 d0 c5 bb 32 5c 38 bb
       -2.8949965e-18 0.16392593 -0.0060367817 -0.0028131125
000250 d0 99 9f 36 31 26 ae 3e 5c ce f4 37 2c 3c e1 a1
       4.7564754e-06 0.34013513 2.918316e-05 -1.526252e-18
000260 5c 11 df bc ed e1 a5 bd c0 a6 a2 3c af 77 e0 3d
       -0.027229957 -0.080997325 0.019854903 0.10960328
000270 1a 27 a9 b3 92 6a a5 38 e2 f8 92 be 5e f4 aa 31
       -7.876788e-08 7.8876634e-05 -0.28705508 4.9754325e-09
000280 8e 81 ed 3d 8e 5b 55 bd 33 8c 41 3c 03 d1 e1 be
       0.11596976 -0.052089266 0.011813211 -0.44104776
000290 d5 e4 a8 3d 03 20 a0 3b 99 6e 77 3d 3b bb 7b bc
       0.08246771 0.0048866286 0.06040821 -0.015364463
0002a0 7a b8 09 be fa 6e 87 3e 47 03 16 00 52 a5 06 b2
       -0.13449278 0.26451856 2.021557e-39 -7.837416e-09
0002b0 e5 8a 9b 22 36 f1 4a be ee d5 6b bd 9a 6d 02 3e
       4.2159894e-18 -0.19818577 -0.057577066 0.12737122
0002c0 65 30 4d 3e 9f f6 86 bc 56 86 3e be a4 f3 99 bd
       0.20037992 -0.01647502 -0.18605933 -0.07517174
0002d0 cf 33 84 be d4 65 95 38 40 38 62 3e 23 19 ab 3d
       -0.25820777 7.1238406e-05 0.2209177 0.08354404
0002e0 34 80 a4 3d 2f 5b 5d a0 ad 11 bb 3c 69 8c 1c b8
       0.08032265 -1.8749598e-19 0.022835577 -3.7324065e-05
0002f0 75 9c 04 33 8d 88 6e 3d 36 5d eb bc 78 3b 00 bd
       3.0875942e-08 0.058235694 -0.02873097 -0.031306714
000300 d0 cf 8e 3d 12 b4 f0 b0 01 ef 36 3b 16 a3 e8 3e
       0.06973231 -1.7513477e-09 0.0027913454 0.45436925
000310 17 d6 76 bb 8c ae aa 3c c5 28 ec 3c fe 7d 2a 3e
       -0.0037664229 0.020835184 0.028828034 0.16649625
000320 7e 0a ed 3d ec f3 b4 bd 40 a0 49 be a7 f0 b7 be
       0.11574267 -0.08835587 -0.19690037 -0.3592579
000330 4a fb 46 be 7c fb a3 bb 56 75 36 3d 01 a7 8e 3d
       -0.19431797 -0.0050043445 0.044545494 0.06965447
000340 c0 ed 95 af e5 29 b9 3e 2c 31 a7 3c 96 cf 34 3d
       -2.7271874e-10 0.36164775 0.02040919 0.044143282
000350 ec a2 f3 b9 9d 03 c8 be 7a e5 b2 3a 26 4b 87 bb
       -0.00046469958 -0.39065257 0.0013648712 -0.0041288314
000360 4c a5 df bc 80 75 35 be 5c 3c 99 bd cb a1 45 3e
       -0.0273005 -0.17720604 -0.07482216 0.193
000370 cb 7c b2 3a 65 b5 82 38 c2 86 ea bd ca 68 65 ae
       0.0013617513 6.2326704e-05 -0.11451484 -5.2161643e-11
000380 bd ab 44 3d 7d 46 74 3e 2b 7d 41 3a 54 7c d8 bc
       0.048015345 0.23855014 0.0007381017 -0.026426472
000390 47 a5 11 bf 56 cc 89 38 6a b6 38 3e c8 50 07 bd
       -0.5689282 6.5707296e-05 0.18038335 -0.033036023
0003a0 e2 45 7c be 94 87 8e 3e cf f2 54 22 f4 14 56 b5
       -0.24636033 0.27837813 2.88599e-18 -7.9751703e-07
0003b0 4f 18 c9 2e 5a 34 b8 bd d6 52 97 bd ce 42 af bd
       9.14474e-11 -0.0899436 -0.073888466 -0.08557664
0003c0 3e da cf 3e 4a ef 45 3c 20 0b 5a bc 25 30 8f be
       0.40596193 0.012080977 -0.0133083165 -0.2796642
0003d0 c3 a1 40 be 1b 13 b8 3a 7d 1f bf 3d a2 91 ac bb
       -0.18811707 0.001404378 0.09332178 -0.005266384
0003e0 4e 46 02 3e 3e 38 b0 ad 89 a6 d4 3c 30 18 06 bb
       0.12722132 -2.003386e-11 0.025958316 -0.0020461194
0003f0 78 58 e0 b2 a5 6e 44 3d 91 88 71 bb be ba 4a be
       -2.6117263e-08 0.04795708 -0.0036855082 -0.19797799

act_fc2.bias f4 [64]
000000 89 89 8c bc ba 9d 5d 3e 49 f7 21 3c 62 a3 63 be
       -0.017155426 0.21642199 0.0098856175 -0.22230294
000010 aa c1 84 be c8 c6 4a 3c b4 8c 3f 3e 76 dc dc bd
       -0.25929004 0.012376495 0.18706018 -0.10784237
000020 9c 1d 42 3e 3f 40 29 be f1 1b 0c be 92 ac 75 3e
       0.18956608 -0.16528414 -0.13682534 0.23991612
000030 a1 e2 5e 3e be 43 15 bc dc 9f a1 be de 2e 22 3e
       0.2176614 -0.009110389 -0.31567276 0.15838191
000040 ba ea ea 3d 84 49 7a be 41 67 40 3e b7 a7 c6 3e
       0.11470552 -0.24442106 0.18789388 0.3879983
000050 0e ce 34 3e aa d4 25 be 72 5a 9a 3d 50 13 94 ba
       0.17656729 -0.16194406 0.07536782 -0.001129726
000060 87 0f 79 be b9 28 67 3e cc c8 9b 3d f2 a1 d3 3e
       -0.2432233 0.22574128 0.07606658 0.41334492
000070 87 22 f5 3e 92 3d d3 3d dd 76 e1 3d 0e 38 bb bd
       0.47877905 0.10314478 0.110089995 -0.09141551
000080 69 f1 0c bd 5d 1f 9c 3c 64 75 3c 3e fe 41 e7 3e
       -0.034409914 0.019057924 0.18404156 0.45167536
000090 ae 4c f0 3e 07 67 9a 3d 83 00 77 3e d7 c9 74 be
       0.46933502 0.07539182 0.24121289 -0.23905121
0000a0 54 82 fa 3c 68 49 bc 3b 8b ab 24 be be a9 65 3e
       0.030579723 0.0057460554 -0.16081063 0.22428033
0000b0 d8 7a c9 3e 19 b2 35 3e 24 68 5c be b0 a6 42 3d
       0.39351535 0.1774372 -0.21524101 0.047522247
0000c0 2e 67 48 3e 32 a6 9b be 9f 11 47 3d a9 2a 80 3e
       0.1957061 -0.30400234 0.04860079 0.25032547
0000d0 a2 e2 90 3e f9 a3 30 bd 31 0e 80 be 8e 00 82 3e
       0.28297907 -0.043125127 -0.25010827 0.25391048
0000e0 14 29 0f be da 37 13 3e b3 3c b2 3d ea c2 5e be
       -0.13980514 0.14376774 0.08702984 -0.21754041
0000f0 1d fe 81 be 82 de c6 3c 45 b4 73 3e a6 6b 05 bd
       -0.25389186 0.024276022 0.23799236 -0.032573365

val_fc1.weight f4 [64, 384]
000000 32 fe 14 be 9b a1 9f bd 5b 7e d6 3d 38 f4 db 3c
       -0.14550093 -0.07794496 0.10473319 0.026849851
000010 0f 1b 6d bd 4d 7b 60 bd df fe 16 bd 71 09 eb 3d
       -0.057887133 -0.05480509 -0.036864158 0.1147641
000020 a4 95 00 3e b2 6d 21 3e 3d 39 20 be 81 30 8c 3d
       0.12557083 0.15764502 -0.15646835 0.06845189
000030 46 e8 e7 bd 4b 8e 0b be 9c 18 28 3e 8e fe a0 3c
       -0.113235995 -0.13628499 0.16415638 0.019652631
000040 73 78 72 bd 0a 6f 3b 3e 92 b3 4e 3d fa e6 71 be
       -0.0591969 0.18304077 0.05046422 -0.23623267
000050 91 e5 44 3e dd cb f2 3d 97 17 18 3c 3c 7b 69 3e
       0.19228198 0.1185529 0.009282968 0.22800916
000060 08 95 d1 bc 07 8b 64 be 8d 6e 34 3e 23 26 a4 3d
       -0.025583759 -0.2231866 0.17620297 0.080150865
000070 b3 6c f4 3d 5a 06 7a 3e 1d ec 12 be 06 bb 4e be
       0.11934795 0.24416485 -0.14347883 -0.20188531
000080 8e 16 d3 3d c4 36 30 3e da e8 49 3e 1c 74 10 3e
       0.10307036 0.17208391 0.19717732 0.14106792
000090 00 e5 67 bd b8 f4 6d 3e 34 f1 14 3e cc 56 0d 3e
       -0.056614876 0.23237884 0.14545137 0.13802642
0000a0 40 a0 92 3d d4 2e 8e 3e eb 22 0b be 69 08 03 3e
       0.071594715 0.27770102 -0.13587539 0.12796177
0000b0 e1 c0 7b bd 4a 5b 93 3d e2 cb 5c 3c b0 2a 03 3d
       -0.06146324 0.071951464 0.013476344 0.03202313
0000c0 eb ad 53 be 7c bb 01 3e d8 9e 5a 3e 7b 03 cd 3d
       -0.20671813 0.12669176 0.21349657 0.100104295
0000d0 e5 29 55 be ba 47 af 3d 05 ae 56 be f7 c9 45 be
       -0.20816763 0.08558603 -0.2096482 -0.19315325
0000e0 db 0a 52 3e d4 4d 29 be 01 c7 45 3d 86 d5 10 3e
       0.20511954 -0.16533595 0.048285488 0.14143953
0000f0 eb 0d 11 be 1e 46 b4 be b3 6f 40 3e 3f 16 7e 3d
       -0.14165466 -0.35209745 0.1879261 0.062032934
000100 c6 1c 8d bd dc 30 39 bd a3 cc 70 be 35 79 58 be
       -0.06890254 -0.04521261 -0.23515563 -0.21139987
000110 46 4e 4d 3e fb 85 51 be 95 d5 4e bd aa fd 07 3c
       0.2004939 -0.20461266 -0.050496656 0.008300224
000120 d9 36 af be 76 f0 8e bb 4f 9b 2e 3e 1e 0c 0e bb
       -0.34221533 -0.0043621613 0.17051433 -0.0021674703
000130 08 6c 18 3d f5 11 03 be 2d 09 a2 be 1c d7 d7 be
       0.0372124 -0.12799819 -0.31647626 -0.42156303
000140 77 c2 a4 3d 7d f7 6f bc 06 a5 67 3e 3e c9 03 bd
       0.08044904 -0.014646408 0.22621545 -0.03217434
000150 9f fc 0f bf d8 fc 7b be b7 76 9f 3d b4 df 3d be
       -0.56244844 -0.24608171 0.07786315 -0.18542367
000160 e7 b5 1e bd 1d 99 9c bd b9 92 78 be 3f db e6 bd
       -0.038747694 -0.076463915 -0.2427472 -0.112722866
000170 9f 23 2c 3e 4c 14 b6 3d c0 30 35 be 19 95 c3 3d
       0.16810463 0.0889059 -0.17694378 0.095499225
000180 63 0f 78 be fa db 14 bd 71 be 8d 3e 38 ed 2d bd
       -0.2422462 -0.0363426 0.27684358 -0.042462558
000190 d9 f3 f1 3d eb 26 12 3e c4 d8 2e be 37 e3 86 be
       0.118140884 0.14272659 -0.17074877 -0.26345226
0001a0 1b 43 2d 3e fc 14 06 3e 84 45 e2 bd 9f d3 56 3d
       0.1692013 0.13093942 -0.11048415 0.05244791
0001b0 59 06 53 be 98 4c 02 be fa 80 d1 3d 28 d2 ef bd
       -0.2060789 -0.1272453 0.102296785 -0.11710006
0001c0 9e ae 72 bd e9 65 42 be c5 2d de 3d 27 9e c4 3d
       -0.05924856 -0.18984188 0.108485736 0.09600478
0001d0 9b 04 bb bd 2c 21 74 3e 5d 49 42 be 8e ee 07 be
       -0.09131738 0.23840779 -0.18973298 -0.13274595
0001e0 74 4e ca 3d 26 12 ea 3c 95 c8 00 be 87 fb cf 3d
       0.09878245 0.028573107 -0.12576516 0.10155397
0001f0 77 a1 83 bd 3b d3 17 be 7c 70 79 be 3d 54 e9 bd
       -0.06427281 -0.14826672 -0.24359316 -0.1139302
000200 87 ef 2b bd 15 1b a1 bd 55 91 38 3d da f0 51 be
       -0.041976478 -0.078664936 0.045060474 -0.20502034
000210 37 ee 66 be 22 32 07 bf a2 c8 7a 3d f9 20 ec 3d
       -0.22551809 -0.5281087 0.061226495 0.115297265
000220 34 c7 d5 3d 2d b4 9d bd db 1b e2 be bd 57 b0 bd
       0.104383856 -0.077003814 -0.44161877 -0.08610485
000230 2f af 51 3e 96 ef 6f bd 6e e1 c0 3d a4 e8 58 3e
       0.20476983 -0.058578096 0.09417997 0.21182495
000240 44 77 2b be 08 56 9b be f8 35 89 3e b3 3e ff bc
       -0.16744715 -0.30339074 0.26798987 -0.031157827
000250 b5 d9 97 3e 8f f9 02 3e f8 09 15 be 33 89 a6 bc
       0.29658285 0.12790512 -0.14554584 -0.020329094
000260 95 41 81 3e 81 29 94 3d 77 6c 9d 3d e7 5d 05 bd
       0.25245348 0.07234479 0.07686704 -0.032560255
000270 bb e6 33 3e 5b 69 50 3d 2e 8c 0d be 6e f1 cf 3e
       0.17568485 0.050881725 -0.13823006 0.40613884
000280 e4 d6 32 be 60 4d 45 be 2e d6 92 3e 1b 8e 1f 3e
       -0.17464787 -0.19267797 0.2867903 0.15581553
000290 7c 22 46 be dc f6 25 3f 05 f8 78 be 53 fa 1e bf
       -0.19349092 0.648298 -0.24313362 -0.62100714
0002a0 2d 75 a4 3e 2d 01 cc 3e ff 10 9f be 84 64 52 3f
       0.32120648 0.39844647 -0.31067654 0.82184625
0002b0 c6 ba 9b 3d 82 a6 18 bf 4a 2e 1c 3e b1 5c 97 3e
       0.076039836 -0.5962907 0.15252033 0.29562905
0002c0 41 1c 3e be fb 6b c5 3e 57 d1 1b be 04 76 34 be
       -0.18565466 0.38558945 -0.15216576 -0.17623144
0002d0 6f c9 38 be 9e fd 8f bd 64 6c ab 3d ae cd 05 3d
       -0.18045591 -0.070307955 0.08370283 0.032666855
0002e0 af 5a 02 3d 23 a7 a3 3d 83 78 08 be f4 3d 90 be
       0.031824764 0.07990863 -0.13327222 -0.28172266
0002f0 6d 3e 47 3e 2b 12 03 3d c9 54 ed 3e 22 b5 32 3e
       0.19457407 0.03199975 0.46353748 0.17451909
000300 93 62 65 be 1e bc 9d be 45 a5 ad 3e a6 27 3e 3d
       -0.22400884 -0.30807585 0.33915153 0.04642453
000310 d7 74 7f 3e 3a aa 83 bd 45 5b 2b be 2c b8 b5 3a
       0.24946915 -0.064289525 -0.16734035 0.0013864092
000320 cc 3f 06 3e 27 fc a2 3b bf fc d1 bd 98 21 4f be
       0.13110274 0.0049739066 -0.102532856 -0.20227659
000330 10 d1 05 3e cb 90 12 be 03 d9 8e bd 24 2e 40 3e
       0.13068032 -0.14313047 -0.069749855 0.18767601
000340 fa e0 31 3d 54 3d b4 be 4f e2 a8 3e 2e 73 c5 3e
       0.043427445 -0.3520304 0.3298516 0.38564438
000350 31 f4 94 be bd ed 3c 3f 8f cd b4 bd e4 f6 20 bf
       -0.29092553 0.7380026 -0.0882827 -0.62876725
000360 75 f2 9d 3e c0 0e 8e 3e 4c 29 71 be 7a b9 24 3f
       0.30849043 0.27745628 -0.2355091 0.64345515
000370 ae bb 76 bd 8d de 15 bf cf 08 6b 3e 05 8b 0d 3e
       -0.06023758 -0.5854271 0.22952579 0.13822563
000380 74 af 2d be de 7a a4 3e 0a ba f1 3d ef a1 35 be
       -0.16961461 0.3212499 0.11803062 -0.17737554
000390 95 92 61 be 62 c5 45 bc 5e 12 a0 3d f6 52 a8 bd
       -0.22028573 -0.0120709855 0.07816003 -0.082189485
0003a0 4c 0b 0a 3e e4 af ed bc 0c 56 44 be f0 17 ae be
       0.13480872 -0.029014535 -0.1917345 -0.34002638
0003b0 ad 13 64 3e b0 07 3c bc e7 18 9c 3e 3c cc 34 3e
       0.2227313 -0.011476442 0.3048775 0.17656034
0003c0 30 88 8e be 21 5a ee bd c8 15 40 3e 3e 28 2f bc
       -0.27838278 -0.116382845 0.18758309 -0.010690747
0003d0 e4 f1 aa 3d 62 ff 20 bd 4b 1a 9b be 26 6f cb be
       0.08346918 -0.039306052 -0.30293497 -0.39733237
0003e0 f1 07 bb 3d f0 14 2d 3d c1 bc 47 3e 44 36 9e bd
       0.09132374 0.042256296 0.19505598 -0.07725194
0003f0 e8 0e 4d bd a9 cf a4 3c 29 64 3a bd a7 52 4d be
       -0.050063044 0.020118551 -0.045505676 -0.2005106

val_fc1.bias f4 [64]
000000 e0 67 e3 bd 7c 69 14 bf a0 c4 1b be 0a d1 4b be
       -0.11103797 -0.57973456 -0.15211725 -0.19903961
000010 ee 10 7d be a5 2c 8d be ca 87 49 b0 2b 5a fe be
       -0.2471349 -0.27573124 -7.331634e-10 -0.49678168
000020 66 b0 ad bd 17 7c cf 3e 13 df ca be 3e cc 06 ab
       -0.08480911 0.4052436 -0.39623317 -4.7889806e-13
000030 74 86 31 be 10 b9 86 bd 82 ce 59 bf ee 1a b8 be
       -0.17336446 -0.065782666 -0.8508073 -0.35958046
000040 68 72 07 bf 21 93 e2 be b7 83 1d bd 3f 12 1e be
       -0.52908945 -0.44252875 -0.03845569 -0.15436648
000050 0d fd 97 3d 38 31 d6 3d 65 61 49 be 95 05 24 be
       0.074213125 0.104586065 -0.1966606 -0.16017754
000060 a8 0e b1 3d 32 80 59 be eb d4 22 be b3 d1 d2 bd
       0.086453736 -0.21240309 -0.15901534 -0.10293903
000070 a9 c0 ff bc dc da 7d be 57 2a 98 ae 59 4d a5 be
       -0.031219797 -0.2479052 -6.919681e-11 -0.32285574
000080 1c f7 a7 bd 8c 4d d4 be 2d 00 e2 be d1 6d ee bd
       -0.08201429 -0.41465414 -0.4414076 -0.116420396
000090 f8 c4 e1 b8 9c f9 dc bc 29 6b 95 be d3 14 9e be
       -0.00010765524 -0.026974492 -0.2918332 -0.30875263
0000a0 8d b9 86 be 87 8b a2 bd f3 8e 64 bd ca 37 66 be
       -0.2631344 -0.07936769 -0.05580039 -0.2248222
0000b0 96 6f df a0 20 8d 3d be 1d e7 bc 3c d6 6a 2d be
       -3.785151e-19 -0.18510866 0.023059422 -0.16935286
0000c0 b5 b1 ff bd 8d 20 ef bd 07 27 5b bd 2c b4 64 3e
       -0.12485067 -0.116761304 -0.053504016 0.22334355
0000d0 8e b7 c5 be 46 37 92 bb d0 b2 02 bf 20 a8 7a be
       -0.38616604 -0.0044621555 -0.51054096 -0.24478197
0000e0 6b 56 1b b1 77 56 91 be b8 cc 85 3e ed 31 48 b9
       -2.2604592e-09 -0.2838628 0.2613275 -0.00019092085
0000f0 0e 61 c5 be d2 5a 0b bd f9 81 ba 3d 84 55 3d bc
       -0.3855061 -0.03402216 0.091068216 -0.011556033

val_fc2.weight f4 [1, 64]
000000 13 89 29 3e bd e9 db 3e 9c bf 00 be 7e 64 0c be
       0.16556196 0.42951766 -0.12573093 -0.1371021
000010 eb 8b eb 3e 5b f2 90 3e 5e b2 67 b9 f7 9a fd 3e
       0.46005186 0.28309903 -0.00022096324 0.4953229
000020 c3 fb 8f 3e 11 dc 1f bd cd 0f bc 3e 27 29 68 b9
       0.28121766 -0.03902823 0.36730805 -0.00022140575
000030 33 c6 55 be 53 35 d3 bd 70 ba a6 be 2b 57 c9 be
       -0.20876388 -0.10312905 -0.32564116 -0.39324316
000040 7b 3b 00 bf c8 2e be be 98 cd e2 3d 2b 4d 50 be
       -0.5009076 -0.37145066 0.1107437 -0.20341937
000050 d8 b5 ad 3e 91 25 f4 3e 9b fc 10 3e df 0d c9 be
       0.33927798 0.4768491 0.14158861 -0.39268395
000060 33 f4 8e bd 6f 5d 9f be 0f d0 12 3e 71 74 b6 3e
       -0.06980171 -0.31125972 0.1433718 0.35635713
000070 2b 82 3f 3e 1b 25 8b be 7a 11 4b b9 e5 df 5e 3e
       0.18701999 -0.27176747 -0.00019366099 0.21765096
000080 b7 b1 d0 3d b8 66 2b bf 35 71 a8 3e ec f4 24 be
       0.101901464 -0.6695361 0.3289887 -0.16109055
000090 72 bd d1 3a f3 8d 93 3e 6f 9c 46 3f b7 d6 32 bc
       0.0016001894 0.28819236 0.7758245 -0.01091545
0000a0 3f 64 83 be 10 45 89 3e 18 10 df 3e d1 59 86 be
       -0.2566242 0.26810503 0.43566966 -0.262404
0000b0 9a 2d fe b8 12 99 da 3d 1c 2a ec 3d 7d c8 9a bd
       -0.00012120158 0.10673727 0.11531469 -0.07557771
0000c0 b5 c0 68 bd 11 37 07 be 00 97 dd bd 87 2c 6e be
       -0.056824405 -0.132046 -0.108198166 -0.23259173
0000d0 20 aa d9 3d 59 ca 73 be c4 c1 91 be 21 c7 93 3e
       0.10628152 -0.23807658 -0.28468144 0.2886286
0000e0 2d 7e 27 ba 02 f3 02 3f 4b e5 89 3e 4a 7d 3b bc
       -0.0006389346 0.5115205 0.2693275 -0.011443445
0000f0 fc 41 92 3e dd e0 62 3e b9 ab 43 be d1 37 ce 3d
       0.28565967 0.22156091 -0.19108476 0.1006924
