AlphaZero_Gomoku/model/best_policy.model (torch, 426677 bytes, 15 tensors)

layers.0.weight f4 [32, 4, 3, 3]
-0.45658723 -0.47834846 0.5198322 0.17344436 -0.13321488 -0.32223037 -0.11977684 0.37695584
-0.2882858 0.40703902 0.20120542 -0.0948014 0.1480499 -0.022241365 0.1931285 0.19899108
0.17666389 0.33351398 -0.07490233 -0.052960843 -0.17278978 -0.19572543 0.086098135 -0.058263015
-0.2199544 0.1011008 -0.022907222 -0.19303413 -0.11811079 -0.31092992 0.11840047 0.17430422
0.14593644 -0.04236265 -0.0047537466 0.1763515 0.25396773 -0.6779753 0.3391483 -0.111606404
0.05841725 -0.18798698 0.24200086 -0.8393062 0.1536918 0.22723429 -0.12296839 0.056621637
0.32705766 -0.1410128 0.17057557 0.4592397 -0.13937734 0.36551932 0.24665283 -0.010808407
0.11637422 0.010818574 -0.12608379 -0.10460465 -0.24099319 0.093053795 0.18713747 0.1456816
-0.08268756 -0.02266152 0.17880586 0.056438986 -0.053418487 -0.06924002 -0.02668321 0.13595457
0.106131524 0.4861557 0.32226583 -0.14269812 0.078125365 0.17495626 -0.07275539 -0.3893379
0.021801779 0.3794712 0.24996786 0.33832017 -0.21512724 0.24103233 0.094038926 -0.4065752
-0.016981171 -0.17381755 -0.06754376 0.11152734 0.14400446 0.011387686 -0.19740574 -0.08675557
0.12112415 0.17408402 0.060234666 0.04438 -0.10969597 -0.15904692 -0.029341038 -0.1314134
-0.093093865 -0.05940435 -0.19219144 -0.045431342 0.019488344 -0.2715201 0.056336723 0.060028814
-0.057342615 0.28966296 0.40135422 0.29416838 -0.22308621 0.40228158 -0.325666 0.050279465
0.37113088 -0.71964103 -0.12939519 0.43155017 -0.43320847 0.037771575 -0.0064868988 -0.07051235
-0.30981553 0.002805638 -0.3189768 -0.03569022 -0.17152148 -0.22169244 0.06754361 -0.13867615
-0.16618992 -0.1464292 0.04396406 0.019432109 -0.20194438 -0.0024513302 0.1494277 -0.18720615
-0.40178287 0.05431435 -0.2457173 -0.056466334 -0.11431419 0.05515035 -0.05786356 0.28104576
-0.42941114 -0.016113957 -0.30578122 -0.1929383 0.07185485 0.30020598 0.07438779 0.14990753
0.33799407 0.11557067 -0.07891378 -0.12612423 -0.024065997 0.21233377 -0.07558284 0.01885171
0.25583458 -0.1408737 -0.008711727 0.018092196 -0.1094452 0.017141923 0.07386466 -0.15367864
-0.17666185 -0.027822757 0.064565934 0.08924205 -0.18908265 0.24734195 0.13397288 0.1325194
-0.22948033 -0.09450219 -0.16426976 0.18221019 -0.048428975 -0.29093075 0.21031246 -0.20869331
-0.20187394 -0.33730665 -0.3430307 0.36175287 -0.4327183 0.26327652 0.07629747 -0.009565559
-0.03816519 -0.025019195 -0.00064786914 -0.06185179 0.13475011 0.100910194 -0.11351673 -0.03385044
-0.18845308 -0.29207066 -0.008038869 -0.06478686 -0.011285327 0.017241172 -0.17555264 -0.25801542
0.3902668 0.23797956 0.2172101 0.23970911 0.20817836 0.15616551 0.20565653 0.40038154
0.39774686 0.048727993 -0.18528622 -0.33835799 -0.45304826 0.07172492 0.09085137 0.17723508
-0.35626513 0.027272016 -0.13660641 -0.06867904 -0.09315674 -0.2121098 -0.1328416 -0.30156073
0.08705806 -0.06468136 0.16312544 -0.04831471 -0.2526997 0.021561017 -0.005223651 -0.14478414
0.07722833 -0.011046217 -0.06273801 0.10798736 0.3839578 0.27811435 -0.04809489 0.2813152
00000000: cdc5 e9be 17ea f4be b913 053f 669b 313e
00000010: 7b69 08be 61fb a4be 8f4d f5bd 5b00 c13e
00000020: 329a 93be 6b67 d03e cb08 4e3e 3d27 c2bd
00000030: 659a 173e 8633 b6bc 7ac3 453e 51c4 4b3e
00000040: 61e7 343e 58c2 aa3e 6566 99bd 78ed 58bd
00000050: ceef 30be 3f6c 48be 3854 b03d 33a5 6ebd
00000060: ba3b 61be f00d cf3d eda7 bbbc bdaa 45be
00000070: 12e4 f1bd 3532 9fbe f27b f23d ce7c 323e
00000080: 5d70 153e 7584 2dbd 51c5 9bbb 7d95 343e
00000090: 0f08 823e ca8f 2dbf d9a4 ad3e e691 e4bd
000000a0: ed46 6f3d a97f 40be 13cf 773e c5dc 56bf
000000b0: 6261 1d3e 1bb0 683e dad6 fbbd 17ec 673d
000000c0: 1a74 a73e a965 10be 5dab 2e3e 7721 eb3e
000000d0: efb8 0ebe 5925 bb3e 8f92 7c3e bf15 31bc
000000e0: 9b55 ee3d 6340 313c 1c1c 01be f63a d6bd
000000f0: ebc6 76be fd92 be3d f7a0 3f3e 8f2d 153e
00000100: 1858 a9bd a7a4 b9bc e218 373e 912c 673d
00000110: 58cd 5abd b6cd 8dbd bf96 dabc ad37 0b3e
00000120: 7c5b d93d 66e9 f83e 0700 a53e 751f 12be
00000130: 3100 a03d bc27 333e c700 95bd 4c57 c7be
00000140: a599 b23c 0d4a c23e 93f7 7f3e 4d38 ad3e
00000150: 514a 5cbe 2ed1 763e 7b97 c03d a02a d0be
00000160: 191c 8bbc 3afd 31be 6254 8abd 7268 e43d
00000170: e875 133e 6b93 3a3c bb24 4abe e7ac b1bd
00000180: f00f f83d 1543 323e a0b8 763d cec7 353d
00000190: 48a8 e0bd 32dd 22be 9e5c f0bc 3c91 06be
000001a0: ffa7 bebd fa51 73bd d5cd 44be 3716 3abd
000001b0: 05a6 9f3c af04 8bbe 56c1 663d c6e0 753d
000001c0: 17e0 6abd b44e 943e 4d7e cd3e 3d9d 963e
000001d0: b670 64be daf7 cd3e b2bd a6be d7f1 4d3d
000001e0: de04 be3e 653a 38bf 2c80 04be 25f4 dc3e
000001f0: 80cd ddbe 5eb6 1a3d 0d90 d4bb c768 90bd
00000200: 24a0 9ebe cbde 373b ed50 a3be e82f 12bd
00000210: 54a3 2fbe 5803 63be 4e54 8a3d 1f01 0ebe
00000220: b12d 2abe 89f1 15be a813 343d 1630 9f3c
00000230: 82ca 4ebe 7fa6 20bb 9303 193e f8b2 3fbe
00000240: 7cb6 cdbe b978 5e3d 519d 7bbe 3e49 67bd
00000250: 8f1d eabd 55e5 613d 5702 6dbd 3be5 8f3e
00000260: c7db dbbe 6b01 84bc 5b8f 9cbe 9e91 45be
00000270: a328 933d 99b4 993e a058 983d 5c81 193e
00000280: 8f0d ad3e 51b0 ec3d 8c9d a1bd b626 01be
00000290: 0e26 c5bc 066e 593e 2dcb 9abd e76e 9a3c
000002a0: c0fc 823e 3241 10be a2bb 0ebc 1636 943c
000002b0: ce24 e0bd 386d 8c3c 5b46 973d ef5d 1dbe
000002c0: d8e6 34be 8dec e3bc 253b 843d 89c4 b63d
000002d0: e29e 41be 3547 7d3e 3030 093e 2ab3 073e
000002e0: e4fc 6abe 5d8a c1bd 5536 28be 4f95 3a3e
000002f0: 765d 46bd e0f4 94be 265c 573e b3b3 55be
00000300: 0bb8 4ebe 75b3 acbe b8a1 afbe ac37 b93e
00000310: 418d ddbe 2ecc 863e d941 9c3d ddb8 1cbc
00000320: 1a53 1cbd 0ef5 ccbc c3d5 29ba 4d58 7dbd
00000330: effb 093e 01aa ce3d 767b e8bd c2a6 0abd
00000340: d8f9 40be 498a 95be 76b5 03bc f9ae 84bd
00000350: 18e6 38bc 5c3d 8d3c 12c4 33be 991a 84be
00000360: 0dd1 c73e eab0 733e 536c 5e3e 4e76 753e
00000370: b52c 553e dae9 1f3e a097 523e cffe cc3e
00000380: 7aa5 cb3e 0197 473d acbb 3dbe 423d adbe
00000390: f1f5 e7be 84e4 923d 4810 ba3d 1d7d 353e
000003a0: 6268 b6be 9069 df3c 8de2 0bbe 99a7 8cbd
000003b0: f6c8 bebd 5033 59be a107 08be 2b66 9abe
000003c0: 7f4b b23d a977 84bd 5b0a 273e a5e5 45bd
000003d0: db61 81be bba0 b03c 292b abbb 4b42 14be
000003e0: e329 9e3d 31fb 34bc c97c 80bd 7a28 dd3d
000003f0: 1e96 c43e 0165 8e3e 26ff 44bd 8c08 903e

layers.0.bias f4 [32]
0.012329742 -0.1572325 -0.2569108 -0.093502946 -0.026944792 0.030841943 -0.08270388 -0.11719474
0.17453776 -0.09142247 0.050840635 -0.1628247 -0.0116479695 0.07585527 -0.13214254 -0.10747439
-0.031921223 0.09391029 0.04783981 0.14225005 -0.0128107155 -0.034285393 -0.22273143 -0.16198626
0.20643392 0.016447185 -0.29793113 0.004788352 -0.04892291 0.05120987 0.047864072 -0.1614502
00000000: b002 4a3c 8e01 21be d089 83be 797e bfbd
00000010: 53bb dcbc 3ea8 fc3c a760 a9bd cc03 f0bd
00000020: 07ba 323e b43b bbbd 453e 503d 85bb 26be
00000030: 20d7 3ebc 025a 9b3d 6050 07be 881b dcbd
00000040: d4bf 02bd 0a54 c03d adf3 433d ffa9 113e
00000050: 09e4 51bc d76e 0cbd b513 64be badf 25be
00000060: 6a63 533e 3fbc 863c 6e8a 98be 9ce7 9c3b
00000070: 6463 48bd 71c1 513d 1e0d 443d 3453 25be

layers.1.weight f4 [64, 32, 3, 3]
0.007854114 0.13209207 -0.046253853 0.09364269 0.19145179 0.06713455 0.1006909 0.035023574
0.07737988 0.060303718 0.05972209 0.109637916 0.27409384 0.047670852 0.09774527 0.113126755
0.0849805 0.052971546 -0.019942148 0.010977433 0.04525068 -0.079612836 -0.03855313 -0.021620868
-0.07310842 -0.028782856 0.059915386 -0.010164848 0.094832815 0.08001725 -0.18486382 -0.07457597
0.061696723 0.003785327 -0.10915254 0.08566268 0.081459 -0.001132142 -0.007857418 0.064433075
0.053127903 0.030928336 -0.013348111 -0.0451537 -0.014227465 0.0012235586 0.007866879 0.0057547907
-0.075255506 -0.11134674 -0.034902528 -0.031759404 0.011991094 0.047470234 -0.081982136 0.0715236
0.13683456 -0.033439253 0.0045493054 0.019686596 -0.18964538 -0.039063115 0.037726633 -0.16215965
-0.16795045 0.21485738 -0.17067072 -0.20680751 -0.10106689 -0.14385559 -0.18095915 -0.14870755
-0.06598071 0.011467001 -0.07693768 0.08489448 0.20894375 0.07581612 0.041800767 0.06868901
0.08744686 0.08943516 0.029785251 0.068644464 0.06449353 -0.08191736 0.06855639 0.06485968
-0.055549502 -0.04313702 -0.009748591 0.111051336 0.04774715 0.11828667 0.11181885 0.042937554
-0.004199397 0.08492882 0.027861062 -0.017279848 0.005488057 -0.014974499 -0.1669433 -0.14943591
-0.1288395 0.06306048 -0.0660916 -0.03961817 -0.13968529 -0.061967935 -0.17045394 0.01735243
0.084534205 -0.032836147 -0.027787223 0.021140449 0.036947943 -0.21201114 -0.19013773 -0.13397244
-0.15460925 -0.0007111557 -0.006744617 -0.055750344 0.08640572 0.10289851 0.045169078 0.041665036
0.10297932 -0.06655399 0.15510531 0.10578987 0.046695303 -0.032203607 -0.10642826 -0.0789339
-0.058737047 -0.0927722 -0.05381244 0.10709744 0.01630543 -0.17856328 0.03133883 -0.016362166
-0.12578309 -0.2450565 -0.2525663 0.038295973 0.08849305 0.0438987 0.10064755 0.12660167
-0.03346214 -0.24507222 -0.21483208 -0.18453242 -0.26824072 -0.1122187 -0.3282154 -0.29790884
-0.11688677 -0.1047852 0.0402177 0.09666017 0.03143889 0.14227892 0.09468282 0.08665082
0.104896314 0.13840264 0.037444748 -0.26307705 -0.108867384 -0.050551727 0.12450463 0.014445986
-0.112913005 0.045908477 0.040758505 -0.3288174 -0.034235325 0.040245533 -0.0043021124 0.008391135
0.022983804 -0.0638803 0.054575346 0.045633767 -0.07834976 0.04926028 0.16877687 0.06574288
-0.11277136 -0.050798137 -0.04452203 -0.22924785 0.028743546 0.09056148 -0.038205553 0.014505553
-0.0077542854 -0.034935728 -0.082695305 -0.19728985 0.3229807 0.03938908 0.11403781 -0.1825785
-0.19872653 -0.12645751 0.052608933 0.0178513 0.03940512 0.15369543 -0.10410704 -0.029676463
-0.24798259 -0.12851048 -0.12968394 -0.14409931 -0.107287 -0.058160402 -0.05859161 -0.10420501
-0.10333781 -0.0018815876 0.018497365 -0.04014488 0.009154192 0.04579609 -0.07185651 0.082052425
0.03809686 0.023166815 0.1729161 0.14196005 0.0077497493 0.2384726 0.32001698 0.03292418
0.004853167 -0.11611906 -0.021696327 0.059390444 -0.04836902 -0.044205006 0.022135574 0.026621724
-0.2950199 -0.011508656 0.1311285 -0.063010305 -0.19617106 -0.043535993 -0.0736919 0.019610297
00000000: 8bae 003c 2543 073e ae74 3dbd bdc7 bf3d
00000010: f00b 443e d77d 893d 0837 ce3d e174 0f3d
00000020: 5879 9e3d 0801 773d 269f 743d d889 e03d
00000030: 0756 8c3e 8342 433d ac2e c83d 00af e73d
00000040: 420a ae3d b1f8 583d b75d a3bc b1da 333c
00000050: c758 393d 0e0c a3bd e3e9 1dbd 3f1e b1bc
00000060: deb9 95bd 06ca ebbc d669 753d 768a 26bc
00000070: b537 c23d 15e0 a33d f14c 3dbe 49bb 98bd
00000080: b4b5 7c3d 4013 783b 5e8b dfbd ea6f af3d
00000090: fad3 a63d 6264 94ba 66bc 00bc 7df5 833d
000000a0: a59c 593d 6c5d fd3c 09b2 5abc 16f3 38bd
000000b0: 501a 69bc d05f a03a 15e4 003c af92 bc3b
000000c0: 8f1f 9abd c209 e4bd f4f5 0ebd 2616 02bd
000000d0: 4b76 443c 2670 423d 40e6 a7bd f77a 923d
000000e0: 5c1e 0c3e 99f7 08bd 5712 953b c945 a13c
000000f0: 6632 42be a500 20bd 3e87 1a3d 2e0d 26be
00000100: 34fb 2bbe 9303 5c3e 4ec4 2ebe 59c5 53be
00000110: 28fc cebd e14e 13be 5b4d 39be cb46 18be
00000120: e520 87bd 17e0 3b3c 8191 9dbd 28dd ad3d
00000130: 5af5 553e 7b45 9b3d 4837 2b3d d3ac 8c3d
00000140: 5717 b33d c829 b73d 3300 f43c 7895 8c3d
00000150: 2f15 843d 4ac4 a7bd 4b67 8c3d 27d5 843d
00000160: e087 63bd 72b0 30bd 8eb8 1fbc e26e e33d
00000170: 8492 433d 4840 f23d 4801 e53d 4adf 2f3d
00000180: 189b 89bb 29ef ad3d e23c e43c 788e 8dbc
00000190: 29d5 b33b 9a57 75bc 2ff3 2abe ba05 19be
000001a0: 80ee 03be da25 813d 085b 87bd aa46 22bd
000001b0: a909 0fbe 17d2 7dbd 7a8b 2ebe af26 8e3c
000001c0: 4520 ad3d 327f 06bd 08a2 e3bc bc2e ad3c
000001d0: ba56 173d 7319 59be 77b3 42be 1230 09be
000001e0: e351 1ebe da6c 3aba f301 ddbb 795a 64bd
000001f0: 7bf5 b03d 74bc d23d 3603 393d f5a8 2a3d
00000200: d2e6 d23d 754d 88bd edd3 1e3e 5ca8 d83d
00000210: 9343 3f3d eee7 03bd 0ff7 d9bd 19a8 a1bd
00000220: 4296 70bd 5aff bdbd 6f6a 5cbd e755 db3d
00000230: f792 853c 4bd9 36be 255d 003d f309 86bc
00000240: 48cd 00be 17f0 7abe 5f50 81be 3ddc 1c3d
00000250: d83b b53d 20cf 333d 4d20 ce3d dea3 013e
00000260: 990f 09bd 36f4 7abe f1fc 5bbe 11f6 3cbe
00000270: d956 89be ebd2 e5bd d90b a8be 8287 98be
00000280: 5562 efbd 9f99 d6bd 51bb 243d c4f5 c53d
00000290: 11c6 003d 91b1 113e 11e9 c13d fc75 b13d
000002a0: e1d3 d63d 6cb9 0d3e aa5f 193d 09b2 86be
000002b0: ddf5 debd 540f 4fbd 49fc fe3d dbae 6c3c
000002c0: ef3e e7bd 870a 3c3d 64f2 263d c15a a8be
000002d0: 573a 0cbd 80d8 243d bcf8 8cbb f97a 093c
000002e0: 8848 bc3c add3 82bd 668a 5f3d 79ea 3a3d
000002f0: d775 a0bd 26c5 493d d8d3 2c3e 34a4 863d
00000300: acf4 e6bd b511 50bd bb5c 36bd f3bf 6abe
00000310: 9677 eb3c 4c78 b93d 6d7d 1cbd b3a8 6d3c
00000320: a917 febb c418 0fbd 285c a9bd 5a06 4abe
00000330: ba5d a53e 7256 213d a88c e93d dcf5 3abe
00000340: f87e 4bbe 147e 01be 777c 573d e43c 923c
00000350: 4367 213d 5662 1d3e 1236 d5bd 0e1c f3bc
00000360: 26ef 7dbe 4098 03be decb 04be c58e 13be
00000370: 49b9 dbbd 9a39 6ebd c2fd 6fbd 7069 d5bd
00000380: c6a2 d3bd 9a9f f6ba c987 973c f56e 24bd
00000390: 77fb 153c ae94 3b3d 8229 93bd 1a0b a83d
000003a0: 740b 1c3d 55c8 bd3c eb10 313e fa5d 113e
000003b0: 9cf1 fd3b 2932 743e 44d9 a33e 81db 063d
000003c0: 5107 9f3b d4cf edbd 7fbc b1bc 6543 733d
000003d0: 981e 46bd 4f10 35bd aa55 b53c cd15 da3c
000003e0: d90c 97be cd8e 3cbc 8d46 063e 8c0b 81bd
000003f0: 11e1 48be cc52 32bd c7eb 96bd c6a5 a03c

layers.1.bias f4 [64]
0.05286837 -0.009675069 -0.08011872 -0.04104976 -0.0453231 0.020013018 0.06989354 -0.015958698
-0.09352393 -0.008907993 -0.060721662 -0.13654795 -0.038491312 0.026767798 -0.06159888 0.0655926
-0.11203594 -0.081835836 -0.029000431 -0.07349855 0.13618208 -0.024618996 0.059231903 -0.033493813
-0.05587097 -0.13036822 -0.020921275 -0.002383291 0.067513414 -0.024152616 -0.06961133 0.008717496
0.008920494 0.096675806 0.022268303 -0.116059594 -0.17786129 -0.0330155 0.0021653206 -0.011504099
-0.078917794 0.06903247 -0.09524253 -0.0862793 -0.05128676 -0.022507075 -0.05858728 0.014662311
-0.057156913 -0.047058206 -0.1405504 -0.05986312 0.11198977 -0.06075259 -0.14155094 -0.050228417
0.014171993 -0.14922589 -0.059950083 -0.008184256 0.12540066 -0.09358819 0.03375178 -0.022531897
00000000: 818c 583d 2e84 1ebc 4915 a4bd cb23 28bd
00000010: b7a4 39bd 57f2 a33c 5824 8f3d d1bb 82bc
00000020: 7989 bfbd d5f2 11bc 47b7 78bd 3ad3 0bbe
00000030: 11a9 1dbd 2448 db3c 1b4f 7cbd 6a55 863d
00000040: 1973 e5bd 8c99 a7bd 5092 edbc 6886 96bd
00000050: 5173 0b3e c7ad c9bc 279d 723d cf30 09bd
00000060: f5d8 64bd 3f7f 05be 1863 abbc fd30 1cbb
00000070: 7944 8a3d b5db c5bc 6390 8ebd d4d3 0e3c
00000080: 4327 123c f7fd c53d 046c b63c a7b0 edbd
00000090: 4521 36be 433b 07bd 0de8 0d3b b07b 3cbc
000000a0: a79f a1bd e560 8d3d 840e c3bd 34b3 b0bd
000000b0: 1112 52bd c260 b8bc 37f9 6fbd 313a 703c
000000c0: 5e1d 6abd 1bc0 40bd 72ec 0fbe 0833 75bd
000000d0: e45a e53d b5d7 78bd bbf2 10be 50bc 4dbd
000000e0: a631 683c acce 18be 388e 75bd 4217 06bc
000000f0: 0869 003e 2aab bfbd 4e3f 0a3d d094 b8bc

layers.2.weight f4 [128, 64, 3, 3]
0.054924864 0.01704356 -0.03438404 -0.030897604 0.029950354 -0.04087308 -0.05686124 -0.093869485
0.029417222 0.036482845 0.049241528 -0.05531677 0.18136123 0.085723326 0.060809087 -0.015069439
0.04156705 0.024693746 0.0034120723 0.02292135 0.024913734 0.0054068505 0.02144322 0.015279192
0.013453777 0.005669311 -0.0032692526 0.0012749407 0.009062194 -0.0037911658 0.0076850248 0.0029976612
0.020313915 0.0013192799 -0.0020192233 -0.0042614667 -0.0004262867 -0.00048615463 0.016528824 -0.00019701968
-0.00201593 0.012341586 5.671044e-05 -0.002026006 0.00207489 -0.042932395 0.010480227 0.01049407
-0.003826703 0.07786809 -0.026052194 -0.036812976 -0.027751606 -0.009410652 -0.057268545 -0.055998657
-0.15484452 -0.06982678 -0.045990024 -0.17635773 -0.16482574 -0.2178112 -0.066710405 0.03480504
-0.013805433 -0.011917918 0.038803656 0.019249009 -0.010502947 0.036829036 0.009300915 0.010202389
-0.08445728 0.15569 -0.083727084 -0.0569012 -0.15568592 -0.22424576 0.09929902 -0.18309334
-0.061235614 0.009948892 -0.0062433607 -0.00066435523 0.00205027 -0.010793476 -0.020823004 0.0013546011
-0.011841842 -0.0085725235 0.0034407917 -0.01307382 0.0038840664 0.009069797 0.023407418 0.0025763237
-0.015772076 -0.024089249 -0.018086515 0.03406473 0.119925566 0.069312975 -0.09158339 -0.011823158
0.046703264 -0.075605735 -0.012085984 -0.010866811 -0.14999285 0.15801126 0.003658199 0.082718164
-0.038588367 -0.10800033 -0.034458254 0.13531108 -0.0055950917 0.037012514 0.02917668 -0.1123062
-0.031010749 0.03284381 0.008385351 -0.07665354 0.038313832 -0.038656138 -0.0027664695 0.011358663
0.004853922 -0.016167749 0.010611181 -0.009024381 -0.023804417 -0.0073252846 -0.0093728695 0.17964768
0.04624127 0.12093031 -0.07108912 -0.035643525 -0.026099745 0.068269156 -0.10540364 -0.058899734
-0.08055821 0.07454589 0.030506218 0.058466855 0.02373778 0.011531948 -0.14146523 -0.031123824
0.0863192 0.007517359 0.0024994824 -0.005406732 0.012746401 0.0037491284 -0.013570441 0.0028274476
0.0045663086 -0.018960072 0.09437491 -0.023450024 0.054052513 -0.06924123 -0.08700539 -0.049299236
0.06456098 0.010437109 -0.08276811 -0.14311862 -0.13649054 -0.09088648 0.27622008 -0.019827295
-0.17125964 -0.017720917 -0.022552252 -0.1337392 -0.09818084 -0.066989064 -0.097160526 -0.03680503
0.1338014 0.100161664 -0.18849128 0.027498484 0.03858348 0.005641671 -0.0050591673 0.015332197
0.013227653 0.01458683 -0.0034656113 -0.009804916 0.0018569352 -0.015071743 -0.017257128 0.022490785
-0.039881554 -0.07617108 -0.02773813 -0.058519613 0.0065953187 -0.07742451 -0.042382903 0.016698629
-0.03934915 -0.050011076 -0.045152824 -0.086435705 0.107256174 -0.09642976 0.18447809 0.13381656
0.07063895 0.026325416 0.062621295 -0.025803704 -0.0046245246 0.038365155 -0.072259 -0.020225678
-0.0043036826 -0.08211827 0.07873621 -0.027518444 -0.015410464 -0.014643484 -0.042656943 0.227461
-0.035690423 -0.034334507 0.02855583 0.044249874 0.036571074 -0.0010981964 0.007552098 0.028853199
-0.001860984 0.02921115 -0.015842628 -0.001937583 0.0041299937 -0.008479031 0.020203946 0.0038200193
0.023473457 0.0053058993 0.01048529 0.0023205918 -0.0017543148 0.03934116 -0.04828881 0.013998008
00000000: e5f8 603d f09e 8b3c 47d6 0cbd f91c fdbc
00000010: 725a f53c 886a 27bd 55e7 68bd a53e c0bd
00000020: 63fc f03c 096f 153d 7cb1 493d d693 62bd
00000030: c2b6 393e b68f af3d f312 793d cfe5 76bc
00000040: 3642 2a3d 8a4a ca3c 139d 5f3b 8ec5 bb3c
00000050: e317 cc3c f32b b13b b1a9 af3c 9355 7a3c
00000060: 3b6d 5c3c a1c5 b93b f540 56bb e91b a73a
00000070: 9979 143c 3575 78bb a9d2 fb3b 6974 443b
00000080: 5e69 a63c b0eb ac3a f254 04bb c6a3 8bbb
00000090: 3b7f dfb9 92e2 feb9 7567 873c 1197 4eb9
000000a0: b11d 04bb 5d34 4a3c 5fdc 6d38 bec6 04bb
000000b0: e1fa 073b e1d9 2fbd 42b5 2b3c 52ef 2b3c
000000c0: 6cc9 7abb 4e79 9f3d 696b d5bc 34c9 16bd
000000d0: 5657 e3bc 232f 1abc 6c92 6abd d95e 65bd
000000e0: 908f 1ebe 5801 8fbd 0960 3cbd 1f97 34be
000000f0: 14c8 28be e609 5fbe 779f 88bd bb8f 0e3d
00000100: 2f30 62bc 5f43 43bc 95f0 1e3d 19b0 9d3c
00000110: 8d14 2cbc 0bda 163d dd62 183c ec27 273c
00000120: f0f7 acbd 336d 1f3e 1b79 abbd 3c11 69bd
00000130: 216c 1fbe aea0 65be 495d cb3d d27c 3bbe
00000140: 32d2 7abd ad00 233c 1b95 ccbb 2028 2eba
00000150: d35d 063b 1fd7 30bc 0195 aabc df8c b13a
00000160: 4904 42bc c573 0cbc e87e 613b 9333 56bc
00000170: d28b 7e3b 7c99 143c eac0 bf3c 8ad7 283b
00000180: 7134 81bc d156 c5bc 2c2a 94bc 7587 0b3d
00000190: 899b f53d f6f3 8d3d 1390 bbbd ebb5 41bc
000001a0: ec4b 3f3d 2ed7 9abd 4b04 46bc b50a 32bc
000001b0: ba97 19be b4cd 213e 65be 6f3b 2468 a93d
000001c0: d60e 1ebd 472f ddbd 1924 0dbd fd8e 0a3e
000001d0: 0857 b7bb 6f9a 173d ef03 ef3c cb00 e6bd
000001e0: 410a febc 3b87 063d b662 093c 88fc 9cbd
000001f0: f7ee 1c3d e655 1ebd a84d 35bb b019 3a3c
00000200: a60d 9f3b 3a72 84bc 85da 2d3c ffda 13bc
00000210: 7b01 c3bc f108 f0bb aa90 19bc 90f5 373e
00000220: 7c67 3d3d 4faa f73d 2c97 91bd f2fe 11bd
00000230: 22cf d5bc b3d0 8b3d dddd d7bd d940 71bd
00000240: b4fb a4bd 84ab 983d 2de8 f93c f17a 6f3d
00000250: bc75 c23c 7ff0 3c3c 43dc 10be 64f7 febc
00000260: 1fc8 b03d 2e54 f63b 5bce 233b f52a b1bb
00000270: 48d6 503c f0b3 753b 8e56 5ebc b34c 393b
00000280: f9a0 953b 2752 9bbc a247 c13d 441a c0bc
00000290: 2b66 5d3d 59ce 8dbd e22f b2bd ffed 49bd
000002a0: 8c38 843d 6800 2b3c 5482 a9bd b08d 12be
000002b0: 2dc4 0bbe b122 babd b86c 8d3e da6c a2bc
000002c0: b05e 2fbe 752b 91bc 80bf b8bc eef2 08be
000002d0: 0913 c9bd 9031 89bd 19fc c6bd dfc0 16bd
000002e0: 3c03 093e 8f21 cd3d dc03 41be 8044 e13c
000002f0: b609 1e3d c4dd b83b 5fc7 a5bb e533 7b3c
00000300: ccb8 583c 99fd 6e3c 4f1f 63bb cca4 20bc
00000310: 6864 f33a 79ef 76bc d25e 8dbc 983e b83c
00000320: d75a 23bd 95ff 9bbd 133b e3bc 43b2 6fbd
00000330: 8b1d d83b be90 9ebd b299 2dbd 90cb 883c
00000340: 932c 21bd 6ad8 4cbd 2bf2 38bd 3405 b1bd
00000350: 20a9 db3d f77c c5bd d3e7 3c3e 3507 093e
00000360: 27ab 903d 66a8 d73c 983f 803d 4a62 d3bc
00000370: 5389 97bb c824 1d3d 87fc 93bd 52b0 a5bc
00000380: e805 8dbb a02d a8bd 7340 a13d 5c6e e1bc
00000390: 2c7c 7cbc 39eb 6fbc 0cb9 2ebd 89eb 683e
000003a0: 1f30 12bd 57a2 0cbd eaed e93c 5b3f 353d
000003b0: 8dcb 153d 5bf1 8fba 9777 f73b 8b5d ec3c
000003c0: 43ec f3ba 394c ef3c 66c8 81bc 7ff6 fdba
000003d0: e654 873b a2eb 0abc bf82 a53c 4a59 7a3b
000003e0: 684b c03c 1cdd ad3b 7eca 2b3c 1215 183b
000003f0: 09f1 e5ba 3224 213d 7dca 45bd e757 653c

layers.2.bias f4 [128]
0.03864553 0.048166696 -0.045058697 0.14693992 0.07865887 0.018961417 -0.04634834 -0.102736115
0.07095149 0.0482027 -0.065646045 0.071710624 -0.10153242 0.019363515 0.09619454 -0.021395093
0.0068344534 -0.012815358 -0.020138672 -0.080033116 -0.07852414 -0.00032657193 -0.10776729 0.046270024
0.0021007312 -0.040767875 -0.01984564 0.030767854 -0.042059004 0.01577439 -0.048305076 0.044263232
0.078697376 -0.0038587041 0.02061106 0.05310032 0.013070048 0.0015942423 -0.02578765 0.017120438
-0.025972245 -0.095034026 -0.036463834 -0.032797936 0.058985136 -0.018580398 -0.012674208 -0.0006721787
0.0137947025 0.02242179 0.05072578 -0.05042408 0.0667949 -0.09418823 -0.095651835 -0.07402022
-0.009886201 -0.026343893 0.012611916 0.009432649 -0.067004815 0.063520975 0.036301214 0.13523965
0.110813096 0.086359866 -0.041065026 0.026733791 -0.04214186 -0.041225802 0.0839126 0.029726658
-0.028970221 0.07592439 0.0029945397 -0.019035647 0.08842657 -0.022018714 -0.045175437 -0.045013044
0.012708991 0.073045656 0.0010011682 0.034147434 0.034932606 0.04574477 0.031816147 0.087573186
-0.07500559 0.04630802 -0.07319853 0.10719249 0.008894346 -0.025342043 -0.0748485 -0.030693287
-0.04026917 0.025780147 -0.009946032 0.026344834 0.022843149 -0.015011264 -0.104212664 -0.03486567
-0.08104911 -0.04728719 0.035882458 -0.030206775 -0.03650048 -0.023769764 -0.018134447 0.039303795
-0.02956788 0.0032883924 0.06449034 0.042522386 0.0905243 -0.046783477 0.02587586 -0.020516096
-0.037828363 -0.0035171355 0.034324586 0.059835143 -0.028810065 -0.016283877 0.056999113 -0.050594974
00000000: c64a 1e3d 714a 453d 788f 38bd 6b77 163e
00000010: e717 a13d f954 9b3c c2d7 3dbd 5067 d2bd
00000020: 044f 913d 3270 453d 6f71 86bd 05dd 923d
00000030: 3bf0 cfbd 3ca0 9e3c a501 c53d c344 afbc
00000040: 8df3 df3b 82f7 51bc dbf9 a4bc 67e8 a3bd
00000050: 44d1 a0bd be37 abb9 19b5 dcbd a385 3d3d
00000060: 6cac 093b 37fc 26bd 5393 a2bc de0c fc3c
00000070: 1046 2cbd 4b39 813c 8bdb 45bd 5d4d 353d
00000080: 172c a13d 50e2 7cbb 87d8 a83c b97f 593d
00000090: c123 563c e5f5 d03a 9f40 d3bc 2940 8c3c
000000a0: bfc3 d4bc 33a1 c2bd 1a5b 15bd 2157 06bd
000000b0: 669a 713d eb35 98bc 7ba7 4fbc 2635 30ba
000000c0: 2d03 623c e7ad b73c d6c5 4f3d 7b89 4ebd
000000d0: c4cb 883d c2e5 c0bd 1ce5 c3bd ea97 97bd
000000e0: bbf9 21bc 26cf d7bc 36a2 4e3c 668b 1a3c
000000f0: d239 89bd 4917 823d 95b0 143d 437c 0a3e
00000100: faf1 e23d 71dd b03d cd33 28bd d300 db3c
00000110: f19c 2cbd 63dc 28bd 5fda ab3d 5285 f33c
00000120: f552 edbc 3f7e 9b3d 0a40 443b a5f0 9bbc
00000130: fd18 b53d 9760 b4bc e109 39bd 995f 38bd
00000140: 5f39 503c f698 953d a139 833a 2ede 0b3d
00000150: 7e15 0f3d de5e 3b3d a651 023d 9259 b33d
00000160: 889c 99bd 7aad 3d3d 1ce9 95bd bc87 db3d
00000170: 97b9 113c 1e9a cfbc 2c4a 99bd 7d70 fbbc
00000180: 49f1 24bd e330 d33c aff4 22bc 1fd1 d73c
00000190: 8e21 bb3c cef1 75bc 736d d5bd 4ecf 0ebd
000001a0: 13fd a5bd 36b0 41bd 7cf9 123d 3374 f7bc
000001b0: 8781 15bd cfb8 c2bc b18e 94bc 04fd 203d
000001c0: 5738 f2bc 1282 573b 8313 843d f42b 2e3d
000001d0: ce64 b93d 08a0 3fbd 9df9 d33c 5f11 a8bc
000001e0: eaf1 1abd be7f 66bb f097 0c3d b215 753d
000001f0: 1603 ecbc c465 85bc e777 693d ad3c 4fbd

layers.3.weight f4 [2, 128, 1, 1]
-0.021949122 -0.034450375 0.11246881 -0.15557028 0.0265901 0.09562288 0.05403825 -0.22243693
-0.017498443 0.07533777 -0.10205701 -0.08065735 -0.029038517 0.04814042 -0.12576145 -0.060717933
0.023802912 -0.15950996 0.031445663 -0.0001886501 0.07344325 1.2790117e-08 -0.12001216 -0.10223499
-0.01967777 -0.14149217 -0.0049439473 0.050407518 0.03907837 -0.12836276 0.10379575 0.13752003
-0.015012227 0.046703365 0.110333115 -0.0719781 -0.025681702 0.026445705 -0.06882857 0.08850411
0.0100815445 -0.10806328 -0.04264025 -0.0134747755 -0.0482987 0.0066803736 -0.09692067 -0.025556868
-0.09704419 -0.06459904 0.101051114 -0.069243856 -0.046464734 -0.011715406 -0.02617419 0.044532374
0.0030367514 0.011245775 -0.043562382 0.09164365 -0.031421296 -0.059621263 -0.14033057 0.18062492
-0.12223487 -0.09110925 -0.07071614 -0.0046293987 0.01739524 -0.027022678 0.065238155 -0.07001194
0.10298562 -0.10273251 0.094744846 0.047396313 -0.033960596 0.0035781777 0.055963952 -0.0320972
0.01078129 0.1724473 0.117433615 0.020816132 0.007472323 -0.09656795 -0.098909356 0.07504706
0.11438187 -0.09389844 -9.580207e-05 -0.22554472 -0.03288 0.019219125 -0.016957656 0.009816958
-0.052228678 -0.18229067 -0.122975744 0.023830485 0.08439951 0.008799779 -0.14280112 -0.036161214
-0.02801712 -0.0055006705 0.028888829 -0.008372622 0.04005834 0.120158404 -0.012139793 -0.12634358
-0.00032577792 0.1322673 -0.09485937 0.029536942 0.09379661 0.0876424 -0.05077173 -0.0022609273
0.070397004 0.025243016 0.13748874 -0.009011207 0.07301861 0.007647718 0.0011928187 0.02800161
0.059429534 -0.17920808 -0.10652161 -0.16997539 0.11833432 -0.03442848 0.017733254 0.15230367
0.04817149 0.05962464 -0.107913174 0.022586677 -0.09027749 -0.08233867 0.06176622 0.04330313
-0.15304732 0.035527524 -0.065854855 -0.15586604 0.081989385 -5.9179763e-09 -0.12145598 -0.087724335
0.3059169 0.045958 -0.0047687166 0.11727889 0.046379037 0.018643342 0.048150726 0.062047366
0.04135083 -0.3251393 -0.12732738 0.14228022 -0.11155947 0.069900125 0.08339438 0.0410349
-0.03297757 -0.05026488 -0.050718743 -0.0015781104 0.07960409 0.019632053 0.10446918 0.07568476
0.10601305 -0.010942184 0.051480833 -0.026617713 0.05543725 0.10150298 -0.060834058 -0.13987555
-7.9831e-14 0.012159394 0.0022986534 0.0254102 -0.18723631 0.0819665 -0.028432446 -0.21396427
0.016369764 0.026152022 0.007600015 0.03924338 -0.003739659 -0.018712992 0.051935032 -0.027514508
0.05874054 0.03617188 -0.019832611 -0.037353724 0.03856013 0.016437994 0.101681486 -0.061473288
0.11590776 0.17694704 -0.22713676 0.023366865 0.07979054 0.0009427585 -0.070449814 -0.12915482
0.19419989 0.12996148 -0.12166673 -0.000863576 -0.20498148 -0.03826787 -0.036022134 0.011074294
-0.038929082 -0.028066376 0.021742148 0.101438135 -0.1130908 -0.045059066 -0.108113416 -0.015243007
0.12810588 0.004065794 -0.30662814 0.017288575 -0.054018598 0.028634742 -0.0061034607 -0.06409635
-0.06610777 0.06314788 0.0075337477 0.03636674 -0.3050437 -0.1388843 -0.20794493 0.08817832
0.0077370657 0.040466335 0.0506679 0.026458917 -0.09275621 0.0012511917 0.044064503 0.039222237
00000000: a5ce b3bc d61b 0dbd 0c56 e63d d14d 1fbe
00000010: 7bd3 d93c eed5 c33d 3657 5d3d 82c6 63be
00000020: e558 8fbc b04a 9a3d 4403 d1bd ae2f a5bd
00000030: 2fe2 edbc e42e 453d 9cc7 00be 5eb3 78bd
00000040: 53fe c23c 9456 23be 2bcd 003d 60d0 45b9
00000050: 6a69 963d 88bb 5b32 efc8 f5bd 9460 d1bd
00000060: 4633 a1bc 53e3 10be d600 a2bb 1d78 4e3d
00000070: a410 203d 8771 03be de92 d43d 0dd2 0c3e
00000080: d8f5 75bc 074c 3f3d 54f6 e13d 4169 93bd
00000090: 6f62 d2bc aaa4 d83c fef5 8cbd a541 b53d
000000a0: 102d 253c 4850 ddbd 8ba7 2ebd 4ec5 5cbc
000000b0: dcd4 45bd 09e7 da3b 587e c6bd a35c d1bc
000000c0: 1bbf c6bd 804c 84bd e3f3 ce3d b9cf 8dbd
000000d0: ce51 3ebd f9f1 3fbc 416b d6bc 9467 363d
000000e0: 3c04 473b 3340 383c 786e 32bd aaaf bb3d
000000f0: 9eb3 00bd 6d35 74bd d1b2 0fbe bdf5 383e
00000100: 4756 fabd 7d97 babd a0d3 90bd 36b2 97bb
00000110: 7680 8e3c aa5e ddbc 959b 853d 6c62 8fbd
00000120: 20ea d23d 6c65 d2bd 9609 c23d a322 423d
00000130: 441a 0bbd dc7f 6a3b 753a 653d 5b78 03bd
00000140: 02a4 303c 0696 303e 0981 f03d 9886 aa3c
00000150: 63da f43b 6bc5 c5bd fd90 cabd 46b2 993d
00000160: 0b41 ea3d d34d c0bd 58e9 c8b8 32f5 66be
00000170: 2ead 06bd 6d71 9d3c c8ea 8abc 4ed7 203c
00000180: bded 55bd 68aa 3abe b5da fbbd 2638 c33c
00000190: a6d9 ac3d f32c 103c 753a 12be c81d 14bd
000001a0: 2984 e5bc f83e b4bb 44a8 ec3c 522d 09bc
000001b0: 3714 243d 9c15 f63d fbe5 46bc 3660 01be
000001c0: 2ccd aab9 1471 073e a145 c2bd 75f7 f13c
000001d0: 7018 c03d dc7d b33d 04f6 4fbd 112c 14bb
000001e0: 4e2c 903d 71ca ce3c d9c9 0c3e bea3 13bc
000001f0: c88a 953d b599 fa3b 5b58 9c3a a263 e53c
00000200: 626c 733d 5382 37be 0028 dabd 070e 2ebe
00000210: 4459 f23d e104 0dbd 5445 913c 7ef5 1b3e
00000220: 784f 453d f738 743d 9501 ddbd b207 b93c
00000230: 68e3 b8bd 2da1 a8bd 93fe 7c3d 9f5e 313d
00000240: 70b8 1cbe 4f85 113d e9de 86bd 599b 1fbe
00000250: 0dea a73d 1257 cbb1 eabd f8bd d1a8 b3bd
00000260: 24a1 9c3e 753e 3c3d e542 9cbb ea2f f03d
00000270: f2f7 3d3d ecb9 983c b239 453d 6125 7e3d
00000280: 7d5f 293d a978 a6be 1c62 02be e8b1 113e
00000290: 4b79 e4bd cc27 8f3d acca aa3d 3614 283d
000002a0: 7d13 07bd 8ce2 4dbd 75be 4fbd 99d8 ceba
000002b0: 7807 a33d 66d3 a03c f0f3 d53d 9d00 9b3d
000002c0: 5f1d d93d d946 33bc 91dd 523d 640d dabc
000002d0: 2b12 633d cbe0 cf3d 222d 79bd 893b 0fbe
000002e0: 70c3 b3a9 3238 473c 01a5 163b 0d29 d03c
000002f0: e0ba 3fbe 0dde a73d 29eb e8bc 7319 5bbe
00000300: e219 863c c43c d63c 8c09 f93b abbd 203d
00000310: 1115 75bb fd4b 99bc d4b9 543d 1b66 e1bc
00000320: ec99 703d f728 143d 0078 a2bc 3800 19bd
00000330: 3af1 1d3d f9a8 863c 623e d03d 6acb 7bbd
00000340: 0c61 ed3d 9b31 353e 8a96 68be de6b bf3c
00000350: 3969 a33d 7423 773a fe47 90bd 2941 04be
00000360: 56dc 463e 9f14 053e 682c f9bd 9b61 62ba
00000370: aae6 51be c5be 1cbd f28b 13bd f570 353c
00000380: 1a74 1fbd 75eb e5bc 971c b23c ccbe cf3d
00000390: 269c e7bd db8f 38bd 916a ddbd cebd 79bc
000003a0: 302e 033e 5a3a 853b 5dfe 9cbe c5a0 8d3c
000003b0: 9b42 5dbd 6893 ea3c 8aff c7bb f244 83bd
000003c0: 8363 87bd ad53 813d a8dd f63b 4af5 143d
000003d0: b02e 9cbe b037 0ebe 84ef 54be d696 b43d
000003e0: 3687 fd3b 07c0 253d 2589 4f3d 5fc0 d83c
000003f0: f8f6 bdbd 07ff a33a fb7c 343d 7fa7 203d

layers.3.bias f4 [2]
0.11223906 0.085684754
00000000: 98dd e53d 7d7b af3d

act_fc1.weight f4 [64, 72]
-0.002601835 -0.006326681 -0.008489516 -0.034998238 -0.0027589346 0.0054008956 -0.014285777 -0.04653306
0.012581657 -0.022643557 -0.026068022 -0.025047094 0.0072190883 0.018048294 -0.026284216 -0.022762079
-0.0037269257 0.030584859 -0.007653332 -0.067718394 -0.057956953 -0.009906692 -0.024003943 -0.056653377
-0.028151657 -0.009230744 -0.049607266 -0.0014356244 -0.06040624 0.011414651 0.018603822 -0.056118693
-0.011901674 -0.060959242 -0.01907665 -0.03962376 -0.032388683 -0.049215306 -0.033951472 -0.045739975
-0.04911334 -0.020544296 0.028262489 -0.0394206 -0.021918358 -0.03472004 -0.052409373 -0.02651735
-0.104067415 -0.0060082767 0.00026411127 -0.002615545 -0.017473727 -0.020440988 -0.042337433 -0.0071498677
0.009910512 -0.029770618 -0.048158344 0.019296082 -0.06307875 -0.130056 0.02150986 0.028494697
-0.0763528 0.017369311 -0.0074699833 0.008447471 -0.07028859 0.0342213 -0.106643684 -0.017009713
1.0612563e-12 -5.38337e-13 -9.461342e-13 -1.2533656e-12 -1.5271852e-12 3.1011237e-12 3.6466333e-12 1.5965604e-12
-9.573305e-13 1.0513048e-12 -6.108839e-13 -9.873444e-16 -1.6401241e-13 1.824382e-12 2.8693818e-12 -3.6572977e-13
4.463779e-14 -1.727254e-12 1.0838932e-11 8.426957e-12 -2.8305624e-13 1.57399e-13 -1.2602829e-12 1.6242204e-12
-3.3225262e-13 -4.360156e-12 -3.0155312e-12 -2.565309e-13 -8.108644e-12 -2.829765e-12 1.3819739e-12 4.853217e-13
-1.0934422e-11 6.6775784e-13 4.4957823e-13 -1.02936095e-08 -0.0062943352 -0.00685848 0.0023505618 -0.0149190845
-0.0030702453 -8.1602695e-05 -0.00014838808 -0.035352685 -0.024479404 -0.028436579 -0.041236863 -0.0088857515
-0.03853627 0.009152338 -0.012544844 -0.05147297 0.004829316 -0.00018430332 -0.03007478 -0.054964446
-0.04570589 -0.002244482 -0.04632153 -0.015652142 0.000637753 -0.05230783 -0.0039194827 -0.06038439
0.0043775486 -0.0017527972 -0.008564325 -0.037024636 -0.023252241 -0.0048292894 0.0027916275 -0.00034714874
-0.12916006 0.066273496 -0.069426514 0.0594355 -0.08743223 -0.10227295 -0.14727262 0.014693552
0.26563725 0.2498721 0.04310071 -0.037603993 -0.06642737 -0.0028948996 0.021330202 0.08192841
0.17046024 -0.1522286 -0.19473766 0.0072787968 -0.12957549 0.09433441 0.13967462 -0.056730323
-0.2560361 -0.039612595 0.07896329 -0.009623131 0.07782606 -0.17180988 -0.106045134 -0.1366353
0.039965086 -0.052652232 0.03926744 -0.06672747 -0.18642296 -0.2288055 -0.15622401 -0.24516748
-0.15160069 -0.09697035 -0.10452504 -0.1543437 -0.2535872 -0.13799137 -0.061292045 0.14197735
-0.076468885 0.066375025 -0.09932867 -0.12744293 -0.2509139 0.15032566 0.070377454 -0.026821334
-0.009301453 -0.09044738 -0.28122723 -0.03297917 0.17322405 -0.06044411 -0.0674977 -0.09361355
-0.10271586 0.037543576 0.012809681 -0.23660503 -0.25792643 -0.25442764 -0.19298 -0.06346353
0.26474348 0.21151987 0.08719109 0.086104475 0.054463625 -0.056455653 -0.054533675 0.46845928
0.24108967 -0.012124403 -0.108867235 -0.124323994 -0.1712373 0.040417887 0.21440786 0.16676916
-0.14568198 0.011149166 0.08039614 -0.06244387 -0.060669456 0.09865349 -0.16231225 -0.12991557
-0.03150832 0.06336592 -0.14899145 0.038990352 0.084250696 -0.10594098 -0.14327142 -0.055943664
-0.050429586 0.06727989 0.23262388 0.1153877 -0.12580125 0.07886277 -0.015516637 -0.15249422
00000000: 8c83 2abb 0c50 cfbb 9c17 0bbc 505a 0fbd
00000010: 3ecf 34bb fff9 b03b e40e 6abc 7399 3ebd
00000020: 4b23 4e3c fb7e b9bc 9b8c d5bc 902f cdbc
00000030: 1a8e ec3b 04da 933c ff51 d7bc 8a77 babc
00000040: 703f 74bb 198d fa3c cdc8 fabb f1af 8abd
00000050: 4564 6dbd ae4f 22bc eba3 c4bc 5f0d 68bd
00000060: 4e9e e6bc 8c3c 17bc fd30 4bbd 902b bcba
00000070: 896c 77bd 8404 3b3c 0b67 983c b7dc 65bd
00000080: 3dff 42bc 66b0 79bd a246 9cbc 864c 22bd
00000090: ffa9 04bd fd95 49bd b310 0bbd d759 3bbd
000000a0: 122b 49bd 834c a8bc bc86 e73c 7f77 21bd
000000b0: 218e b3bc 9a36 0ebd 36ab 56bd ea3a d9bc
000000c0: 4c21 d5bd 14e1 c4bb 6a78 8a39 9069 2bbb
000000d0: 1025 8fbc dc73 a7bc 046a 2dbd 7049 eabb
000000e0: b35f 223c 83e1 f3bc af41 45bd d112 9e3c
000000f0: 6f2f 81bd 662d 05be 7235 b03c b66d e93c
00000100: db5e 9cbd 164a 8e3c c3c6 f4bb 4367 0a3c
00000110: 77f3 8fbd a22b 0c3d 0168 dabd f457 8bbc
00000120: ca5b 952b 4587 17ab 1428 85ab 4165 b0ab
00000130: a5ee d6ab e138 5a2c f44d 802c 27b2 e02b
00000140: 77bb 86ab 3ff5 932b d3f2 2bab 944a 8ea6
00000150: 5ca9 38aa 2561 002c 30ea 492c 37e3 cdaa
00000160: de07 4929 e216 f3ab 36ae 3e2d a43f 142d
00000170: b458 9faa 2c37 312a 7a5e b1ab b596 e42b
00000180: a60a bbaa cb68 99ac fb32 54ac 006a 90aa
00000190: 16a6 0ead 8420 47ac db7e c22b 1d9b 082b
000001a0: 425c 40ad 06f5 3b2b 0d17 fd2a c6d7 30b2
000001b0: b640 cebb 1abd e0bb e20b 1a3b 2d6f 74bc
000001c0: 2b36 49bb 1d22 abb8 9f98 1bb9 facd 10bd
000001d0: 0889 c8bc d4f3 e8bc fce7 28bd 8b95 11bc
000001e0: 35d8 1dbd b0f3 153c e488 4dbc 52d5 52bd
000001f0: 3d3f 9e3b 8c41 41b9 635f f6bc 6622 61bd
00000200: 1936 3bbd 2918 13bb a5bb 3dbd ec38 80bc
00000210: e12e 273a bc40 56bd 016f 80bb 9f55 77bd
00000220: 8a71 8f3b 1dbe e5ba 6251 0cbc 25a7 17bd
00000230: 7c7b bebc 043f 9ebb bdf3 363b 8401 b6b9
00000240: 8942 04be 66ba 873d 7d2f 8ebd a472 733d
00000250: ab0f b3bd 7b74 d1bd a2ce 16be 39bd 703c
00000260: 9b01 883e 79de 7f3e 5f8a 303d a506 1abd
00000270: 130b 88bd 5bb8 3dbb adbc ae3c 15ca a73d
00000280: 218d 2e3e d0e1 1bbe 4f69 47be f982 ee3b
00000290: 70af 04be 6632 c13d dd06 0f3e 0e5e 68bd
000002a0: 2a17 83be d140 22bd 81b7 a13d 56aa 1dbc
000002b0: 4563 9f3d eeee 2fbe 312e d9bd 20ea 0bbe
000002c0: 6eb2 233d dea9 57bd e5d6 203d 69a8 88bd
000002d0: a9e5 3ebe fd4b 6abe 30f9 1fbe 2f0d 7bbe
000002e0: 363d 1bbe 6498 c6bd 3911 d6bd 460c 1ebe
000002f0: 2ed6 81be 9c4d 0dbe 5e0d 7bbd 8362 113e
00000300: b89b 9cbd a1ef 873d d46c cbbd 6680 02be
00000310: c977 80be f8ee 193e 0e22 903d 6ab8 dbbc
00000320: 1f65 18bc 7a3c b9bd 04fd 8fbe 2b15 07bd
00000330: a561 313e 3e94 77bd 3c3c 8abd 76b8 bfbd
00000340: b15c d2bd 4bc7 193d b2df 513c 9748 72be
00000350: ef0e 84be 5744 82be 8d9c 45be 2bf9 81bd
00000360: 758c 873e aa98 583e 3e91 b23d 8b57 b03d
00000370: 4015 5f3d 0b3e 67bd b45e 5fbd e5d9 ef3e
00000380: 36e0 763e 6fa5 46bc c9f5 debd 949d febd
00000390: d558 2fbe 3a8d 253d bc8d 5b3e 89c5 2a3e
000003a0: a82d 15be feaa 363c bba6 a43d 25c5 7fbd
000003b0: 8980 78bd d70a ca3d 2f35 26be 9608 05be
000003c0: de0e 01bd fec5 813d 3791 18be 59b4 1f3d
000003d0: a18b ac3d 96f7 d8bd beb5 12be 2f25 65bd
000003e0: 418f 4ebd 0aca 893d f434 6e3e 6350 ec3d
000003f0: 0bd2 00be ce82 a13d 7e39 7ebc 7227 1cbe

act_fc1.bias f4 [64]
-0.053010233 -0.0062551973 -0.23345289 -0.10948779 -0.019670403 0.027285542 -0.022150623 -0.09235689
-0.22566853 0.35689676 -0.08591489 -0.052358247 0.6501549 0.117112204 0.733261 -0.057488345
0.10725903 0.13146852 0.58242744 0.1210568 -0.07243622 -0.06979434 -0.111428015 -0.024379918
0.062247533 -0.08985755 0.07010801 -0.025831437 -0.03167788 -0.09829828 0.06015254 -0.0787082
-0.012996401 -0.05615093 -0.041975055 -0.11376351 0.1301848 0.37352106 0.2059432 -0.022993846
-0.0150717655 0.6156869 -0.052309733 0.013208036 -0.039195932 -0.01649601 0.023922017 -0.06959699
0.747996 -0.102161914 -0.04202339 -0.12813132 -0.066091545 0.16033272 -0.0024759513 0.6164272
-0.07146653 -0.049358737 -0.009556657 0.04204291 -0.10843529 -0.08355508 -0.04884667 0.16682093
00000000: 4221 59bd 66f8 ccbb 460e 6fbe 223b e0bd
00000010: d323 a1bc ee85 df3c 3975 b5bc 9c25 bdbd
00000020: a715 67be 2cbb b63e 25f4 afbd 9a75 56bd
00000030: 8d70 263f 86d8 ef3d feb6 3b3f e678 6bbd
00000040: 9faa db3d af9f 063e f719 153f a1ec f73d
00000050: 7159 94bd 56f0 8ebd 5f34 e4bd 65b8 c7bc
00000060: 45f7 7e3d 3c07 b8bd ca94 8f3d 739c d3bc
00000070: aac0 01bd 9c50 c9bd 8362 763d c431 a1bd
00000080: dbee 54bc 84fe 65bd 09ee 2bbd d8fc e8bd
00000090: 2a4f 053e 273e bf3e c6e2 523e 975d bcbc
000000a0: 91ef 76bc a89d 1d3f bb42 56bd 8566 583c
000000b0: ea8b 20bd a422 87bc 1bf8 c33c de88 8ebd
000000c0: aa7c 3f3f 443a d1bd b820 2cbd db34 03be
000000d0: 015b 87bd 432e 243e 9243 22bb 2cce 1d3f
000000e0: 0b5d 92bd 632c 4abd 8693 1cbc 3035 2c3d
000000f0: 5213 debd ed1e abbd 7213 48bd 1bd3 2a3e

act_fc2.weight f4 [36, 64]
0.011298183 -0.0013986488 -0.011724939 0.057464264 0.04001506 -0.09131622 0.0053708376 -0.012136549
-0.064541355 -0.33711183 0.041762978 -0.016798401 -0.28023902 -0.04767627 -0.31531674 0.012938906
-0.11890249 -0.08994001 0.015944485 0.09607864 0.00036020824 -0.18009049 -0.047773387 0.021937035
-0.18231335 -0.00844716 -0.0015241684 1.2670143e-10 -0.042710084 -0.18227704 -0.041256443 -0.020012131
5.3650638e-05 0.06889681 -0.017222902 -0.0067669335 -0.022244755 0.121546775 -0.26654744 -0.05195233
0.037946444 -0.32575744 -0.08286299 0.008949982 0.002200464 7.522743e-12 -0.18048696 -0.1119037
-0.33126312 0.3167876 0.011182199 -0.13172221 -0.052934803 -0.13467537 -1.3646207e-12 -0.23993395
0.009014378 -0.01588961 -0.11007019 0.09965573 -0.051317465 -0.02564647 0.104458965 -0.057852287
0.0031707594 2.899835e-10 -0.029025735 -0.0011506123 0.36668092 -0.11370962 -0.011400129 0.0039373734
0.055952147 -0.026933271 -0.030651588 0.012547253 -0.074964665 -0.013466854 -0.2955805 -0.08594422
-0.2232888 0.07960264 -0.065493226 -0.31791106 0.03695093 0.15345523 -0.011242858 -0.008838616
-0.012571897 0.04127589 0.015375602 1.2273926e-10 -0.08581605 -0.029475989 -0.055077117 0.011124407
-0.002305815 0.05835405 -0.055577714 0.06283137 -0.17338882 0.05392004 -0.13580768 0.09411084
0.028673131 -0.23043686 -0.01177461 -0.0164205 -0.00024840987 7.529931e-12 -0.23501842 0.00059366587
0.020454839 0.039191928 -0.0025849137 -0.0126638785 -0.10253071 -0.20006089 4.978132e-14 -0.11904398
-0.0054451167 -0.05159066 0.010658124 0.023072314 -0.009184013 -0.02846191 -0.15193188 -0.007895153
-0.00958262 -0.00032177317 0.028066639 -0.0144005725 0.036050133 -0.16558205 -0.001018531 -0.0002418119
0.012521901 -0.1988977 -0.044032045 -0.0435774 -0.09866422 -0.076666825 -0.28345615 -0.10134393
0.054601405 0.010154247 -0.2660681 0.13906552 -0.049041096 -0.19567853 -0.012893273 0.11922318
-0.018364744 0.015897898 -0.047166202 -4.7776495e-11 -0.07450406 0.0141171245 -0.058315493 0.027328588
0.000335545 -0.025792431 0.036004324 -0.09559924 0.10552418 -0.105683126 0.095087305 -0.3121363
-0.1083596 -0.12559395 -0.043338705 -0.041532587 -0.0019074811 -1.784103e-12 -0.074589886 -0.08398088
-0.28361225 0.20987423 -0.0022272079 -0.18743932 -0.0817923 0.1421608 -1.643227e-12 0.044004768
-0.008524714 -0.097836085 -0.043484222 -0.015084288 -0.09357322 -0.004085297 -0.07157122 0.027918994
0.0016364292 7.815001e-13 -0.014933321 0.042216968 -0.1575899 0.1764636 0.00026985927 0.007062903
0.09521747 -0.19193017 -0.09633998 0.013911238 -0.11263354 0.017523274 -0.15201952 -0.064776935
-0.11407423 -0.0027080858 -0.06504131 0.06923666 -0.045988545 -0.076347165 0.005712647 0.02132985
-0.13765149 0.021701252 0.013048718 8.5821614e-11 -0.014622787 -0.047200672 0.030750522 -0.023300773
2.1569889e-08 -0.07113047 -0.011145634 0.003539344 0.040344384 -0.054011542 -0.2259862 -0.117038585
0.023588292 -0.22283342 -0.10912002 0.008826054 0.00019121073 -1.0514823e-12 -0.01615228 -0.12370237
-0.19468017 0.17055549 -0.010003371 0.023285678 -0.09546546 0.071942165 5.6266535e-15 0.14808734
-0.03477411 -0.044185337 -0.042600837 0.13389991 0.012077862 -0.09668402 -0.25110316 0.028013736
00000000: 041c 393c de52 b7ba f519 40bc a65f 6b3d
00000010: d5e6 233d 0004 bbbd dafd af3b 60d8 46bc
00000020: 422e 84bd ec99 acbe a80f 2b3d cd9c 89bc
00000030: 7d7b 8fbe 3148 43bd 3271 a1be b5fd 533c
00000040: 2683 f3bd 7832 b8bd 029e 823c e1c4 c43d
00000050: 55da bc39 a469 38be 07ae 43bd 4cb5 b33c
00000060: 5ab0 3abe f565 0abc 9bc6 c7ba 484f 0b2f
00000070: c5f0 2ebd d5a6 3abe 84fc 28bd 7bf0 a3bc
00000080: ef06 6138 c519 8d3d 0b17 8dbc 27bd ddbb
00000090: a23a b6bc 84ed f83d e878 88be f7cb 54bd
000000a0: bb6d 1b3d aec9 a6be 12b4 a9bd f2a2 123c
000000b0: a935 103b 6c57 042d 93d1 38be c42d e5bd
000000c0: 529b a9be fc31 a23e 8b35 373c 30e2 06be
000000d0: 2ad2 58bd 57e8 09be a40d c0ab 3fb1 75be
000000e0: 0bb1 133c ed2a 82bc 7b6c e1bd 4e18 cc3d
000000f0: 4332 52bd 8c18 d2bc 95ee d53d 85f6 6cbd
00000100: 84cc 4f3b 8d6b 9f2f 61c7 edbc 24d0 96ba
00000110: 9abd bb3e 97e0 e8bd 9bc7 3abc 1505 813b
00000120: 142e 653d 2aa3 dcbc 0a19 fbbc fe92 4d3c
00000130: 1387 99bd 14a4 5cbc 5456 97be 8603 b0bd
00000140: d2a5 64be b506 a33d 5021 86bd 3dc5 a2be
00000150: dc59 173d 5e23 1d3e f733 38bc d8cf 10bc
00000160: 5cfa 4dbc e810 293d f3e9 7b3c 08f4 062f
00000170: 53c0 afbd a177 f1bc 8b98 61bd 2543 363c
00000180: 281d 17bb a804 6f3d 75a5 63bd bcad 803d
00000190: d78c 31be 43db 5c3d 2b11 0bbe 2fbd c03d
000001a0: eae3 ea3c a4f7 6bbe 4bea 40bc 4984 86bc
000001b0: 023d 82b9 cb77 042d aba8 70be 3ea0 1b3a
000001c0: e890 a73c b787 203d a867 29bb 287c 4fbc
000001d0: 9ffb d1bd c3dc 4cbe f431 6029 55cd f3bd
000001e0: f36c b2bb ba50 53bd 6a9f 2e3c 2602 bd3c
000001f0: 8b78 16bc f428 e9bc 0894 1bbe ac5a 01bc
00000200: 6c00 1dbc aab3 a8b9 02ec e53c 61f0 6bbc
00000210: 4ea9 133d 578e 29be 3b80 85ba e38e 7db9
00000220: a928 4d3c d7ab 4bbe f25a 34bd 377e 32bd
00000230: 7710 cabd 7f03 9dbd 2a21 91be 688d cfbd
00000240: b9a5 5f3d 005e 263c 143a 88be 3167 0e3e
00000250: 51df 48bd f45f 48be 4e3e 53bc 482b f43d
00000260: a971 96bc 4f3c 823c 5931 41bd 8d1f 52ae
00000270: 9695 98bd 834b 673c 3adc 6ebd 34e0 df3c
00000280: 16ec af39 a64a d3bc 4579 133d 89c9 c3bd
00000290: 101d d83d 6570 d8bd 22bd c23d 54d0 9fbe
000002a0: a3eb ddbd b39b 00be ed83 31bd 131e 2abd
000002b0: 7204 faba 1617 fbab 95c2 98bd 2bfe abbd
000002c0: a035 91be 45e9 563e 59f6 11bb 18f0 3fbe
000002d0: b982 a7bd 9a92 113e 7e43 e7ab 583e 343d
000002e0: 3eab 0bbc 495e c8bd 831c 32bd 1724 77bc
000002f0: 51a3 bfbd f5dd 85bb ef93 92bd 60b6 e43c
00000300: 747d d63a 04f9 5b2b e3aa 74bc b3eb 2c3d
00000310: 3f5f 21be e0b2 343e e67b 8d39 ed6f e73b
00000320: 6001 c33d 5889 44be e54d c5bd f6eb 633c
00000330: 6aac e6bd f88c 8f3c 01ab 1bbe c5a9 84bd
00000340: c09f e9bd 247a 31bb 6134 85bd f3cb 8d3d
00000350: 7c5e 3cbd e75b 9cbd 2831 bb3b f0bb ae3c
00000360: 83f4 0cbe d3c6 b13c 4aca 553c 46b9 bc2e
00000370: 6a94 6fbc 7e55 41bd 85e8 fb3c 43e1 bebc
00000380: b048 b932 daac 91bd 2d9c 36bc 57f4 673b
00000390: 2740 253d 353b 5dbd ed68 67be edb1 efbd
000003a0: 3c3c c13c 722e 64be 517a dfbd 279b 103c
000003b0: bd7f 4839 a4fb 93ab c951 84bc ab57 fdbd
000003c0: 3d5a 47be 19a6 2e3e 2ee5 23bc 9bc1 be3c
000003d0: 6583 c3bd 6a56 933d b8b8 ca27 35a4 173e
000003e0: 4c6f 0ebd affb 34bd 377e 2ebd 0f1d 093e
000003f0: 3ae2 453c 4502 c6bd 9890 80be 107d e53c

act_fc2.bias f4 [36]
-0.50395286 -0.541512 -0.41339877 -0.4677423 -0.4757911 -0.6718615 -0.5129012 0.39234668
0.09999239 0.15288968 0.39427444 -0.551013 -0.31755605 -0.021328634 0.43028498 0.5625979
0.035610866 -0.43259087 -0.3290616 0.07643442 0.59576535 0.43019056 0.12816754 -0.39122906
-0.5635467 0.18081354 0.10410727 0.112515636 0.312564 -0.6262646 -0.5680286 -0.61746246
-0.44145483 -0.39968067 -0.74654955 -0.5442349
00000000: 0e03 01bf 88a0 0abf 01a9 d3be eb7b efbe
00000010: e49a f3be 1eff 2bbf 7e4d 03bf aae1 c83e
00000020: cfc8 cc3d 1d8f 1c3e 57de c93e 300f 0dbf
00000030: b596 a2be 63b9 aebc 504e dc3e 6a06 103f
00000040: b3dc 113d 8d7c ddbe c37a a8be a689 9c3d
00000050: 1484 183f f041 dc3e 5a3e 033e 2d4f c8be
00000060: 9944 10bf 2f27 393e 3136 d53d 996e e63d
00000070: 6308 a03e e052 20bf 536a 11bf 0512 1ebf
00000080: 5e06 e2be f2a2 ccbe df1d 3fbf fa52 0bbf
