AlphaZero_Gomoku/model/best_policy_gnn.model (torch, 71236 bytes, 10 tensors)

layers.0.lin.weight f4 [32, 4]
0.004217147 -0.04493327 -0.030657321 -0.14156808 -0.017456403 -0.013688602 0.0003950152 -0.002457693
-0.006793466 -0.0021527424 -1.1583915e-11 -0.075237416 -1.1310002 0.56842154 0.7380602 -0.1285531
0.5094887 0.1376526 -0.41810063 -0.22934617 -0.013110771 -0.040768947 -2.1564835e-10 -0.055690397
-0.721689 0.23091286 0.43909666 -0.22351995 0.35123864 0.11028662 -0.3678286 -0.21712264
-0.025419679 -0.03499586 -6.4959704e-07 -0.00029045422 -0.04270672 -0.06882287 -0.00022668325 -0.035081655
-0.092768885 -0.22812152 -0.016136348 -0.07448795 -0.5332487 0.2614893 0.35340807 0.070874974
-0.6234077 0.32391402 0.46441308 0.50588447 -0.021679783 -0.09613053 -0.04835504 -0.05207643
-0.009520548 -0.11324967 -0.019674765 -0.12463062 -0.51310366 0.18666027 0.2618743 -0.20747417
-0.0013735401 -0.028977362 -0.0040148045 -0.0008325598 -0.1370907 0.16583027 -0.6218598 -0.13910815
-0.015382721 -0.084528774 1.5836895e-05 -0.07788272 -0.024873251 -0.34278655 -0.04819736 -0.20396885
0.4387424 -0.029580671 -0.12709866 -0.16083625 -0.730652 0.35845545 0.44273624 -0.068694405
-0.0107975425 -0.034708854 -0.049378533 -0.18126222 -0.050946366 -0.036319267 -4.9417287e-07 -0.034338072
-0.023183258 -0.000958273 -4.9020565e-10 -0.03628706 0.09300605 -0.073392056 0.020234527 0.050413135
0.25866133 0.29521364 -0.9953101 -0.18465681 -0.56449664 0.28400835 0.4030245 0.43637314
-0.030323239 0.09530365 -0.35280448 -0.08985728 0.11485631 -0.087356724 -0.0012763669 -0.13715522
-0.042315505 -0.39821243 -0.028566461 -0.14587517 -0.043742076 -0.00749681 -0.00014978637 -0.00012315885
00000000: fe2f 8a3b f30b 38bd 1025 fbbc 39f7 10be
00000010: bb00 8fbc 2846 60bc 0b1a cf39 3f11 21bb
00000020: b99b debb 0615 0dbb 51c9 4bad 1316 9abd
00000030: 9dc4 90bf 1384 113f 83f1 3c3f 6da3 03be
00000040: da6d 023f cef4 0c3e 4911 d6be b9d9 6abe
00000050: 8fce 56bc 57fd 26bd 9d1b 6daf 9d1b 64bd
00000060: 9cc0 38bf 6c74 6c3e 47d1 e03e 6ae2 64be
00000070: 8dd5 b33e f4dd e13d 0854 bcbe 6655 5ebe
00000080: ee3c d0bc d257 0fbd f85f 2eb5 1b48 98b9
00000090: 3eed 2ebd 01f3 8cbd d2b1 6db9 c8b1 0fbd
000000a0: 9dfd bdbd b098 69be 6030 84bc 238d 98bd
000000b0: fd82 08bf ede1 853e e7f1 b43e e626 913d
000000c0: a697 1fbf 0fd8 a53e 8dc7 ed3e a581 013f
000000d0: cd99 b1bc 15e0 c4bd ef0f 46bd 184e 55bd
000000e0: 13fc 1bbc 71ef e7bd f92c a1bc 573e ffbd
000000f0: c35a 03bf df23 3f3e 6314 863e 1c74 54be
00000100: 5c08 b4ba ef61 edbc 9f8e 83bb 2440 5aba
00000110: 8161 0cbe 69cf 293e 3432 1fbf 5e72 0ebe
00000120: cf07 7cbc 6c1d adbd 79d9 8437 fa80 9fbd
00000130: fdc2 cbbc b881 afbe 986a 45bd 36dd 50be
00000140: d8a2 e03e 2a53 f2bc 2726 02be 42b2 24be
00000150: 020c 3bbf 7987 b73e 53ae e23e a7af 8cbd
00000160: 2de8 30bc df2a 0ebd 2541 4abd ce9c 39be
00000170: 23ad 50bd 83c3 14bd 4da7 04b5 14a6 0cbd
00000180: d1ea bdbc 9d34 7bba 28bf 06b0 bda1 14bd
00000190: f579 be3d 934e 96bd e1c2 a53c 017e 4e3d
000001a0: 426f 843e 3e26 973e a5cc 7ebf ad16 3dbe
000001b0: da82 10bf 8b69 913e 3a59 ce3e 4d6c df3e
000001c0: 7168 f8bc 8f2e c33d caa2 b4be 1807 b8bd
000001d0: c939 eb3d 15e8 b2bd c44b a7ba 6b72 0cbe
000001e0: 0653 2dbd 80e2 cbbe 3604 eabc 4d60 15be
000001f0: e42a 33bd cda7 f5bb f90f 1db9 3424 01b9

layers.1.lin.weight f4 [64, 32]
0.0069014286 9.551826e-12 -1.1020623e-12 0.04998671 -0.06457212 -9.789972e-12 0.008151992 0.03206535
-2.9441083e-10 5.09332e-11 -0.016745381 -0.06709091 -0.14163846 0.0005394277 0.00020232656 -0.00072456204
2.029881e-07 0.015278344 -9.524869e-06 3.4788595e-06 -0.105576895 0.02656064 -0.0010511694 -3.4782784e-12
-1.2039476e-06 0.013506522 -0.026229763 -0.102845006 0.0011136135 0.0017484188 -0.00085440715 6.51228e-11
-0.04015822 0.00555959 -1.1524231e-12 -0.068976104 0.06278868 5.2906735e-13 -0.0016740027 -0.079789355
-1.8639118e-11 3.436408e-11 0.016315363 -0.020807823 3.2008212e-11 -0.006238926 -0.0147939455 -2.2643883e-11
-0.0006154636 -0.022563748 -0.0013134554 0.0010419544 -0.07776022 -0.01293382 -0.007825108 -1.4531894e-10
-4.475016e-12 -0.12713677 -0.047986638 -0.010545855 -1.5289717e-10 0.008771226 -0.0034663216 -1.0639769e-12
-0.0024782885 2.6544225e-10 2.6816602e-12 -0.0036170196 -0.03120182 -2.4113118e-09 1.3107528e-10 -0.008015996
-2.5242358e-10 -2.9604066e-10 4.780363e-11 -3.1687997e-10 8.006539e-11 -0.00042495297 -0.00011599838 1.85613e-08
1.472753e-10 -0.009847666 3.77714e-11 -7.682487e-05 -0.01638719 -0.00021645811 -0.006034358 1.607633e-13
1.2100396e-12 -0.014056564 -0.011230086 2.0331457e-09 -0.0009648181 -0.0001277759 3.0097518e-09 -9.1815525e-07
-0.10898808 -0.016988872 -1.2373063e-12 -0.16098504 -0.0079085445 5.782856e-11 -0.0050026127 0.056461502
6.542077e-11 -9.052892e-11 -0.03471044 -0.055172388 -0.0005417512 -0.017919488 0.0054373173 8.3182975e-05
0.002664229 0.035122856 -0.0021198667 -0.0059367223 0.002376011 -0.05456012 0.043294545 1.8187445e-10
-3.4590457e-13 -0.20384479 -0.009945806 -0.0922504 -0.0006795652 0.020270782 0.0016572207 6.966121e-11
-0.1296761 -0.036293123 -4.4737057e-12 -0.16765569 -0.102156386 8.580072e-11 0.0047180993 -0.093360394
-2.7146552e-10 -8.024481e-10 -0.011931795 -0.13614003 -0.009728066 0.041816335 0.019796396 -2.9114824e-09
-0.006526263 0.044391192 -0.00036128843 -0.012905593 0.039134305 0.016290346 0.11702881 -2.675002e-10
3.332518e-10 -0.075056635 0.0180888 -0.08837093 -1.1715051e-06 0.026254257 -0.00081044016 9.450044e-11
1.2189301e-10 -4.9780575e-12 7.068299e-14 1.4618027e-08 1.0840336e-08 2.6083027e-12 1.7148903e-08 9.0221555e-09
-1.5939071e-11 1.1792143e-12 -3.7388363e-11 -1.7697777e-08 -1.860644e-08 2.5033189e-11 2.5933918e-11 -1.39770915e-08
-1.0848379e-11 9.919702e-09 1.4628118e-11 -1.61787e-11 2.0717639e-09 -1.8770944e-08 8.016154e-12 -4.5724427e-13
3.6958248e-13 -1.2722576e-06 1.680327e-08 -1.4730373e-08 5.1742126e-09 -2.3504193e-10 -3.2733774e-11 1.1072e-11
-0.006207723 0.0016913568 4.072901e-12 -0.35535082 0.009079478 5.59349e-10 -0.19457874 0.24988721
-1.22636575e-05 -7.784125e-09 -0.079088576 -0.3123608 -0.393739 0.036479883 0.05125848 -0.0048269313
-0.0005736564 0.015660303 0.0077449665 -0.035649616 0.1679078 -0.41234958 0.0033431274 3.6338942e-11
6.919277e-11 -0.02957433 0.074604034 -0.33830118 0.051594343 0.12175578 0.030298982 2.6011664e-08
-0.07713373 2.0922968e-12 -2.2844237e-13 -0.08207955 -0.14073211 -6.413494e-13 -5.8311585e-11 0.007703787
-2.6825655e-14 -5.147851e-13 -0.022504745 -0.0022217098 -0.00014548497 1.1936925e-11 9.661055e-13 -6.140534e-12
4.2335736e-12 0.011281482 -5.0371304e-12 -6.467731e-13 -0.033951003 0.011309766 -9.846311e-06 5.2176904e-12
1.2920405e-11 -0.02211043 0.051002644 -0.026552912 2.426546e-12 1.1326122e-12 -2.1365555e-12 7.033024e-13
00000000: 6125 e23b 9a09 282d fb19 9bab ddbe 4c3d
00000010: 633e 84bd 1d3a 2cad ef8f 053c f556 033d
00000020: a4da a1af af01 602e 9c2d 89bc f666 89bd
00000030: ac09 11be 6168 0d3a 9f27 5439 89f0 3dba
00000040: f2f4 5934 0552 7a3c 00cd 1fb7 5a76 6936
00000050: b338 d8bd b395 d93c 64c7 89ba 18c3 74ac
00000060: 5397 a1b5 764a 5d3c cddf d6bc 67a0 d2bd
00000070: abf6 913a 332b e53a 4bfa 5fba e134 8f2e
00000080: f27c 24bd 392d b63b 6b30 a2ab 5843 8dbd
00000090: 5a97 803d 52eb 142b 366a dbba 9a68 a3bd
000000a0: 90f3 a3ad 8422 172e cca7 853c 2b75 aabc
000000b0: 0bc6 0c2e e86f ccbb 4e62 72bc 7e2d c7ad
000000c0: 1057 21ba 9cd7 b8bc 4028 acba 3092 883a
000000d0: c040 9fbd 5fe8 53bc e234 00bc a5c7 1faf
000000e0: 5c73 9dac 2430 02be a38d 44bd 86c8 2cbc
000000f0: ba1c 28af 30b5 0f3c 3a2b 63bb cfbd 95ab
00000100: c86a 22bb aded 912f 7fb4 3c2c 850b 6dbb
00000110: f69a ffbc 3fb4 25b1 691e 102f 8655 03bc
00000120: 76c5 8aaf 05c0 a2af 1a3e 522e e434 aeaf
00000130: cf10 b02e 39cc deb9 2844 f3b8 bb70 9f32
00000140: 50ee 212f 1b58 21bc d11e 262e 0a1d a1b8
00000150: 6e3e 86bc 08f9 62b9 ddbb c5bb de00 352a
00000160: 454c aa2b 814d 66bc 65fe 37bc 7ab7 0b31
00000170: d9eb 7cba 95fb 05b9 1dd4 4e31 2677 76b5
00000180: 2435 dfbd 3f2c 8bbc a822 aeab 43d9 24be
00000190: d792 01bc 2c55 7e2e f5ec a3bb 2d44 673d
000001a0: 9fdc 8f2e 4013 c7ae 892c 0ebd 71fc 61bd
000001b0: 4f04 0eba e4cb 92bc 862b b23b 8572 ae38
000001c0: 589a 2e3b fcdc 0f3d 76ed 0abb d688 c2bb
000001d0: dab6 1b3b 6f7a 5fbd 9f55 313d 1bf9 472f
000001e0: 1aba c2aa b0bc 50be bcf3 22bc c7ed bcbd
000001f0: d924 32ba e90e a63c 1937 d93a c62f 992e
00000200: d0c9 04be 19a8 14bd 8f67 9dac efad 2bbe
00000210: 5e37 d1bd 83ad bc2e 499a 9a3b bc33 bfbd
00000220: 603d 95af 4493 5cb0 937d 43bc 4b68 0bbe
00000230: 7762 1fbc 9b47 2b3d 0d2c a23c 5713 48b1
00000240: 43da d5bb 8ad3 353d 506b bdb9 fb71 53bc
00000250: 4b4b 203d 5573 853c cdac ef3d 4e0f 93af
00000260: 0535 b72f 4bb7 99bd f72e 943c d1fb b4bd
00000270: 9c3c 9db5 2b13 d73c b873 54ba 05cf cf2e
00000280: d505 062f 5b26 afac f829 9f29 c322 7b32
00000290: 4d3c 3a32 018b 372c d64e 9332 dcff 1a32
000002a0: 9933 8cad acf5 a52b 8e6f 24ae d305 98b2
000002b0: ffd3 9fb2 bb31 dc2d fe1d e42d e61f 70b2
000002c0: c1d8 3ead 506b 2a32 98ab 802d 324f 8ead
000002d0: db5e 0e31 be3d a1b2 8c05 0d2d ecb3 00ab
000002e0: 730e d02a 70c2 aab5 c856 9032 de10 7db2
000002f0: dbc8 b131 3637 81af f4f6 0fae dbc7 422d
00000300: 286a cbbb 84b0 dd3a 6e4d 8f2c 8bf0 b5be
00000310: 17c2 143c b0c0 1930 a63f 47be 6fe2 7f3e
00000320: 02c0 4db7 f2ba 05b2 31f9 a1bd c1ed 9fbe
00000330: 2998 c9be ee6b 153d 69f4 513d 3c2b 9ebb
00000340: 6e61 16ba 094a 803c 7dc9 fd3b 5505 12bd
00000350: 06f0 2b3e 7c1f d3be 5f18 5b3b 03d2 1f2e
00000360: 1128 982e de45 f2bc 00ca 983d d035 adbe
00000370: 9754 533d 185b f93d 9235 f83c 4170 df32
00000380: 4af8 9dbd 783b 132c 049a 80aa 5319 a8bd
00000390: 141c 10be 1886 34ab 813a 80ae 0d70 fc3b
000003a0: c09f f1a8 2de6 10ab df5b b8bc 1b9a 11bb
000003b0: 538d 18b9 22ff 512d 9ef7 872b 030d d8ac
000003c0: a4f4 942c f7d5 383c 703a b1ac ea0c 36ab
000003d0: 3510 0bbd 994c 393c 9531 25b7 c794 b72c
000003e0: 554c 632d ef20 b5bc 26e8 503d 7e85 d9bc
000003f0: c4c0 2a2c a866 9f2b c358 16ac 47f6 452b

layers.2.lin.weight f4 [64, 64]
-0.009943691 1.0487556e-10 -4.9749647e-13 2.7731764e-09 -5.407907e-10 -1.7377237e-13 -1.2849275e-11 8.149389e-13
-0.00042416021 1.7908419e-09 -0.0034487906 1.0690919e-12 -2.0210244e-07 -2.4356517e-05 -1.9076646e-13 0.0022700382
0.002210055 2.3504945e-10 -1.875328e-10 -0.010396086 -2.2487973e-06 -6.841267e-05 -7.0997814e-14 -0.0025455265
0.0043899096 2.2960673e-13 -5.266288e-07 -5.413961e-06 1.6135668e-10 6.740665e-13 -0.005741216 -0.0023725817
-0.0008955377 -2.3926614e-05 -3.4750178e-07 -0.0006829044 -1.2196094e-12 -2.4484162e-08 -0.009229893 -0.019390328
-1.4048122e-12 0.0001400379 -5.313178e-13 -9.428337e-13 1.0240234e-13 -5.3921155e-14 5.6865126e-09 -0.00096609065
-0.00011642235 1.59642e-12 -0.0004049029 -1.4682253e-09 2.0255582e-10 -0.00470948 -0.0025046398 -1.1932749e-05
-0.0026646955 0.0012134357 -1.2671423e-08 0.0036263408 0.00012391651 -2.8459272e-13 1.6258628e-10 -1.7601198e-11
0.02154982 -0.0005008857 9.388434e-05 0.0018212963 -0.0024893451 -3.0181637e-09 -0.02888958 3.7302318e-06
0.012036886 -0.016750284 -0.031441297 0.0045776227 -0.1753457 -0.16182722 0.006275932 0.058720857
-0.038389385 -0.007292617 0.0029239187 0.03455821 -0.01472245 -0.25326088 0.000117223804 0.024258085
0.05698289 0.0045264224 -0.0020638872 0.018300448 -0.01081207 0.0004110135 0.023038972 0.01902283
0.01206457 0.0038759978 0.15370792 0.006475804 -0.02495791 0.0070101502 0.018630633 -0.015511766
0.00025309867 -0.010529448 -0.009418799 -0.03454143 -0.0033669476 -5.916965e-05 -0.045786496 -0.057274345
0.013713448 -0.009977866 -0.016766991 -0.021762494 -0.00044788292 -0.01721775 0.032907397 -0.0046104495
0.04461389 0.0121134315 -0.012801984 -0.05093346 0.022777893 0.001414633 -0.0022743004 -0.018661836
-0.0025409937 -6.2915043e-13 -0.00046871474 -0.0029370177 7.32018e-12 5.123557e-08 0.27177504 -4.4803657e-13
-0.0002468658 0.07395646 -0.0007027852 -0.0004954446 0.5051121 -0.26889104 0.0068206866 0.30606297
0.30177894 -0.031627346 0.06646369 0.2709395 0.033884097 -0.6153485 -1.3397442e-13 6.8462214e-08
0.0076003177 -1.2221127e-14 -0.005107004 0.007595798 -0.00035329608 5.7885075e-10 0.14296667 0.1553984
-8.449858e-09 -0.08698114 -0.082423374 -1.3207337e-11 -0.0009566529 7.418133e-05 3.802723e-13 0.22302808
-5.5622824e-13 -2.3356565e-06 0.11760526 -0.0073616575 5.5041614e-12 -1.594499e-11 0.078684665 0.28408507
0.33238563 -4.5361837e-13 -0.01692124 -0.0036009857 6.693259e-05 -0.04276296 0.24604681 -0.004172823
0.00020460383 -2.446137e-12 2.8577178e-06 -0.0006369933 -0.010695473 5.0113587e-05 9.112177e-14 -0.0057092262
0.012014992 0.038746335 -6.713189e-13 0.071551315 0.007860807 8.749556e-09 0.06834306 -0.004123656
-5.73918e-05 0.0022115642 -0.0036632998 7.576629e-12 0.06336464 -0.049018625 0.01096071 0.16458155
0.15226823 -0.03757546 0.070836365 0.100055 0.03925606 -0.1845498 -0.000236807 -0.016421566
-0.022194238 4.658702e-10 0.016250316 -0.0051038545 -0.0009788238 1.5877884e-08 0.013699544 0.013824102
-0.015380765 -0.006379141 0.08279322 0.025803711 -0.012569097 0.0016725156 -0.0428358 0.1423253
-0.000373773 -0.018630758 -0.02285048 -0.0129211135 -0.0002156894 -3.2052458e-09 0.054399174 0.0070257955
0.092029534 -0.007716224 0.06886977 -0.01490281 -0.007940146 0.07978401 0.031140411 -0.026339075
-0.04782465 -0.020193754 0.014736523 -0.031993423 -0.017650798 -1.1348984e-13 -0.038098197 -0.060486894
00000000: ddea 22bc b19f e62e 6608 0cab 3c92 3e31
00000010: c3a6 14b0 7aa6 43aa fd0b 62ad 8962 652b
00000020: d261 deb9 a621 f630 1b05 62bb 1876 962b
00000030: 7f01 59b4 3951 ccb7 b0c8 56aa ecc4 143b
00000040: 92d6 103b 4538 812f ca31 4eaf 5854 2abc
00000050: 0bea 16b6 c678 8fb8 74df 9fa9 d9d2 26bb
00000060: 3bd9 8f3b d141 812a a85d 0db5 92a9 b5b6
00000070: de69 312f 9cbb 3d2b cf20 bcbb 517d 1bbb
00000080: 85c2 6aba 03b6 c8b7 4890 bab4 f004 33ba
00000090: 0fa5 abab 3e51 d2b2 fa38 17bc 77d8 9ebc
000000a0: b2b5 c5ab 23d7 1239 7b8d 15ab 2ab1 84ab
000000b0: ee96 e629 dcd6 72a9 1863 c331 3f41 7dba
000000c0: c627 f4b8 18ad e02b 2649 d4b9 96ca c9b0
000000d0: 65b6 5e2f fb51 9abb e224 24bb c432 48b7
000000e0: 2ca2 2ebb 250c 9f3a 82b1 59b2 e7a7 6d3b
000000f0: 96ef 0139 2236 a0aa f8c3 322f 60d2 9aad
00000100: 4089 b03c df4d 03ba c5e3 c438 90b8 ee3a
00000110: 4824 23bb 1968 4fb1 d7a9 ecbc e554 7a36
00000120: 5c36 453c e437 89bc 97c8 00bd e2ff 953b
00000130: d38d 33be 09b6 25be 55a6 cd3b 4885 703d
00000140: 303e 1dbd e8f6 eebb 379f 3f3b e98c 0d3d
00000150: 6e36 71bc 69ab 81be 0dd6 f538 e4b8 c63c
00000160: e466 693d 6252 943b 4842 07bb d2ea 953c
00000170: 1c25 31bc 4c7d d739 3abc bc3c c4d5 9b3c
00000180: 79aa 453c 7404 7e3b 9c65 1d3e fb32 d43b
00000190: 8874 ccbc 67b5 e53b 459f 983c 1025 7ebc
000001a0: 54b2 8439 b583 2cbc 4e51 1abc 517b 0dbd
000001b0: 02a8 5cbb ee2c 78b8 9f8a 3bbd 8198 6abd
000001c0: 5fae 603c 347a 23bc ee5a 89bc 4247 b2bc
000001d0: d4d1 eab9 3d0c 8dbc e8c9 063d 4113 97bb
000001e0: 0ebd 363d 6a77 463c 6abf 51bc 9b9f 50bd
000001f0: b498 ba3c 356b b93a 6e0c 15bb b5e0 98bc
00000200: cd86 26bb 1117 31ab d4bd f5b9 fb7a 40bb
00000210: 29c7 002d 1b0e 5c33 1926 8b3e e038 fcaa
00000220: c46d 81b9 7c76 973d 1e3b 38ba b9e0 01ba
00000230: 074f 013f 16ac 89be 1180 df3b 49b4 9c3e
00000240: c582 9a3e ad8b 01bd 1d1e 883d 95b8 8a3e
00000250: 0dca 0a3d 7b87 1dbf 7fd7 16aa 8005 9333
00000260: 160c f93b 0028 5ca8 a858 a7bb 2ce6 f83b
00000270: 993a b9b9 001d 1f30 db65 123e c220 1f3e
00000280: de2a 11b2 2b23 b2bd 96cd a8bd 8f58 68ad
00000290: e4c7 7aba cc91 9b38 0413 d62a 7961 643e
000002a0: 7890 1cab 46be 1cb6 07db f03d 0f3a f1bb
000002b0: 14a9 c12c ed40 8cad 6d25 a13d 9973 913e
000002c0: 732e aa3e 4c5d ffaa 6a9e 8abc 84fe 6bbb
000002d0: 295e 8c38 3728 2fbd b2f3 7b3e 2dbc 88bb
000002e0: ec8a 5639 b021 2cac 38c7 3f36 e6fb 26ba
000002f0: 113c 2fbc 0e31 5238 2030 cd29 7614 bbbb
00000300: 87da 443c 7ab4 1e3d a0f5 3cab 7f89 923d
00000310: 9dca 003c f450 1632 72f7 8b3d bc1f 87bb
00000320: fab7 70b8 e4ef 103b f913 70bb 1b4a 052d
00000330: 52c5 813d c1c7 48bd 8d94 333c 1188 283e
00000340: 34ec 1b3e bae8 19bd a812 913d a3e9 cc3d
00000350: f6ca 203d 9ffa 3cbe 654f 78b9 8586 86bc
00000360: b1d0 b5bc b30e 0030 621f 853c 3c3e a7bb
00000370: e04b 80ba d663 8832 0d74 603c 7c7e 623c
00000380: 9bff 7bbc 1d08 d1bb 7e8f a93d 4e62 d33c
00000390: 9dee 4dbc 5038 db3a 9874 2fbd b9bd 113e
000003a0: f6f6 c3b9 889f 98bc ee30 bbbc 14b3 53bc
000003b0: af2a 62b9 4843 5cb1 abd1 5e3d a538 e63b
000003c0: fb79 bc3d 61d8 fcbb 980b 8d3d ea2a 74bc
000003d0: 6317 02bc cd65 a33d 2d1a ff3c 0bc5 d7bc
000003e0: c8e3 43bd 5f6d a5bc 7571 713c 890b 03bd
000003f0: 6898 90bc 708e ffa9 db0c 1cbd 1bc1 77bd

act_fc1.weight f4 [64, 64]
-7.754301e-14 -1.1987531e-12 -8.1414503e-13 -9.447596e-13 3.9830962e-14 5.408259e-13 1.6348762e-12 4.942866e-13
5.3765797e-13 1.2089108e-13 4.485564e-13 8.3527586e-13 1.2808332e-13 6.625594e-13 1.8325998e-13 3.7834766e-13
-7.640981e-13 1.6388598e-12 8.88997e-14 5.8401645e-13 1.0708241e-12 -6.3959027e-13 -1.6533139e-12 -5.154791e-13
-7.2313184e-13 1.7565551e-12 1.2379781e-12 -1.1250316e-12 -1.1097038e-12 2.7888483e-13 -1.4833693e-12 -1.8618665e-14
7.82121e-13 3.9482217e-13 -8.4468576e-13 2.6435942e-13 -1.9151029e-14 -1.1551169e-12 -5.432241e-13 2.5408056e-13
-9.196944e-13 2.1632137e-15 -7.4630325e-14 -5.9750913e-13 1.6122524e-13 -4.9692265e-14 -1.1314964e-12 1.0197263e-13
2.7517601e-13 -6.711598e-14 6.1249855e-13 -2.0150773e-12 -5.11599e-13 -1.319818e-13 -1.3066132e-13 8.8327815e-13
-4.0553737e-13 -4.8240356e-13 -2.278524e-12 -1.2193885e-12 9.643655e-13 1.4641416e-12 -1.5620826e-12 -9.951611e-13
1.0024254e-12 2.9098176e-12 -4.2337162e-12 6.9535735e-13 5.4037833e-12 -1.1311914e-11 -2.2273546e-12 4.699956e-13
-6.838334e-13 -2.1118878e-09 -8.4154295e-11 5.8191745e-09 -7.611193e-12 -8.1433624e-11 1.8089442e-12 9.811048e-09
1.1441702e-10 1.2075326e-12 4.7394237e-12 -1.3921278e-12 3.6795155e-12 8.853566e-13 -1.1707384e-12 3.5971057e-12
-2.0141094e-12 -8.006257e-09 -8.241896e-13 -2.2173726e-12 1.132221e-12 -5.3535887e-13 4.399098e-12 3.9014248e-12
2.3753779e-12 2.0551948e-12 -2.5274678e-12 2.5781955e-11 1.2155687e-12 1.5609562e-10 2.8446676e-13 -3.586984e-05
-1.3624519e-12 8.991837e-13 1.7832564e-12 4.0209708e-13 -3.1184837e-13 -5.348729e-12 9.536341e-13 3.3214904e-12
5.150626e-13 -5.4421294e-12 -3.2162085e-11 3.2575364e-12 6.8473753e-13 1.9069436e-12 -1.199792e-09 8.151137e-13
-3.8163947e-12 3.5624665e-12 -1.9293955e-11 -8.4956976e-13 -5.0653325e-05 9.165956e-13 -5.4584197e-12 -8.58653e-12
-1.061638e-06 0.00026504695 5.545352e-10 -0.0017297136 -6.5246836e-11 -0.0006047187 1.7082738e-11 -1.9219607e-11
3.6062873e-05 -1.4048307e-05 -0.00011791292 0.00018550783 -4.7941376e-06 -0.00090128003 -6.302981e-05 -0.0042763054
0.0034130102 -0.0009673282 -0.0010599684 2.2475602e-12 0.0012176272 -4.831664e-12 0.00066935684 -0.0039690305
-2.35019e-05 0.0052236384 0.0006436106 0.0010880416 -2.5078628e-10 1.2778152e-05 -0.0004121347 -2.754419e-10
-1.1286348e-05 0.0001529322 -1.0285333e-11 0.004465304 1.8870669e-13 0.00018908102 -0.002942734 0.0009397063
-0.003311547 -1.4526969e-08 0.00080306246 -0.00019204171 7.758493e-11 6.9015876e-11 1.53102e-05 0.0026751584
-6.8661927e-13 0.0035162529 -7.0081136e-05 -1.7906117e-05 -1.7953384e-12 0.0016207447 -0.0030302382 -0.00043814428
2.05764e-05 -0.0001638839 -0.0022136613 9.50045e-09 0.012411119 -6.848677e-10 -0.00031001554 -0.0015688965
-1.6706217e-06 -0.0031194715 -7.505826e-05 -0.00038260175 -2.419913e-09 0.009314611 1.2695532e-10 -1.1658416e-10
-3.3959663e-05 -1.2547673e-06 -0.0039026337 0.0009304837 0.061358895 5.4181615e-05 5.4286236e-05 -0.015658407
8.139939e-05 -0.057329673 0.014556882 5.4149094e-12 -0.0001070562 -0.09786198 -9.5298805e-05 -5.5848523e-06
-9.3698254e-05 0.00022873271 1.0293376e-05 0.0045312294 1.7834056e-10 4.129163e-05 -0.03018094 0.019296227
-2.4501673e-13 -2.5088607e-06 -7.7148565e-11 0.00038923195 -1.0394966e-12 -0.0007986558 0.00028668216 8.648151e-05
0.0001290164 -1.4069777e-12 0.00013529838 1.8096554e-06 -1.547521e-09 -8.380429e-06 -0.023710538 -0.0005010569
-7.0668314e-13 -0.0010568877 -0.0033720096 1.3434705e-05 -2.4416708e-12 3.8727398e-05 0.0016530958 -0.0076841894
1.7208002e-05 -0.0010025231 -2.8662831e-05 -8.606594e-07 0.0010202467 1.1511106e-12 -0.0034071538 2.5813242e-07
00000000: 809c aea9 a2b5 a8ab 5529 65ab 8df6 84ab
00000010: f961 3329 9d3a 182b 9f16 e62b 1a21 0b2b
00000020: 5756 172b 7b1c 082a ca83 fc2a f81b 6b2b
00000030: 8135 102a 707e 3a2b 1855 4e2a a5fd d42a
00000040: 1213 57ab 26a6 e62b 302f c829 d262 242b
00000050: 81b4 962b 5607 34ab e9ae e8ab 2f18 11ab
00000060: 248b 4bab 9136 f72b dd3a ae2b 8955 9eab
00000070: 4b2d 9cab 8aff 9c2a 03c4 d0ab b8b3 a7a8
00000080: c225 5c2b df43 de2a 06c2 6dab 35d2 942a
00000090: 447f aca8 7991 a2ab 6ce7 18ab de08 8f2a
000000a0: 7c6f 81ab 40e0 1b27 740d a8a9 122f 28ab
000000b0: 0386 352a 48cb 5fa9 743e 9fab 389f e529
000000c0: 0be9 9a2a ba21 97a9 2c67 2c2b 68cc 0dac
000000d0: 9800 10ab 2a99 14aa 901c 13aa e69e 782b
000000e0: 184c e4aa d7c8 07ab 3d56 20ac 1a9d abab
000000f0: eeb8 872b 430f ce2b f5d7 dbab 750e 8cab
00000100: 2e14 8d2b 9dc2 4c2c edf5 94ac c7b9 432b
00000110: f420 be2c 5500 47ad 74bc 1cac c14a 042b
00000120: 647b 40ab b920 11b1 a80e b9ae 00f2 c731
00000130: c4e5 05ad 0e13 b3ae 1596 fe2b 728d 2832
00000140: 0e9b fb2e f2f1 a92b efc0 a62c b1ec c3ab
00000150: 2176 812c ab34 792b 4cc4 a4ab b21f 7d2c
00000160: f8ba 0dac e48b 09b2 1ffd 67ab a208 1cac
00000170: 9058 9f2b acb0 16ab 8dc7 9a2c e944 892c
00000180: 0127 272c 199f 102c d0da 31ac cdc7 e22d
00000190: 7a13 ab2b 03a1 2b2f fb23 a02a f372 16b8
000001a0: 81bf bfab 0419 7d2b 95f8 fa2b 4c5c e22a
000001b0: 168e afaa 1131 bcac 4a36 862b a7ba 692c
000001c0: 2cfa 102b 587a bfac 4a73 0dae 8f3a 652c
000001d0: 8abc 402b 7130 062c eee5 a4b0 226f 652b
000001e0: 0747 86ac b1af 7a2c 20b6 a9ad f421 6fab
000001f0: 9874 54b8 d6ff 802b 130d c0ac 4b0e 17ad
00000200: 9b7d 8eb5 00f6 8a39 f26d 1830 8fb7 e2ba
00000210: b47a 8fae fc85 1eba e842 962d b50e a9ad
00000220: 3742 1738 05b1 6bb7 0448 f7b8 e184 4239
00000230: 54dd a0b6 e143 6cba df2e 84b8 4020 8cbb
00000240: cfac 5f3b 4c94 7dba a3ee 8aba 7228 1e2c
00000250: ca98 9f3a c3ff a9ac c777 2f3a a40e 82bb
00000260: f225 c5b7 0e2b ab3b fab7 283a 9e9c 8e3a
00000270: 08df 89af bf61 5637 c813 d8b9 006d 97af
00000280: 7f5a 3db7 6d5c 2039 06f1 34ad af51 923b
00000290: 0077 542a 0d44 4639 e2da 40bb 9f56 763a
000002a0: 8a06 59bb 4992 79b2 9c84 523a ce5e 49b9
000002b0: 6f9c aa2e 7cc4 972e 676e 8037 b651 2f3b
000002c0: 2244 41ab ef70 663b 86f8 92b8 1835 96b7
000002d0: e2ab fcab 2b6f d43a f696 46bb bbb6 e5b9
000002e0: 7c9b ac37 40d8 2bb9 1313 11bb 6c37 2332
000002f0: 0258 4b3c 4841 3cb0 9589 a2b9 6ea3 cdba
00000300: 203a e0b5 0c70 4cbb 9968 9db8 f097 c8b9
00000310: 8f4b 26b1 4f9c 183c bf96 0b2f 862f 00af
00000320: e96f 0eb8 7a69 a8b5 54c3 7fbb b4eb 733a
00000330: 7753 7b3d 1141 6338 67b1 6338 0f46 80bc
00000340: f7b4 aa38 85d2 6abd fd7f 6e3c 2b85 be2c
00000350: 5c83 e0b8 dd6b c8bd 28db c7b8 8465 bbb6
00000360: de7f c4b8 f8d7 6f39 b7b1 2c37 b57a 943b
00000370: 6816 442f 8d30 2d38 053e f7bc 1f13 9e3c
00000380: a2ee 89aa e65d 28b6 c8a6 a9ae d411 cc39
00000390: d04b 92ab e25c 51ba d44d 9639 685d b538
000003a0: 9348 0739 b703 c6ab e2de 0d39 49e3 f235
000003b0: 8eb0 d4b0 ab99 0cb7 9a3c c2bc 5c59 03ba
000003c0: e3e9 46ab 4487 8aba effc 5cbb 9e65 6137
000003d0: 3bd1 2bac 3a6f 2238 b1ac d83a a7cb fbbb
000003e0: e759 9037 1867 83ba f670 f0b7 1008 67b5
000003f0: ccb9 853a 2101 a22b 8e4a 5fbb 7395 8a34

act_fc1.bias f4 [64]
-9.094984e-07 -0.0013072643 -0.13194284 -0.06455362 -0.002499319 -0.0021605184 0.037032057 -0.0019849562
-0.069243096 -0.042819574 -0.023763506 -0.10191935 -0.14350905 -0.40805924 0.06698949 -0.010790446
-0.3890594 -0.06407123 -0.5022651 -0.13519703 -0.07549765 -0.10009584 -0.08333116 -0.2406587
-0.027655745 -0.24511541 -0.19634034 -0.14445297 -0.12815751 -0.09909532 -0.025733775 -0.07658343
-0.09268391 -0.098195866 -0.0628492 -0.0053896112 -0.2219795 -0.06432364 -0.070039 -0.047781646
-0.0681247 -0.07138701 -0.19988659 -0.05361789 -0.07448092 -0.16984652 -0.0017797481 -0.09028817
-0.33521754 -0.0921656 -0.00773228 -0.28337628 -0.08935691 -0.075453766 -0.08018059 -0.009119264
-0.51417917 -0.050698508 -0.061612956 -0.051272616 -0.04698703 -0.06293759 -0.071593456 -0.06682485
00000000: 4124 74b5 8358 abba 061c 07be b034 84bd
00000010: 9dcb 23bb 7c97 0dbb edae 173d 0a16 02bb
00000020: 53cf 8dbd 9463 2fbd afab c2bc 18bb d0bd
00000030: 09f4 12be 24ed d0be c931 893d 69ca 30bc
00000040: cb32 c7be c737 83bd 7294 00bf 1771 0abe
00000050: 839e 9abd 0cff ccbd 87a9 aabd 3c6f 76be
00000060: 4d8e e2bc 89ff 7abe 710d 49be 7beb 13be
00000070: b93b 03be 7df2 cabd a3cf d2bc c6d7 9cbd
00000080: 10d1 bdbd ea1a c9bd 15b7 80bd 569b b0bb
00000090: 984e 63be 1dbc 83bd 9b70 8fbd b0b6 43bd
000000a0: f684 8bbd 5a33 92bd 12af 4cbe 6f9e 5bbd
000000b0: 7489 98bd 3fec 2dbe 7046 e9ba 01e9 b8bd
000000c0: a2a1 abbe 51c1 bcbd 115f fdbb b216 91be
000000d0: c100 b7bd 8187 9abd b935 a4bd f768 15bc
000000e0: 3fa1 03bf 3da9 4fbd de5d 7cbd 3c03 52bd
000000f0: 7975 40bd 6ce5 80bd 979f 92bd 78db 88bd

act_fc2.weight f4 [36, 64]
-6.8573207e-13 9.346423e-06 -0.000690781 -0.024995256 -2.5844116e-12 -1.650388e-09 -0.26487473 -1.3092683e-12
-1.3430752e-05 -1.265898e-11 3.7116962e-11 -0.015908217 -0.0018057495 0.24535128 -0.21344006 -8.5965265e-14
-0.13723712 -4.6448626e-12 0.26612318 1.3990202e-08 -0.03204273 -0.0014446928 -0.0016686723 -0.030581824
-2.4131969e-11 -0.00022740035 -0.022821521 9.1808616e-10 -0.02650971 -1.4828161e-05 5.533255e-12 2.1939627e-08
-0.00091301795 0.00023650246 4.6974296e-07 4.730042e-05 -8.028155e-06 0.0024992635 0.0028193693 2.6175137e-10
-0.2109864 -9.130283e-05 -0.12058446 9.591238e-09 0.00013092025 0.0037250747 2.3560926e-11 -0.016177583
0.0007957725 -0.013836241 -4.7363745e-12 0.00025145695 -0.0044823396 -0.002191076 -0.0017471277 -4.8736183e-05
-0.0434809 0.0007787537 1.8615578e-11 -2.8298488e-12 -0.012558128 7.3152355e-09 -5.79674e-10 -0.02090204
-9.805452e-13 -2.9459563e-06 -0.0034242824 -0.011348962 2.434359e-12 -5.1964355e-10 -0.33169383 -2.041222e-13
-0.001953311 0.0031672001 1.11178275e-08 -0.0019487668 -0.059495494 -0.031248987 -0.41579702 1.0036526e-12
0.20866185 -6.454312e-11 -0.23927471 0.00038964313 -0.06518324 0.026275996 -0.005196002 -0.094968
2.4637278e-11 -0.015857102 -0.008861832 -0.00031518406 -0.046444103 -0.00012337204 -0.0010549375 -0.0003566408
-0.04714888 8.956246e-09 0.0048275427 0.0001061081 -1.8690082e-05 -0.118321136 -0.02744507 7.9540735e-11
-0.093879834 0.010885545 -0.04292594 -1.6106866e-05 0.000343778 0.0020324 -1.0990576e-11 -0.046660945
-0.0016767868 -0.0016268102 1.8020916e-12 -2.5663096e-05 -0.035366155 0.0004103909 0.011155489 -1.4697984e-05
-0.07653937 -0.011276948 -0.011211774 0.0023343805 -0.022384172 -0.003009401 -0.0016989671 -0.004670677
-1.5966087e-13 -4.7185975e-13 -0.004499374 -0.028328871 -2.0800913e-13 4.1150107e-13 -0.41242048 9.493565e-13
-0.0031574615 -6.4413687e-12 3.2616301e-12 -0.024899257 -0.0035919417 0.23783652 -0.3746198 -6.7983694e-13
-0.13174233 -1.0925176e-07 0.04313203 -0.00015905834 -0.0044968044 -0.0057939566 0.002465149 0.026505694
-2.6695485e-10 -0.0130806975 -0.09777374 0.00034793717 -0.034333333 -0.00036441462 0.00030133658 -0.0020068064
-0.036643002 -2.3446862e-08 -1.5223488e-06 1.1701647e-12 -1.0427956e-05 -0.008142865 -0.021403613 -1.97203e-05
-0.29280016 9.7171134e-05 -0.0338214 -0.0012826873 -0.0005370315 -0.0036117285 -4.1447127e-13 -0.0032740396
-0.16145349 -0.023383992 -1.6213135e-12 -0.0011467609 -0.016088422 -0.0010989795 -0.0003637125 -2.226264e-09
-0.038736645 8.8859684e-05 0.0002706825 -1.4580842e-11 -0.015621688 -0.0005880719 0.00021925308 -0.0010078106
-1.3079176e-12 7.8524047e-13 -0.0050763236 -0.0426873 -5.987151e-14 7.719971e-14 -0.05898847 -1.1606643e-13
0.017123252 4.4812286e-11 8.2681475e-13 -0.023953646 -0.021043312 0.084025465 -0.13436168 -1.485457e-14
-0.11462546 -0.00026639577 0.29805088 -0.000853727 -0.018478725 -0.018910903 -0.0062684603 0.079019815
-0.0002534423 0.065331824 -0.041647322 1.8968175e-08 -0.07185723 -0.018113349 0.00010485956 0.019051895
-0.029484393 -1.8492984e-09 -1.8938396e-06 -7.1971647e-12 0.17405635 -0.092292406 -0.031298585 0.0039938143
-0.0026999936 -0.0020872487 0.025991661 0.018680518 -0.0011894371 -0.025734505 4.793332e-13 -0.035805598
0.012420461 -0.058175564 -2.4578195e-12 -0.018586585 -0.019673988 -0.0019364927 -0.00055895 3.0903097e-10
0.020713534 0.00028509393 0.0006133145 -4.564711e-11 7.58418e-05 0.014068939 0.011458511 -0.0022046897
00000000: 3404 41ab 95ce 1c37 8715 35ba dac2 ccbc
00000010: 9fdc 35ac ded3 e2b0 a99d 87be 5d43 b8ab
00000020: a454 61b7 fab2 5ead fc3d 232e f351 82bc
00000030: e6ae ecba 5e3d 7b3e 0890 5abe 9a93 c1a9
00000040: e387 0cbe 346d a3ac 4c41 883e 8f59 7032
00000050: 3d3f 03bd d95b bdba 5ab7 daba bc86 fabc
00000060: 5d44 d4ad 5172 6eb9 33f4 babc 925c 7c30
00000070: e42a d9bc 77c6 78b7 21af c22c c075 bc32
00000080: 9957 6fba a5fd 7739 fb30 fc34 7064 4638
00000090: aab0 06b7 afca 233b 2bc5 383b 3be6 8f2f
000000a0: d20c 58be d579 bfb8 fcf4 f6bd b6c6 2432
000000b0: a347 0939 6220 743b 7d3e cf2d da86 84bc
000000c0: 639b 503a 67b1 62bc 78a5 a6ac fbd5 8339
000000d0: 97e0 92bb 2898 0fbb e1ff e4ba 146a 4cb8
000000e0: 0719 32bd 4725 4c3a 8ebe a32d 0622 47ac
000000f0: 9bc0 4dbc 7e59 fb31 ee56 1fb0 c13a abbc
00000100: ddff 89ab 25b3 45b6 ed69 60bb fff0 39bc
00000110: 834d 2b2c aad6 0eb0 c6d3 a9be 38d2 65aa
00000120: 1f03 00bb cd90 4f3b b900 3f32 c36d ffba
00000130: 8cb1 73bd e0fd ffbc 59e3 d4be 6540 8d2b
00000140: 74ab 553e 8cee 8dae 6e04 75be 0449 cc39
00000150: ca7e 85bd c240 d73c 3943 aabb 957e c2bd
00000160: 38b6 d82d c1e6 81bc 3831 11bc 4a3f a5b9
00000170: 2c3c 3ebd 6e5d 01b9 d445 8aba 85fb bab9
00000180: 2f1f 41bd fddd 1932 5d30 9e3b 5a86 de38
00000190: a5c8 9cb7 5a52 f2bd 7cd4 e0bc 74e9 ae2e
000001a0: 1244 c0bd 4959 323c 1cd3 2fbd 3b1d 87b7
000001b0: 1a3d b439 0432 053b 2759 41ad 8c1f 3fbd
000001c0: a1c7 dbba b13a d5ba 319f fd2b 1447 d7b7
000001d0: 1adc 10bd bc29 d739 83c5 363c 5c97 76b7
000001e0: acc0 9cbd f3c2 38bc 97b1 37bc 68fc 183b
000001f0: 035f b7bc 5f39 45bb e0af deba 7a0c 99bb
00000200: 1dc3 33aa 14d1 04ab 7c6f 93bb f311 e8bc
00000210: 8d32 6aaa 8ea7 e72a c728 d3be 2c9c 852b
00000220: 6aed 4ebb b1a2 e2ac 4e84 652c 87f9 cbbc
00000230: c866 6bbb 6b8b 733e 2bce bfbe 6a5b 3fab
00000240: 76e7 06be ca9d eab3 36ab 303d e6c8 26b9
00000250: ee59 93bb 3bdb bdbb 568e 213b 7822 d93c
00000260: 8ec2 92af 6c50 56bc 993d c8bd 566b b639
00000270: 1ca1 0cbd e70e bfb9 b6fc 9d39 a084 03bb
00000280: f916 16bd 3268 c9b2 8253 ccb5 a0af a42b
00000290: bbf3 2eb7 a769 05bc a156 afbc 066d a5b7
000002a0: e7e9 95be 5bc8 cb38 4f88 0abd d81f a8ba
000002b0: 93c7 0cba c0b2 6cbb 9b53 e9aa 4591 56bb
000002c0: 1054 25be c98f bfbc fa2d e4ab e94e 96ba
000002d0: decb 83bc a20b 90ba aab0 beb9 dafc 18b1
000002e0: 51aa 1ebd 2e5a ba38 64ea 8d39 2341 80ad
000002f0: 1cf2 7fbc d628 1aba 4de7 6539 8318 84ba
00000300: b312 b8ab 8a06 5d2b 4a57 a6bb e1d8 2ebd
00000310: 93d1 86a9 9ad6 ad29 e59d 71bd dfad 02aa
00000320: 1046 8c3c 2616 452e 48ba 682b 703a c4bc
00000330: 0663 acbc 8b15 ac3d 1c96 09be 4ecc 85a8
00000340: c1c0 eabd 09ab 8bb9 209a 983e a6cc 5fba
00000350: b260 97bc 0aeb 9abc a867 cdbb 24d5 a13d
00000360: 73e0 84b9 b1cc 853d 6296 2abd 75ef a232
00000370: e229 93bd 7262 94bc 0ce8 db38 b812 9c3c
00000380: 4189 f1bc 672a feb0 d52f feb5 4c3a fdac
00000390: d43b 323e cd03 bdbd f232 00bd 8bde 823b
000003a0: 60f2 30bb 39ca 08bb 77ec d43c e307 993c
000003b0: e3e6 9bba 2bd1 d2bc 99eb 062b e4a8 12bd
000003c0: 307f 4b3c 8049 6ebd 24f4 2cac e542 98bc
000003d0: 582b a1bc ead1 fdba 8086 12ba 3ee4 a92f
000003e0: 6eaf a93c a978 9539 d7c6 203a 14c2 48ae
000003f0: 420d 9f38 6881 663c 7bbc 3b3c 8e7c 10bb

act_fc2.bias f4 [36]
-0.39293757 -0.38060623 -0.19080155 -0.26282856 -0.4174358 -0.40938723 -0.42696843 -0.06637739
0.054161873 0.29560888 0.019847529 -0.448873 -0.2056124 0.021771077 0.3703513 0.40346307
0.06288675 -0.20176019 -0.27387002 0.04097458 0.25060278 0.32846558 0.045347955 -0.17283444
-0.36702427 -0.054001756 0.12952681 0.18106975 0.019114053 -0.32155034 -0.31413865 -0.32131872
-0.17752375 -0.27745506 -0.4467909 -0.29406312
00000000: 1d2f c9be d2de c2be 7b61 43be 7791 86be
00000010: 25ba d5be 349b d1be 9b9b dabe def0 87bd
00000020: d7d8 5d3d 0c5a 973e 4997 a23c afd2 e5be
00000030: 0f8c 52be 4259 b23c b09e bd3e b692 ce3e
00000040: c5ca 803d 399a 4ebe b138 8cbe f6d4 273d
00000050: 024f 803e a42c a83e c7be 393d 83fb 30be
00000060: 9bea bbbe f230 5dbd ada2 043e 596a 393e
00000070: 1395 9c3c 3fa2 a4be c8d6 a0be e383 a4be
00000080: c9c8 35be 970e 8ebe c7c1 e4be 718f 96be

val_fc1.weight f4 [64, 64]
-9.675023e-06 0.075915106 -0.029657573 -0.008093091 0.0005653635 -0.004520044 0.044255484 4.8922793e-12
0.0011964402 0.04459886 -0.0067482577 0.02769996 0.022775184 -0.00020590113 0.009370076 0.08243139
0.0073330114 0.063868985 0.0790803 -0.0068715094 0.00024661646 0.0046361177 -0.0002940399 -0.0006480243
-9.154082e-06 -0.00054409035 -0.00029642985 0.0023492733 0.11446596 -0.0014289891 0.07865798 0.010522378
-7.450429e-06 0.0009990048 0.0182977 0.009006754 -9.490946e-09 0.041510582 -0.016913906 -0.019675614
-0.0013378822 5.4559067e-08 2.5914078e-05 0.00015733302 0.0010350646 -0.029357975 0.102164686 -0.01492425
-0.014368192 0.017824782 0.04819411 0.014558497 0.0017240746 0.003962073 0.036967866 0.0821388
0.00011913655 -0.029425003 -0.0044381553 0.0034911127 0.024181992 -0.007912521 -0.026498107 -2.7153252e-05
-0.021869196 -0.0585404 -4.7089678e-08 -0.040569976 6.63863e-10 -0.017425124 -5.2063152e-11 -3.9555352e-06
-0.004166457 -0.0033719235 -0.044672202 -0.00044820923 0.0012748062 -0.049667362 0.032103453 0.07298762
-0.01937822 -0.06121762 -0.0403795 0.003260955 -0.023579309 -0.009657682 -0.022428524 -0.016056342
-0.02133573 0.007858398 -0.008201699 0.021307843 5.5569644e-06 -0.014333983 -0.08729044 0.0025172378
0.0029605944 -0.0036070268 3.0455645e-11 -0.025680657 3.427354e-11 0.035671834 -0.018681655 -0.0063641127
-0.0063891094 0.001593976 -0.006171451 -0.006840638 1.216245e-11 4.7845155e-09 -0.03891072 8.351775e-12
3.230378e-07 -2.5636675e-05 -0.012778765 -0.010337784 -1.7852644e-05 -0.0033406843 0.014112575 -0.03194612
-0.015276063 0.02170366 0.02135076 -0.016049208 0.016206369 4.66771e-06 -0.020029742 0.0015637813
-5.863683e-13 -1.5409119e-12 -3.874314e-13 1.981807e-12 -2.0484374e-14 -6.3690015e-13 1.168338e-12 5.469582e-13
1.1750208e-12 -1.8071224e-12 -1.5513398e-12 -1.6219358e-12 0.00011604665 -3.988919e-13 -7.477539e-14 -2.1414652e-13
-1.8609311e-12 3.06412e-12 3.593919e-12 -1.4994265e-13 -2.3948363e-12 5.9246775e-13 -1.1826424e-12 9.759237e-13
-7.721555e-13 1.3238063e-12 1.4810883e-12 -4.050042e-12 -4.2754483e-13 1.0781532e-13 4.5048544e-12 -1.9870661e-14
2.6273461e-05 8.9318906e-13 6.912383e-13 1.8427675e-12 -8.053145e-13 -4.5855372e-12 4.312863e-12 1.7467308e-12
-3.0013036e-12 -0.00023331051 7.7685867e-13 2.7184073e-12 -3.0353899e-12 -3.160396e-13 6.55324e-12 3.5666045e-13
-1.29065e-13 4.274682e-12 -1.1480857e-12 4.725236e-12 -8.9930103e-13 -3.5759308e-12 -3.9418755e-12 3.4476911e-12
3.3978934e-13 4.354292e-12 1.4519313e-12 -2.5416839e-12 -2.5533826e-12 -4.007142e-14 4.869397e-13 -2.5362058e-13
-0.0002519039 0.088434435 -0.1592755 -0.031928945 -0.047518432 0.0040159663 -0.03988077 -0.0044297692
-0.00519356 0.047190852 0.052800763 0.026097015 -0.009872262 -0.027726153 0.06491807 0.03626323
-0.05408225 0.080623806 0.005216227 -0.09918148 0.0044482336 0.015212189 -0.054519553 -0.040437035
5.340883e-05 0.032098986 -0.019706024 0.07084272 0.119936146 -0.05826432 -0.008478663 -0.0022772583
-5.6528133e-09 -0.0028002218 -0.07778856 -0.032522243 0.008832307 0.0023338364 -0.011893841 -0.015956454
-0.031581294 5.7118183e-07 -0.018646305 0.00016925487 -0.010087441 -0.16310747 0.021184511 -0.01045112
-0.036836643 -0.008093504 0.008458372 -0.013130348 0.00012685265 -0.011532517 0.03580525 0.031508505
-0.0058337697 -0.0014119935 0.012303354 -0.0136572905 -0.010389752 -0.030472085 0.035283267 -0.03581282
00000000: e851 22b7 6179 9b3d 70f4 f2bc e298 04bc
00000010: e734 143a e11c 94bb 3d45 353d bc21 ac2c
00000020: dfd1 9c3a 4bad 363d 7d20 ddbb 07eb e23c
00000030: 0693 ba3c 2ae7 57b9 f284 193c cad1 a83d
00000040: c249 f03b becd 823d daf4 a13d 662a e1bb
00000050: 4d4c 8139 93ea 973b 5e29 9ab9 2de0 29ba
00000060: 7c94 19b7 49a1 0eba 246a 9bb9 44f6 193b
00000070: 216d ea3d eb4c bbba 6f17 a13d 0d66 2c3c
00000080: b3fe f9b6 0af1 823a 0fe5 953c 1091 133c
00000090: 9f0d 23b2 0007 2a3d 088f 8abc c12e a1bc
000000a0: e15b afba 5454 6a33 0f62 d937 c3f9 2439
000000b0: 01ab 873a 2380 f0bc b83b d13d d784 74bc
000000c0: 9168 6bbc 4705 923c 3067 453d c386 6e3c
000000d0: 58fa e13a 47d4 813b 9e6b 173d 6338 a83d
000000e0: f3d8 f938 b40c f1bc f26d 91bb 27cb 643b
000000f0: 5019 c63c 85a3 01bc 8f12 d9bc 2ac7 e3b7
00000100: 0727 b3bc 0fc8 6fbd a63f 4ab3 b42c 26bd
00000110: 357b 3630 22bf 8ebc e6f9 64ae cab9 84b6
00000120: c686 88bb 7dfb 5cbb 33fa 36bd a0fd eab9
00000130: 6617 a73a 0170 4bbd e97e 033d 897a 953d
00000140: 13bf 9ebc 54bf 7abd f964 25bd bfb5 553b
00000150: 6529 c1bc 413b 1ebc 06bc b7bc 9788 83bc
00000160: 45c8 aebc 83c0 003c 6b60 06bc c98d ae3c
00000170: f675 ba36 15d9 6abc 55c5 b2bd 3ef8 243b
00000180: 8806 423b de63 6cbb 02f2 052e 3e60 d2bc
00000190: 93bc 162e a11c 123d 450a 99bc 0c8a d0bb
000001a0: bc5b d1bb f6ec d03a e239 cabb 6e27 e0bb
000001b0: cef6 552d 0b65 a431 d960 1fbd 0ded 122d
000001c0: fa6d ad34 570e d7b7 065e 51bc cf5f 29bc
000001d0: 43c2 95b7 62ef 5abb 6e38 673c efd9 02bd
000001e0: 7448 7abc e0cb b13c cae7 ae3c a179 83bc
000001f0: 38c3 843c 539f 9c36 6a15 a4bc cbf7 cc3a
00000200: 4a0c 25ab 34dd d8ab c01a daaa 1075 0b2c
00000210: c081 b8a8 7e45 33ab d06d a42b 7ef4 192b
00000220: 965e a52b 7254 feab e854 daab 6544 e4ab
00000230: 125e f338 628e e0aa 1461 a8a9 881b 71aa
00000240: 8ef3 02ac 479e 572c 4ae6 7c2c 07d2 28aa
00000250: 8985 28ac cdc3 262b 2f71 a6ab 5b59 892b
00000260: ab57 59ab 264f ba2b d471 d02b 897f 8eac
00000270: b4af f0aa 4dc7 f229 1f80 9e2c a0fa b2a8
00000280: d465 dc37 0e69 7b2b f890 422b 59ac 012c
00000290: 06ad 62ab d956 a1ac d1be 972c 9cd4 f52b
000002a0: ae32 53ac d0a4 74b9 91aa 5a2b 794a 3f2c
000002b0: b998 55ac 1bea b1aa 5792 e62c 30c8 c82a
000002c0: 7450 11aa ea66 962c 2694 a1ab 2441 a62c
000002d0: 7821 7dab 3ea2 7bac 42b1 8aac 159c 722c
000002e0: ce48 bf2a fa33 992c 5757 cc2b e8da 32ac
000002f0: a7ad 33ac 3477 34a9 b40f 092b 94c6 8eaa
00000300: f811 84b9 1d1d b53d 1e19 23be edc7 02bd
00000310: b0a2 42bd 5e98 833b 055a 23bd 9927 91bb
00000320: bd2e aabb 324b 413d 9d45 583d 68c9 d53c
00000330: 45bf 21bc f521 e3bc c4f3 843d c188 143d
00000340: 5985 5dbd 181e a53d e2ec aa3b a91f cbbd
00000350: 7dc2 913b 8c3c 793c e54f 5fbd 4ea1 25bd
00000360: 4b03 6038 3a7a 033d 876e a1bc fd15 913d
00000370: 15a1 f53d 91a6 6ebd 17ea 0abc 0e3e 15bb
00000380: ac3a c2b1 ed83 37bb 9c4f 9fbd 0b36 05bd
00000390: 61b5 103c 47f3 183b 63de 42bc 1cb7 82bc
000003a0: 635b 01bd 5153 1935 23c0 98bc 027a 3139
000003b0: cb45 25bc a505 27be 248b ad3c 2d3b 2bbc
000003c0: 05e2 16bd 9e9a 04bc fc94 0a3c ac20 57bc
000003d0: c003 0539 e2f2 3cbc 87a8 123d 100f 013d
000003e0: 3529 bfbb a412 b9ba 0294 493c d4c2 5fbc
000003f0: c739 2abc 98a0 f9bc 3085 103d 77b0 12bd

val_fc1.bias f4 [64]
-0.14731562 -0.029746471 -0.00023541879 -0.03832029 -0.045664016 -3.575409e-07 -0.0075928685 -0.040087614
-0.04982658 -0.12827106 -0.015501977 -0.036175705 -0.040521774 -0.0006745806 -0.023116507 -0.0865485
-0.012388922 -0.046980705 -0.082588606 -0.05934495 -0.06334423 -0.16428985 -0.039866988 -0.016623685
-0.039789606 -0.03553996 -0.013357878 -0.09940235 -0.09705189 -0.099059165 -0.18903898 -0.00437904
-0.08674371 -0.012867003 -0.048583094 -0.038396064 -0.10481392 -0.093346685 -0.03732984 -0.22367412
-0.026521374 -1.0228156e-05 -0.083198115 -0.17466018 -0.028601443 -0.079315744 -0.017911699 0.10225461
-0.037496913 -0.03536919 -0.064087376 -0.09899716 -0.08259264 -0.06091191 -0.11215664 -1.0031474e-06
0.33504516 -0.030893134 -0.034971252 -0.022864997 -0.036030088 -0.0077122548 -0.07398281 -0.1388153
00000000: e8d9 16be dfae f3bc c0da 76b9 bdf5 1cbd
00000010: 310a 3bbd 0cf4 bfb4 99cd f8bb e932 24bd
00000020: f516 4cbd 7d59 03be 01fc 7dbc fa2c 14bd
00000030: 29fa 25bd 56d6 30ba d45e bdbc 5740 b1bd
00000040: e8fa 4abc d76e 40bd 3724 a9bd b113 73bd
00000050: 9fba 81bd 993b 28be 914b 23bd 652e 88bc
00000060: 6dfa 22bd 5992 11bd 00db 5abc 7693 cbbd
00000070: 24c3 c6bd 88df cabd 6f93 41be 0d7e 8fbb
00000080: b0a6 b1bd 1fd0 52bc 11ff 46bd 3145 1dbd
00000090: aea8 d6bd 8c2c bfbd 2de7 18bd d40a 65be
000000a0: 5a43 d9bc 9899 2bb7 c663 aabd 1eda 32be
000000b0: 934d eabc 4b70 a2bd 8ebb 92bc dd6a d13d
000000c0: 5d96 19bd 49df 10bd 3e40 83bd 06bf cabd
000000d0: 5426 a9bd c47e 79bd 61b2 e5bd e2a3 86b5
000000e0: 0a8b ab3e 9913 fdbc 043e 0fbd 604f bbbc
000000f0: 4994 13bd 15b7 fcbb 4d84 97bd 9925 0ebe

val_fc2.weight f4 [1, 64]
0.056415487 -0.047458727 8.343959e-08 -0.012231134 -0.0324021 -3.7041914e-08 -0.028670065 0.060816325
0.024966676 8.9549326e-07 0.056996167 -0.02219559 0.005686342 1.1612112e-13 -0.0004157854 -0.036261145
3.9717746e-11 -0.039669387 -0.04980354 0.036772955 0.028892176 0.041570567 0.047461692 0.046080373
-0.02338908 0.043129668 0.041493304 -0.019670492 0.0038289567 -0.084492326 0.23514253 -2.8684717e-05
0.0065534357 0.06379323 0.009477157 -0.022370543 0.06258345 -0.04573493 0.017439425 0.17332783
0.01289839 1.2244332e-12 -0.11119226 0.09773422 -0.052116726 -0.069787785 -0.012106183 -0.09780194
0.010730349 -0.02925468 -0.085890815 -0.0384474 -0.0052538156 0.0355419 0.05674716 8.4337203e-13
0.5755683 -0.014821887 -0.009173815 -0.012779045 -0.043963257 0.02580943 0.018377142 -0.119465224
00000000: ed13 673d 1564 42bd 662f b333 1865 48bc
00000010: 10b8 04bd 0418 1fb3 7cdd eabc 8a1a 793d
00000020: ea86 cc3c d461 7035 d074 693d 87d3 b5bc
00000030: 7e54 ba3b a2bd 022a c6fd d9b9 9186 14bd
00000040: 35ae 2e2e 5e7c 22bd ccfe 4bbd 3d9f 163d
00000050: 49af ec3c e645 2a3d 3167 423d c6be 3c3d
00000060: 759a bfbc bca8 303d e2f4 293d 0324 a1bc
00000070: 3cef 7a3b 500a adbd 34c9 703e f69f f0b7
00000080: 34be d63b 06a6 823d 1446 1b3c 6e42 b7bc
00000090: c02b 803d 8d54 3bbd 20dd 8e3c da7c 313e
000000a0: c553 533c db52 ac2b c5b8 e3bd e128 c83d
000000b0: 5978 55bd e6ec 8ebd 0359 46bc 624c c8bd
000000c0: 59ce 2f3c 83a7 efbc 86e7 afbd 057b 1dbd
000000d0: 3328 acbb 6294 113d b66f 683d 5c63 6d2b
000000e0: 7258 133f 80d7 72bc c54d 16bc 335f 51bc
000000f0: d112 34bd 4c6e d33c a98b 963c 2faa f4bd
