AlphaZero_Gomoku/model/current_dqn_conv.model (torch, 794049 bytes, 24 tensors)

main_network.conv_layers.0.weight f8 [32, 4, 3, 3]
0	0x400524b22e29e1bf	2.6429179770022695
1	0x40071e7d7042cb4e	2.8898876924880943
2	0x4006181a0238cecd	2.7617683576189394
3	0x400585e9fe150c5c	2.6903877115415025
4	0x4006c4921c96eae6	2.8459818109089268
5	0x400510259cb86020	2.63288423955602
6	0x40071e8fcf0487ea	2.8899227307565427
7	0x400764b4ee0f3767	2.9241732214349443
8	0x40061a5f2c87da7c	2.7628768423995194
9	0x400535d87d2f4b16	2.6512918262536784
10	0x4006092e73d4ad57	2.7544831322935965
11	0x400538441434bb2a	2.6524736002533205
12	0x40079c8191c0f45c	2.9514190089235353
13	0x4006a8f10d063f70	2.8324910180598906
14	0x40051d98a6f79952	2.639451317244643
15	0x4005ee9620cac401	2.741497284114758
16	0x40072f28ef1a9bf3	2.898027294158504
17	0x40059798fc245401	2.699022264345786
18	0x4005a48226d8b8fe	2.705326369751787
19	0x40057e50330689b0	2.6866764055605117
20	0x400582b771425030	2.688826451145381
21	0x400526ab8dd6a4b5	2.64388190089502
22	0x40078d615f1c07c0	2.944033377688328
23	0x40061f9660c446ef	2.765423542013074
24	0x400681773272b5e8	2.8132156316048516
25	0x400541e4c17c32ad	2.6571745983149726
26	0x4006f679a8eabc34	2.870349235213803
27	0x3fe5944030c47101	0.6743470146643916
28	0x3fd29fcb35ef18e7	0.2910030390452349
29	0xbfd91872ee307cc1	-0.3921172452991862
30	0x3ff4849f272f7c5a	1.2823783426936388
31	0x3ff09a10b637828c	1.0376135938496729
32	0x3fdabab75dbaadd1	0.41764625695460916
33	0x3fe5da72078f0c7e	0.6829157016403682
34	0x3fdb20b1bafc1d0b	0.42387049923168324
35	0xbfe19dd0d37cfd26	-0.5505146151189464
36	0x400548d7cdde8cfc	2.6605678638021555
37	0x4006bb919f293da6	2.8415863451443384
38	0x4005bee94821fc49	2.718218387162356
39	0x4006d0548483796b	2.8517237045882005
40	0x400754b8e687efac	2.9163682947382394
41	0x4006f626a4c76ace	2.8701908944470693
42	0x4007337d3d528ea5	2.900141219217249
43	0x40078a436a24d4d5	2.942511395691876
44	0x40063d2811554970	2.779861579337357
45	0x4006b35e40fb4116	2.8375821186711034
46	0x400791aed71bfe45	2.9461342626016482
47	0x40065611517ab86e	2.7920252194954207
48	0x4006521a7ef7123b	2.790089599528327
49	0x400671cef53c41bc	2.8055705222143086
50	0x4005bb5e19cd1715	2.7164880767549087
51	0x400670a24716254c	2.8049970201142624
52	0x40056ff9281ffcf0	2.6796744475137686
53	0x4005ac2c1646c129	2.709068464311845
54	0x40056084dd650b0d	2.6721284195385864
55	0x40072adc16d13cca	2.8959275992016034
56	0x4005d8f9f734f513	2.7309455216442386
57	0x40061d275acc640f	2.76423521934749
58	0x40062281aa1b6405	2.7668488778695086
59	0x4006ced8f3b3acfd	2.8509997405250247
60	0x40050012d3bf739d	2.625035909919872
61	0x40076fe37195bd39	2.9296330331632388
62	0x4005b0a074baf2fc	2.711243545489536
63	0x3fe4d7642564ebea	0.6512928705554917
64	0x3fce7d431bc1d989	0.2381976972134903
65	0xbfd6ae9ee742b52e	-0.3544080027011941
66	0x3ff65bba8913969b	1.3973946909476698
67	0x3ff2b128bb4b96af	1.168251735326901
68	0x3fe0b651430aa135	0.5222555455593808
69	0x3fe590037846eddf	0.6738297795449703
70	0x3fcfcc718bd3013e	0.24842662169795376
71	0xbfe461c9525af8ee	-0.6369368179801123
72	0x40061e9098d486ef	2.764924234376728
73	0x4006c4c05fc91283	2.846070049594631
74	0x40066eda05513008	2.804126779117727
75	0x4005fbc9448eb5d1	2.74794248161809
76	0x40062a5dea4ddceb	2.7706869416248217
77	0x4006a776c26cb434	2.831769484465008
78	0x40054c9e77ff12dd	2.6624116301266967
79	0x40068d8f9cf6c518	2.8191215765770146
80	0x40067225816df03c	2.80573559872394
81	0x40054dd1584babff	2.6629969499676913
82	0x400782f77315c5ef	2.938948535062756
83	0x40067036d7adb8bd	2.804792103756965
84	0x40071d760699d841	2.8893852725696267
85	0x400694e8e90da8eb	2.822709866265645
86	0x4006809b339c1cb7	2.8127960235611584
87	0x400705c8d49755ca	2.8778244599040805
88	0x4006a0035f7f943c	2.828131433564094
89	0x40064b5fcee64969	2.786803833391947
90	0x4006edbfe6ed523c	2.8660886803793613
91	0x40074dc6c3110f05	2.912976764638986
92	0x4006c3a6a1988508	2.845532667605429
93	0x4006eab6c227fd16	2.8646063965276296
94	0x400681db8d8828ce	2.81340704509521
95	0x4005ee78f7287855	2.7414416608071783
96	0x4006fe4e8d30ee21	2.8741732626492795
97	0x40072140d0c3901c	2.8912369069748944
98	0x40079a237792f412	2.9502629605981463
99	0x3fdfb00e7981c18e	0.4951206385221888
100	0x3fd122be8cefbf8d	0.2677456260998888
101	0xbfe3c28c2df2e513	-0.6174984834134726
102	0x3ff8c5688c49b71b	1.5481954078672462
103	0x3ff219d00d45c5be	1.1313019293269089
104	0x3fdb050b808c5ad3	0.4221829181055174
105	0x3fea2535de92e4b0	0.8170422885078974
106	0x3fd7b3b74e389736	0.37034399641776206
107	0xbfe100eeb89dfe01	-0.5313638311199044
108	0x4005d6818cb8a9a5	2.7297392839293075
109	0x4006b6db0437a623	2.8392849282725066
110	0x4005225d6f7d151c	2.6417797765776765
111	0x4007476dfd6f25cb	2.9098777579826893
112	0x4004f6262110c829	2.6201899131056234
113	0x40050da4ec0e26a3	2.6316622201746482
114	0x400690a70aad4b19	2.820631106770986
115	0x400641afbed7f1f9	2.7820734891558883
116	0x4006b84c48eed66a	2.8399892518889844
117	0x400793c9f40d66ae	2.947162539156884
118	0x40056aa3cdc5569f	2.677070243439473
119	0x40069979c6ab77bd	2.824939300639896
120	0x400588d5b3d1dd95	2.6918138550206074
121	0x400724d252a52ce0	2.8929792839677333
122	0x4006b0d7d7fdae27	2.836349189213951
123	0x400659ccd014ba38	2.793847680695105
124	0x40053fb28cd4fc9d	2.656102276086655
125	0x400643186c8a7e2f	2.782761428810566
126	0x4005174e39168b1d	2.636379667282553
127	0x400554b53b0a0cbb	2.66636129497928
128	0x4005a549c09a137b	2.7057070776958745
129	0x40052478a7fd04ef	2.642808258446727
130	0x400643c47f9410c1	2.7830896346150387
131	0x40063b2e92e0d9d0	2.778897426115897
132	0x40051338e226570d	2.6343858402204945
133	0x40070fcb43046d25	2.8827119098401845
134	0x40053e911a71c385	2.655550200077814
135	0x3fe9702d3da50c9a	0.7949434474943644
136	0x3fc3883b0ad40d33	0.1525949290154159
137	0xbfd4215ea657f1d2	-0.31453672642217356
138	0x3ff9b975b08d8b2e	1.6077782532308436
139	0x3fef943fc5aefcb1	0.9868468152052597
140	0x3fe2dadf9f20781a	0.5892179592081022
141	0x3fe67127c40dedbb	0.7013129071414633
142	0x3fd33c531b3d2e63	0.30055692348535085
143	0xbfd5274fd52bacdd	-0.33052440469209704
144	0x4006f99f7ee60ec3	2.8718862451513316
145	0x40075cd46602ca70	2.9203269929505993
146	0x4006f07a2ab5d1ca	2.8674205147492318
147	0x40077bd3a23fa71f	2.935462253158121
148	0x40056e2ab9f9af3c	2.678792431766764
149	0x40076620d55e9c4d	2.9248673123834465
150	0x400607b00e6704f1	2.7537537694157597
151	0x4006e3463d3765ff	2.8609738142520196
152	0x4006f5d313ff704a	2.8700315058067973
153	0x4005ef1cf6f9bde9	2.7417544646229897
154	0x4006c077307a8cbe	2.843977335681841
155	0x40073bc04500b1b1	2.9041753187977624
156	0x4006657a9a3d3af3	2.7995502519546505
157	0x40079b2c612033cb	2.9507682407333724
158	0x400621174abc03d5	2.7661577070834746
159	0x40068edd7f59502e	2.8197584103709437
160	0x4005e269fe907de9	2.735553730759183
161	0x400616a52a0349d0	2.761057213044502
162	0x40056e1a28bad971	2.6787608320257097
163	0x40050e1b68e70852	2.6318882174973988
164	0x400796ba7c55fe4a	2.948597880720432
165	0x40066e530b964333	2.8038693337661242
166	0x4007a8babfc8b8e6	2.9573874457483837
167	0x4006df1f388886b9	2.8589462677635678
168	0x40070648947c5c74	2.8780681229068765
169	0x400627cd87b918c1	2.76943498643513
170	0x40077063bdf36b53	2.9298777427588134
171	0x3fe6a5539ad156ef	0.7076814674171298
172	0x3fd047a978243426	0.25437390072403543
173	0xbfd98bc2cc93f0df	-0.3991553304511068
174	0x3ff687a25b19cd88	1.408113818991156
175	0x3ff16c438a1f4de0	1.0889315982247965
176	0x3fde57e5838c2d8e	0.47411477896158594
177	0x3fe347ae051448be	0.6024999713138397
178	0x3fd7f078d8a1dd09	0.374052249484024
179	0xbfdd15e8bc497e4d	-0.4544622267476129
180	0x40063d7eb96ee20b	2.7800268637622643
181	0x4006bc3d5d73a2bc	2.8419139195360383
182	0x4005a53065927e29	2.7056587157565173
183	0x40055a19ca805dbf	2.668994504969049
184	0x400775aa7bd0f153	2.9324540780200237
185	0x400673f2770060a6	2.8066148087492193
186	0x40050fda20b1246d	2.6327402643260513
187	0x4007704b5e952be6	2.9298312558434985
188	0x4006b70631d4b86d	2.839367284111225
189	0x400731092683fe73	2.8989432343512873
190	0x400596163d950a48	2.698284607992978
191	0x4007327a6e364f6f	2.899647580177706
192	0x4006bc4632a47c36	2.841930766720476
193	0x40065fcc6bd51b42	2.7967766212854324
194	0x4005f281f2a88656	2.743411918418853
195	0x4006283032321ffb	2.769623176722232
196	0x4006f992f2ecc6df	2.871862314082008
197	0x4005b3f69781cf03	2.7128726803292706
198	0x400527087f28258d	2.6440591749312206
199	0x4005f7a119659fe1	2.7459127411020607
200	0x40053a0a3717a2ff	2.6533397964561796
201	0x40072625545ce43f	2.893625887951685
202	0x40051d69528dff55	2.6393610429367222
203	0x40055d997583e8a0	2.6707028561477983
204	0x4006a0c322b41b39	2.828497191544923
205	0x40071b39f8c39831	2.8882941660586074
206	0x4005d52d707a5fe2	2.7290905749650713
207	0x3fe52b03a4db38d6	0.6615007610178292
208	0x3fd929721344ee98	0.3931546390701697
209	0xbfe318981de19d21	-0.5967522224063125
210	0x3ff963171d162751	1.586691964740073
211	0x3fef151df5c1e40f	0.9713277625988911
212	0x3fdb6e49ad4cb706	0.42860643314166713
213	0x3fe4c8600b86e176	0.6494598603376704
214	0x3fd41afe58280381	0.3141475544835473
215	0xbfd7587e5da6b040	-0.3647762217103754
216	0x40063a5d0fda3ea0	2.778497814033315
217	0x4005133d2bde5951	2.6343940188627717
218	0x400547d164c67015	2.660067355447618
219	0x40069888ab1546fe	2.824479424082596
220	0x400594ecdd9da6a5	2.6977174104439023
221	0x4005cf76866ba8c0	2.7263002873997664
222	0x4006d058f4c14efc	2.851732170247372
223	0x4005f892e7ea8b79	2.746373950810661
224	0x40058507379c8225	2.689955172027356
225	0x40060794027ebaa3	2.753700274937118
226	0x40051eaa70fd31d2	2.639973528601538
227	0x400650317e7c93f6	2.789156902481859
228	0x4005ea4935d48fcc	2.739397450017327
229	0x400783d16bbebc8b	2.9393642823775443
230	0x4007566b16bccb2b	2.9171964432111017
231	0x40076dc8d4330186	2.9286057069841176
232	0x40053479b63666b7	2.650622771773523
233	0x400792af943eaa54	2.946623953020472
234	0x40062b3518502690	2.771097364374164
235	0x4005e3aa929491d7	2.7361651851262923
236	0x4005ce73bddb2b77	2.7258066971311865
237	0x4006857490961e2d	2.8151637359440174
238	0x4006dfd4889159bf	2.859292094169376
239	0x4006e3e932721e01	2.861284631831723
240	0x40065b9bda9b3d4f	2.7947308615327198
241	0x40076ee21f785574	2.9291422327611887
242	0x4007157035c3d626	2.8854679298772394
243	0x3fe0e371750619b4	0.5277640615102457
244	0x3fc4412e7fb126aa	0.15823918566666367
245	0xbfd5d073ee1539ab	-0.3408479523685865
246	0x3ff93da47cf4c568	1.5775494462107762
247	0x3ff48c85460f19f6	1.2843067871741574
248	0x3fdd570646bfbda9	0.458436554995354
249	0x3fe462c787fd02ef	0.6370580345174782
250	0x3fd1581dbdcd0751	0.2710031846546502
251	0xbfe1c4c632ead556	-0.5552702898482191
252	0x4006ea96f0e9503f	2.8645457097245806
253	0x40062806bf6ab831	2.769544120258637
254	0x40055a3e344c81fc	2.669063957772094
255	0x4007036336025c86	2.876654073664727

main_network.conv_layers.0.bias f8 [32]
0	0x40076dd697079e6f	2.9286319541168306
1	0x4007af41113a0dca	2.9605733247605928
2	0x4006fdd4185cedda	2.8739396956786836
3	0x4006484e0f884b26	2.7853051389187327
4	0x4005585cc5bb9957	2.6681456992984454
5	0x4005903c4b6f006c	2.6954275029420867
6	0x40053239188738a2	2.64952296412146
7	0x4007223a58a95f91	2.8917128493012076
8	0x40057162a79e708a	2.6803639502741747
9	0x40052bb0364a0bf7	2.646332191595771
10	0x4007660cef7aeb39	2.9248293599497655
11	0x40062da4b41879e6	2.772286803242639
12	0x4006b73c507ae6d4	2.839470509291326
13	0x400593e78dca719a	2.6972189977079326
14	0x400744d159e14c26	2.90860243052295
15	0x4005ce916fb2e9cc	2.7258633352732655
16	0x4005b94cc9516c8c	2.7154784896825443
17	0x400687045001e407	2.8159261942460065
18	0x4007214d6c65c4ef	2.8912609547193067
19	0x40057077a188edb6	2.6799156780159263
20	0x4006c30a52a5e101	2.845234533011649
21	0x4006dbde39b351f6	2.857357455048482
22	0x4006dd1be5029d9a	2.8579633609221675
23	0x40067e2f4f4c7a13	2.8116136737073787
24	0x400611ea2e0d12d7	2.758747443937277
25	0x40072d351ecb80ed	2.8970739751676917
26	0x400605367dbab29b	2.752545339832364
27	0x4005824380e467d7	2.6886053151801934
28	0x4005272981cc9764	2.644122137123235
29	0x40051f1e22740ecf	2.6401941959064525
30	0x4005b8eef99f9554	2.7152995588136637
31	0x4006dfcdb756ccab	2.8592790912021733

main_network.conv_layers.2.weight f8 [64, 32, 3, 3]
0	0x4005dc5cb2432d6d	2.732598679232686
1	0x4005d6834263fe78	2.729742544819427
2	0x40064e73cab22eb0	2.7883067927958436
3	0x4006bf220f735ce7	2.843326683719727
4	0x4005e2ec4b8b9f18	2.735802259634408
5	0x4006a43ced415622	2.8301943336071114
6	0x4005e4e148fbad92	2.73675782220898
7	0x4005daf6c8399f69	2.7319160120568324
8	0x4005f54c2e4604f1	2.744774209510631
9	0x400674737d8b5a67	2.806860905471058
10	0x4005ed22efc661e1	2.7407892925659643
11	0x4005cf44cce7acf8	2.726205445118122
12	0x4006c8f8470c376c	2.8481298018077066
13	0x40061154fc3d7c80	2.7584628778709543
14	0x4005e9a04ad8a5dc	2.7390752646794976
15	0x400600ccd227fed4	2.750390664907039
16	0x400618306d925834	2.761811119106847
17	0x40060df5ee63c5fd	2.756816732807009
18	0x4005fa1e95d5c0da	2.747128649316534
19	0x4006a08b5126a974	2.8283907260821994
20	0x400662473f856583	2.7979874575218573
21	0x40067a367aeae02b	2.809674225132786
22	0x40068fd104f7087f	2.820222891606192
23	0x4005d87ed2e8b898	2.7307106473227343
24	0x40068885631e5fa4	2.816660665859631
25	0x4005f807e95dfff8	2.7461088401614653
26	0x400644d03cca7a41	2.7836003064433332
27	0x40069d48cf7ebdaa	2.826799031310391
28	0x400648d36d4b5eab	2.7855595148683583
29	0x4005db6e9e28f8c5	2.7321445804837787
30	0x4006a1385387a7f5	2.8287207151197387
31	0x4006a4ac0a19d9d1	2.8304062642230083
32	0x400668e8f6fd18d8	2.801225595091733
33	0x40069bea08fd6742	2.826129980309731
34	0x400682dfd3d47937	2.8139034795014157
35	0x40065b91e2b52967	2.794711848405473
36	0x4005f1edb0e01194	2.743129140699418
37	0x40065217ee87ab17	2.7900847087052045
38	0x40063b7e6b1504fa	2.7790497175016045
39	0x400645eaf2920db0	2.784139533121298
40	0x40062371894e56aa	2.767306397155001
41	0x4005bfcfaa1ae528	2.7186578072984453
42	0x40064f60bb0a2a9b	2.7887587177732036
43	0x4006ad3d6b325a84	2.8345898031942074
44	0x4006378e034a4e10	2.7771263367701593
45	0x4005f6369273b3f9	2.74522127547834
46	0x40066fdf2b4002f9	2.804624879733066
47	0x4006bd239c70e352	2.842353079028194
48	0x4005fd1c1f6d405b	2.748588796159351
49	0x40066dd00b444295	2.8036194687086415
50	0x4006276ec7068b7b	2.7692542599556282
51	0x400636e20bc1dbf7	2.7767983358894486
52	0x40069516165c462d	2.8227960345182255
53	0x400659e41c13506a	2.7938921159166528
54	0x40068a6d3e2887c2	2.8175911766165607
55	0x400694abdd0872b2	2.822593428440393
56	0x40067b2b0e5397b3	2.8101407164822034
57	0x400605e53507d077	2.752878584195112
58	0x4006a4da46a36b32	2.830494453298706
59	0x400617e5295db287	2.761667559787671
60	0x40062cf6afe967ab	2.7719548934082545
61	0x4005f15f80f1259a	2.7428579400627315
62	0x40060a4209613408	2.755008767393978
63	0x40061aa9fc3f291d	2.763019533803471
64	0x4005f660896fab27	2.7453013169482747
65	0x400635ad05946d4a	2.776208919136171
66	0x4006c7abf271e83a	2.8474959317218493
67	0x4006901785c1f00f	2.820357365590105
68	0x4006593261d696f5	2.79355312763334
69	0x40061632e6d9a3ee	2.7608392748993458
70	0x4006b89b46e3b30b	2.840139917205652
71	0x4006294a261cc6cb	2.770160959008398
72	0x40066c62534ef397	2.802921915861997
73	0x4006b7d7a8e23e59	2.8397668069881488
74	0x400672ba6ef687fb	2.8060196560845703
75	0x400680864348849d	2.812756086016249
76	0x400679152790be75	2.8091223803565364
77	0x4005d5589813e5ef	2.7291728859970514
78	0x400654e325b2a449	2.7914488740102894
79	0x4006afc2529d1a30	2.835819859904653
80	0x4006333a11cae173	2.7750131025351776
81	0x40060bc1c9c433a6	2.7557407153130553
82	0x400605095809c88a	2.752459228323521
83	0x4006abb6076fafe4	2.8338432866057577
84	0x40062929a29f6cf7	2.770098944177899
85	0x400642c9fba8fda8	2.782611814589206
86	0x4006630aa3f40d40	2.7983601387838064
87	0x4005f7677a36e18c	2.745802836227261
88	0x40065669ee2d232d	2.7921942336582988
89	0x400622851e45469e	2.7668554654017745
90	0x4006c27091002a3a	2.844941265885862
91	0x400657027617a417	2.792485163303819
92	0x400624b4bdb34073	2.7679228611305517
93	0x4005f10cddd8a895	2.7427003223174986
94	0x400601a2d881b5ea	2.750798884829
95	0x40062b2c300be926	2.7710803750643604
96	0x40062acabf7f6628	2.7708945236925224
97	0x400603dd316921e6	2.751886735936057
98	0x4005fec468e96a69	2.7493980594857033
99	0x4005e57d2743b6f7	2.737055117372502
100	0x4005f3a85d6ba237	2.7439734743568596
101	0x40062d639a8ea141	2.7721626353051367
102	0x40065f31534c2560	2.7964807994473375
103	0x4005df54858add2c	2.7340479310038486
104	0x4006618080d1c4e0	2.797608381654399
105	0x4006c83ddc52dc9e	2.8477742398059283
106	0x4006c1d1d433354e	2.8446384981276998
107	0x40060049db2696aa	2.75014086925042
108	0x40064a412ebc83ea	2.7862571383743573
109	0x4006263293f819a1	2.768651157387652
110	0x40066a7fc5ab6684	2.8020015185291545
111	0x40067e6b4a92cf1b	2.8117280794193795
112	0x4006272c2f9a8a64	2.769127246764855
113	0x4005f6f3ae4df52a	2.745581971887664
114	0x40061b01082ecca3	2.7631855620653183
115	0x40067f333b73a1e9	2.812109436479876
116	0x4006360fa9871919	2.7763970608094835
117	0x40065fb17832a87d	2.796725215002026
118	0x4005d21095bf5984	2.7275706957836423
119	0x400623290dd2a147	2.7671681480316326
120	0x40066de3157d774b	2.803655784503382
121	0x40060948fd0163e9	2.754533745388916
122	0x400630e7eba778f8	2.773879853294712
123	0x40065ebbc469ecc1	2.796256575090951
124	0x4006884e3577912d	2.8165554215539914
125	0x4005faebe6f69a74	2.74752026023935
126	0x4006945ad3a7c37a	2.822438863332022
127	0x4006c2fe331501e7	2.8452114096437415
128	0x4005c2c34ee71b48	2.7200990833547714
129	0x40063702fe8fc321	2.7768611800787686
130	0x40062da9e3ea4a97	2.772296696269517
131	0x40065fab74082576	2.7967137398706496
132	0x40064d1318708030	2.78763407796216
133	0x40062e79353afad3	2.7726921232818795
134	0x4005c80c5d6e90a3	2.722679834305454
135	0x400689644e721cff	2.817085850579701
136	0x400653c34d40b4a7	2.7908998523112873
137	0x40064ad121f684bd	2.7865317014080504
138	0x400660d69dbe4e87	2.797284347887231
139	0x4006a2c8abbd0de9	2.82948431177805
140	0x400677ef3b767538	2.8085617681050756
141	0x4006341e8c8baa2c	2.7754488926050467
142	0x4006377e88c96779	2.777096813818329
143	0x400670c4901a5762	2.805062413982271
144	0x40063533d1bdeb40	2.775977743728987
145	0x400665d6cada743d	2.7997260902325523
146	0x40062261675a7371	2.766787345359653
147	0x4006824c21a01cf4	2.813621771525158
148	0x4005f7b1145946cd	2.74594322106791
149	0x4006bbeec61d5f66	2.841764018794424
150	0x400615839a145c73	2.7605049169028972
151	0x40069305a5e5a2ce	2.8217881165222485
152	0x40064c989467ade4	2.7874003976955795
153	0x4006086ff26e246f	2.75411977194431
154	0x4006648129c076e6	2.79907448404889
155	0x4006c45ef412d2e9	2.8458842342609967
156	0x40069bbc49b94d84	2.8260427245783735
157	0x4005fdbe99f4434e	2.748898699538052
158	0x4005ce4437c64302	2.7257160527591404
159	0x4006b29044797702	2.8371892308776987
160	0x4005e9e3a6a1a646	2.7392037408906473
161	0x400637e8085f3324	2.777298036008135
162	0x400679d3ad288d47	2.8094857719421813
163	0x400676c55d60cf89	2.8079936309022213
164	0x400600d29844dcac	2.7504016777052893
165	0x4005dc1ca6bc8d32	2.73247652304567
166	0x40063f0f93567855	2.7807914267314495
167	0x4005e9d5b28d7aec	2.73917712682975
168	0x40060d9714551325	2.7566358173811687
169	0x4005edf38177eab0	2.741187106582707
170	0x4005ce5d6ac786cc	2.7257641164913817
171	0x4006a7df564a80e4	2.831968950413385
172	0x4005e2a3963e01b3	2.7356635797188686
173	0x40067191c09f76b5	2.805453781954237
174	0x4006c58692ede2ff	2.8464480856749783
175	0x400649d64a264a6d	2.786053256314793
176	0x400609758edc63f7	2.754618755436691
177	0x4005ea3c519be08f	2.73937286145162
178	0x4006467977877a9e	2.7844113672466184
179	0x4006aaa6af7145c5	2.833325739521316
180	0x400698ec9a066de6	2.8246700318538727
181	0x4006045ac28147aa	2.7521262355521303
182	0x40064ae3575cbbad	2.786566431539049
183	0x4005f8853c434726	2.746347876361045
184	0x4005dbe8e7115c88	2.732377820222215
185	0x4006a4fb67037223	2.8305576370169248
186	0x4006353d7306d4e1	2.7759961115321947
187	0x40061a9c0e13a28d	2.7629929637662998
188	0x400675dfdff75ead	2.807555913674
189	0x40064c9817ba36f6	2.787399468775102
190	0x4006bc2a2b9d80d5	2.8418773086014917
191	0x4005d7434b48328f	2.730108822003167
192	0x400672a95ddfdfd7	2.8059871038385427
193	0x4005f165666bfd0c	2.742869186564013
194	0x4005e523f90b322c	2.736885018972563
195	0x400698aa4e99d304	2.8245435848897404
196	0x4006880eee4c52cc	2.8164347283403455
197	0x4006a2bf6cd7ac9e	2.8294666770285195
198	0x4006ad05d7657cc5	2.834483797821664
199	0x40061cf89a07da4b	2.7641460450788933
200	0x4006250cb78ffee5	2.768090662080669
201	0x400691729aeac4d4	2.8210193732162256
202	0x4005de113b89b91b	2.733431306019282
203	0x40061af2e2cf5dba	2.763158580735504
204	0x4005d60c8b2b5782	2.72951611257571
205	0x4006b24a914ba3d4	2.837056288834427
206	0x40063cce4c3710d7	2.77969035666511
207	0x400661a01c87e4e2	2.797668669602545
208	0x4006017d3ed7f65d	2.7507271680504304
209	0x40069605a9b16832	2.8232529885545086
210	0x40069e27026e3565	2.8272228422053325
211	0x4006931fe3796be9	2.821838166373244
212	0x4005f4d002e354f8	2.7445373750330155
213	0x4006030abd8727d7	2.7514853293296073
214	0x4006281c71df0f0b	2.7695855041691906
215	0x40061d2c304977f3	2.7642444393559287
216	0x400696d8652389b3	2.8236549283476164
217	0x400667460cc36b4b	2.8004265782487088
218	0x4005db19ff46f710	2.7319831794292284
219	0x40063a9e3afaae7b	2.7786221130134527
220	0x400647cd73b4e2ce	2.7850598373009694
221	0x40062dbdf6e92a9c	2.772334984770465
222	0x40061027d75ad433	2.757888491114977
223	0x400650ce681272b2	2.7894561892156498
224	0x400635ddd0b51c38	2.776301985289617
225	0x4006016f6c225489	2.7507008026100874
226	0x400639f6c3d9e649	2.7783026982186
227	0x400625553a48fd25	2.7682289651417187
228	0x400684e472604c8f	2.8148888526571407
229	0x40061d20793e8648	2.7642220947462057
230	0x400676f294dd3734	2.8080798749932914
231	0x400697684e3ab653	2.823929415861849
232	0x40068b97a34e6abb	2.8181603201204246
233	0x4006995ffddddf4f	2.824890120824342
234	0x400674106171caba	2.806671868596223
235	0x40062c3de5731c84	2.7716024327997406
236	0x40065c83c1c2ae7b	2.795173181298933
237	0x40063561c954987b	2.7760654190961396
238	0x4006327598dfb434	2.7746383612889307
239	0x4006788fb34cee35	2.808867836747391
240	0x4006286f75d5cf21	2.7697438436388357
241	0x4005dd2458dbe3b9	2.7329794828515017
242	0x40065c5dd9ea6596	2.7951008820206864
243	0x4006115f6a538062	2.758482771561874
244	0x4006a3c470a63c72	2.829964523385166
245	0x40061c9421fe9119	2.7639544158756846
246	0x40066b7cdbd39586	2.8024842428155265
247	0x40069dbd8982e5a3	2.827021669680748
248	0x40068e2fccf7abad	2.8194271100123474
249	0x4006cf87d676df5a	2.8513333086993216
250	0x4006af6300bad031	2.8356380517016295
251	0x400613b797be1e55	2.759627519120651
252	0x400629aaf72c92f8	2.7703456221082625
253	0x400630fc562f092e	2.7739187939743237
254	0x400603e0e42a7f5a	2.751893789812965
255	0x40069775f68a9059	2.823955465415605

main_network.conv_layers.2.bias f8 [64]
0	0x4004efa0b238aab1	2.617005722383816
1	0x400568bfb837814b	2.6761469261111066
2	0x40054638b718ce11	2.6592878632016057
3	0x40057b766cf9bdc9	2.685284472819806
4	0x4004ff56b225655a	2.624677078024132
5	0x4005326509493738	2.6496067738979967
6	0x40053508fcfb8f8c	2.6508960499067538
7	0x4005288161e87f1c	2.64477802744649
8	0x40053227b64eb037	2.6494898073924804
9	0x4005a288f4e8af06	2.7043627866277147
10	0x40059ac308851382	2.7005673089610704
11	0x400526a3d8bba2af	2.6438672001134687
12	0x4005541a9c42c1a8	2.666066380297895
13	0x4004fb4115628656	2.622682730740773
14	0x40055644f400c39b	2.6671237051709347
15	0x4005a46f06adc104	2.7052898904586318
16	0x400562ce25a4c8d3	2.6732447567857007
17	0x400515d47abf71b4	2.6356591787027472
18	0x40050718c5b4962a	2.6284652181373263
19	0x4005809d37664357	2.6877998664935308
20	0x4005136c69f71cbc	2.6344841269052193
21	0x400555516c6a7089	2.666659209249762
22	0x4005caf85436e18f	2.7241064624069575
23	0x4005dd5687f0d95c	2.7330752010704327
24	0x40052579e50da295	2.6432989020143602
25	0x400536a245abe6d0	2.651676697071572
26	0x40055f6cd68c61a5	2.6715943109122287
27	0x400552343b477595	2.665138686292901
28	0x40050957db2524b5	2.6295621033392202
29	0x40051c74aeddd127	2.6388944302981545
30	0x40053dd3cc1d2743	2.65518912757844
31	0x400557b210de3888	2.6678201024834074
32	0x4005c6a9cb9921be	2.7220035463435286
33	0x4005da2566d5fce4	2.731516650586501
34	0x4005a9c39d254418	2.7078926350591352
35	0x4005e2cb86ca9b8b	2.735739758546918
36	0x40057acffaa33afa	2.6849670010627706
37	0x4005010f2f525b8d	2.6255172440537025
38	0x400521889ebf1798	2.6413738634173107
39	0x400585b051204c48	2.690277704046398
40	0x400506a1d04214dc	2.628238322273871
41	0x4004eecf3447c570	2.6166061481860012
42	0x4005045c684b8502	2.6271293781325094
43	0x40055e1c9eff602f	2.6709530278858646
44	0x400557519ba64bf9	2.6676361236691233
45	0x400536b831678bbb	2.651718507740467
46	0x4005082f3be6ce37	2.6289963416873223
47	0x400539a31205c6bd	2.6531430633557123
48	0x40059b0a7fffdd59	2.700703620906705
49	0x40057b1bdbf89db6	2.6851117310759163
50	0x4005058c39ff6b59	2.6277088671753686
51	0x4005a3f6abd9b8db	2.705060331899501
52	0x4005cb73b8b4b1a3	2.7243418150084877
53	0x40056dcbaeeb7665	2.678611151276345
54	0x4005b343e50dae75	2.7125318426895384
55	0x40052581e96db6a4	2.6433141934019933
56	0x400549362767a783	2.6607478216655536
57	0x4004f837ec853923	2.6212004163891307
58	0x40050fe5583ec22e	2.6327616590645198
59	0x4005caa99114a295	2.723956235353692
60	0x4005891baa044bc7	2.6919472963868176
61	0x40050a3e0aae796b	2.6300011476989105
62	0x400540719031c552	2.656466604727634
63	0x40053a2e0828adb6	2.653408111325656

main_network.conv_layers.4.weight f8 [128, 64, 3, 3]
0	0xbf85a6b5977509ac	-0.010571879086118972
1	0xbf85c58a08a0d6a3	-0.010630682361902294
2	0xbfa23b2a2be26c43	-0.035607641083708085
3	0x3f969207baf0ff1b	0.022041435990330798
4	0x3fa153f8748868d6	0.033843769288255096
5	0xbfa0971c64410ec2	-0.03240288471036258
6	0xbf8464c6ac5c3e9b	-0.009957840094585271
7	0xbfa8d30cff730496	-0.04848518961217356
8	0xbfa41ba45f43c4a2	-0.03927339232348827
9	0xbf90e825f7db6c9b	-0.016510575535772714
10	0xbf9d821cf958da27	-0.028816654890954887
11	0x3f9c095366c7f182	0.02737932505441299
12	0xbfa9e9e37a71778f	-0.05061255330723135
13	0x3f819cb6486f1085	0.008599685750489758
14	0xbf838695f8ad31fd	-0.009534045840745792
15	0xbf8cb0e1d8f7eede	-0.014009251054623414
16	0xbfa295441026a5da	-0.03629505822329877
17	0x3f7261be2ce1f29e	0.004487746116976025
18	0xbf9af3db83defdd2	-0.0263208674657543
19	0xbf74f349f4921f6d	-0.005114830864051939
20	0xbf7df583aa75c53a	-0.007314218826068692
21	0xbfa0879ccad3a369	-0.032284641036148205
22	0xbf37fb076d1af9b2	-0.0003659146433213869
23	0x3f94a7970f7c8b94	0.020170555420132866
24	0x3f83ec131df6a5ba	0.009727620460426734
25	0xbf88b81b557c0d47	-0.01206990580204227
26	0x3f998bb72a6a335d	0.024947034801289337
27	0x3f99aacbc5a24c81	0.025065597474690286
28	0xbf9d178cf8af6243	-0.028410151175054087
29	0xbf8df9284ca8088e	-0.014635386313788492
30	0xbfa5b4e43325de28	-0.04239571689953109
31	0x3f939bce603e2875	0.019149040817446356
32	0x3f971e421edaf215	0.022576363690619845
33	0xbf99ff6ce68b6f5f	-0.02538843304760918
34	0xbf959b50bf309f9f	-0.021100293797786326
35	0xbfa7f4db209120c9	-0.04678997776551481
36	0x3f9070cbfba59e1e	0.016055285677252333
37	0xbf808e6f3fd2ffc5	-0.008084172377834773
38	0x3f90347f130e2516	0.015825257814445846
39	0xbfa8e3cbc8c56c0e	-0.04861294580287999
40	0xbfaa6f4147f50268	-0.051630058320829175
41	0xbfa9ec742e96fdf7	-0.05063212460254001
42	0xbfa5b68837aad0c8	-0.04240823440105285
43	0xbf98491eeec76d5f	-0.02371643383399424
44	0x3f5be875a02c58f8	0.001703371876549618
45	0x3f9ec4c0987b21be	0.03004742556257311
46	0xbf9677e43ceb2c57	-0.021941724985293422
47	0xbfa4830236ddc794	-0.04006201667551959
48	0xbfa20745b2d04293	-0.035211732938596495
49	0x3f664869ee071181	0.0027200764600101017
50	0x3f9a33b40b0e00d5	0.025587857413030008
51	0xbf5786e13692b246	-0.0014359664294644344
52	0xbfa10f3e53c76269	-0.03331942341509803
53	0xbf9e3b492307c3b9	-0.02952303196247261
54	0xbf71821adc7342c5	-0.004274468351653742
55	0xbf9ede74a9c2a4b3	-0.030145476209018706
56	0x3f5eeecc71b1e2a3	0.0018879887127509008
57	0x3f52bb8a8dbab328	0.001143346124915465
58	0xbf7fb2f5bc85193e	-0.007739028842769278
59	0xbfa47a2fef190718	-0.03999471467660792
60	0xbfa2938cdd1a400a	-0.03628196906095134
61	0xbf7b2d223dad462d	-0.0066348397766247515
62	0xbf945dea7bdd48e6	-0.019889510927279107
63	0x3f90468b38b72682	0.01589410337127229
64	0x3f8a981ada5e7260	0.012985429562655415
65	0x3f81a79cf8ce8d88	0.008620478003485102
66	0x3f82c438439f72d0	0.009163322032628513
67	0x3f906307afc2bcce	0.016002769568044077
68	0xbfa4f9ba54c57bdc	-0.04096777233893764
69	0xbf80bc884a6474db	-0.008172096987033963
70	0xbf803a10a4b76d7b	-0.007923250223874181
71	0xbf9ad309859bcff9	-0.026195668010544158
72	0xbf64e00ad47800e4	-0.0025482379458027105
73	0x3f9e2fe39c420332	0.02947955743047998
74	0xbf9f1690655832d7	-0.030359512506083455
75	0xbf9510f63a5b3007	-0.02057251673868168
76	0xbf7bd3fcd0cb54f4	-0.006793963967273376
77	0x3f6fa203faa65458	0.0038614347187811253
78	0xbfa6ee5729a9c20a	-0.04478714355071041
79	0x3f4f67f19c9ac65b	0.0009584359879310599
80	0x3f93adf8091edb42	0.019218326145814098
81	0x3f929d5076389922	0.018178231444971556
82	0xbf905f535e113b76	-0.015988638512051755
83	0x3f8bb3147c9d0f1f	0.013525161793615901
84	0xbfa631581b9103ca	-0.04334521614556015
85	0xbfa0a11f13f27d6a	-0.03247925871368802
86	0xbfa841db11fbc433	-0.04737743944668473
87	0xbf9c188c5a2db05d	-0.02743739414602008
88	0xbf9b20cf45dba2a7	-0.02649234641913503
89	0x3f7dc2319e5c7809	0.007265275786066291
90	0x3f9826d58934aecc	0.023585640429856267
91	0x3f81dd61b9a867cc	0.008723033407523582
92	0xbfa5e99707d49eda	-0.04279777498805766
93	0xbf860683ebc894cf	-0.010754614480058681
94	0x3f9cbad871535d9c	0.02805650893864496
95	0x3f7aab803632479b	0.006511212183925165
96	0xbfa980241913db0b	-0.0498057633030183
97	0x3f735a187cb20edd	0.004724593785002643
98	0x3f968360ba9342c9	0.02198554171337966
99	0x3f9fcdeef238edd5	0.031059011015015365
100	0x3f81c61ca56ee864	0.008678649710294369
101	0x3fa0395b8076f49c	0.031687602454874425
102	0xbf5ac239dd2ac943	-0.0016332211568338007
103	0x3f80a99f3bbc0b71	0.008136028299764427
104	0x3f9fdb2fceb1ac8b	0.031109568586924524
105	0x3f95256ced1aa0d1	0.020650579425507246
106	0x3f98db53d7dcb551	0.02427416806238131
107	0x3f98d995e702067f	0.024267523026088696
108	0xbf960c0343fa5618	-0.021530200027504248
109	0xbf8ec74be3087343	-0.015028565279004652
110	0x3f86e7ffaabf3290	0.011184689901619721
111	0x3f94c39011b6e871	0.020277262765127483
112	0x3f8303ed5ca9e88f	0.009284834280368663
113	0xbfa1a0b785a5ed53	-0.03442929750868964
114	0xbfa0ff362116cae3	-0.03319710878294815
115	0xbfa948741a0c2cd8	-0.04938090150798197
116	0x3f875c312ef39e00	0.011406311269140268
117	0xbfaa5d283658aa7f	-0.051491982111049765
118	0x3f87e424ae33657d	0.011665617529092337
119	0xbf92af6a4ad83936	-0.018247280901101358
120	0xbf931b3d0e766f80	-0.018658594138841078
121	0xbfaa2a0c2e7c11a1	-0.05110204760970594
122	0xbfa0e11441ca4014	-0.03296721747494771
123	0xbfa97e4c30543610	-0.049791699313669224
124	0x3f986131e7a04de0	0.02380826927408275
125	0xbf5de45a7a18d531	-0.0018244632305031811
126	0xbfa86c4a5ec43401	-0.0477011910134948
127	0x3f98c12b937eb4a3	0.024174385907532635
128	0x3f800d5043711f74	0.007837893541491538
129	0x3f3fb57f26cd8da4	0.0004838405064246604
130	0xbf8dbda5e94a3db0	-0.014521881277032772
131	0xbf8db0d9b8de1152	-0.014497471765715506
132	0xbf8e346e03533c9a	-0.014748439289546323
133	0xbf9f0e079158af89	-0.03032695603012273
134	0x3f8758b60cd1987e	0.011399671808430375
135	0x3f9a1beafaad8829	0.025497123289263044
136	0x3f9e6f187825d17a	0.029720671017871216
137	0x3f5c5299759bb00c	0.0017286776186962198
138	0xbf95390a813aed98	-0.02072540677793952
139	0x3f91483137c2bcfe	0.0168769541057232
140	0x3f9423b6713863f2	0.019667483005921534
141	0xbf63c66dd3fbfa8b	-0.0024139542655342064
142	0xbf9670d24a47c811	-0.02191475466128884
143	0x3f9abe297555455b	0.026116035257762387
144	0xbf94e9d4a67a53d6	-0.020423243199349482
145	0xbf978fd93eaadd44	-0.023009676408688465
146	0xbf9ac0aee90ac014	-0.02612565324187706
147	0xbf9c3c491e1dafdf	-0.02757372137368452
148	0x3f99ee66de81b9d8	0.025323493319257512
149	0xbfa8559f1185ac32	-0.04752823914426364
150	0x3f981e67e88c6f69	0.023553489273680315
151	0xbf81ed3529ff48c6	-0.00875321897902771
152	0xbf9cb0da6b93a807	-0.028018391433683145
153	0xbf9021cf446fee00	-0.015753973533703558
154	0x3f7b70011d8994a6	0.006698612553553895
155	0x3f920aa3be213646	0.017618711928937957
156	0x3f9596e0d40ce368	0.021083367292905747
157	0x3f9a9f9ec6e06231	0.02599952782483878
158	0xbf92295147e487d0	-0.017735738766653075
159	0x3f9017e02e60f0b9	0.015716078596810876
160	0xbf5460cf2f969b51	-0.0012437842654919493
161	0x3f839097fa1a86d4	0.009553134269768483
162	0xbfa5d85c4acf3f2c	-0.0426663247413884
163	0x3f88d9f82f3494dd	0.012134493771166205
164	0x3f92665ecbff69d5	0.017968636704475422
165	0xbfa47899ee672217	-0.039982614852821445
166	0xbf8931a14ea730d0	-0.012301693165590072
167	0xbfab4ce8a067ec5e	-0.05332114179687929
168	0x3f88681b5c5e5362	0.011917318111764611
169	0xbfa57c33c218c850	-0.04196321243615897
170	0xbf85f868b203eba5	-0.010727708752247109
171	0xbf7656a2c547c986	-0.005453716109047218
172	0xbfa4e832a106945b	-0.040834028393228215
173	0x3f79c42a9b05c662	0.006290594509083288
174	0x3f499a10d7fb4a4c	0.0007813055271646634
175	0x3f939cfaea5ee59b	0.019153519205905672
176	0xbfa61549aa17c5c4	-0.043131162656105754
177	0x3f608a86ffd179d9	0.002019179983604885
178	0xbfaca9abda8b99fe	-0.05598198931493313
179	0xbf8793215e98ca0a	-0.011511097621313322
180	0x3f94e4d1887a5e64	0.020404123263317323
181	0xbf86e39a009d5c3a	-0.011176303046950154
182	0xbfa6df8058ffcfaf	-0.04467393003861219
183	0xbfa5ae44a55facbf	-0.04234518545839582
184	0xbfa43da9be9b69a4	-0.03953295184847441
185	0x3f84fa65056258b0	0.010243214823543262
186	0xbf9920b0c7b01fb2	-0.024538767040240557
187	0xbfa62d5053547a7a	-0.04331446664058532
188	0x3f9cedb07af180c8	0.02825046301256931
189	0xbf930fdb3d361a08	-0.018615174876254442
190	0x3f564ede012f90f1	0.0013615768445954214
191	0xbf87e4aeed67e30c	-0.011666647548723506
192	0xbf9f99092c8e2739	-0.03085722288555035
193	0xbfa0815d4a815173	-0.03223697218405421
194	0x3f96f629609218e8	0.022423407096106823
195	0x3f9a81f7dfea1a8d	0.02588641456761791
196	0xbf687e442b341473	-0.002989895956150118
197	0x3f9d7a8523ab096d	0.028787689497002434
198	0xbfa992c02acca8f4	-0.049947743629973035
199	0xbfa96e52de4fe08e	-0.04966982806939867
200	0xbfaa90be279feec0	-0.05188554986668015
201	0xbf7cbd55d6500dcb	-0.0070165017141365455
202	0xbfa1a618197395bd	-0.034470322710869784
203	0xbf95eb22e54c0d74	-0.021404786343749163
204	0x3f7da4abd4744434	0.007237120829146671
205	0xbf5d86fd44fd3caf	-0.0018022034964422608
206	0xbf8527a7ec9bd237	-0.010329543979858176
207	0xbf779bb6f67856e8	-0.005763735483488942
208	0xbf960402e3a54c94	-0.021499676842108587
209	0xbfa6fc6d8458595e	-0.044894621282014255
210	0xbfa6136b9cd1d7a2	-0.043116915600804676
211	0xbf9ae8c4ae582d43	-0.026278565541401077
212	0x3f9b3b6d811d4b10	0.026593886380690768
213	0xbf9a7eb4e1d34ea7	-0.02587397220925305
214	0x3f7cf2c467a50aeb	0.007067458349697668
215	0xbfa49d912524ca48	-0.0402646406022496
216	0x3f914d61aba39c35	0.016896749592799593
217	0xbf9fe021f83856bd	-0.03112843587412927
218	0xbf8ec75d15017bbd	-0.015028693393274279
219	0xbfa51f81e82b5378	-0.04125600775811383
220	0x3f9b44687128f080	0.026628143221600897
221	0xbf5032f70d4dd059	-0.000988713514030534
222	0x3f8601d4aa7d5820	0.010745679333620528
223	0xbf9d795c2ab895fa	-0.02878326426266218
224	0x3f7d4b1852c5756d	0.007151694310178908
225	0xbf710cc10dd9377d	-0.004162553899346719
226	0xbf92eeb5894f093f	-0.018488728051815114
227	0x3f9a1a75e9bbb188	0.02549156416982748
228	0xbf8cba99d95def13	-0.01402778811074471
229	0xbfa96bf027613683	-0.04965162735662167
230	0x3f91e5b0aecea0d1	0.017477760953313052
231	0xbf92e5a3fe301c8c	-0.018454134358787885
232	0xbfa07f63831850f0	-0.03222189879685
233	0xbf9bfb8ec1975d98	-0.02732680374705651
234	0x3f8b0e624f44b4fc	0.013211029094771558
235	0x3f4b64e24f069396	0.0008360009215279015
236	0xbf870bfbaa0ba030	-0.011253324629663636
237	0xbfa0c1f5ae03e874	-0.032729794971559395
238	0x3f6bd5c75166f0d7	0.0033978360108602823
239	0xbf7a6549cda5f96d	-0.0064442522947259885
240	0xbf727a98b2ae0d5d	-0.0045114483608615615
241	0xbfa7566eb7a5f702	-0.04558130256462613
242	0xbfa015e18a62348e	-0.03141693891766649
243	0xbf9b54917ada001b	-0.026689789889587794
244	0xbf737595a1d491ba	-0.0047508091932155164
245	0x3f991122ba8dbe3e	0.024479429851849803
246	0x3f56d31d92f42669	0.0013931073006595801
247	0xbf78badba134ad03	-0.0060375766072795515
248	0xbfa34751dbbe9b7e	-0.03765350158146584
249	0xbfa48cbf3e569a4d	-0.04013631473508337
250	0x3f93b0a9b339a5d4	0.019228602947270648
251	0xbfa1e92f1ae094e4	-0.03498217776385973
252	0xbf974b88e292d90b	-0.022749079541164934
253	0xbf65b3c9a4cd4adc	-0.002649206004585165
254	0x3f9356babe3fc750	0.018885534154782946
255	0xbf8a976586e95f98	-0.012984078578639743

main_network.conv_layers.4.bias f8 [128]
0	0xbf7665bace129c54	-0.0054681107587049756
1	0x400485e927db1e9d	2.565386115431308
2	0x400401a35cc828d7	2.5007998703559724
3	0x4004410a8c2f3de5	2.5317583991925283
4	0xbf911c204c3429ae	-0.016708855296238383
5	0x400479fa5b028854	2.559559546484744
6	0x400418ac95c75ecd	2.5120479299037926
7	0x3f7b5141b8a84616	0.006669289325615965
8	0xbf909ba336114db5	-0.01621871011259453
9	0xbf761ef0e3868a94	-0.005400601360096364
10	0x3f68f1917938907e	0.0030448762206721205
11	0x40041832790c3e96	2.511815019308254
12	0x400428e256fb50c5	2.519962958855191
13	0xbf9567c0c57caf3e	-0.020903598836567776
14	0x3f9c858e2ebbb0a3	0.027853223421445816
15	0x3f92390ffb48cf73	0.01779580088823658
16	0xbf72a7fbd145d770	-0.004554732954025073
17	0xbf650d31a4c02815	-0.00256976791388742
18	0xbf952e0f0edd967c	-0.02068351295692715
19	0x400404d1bd77b35f	2.5023531725077386
20	0x40044c4254306aa8	2.537235887267645
21	0x3f82c5f402ca564e	0.009166628203540441
22	0x40046a31d412b839	2.551852852650907
23	0x40043b976d77f7a9	2.5290974189983513
24	0x4004802a4bd4567f	2.5625806736159684
25	0x4003f4038bc713a2	2.4941473884704957
26	0x40049a967791f6cd	2.5754823056621263
27	0x40046cc6339f5f30	2.553112414647238
28	0x3f900335fa974d57	0.015637248439657494
29	0x3f75229df520a3ba	0.005159966489409246
30	0xbfa93f367252294c	-0.049310399489587015
31	0x3f9c058dc3929d01	0.02736493593388634
32	0x40047766877b715f	2.5583010277315874
33	0x4004059b41e38e43	2.5027375361985675
34	0xbf5399c5db5a16ee	-0.0011963302798973468
35	0x4004573f9331427f	2.5426017283828624
36	0x40046a322c447aca	2.551853509750207
37	0xbfa713c10cc543d7	-0.04507258683100417
38	0x400449fd10cea6ac	2.5361272156777286
39	0xbf99bcd1ff75c8f9	-0.025134354798361767
40	0xbf6d2fbe8abfa0a2	-0.003562805321042432
41	0x40048f4e24df9315	2.5699732666711363
42	0xbf9b0e17aa9b9703	-0.02642094591910561
43	0x400401889301e51b	2.5007487759545604
44	0x400476218c349135	2.5576811746160737
45	0x3f4fd501b0137186	0.0009714372864908928
46	0x3f7cbf33652e41fa	0.0070182807566117
47	0x4004776e71a3215a	2.558316123762933
48	0x400442eae4e02803	2.532674587336261
49	0x400432ecafb49a75	2.5248655058851974
50	0xbfa47249fd20ed19	-0.03993445601414631
51	0xbf825d7ce3fb338d	-0.008967376429973384
52	0x40044517145e6bbf	2.533735427028176
53	0x400492a8787145b0	2.5716103944366395
54	0x40043f848237bb1a	2.5310144589669905
55	0x40047f113757ac28	2.562044556010296
56	0x3f8445ceee069a07	0.0098987738027292
57	0x4003fc32c7d4066f	2.498143731267923
58	0x400471146b1f5536	2.5552147263466862
59	0xbfa284326aa63cdb	-0.03616483260986466
60	0x40045dc277bd370b	2.5457810740107383
61	0xbf96e23aa480c6f8	-0.022347370424717433
62	0x400474a31e7b71fa	2.556951749937295
63	0xbfa540c897c63f50	-0.041509884383343576
64	0xbf7907d560e1b367	-0.006110986241861883
65	0x4003fd0919822cdb	2.4985525124408077
66	0x4004866be47ff390	2.5656354762599634
67	0x4004726fd935516d	2.5558773965259918
68	0xbf962b2ca5ba893b	-0.021649072280191844
69	0xbfa4f94e49147db6	-0.04096455232706424
70	0x400465a040a46aae	2.5496220636535645
71	0xbf7acb9b277d4fc4	-0.006541830130874563
72	0x4003eb2f00de7ca5	2.489835745610963
73	0x4004973e74d08641	2.5738495947014433
74	0x40042fbb71d39ddc	2.523306741018798
75	0x4003eb5de1eda15a	2.4899251604694372
76	0xbf7283d6e5fb20a1	-0.00452026314423662
77	0x3f966d4e935759c9	0.021901347868913654
78	0x40040d6bff3d65fd	2.5065536442386915
79	0xbfa169171c0f012e	-0.034004900145648484
80	0x3f9db7a67d2e67f0	0.029020882978876672
81	0x40045cf8951b884c	2.545396008398745
82	0x40048f6298cd384b	2.5700122773769514
83	0xbf76fcb20a959ae0	-0.005612082933430712
84	0x40041f4347cfe822	2.515265046150504
85	0xbf918caba23da4e4	-0.017138177659408962
86	0xbf9749a7109a1497	-0.022741899860666406
87	0x400421e43930dc56	2.5165485828434084
88	0x40048ff08e43778a	2.5702830423678664
89	0x40040d3ab40f278a	2.506459624016263
90	0x3f88c28992716ab0	0.012089800626360642
91	0x400403920b223b93	2.5017433996030802
92	0xbfa71bbd70059062	-0.04513351433232128
93	0x3f917b3863ac7615	0.01707161053047031
94	0x40045cf1dd3fe6ec	2.545383194458614
95	0x400404114fd4a7af	2.5019861447117004
96	0x40042e2a37e5634d	2.5225414626005773
97	0x400441019ded784f	2.531741365251072
98	0xbf9842f46f202d29	-0.023692912371228978
99	0x400474b7d0b2e88a	2.5569912247274873
100	0x3f61f6cd3af99eb1	0.0021928795247737267
101	0x3f88a521475c22ca	0.012033710470420362
102	0x4004776c69670b84	2.55831224771231
103	0x4003f0678d16885f	2.4923850080968317
104	0xbf9e6d33f3dc712e	-0.029713451155758346
105	0x3f74918285a606d2	0.005021581508459954
106	0x4004713bfa7585a0	2.5552901808848247
107	0x3f91e168901aef33	0.017461427493557124
108	0xbf98b36af0e62742	-0.024121924355802855
109	0x40047ab6dbf5648e	2.559919088770193
110	0x400420573b8afc5b	2.515791382960328
111	0x400437de518ea819	2.527279507795367
112	0xbfa06d43222de47f	-0.03208360473849669
113	0x4004913012bfbc76	2.570892473675083
114	0x400467abf411ca75	2.5506209438256584
115	0xbfa43aebc5bfdff0	-0.039512031449646545
116	0x4004208a55dacf17	2.5158888537788573
117	0xbf8d6dc613a67aae	-0.014369533037834028
118	0xbfa6427efee2fb90	-0.04347607480439486
119	0x3f8a7f86b82c4bad	0.012938549514307807
120	0x4004416ae182f860	2.5319421403974474
121	0xbfa5dc561581a930	-0.042696657300285046
122	0x40042ea4d096ac7b	2.5227752967817287
123	0xbfa73d0fbb6e0ee4	-0.04538773692095591
124	0x3f8270ccdeef2689	0.009004211953555401
125	0xbfa17c4dd29b78f5	-0.03415148921861714
126	0xbfa5a3bfb934ffe3	-0.042264930113105746
127	0x400495ab3f07b5cb	2.573080532477183
