AlphaZero_Gomoku/model/current_dqn_conv.model (torch, 794049 bytes, 24 tensors)

main_network.conv_layers.0.weight f8 [32, 4, 3, 3]
00000000: 3abb af76 d436 6cbf f05a b071 7394 b83f
00000010: f78b ce6f a81b b6bf 06d0 d5c8 606e c23f
00000020: cb1e ccfa 64e5 8b3f 90b4 9975 b5a2 a93f
00000030: e062 7cbd 3d27 b73f f6aa 83cb a5f6 bcbf
00000040: 1987 ecac 4b76 bebf 30e4 657a 811a aa3f
00000050: 38b7 8a86 1bf0 abbf 40aa 727a 3dd0 9f3f
00000060: ee3b 4fdc 1390 b33f b290 a460 f094 b2bf
00000070: c0ea d3c5 a882 c43f f045 6099 768f bf3f
00000080: 5820 cddd 3fb9 91bf dcec 4a88 a816 b0bf
00000090: 84ad fe34 e474 bd3f c0ba 96b4 750d 963f
000000a0: 7c9b 05e2 4b54 b1bf 783e b5f3 e72a 923f
000000b0: 1407 6eff dca8 a03f a90a 7c1b 4bbc b9bf
000000c0: 0a75 6de5 a801 c13f 8165 b1b0 cdf0 b8bf
000000d0: 80e1 8033 fdd0 57bf acdf dfa0 281f c4bf
000000e0: d708 09a1 bc4c b2bf d733 3a65 803c b6bf
000000f0: dc3d 9d07 8198 b83f 24e2 d1dc 6723 ab3f
00000100: ece6 0425 fcb4 c3bf 985a 9948 1db1 bf3f
00000110: 0c37 0aca 919d c2bf 22d7 9322 d85a b2bf
00000120: 0139 fdd5 b416 bcbf 04c0 0434 414d a93f
00000130: 4043 958b 3ad1 96bf 14b4 4572 a37b bebf
00000140: e496 970f 848b b7bf 7e5b a727 b420 b9bf
00000150: 3429 1e76 de2b b93f 229d 1a5d 7af8 b0bf
00000160: 7648 ad0d edba c23f 3434 2dd5 24f0 a9bf
00000170: c8b3 ed59 9d74 b63f 8021 9580 ae7c 81bf
00000180: e6f0 833d 06cd bbbf 42fa 2e12 b9e5 b43f
00000190: 10aa 7a9a 4164 c4bf 7e45 d9d8 db94 b03f
000001a0: f494 c728 dc18 b8bf 24de e9fa 2f99 a63f
000001b0: 882f 936b dae8 98bf f84a 8685 27ee c4bf
000001c0: 58b7 8a53 6a4a 95bf 6c14 356d 602d b43f
000001d0: 0e42 c78d 9118 8c3f fc0b 99ac 362b c2bf
000001e0: 30ac ae44 cd54 bc3f b17b 7757 f29c bcbf
000001f0: 4ff3 4124 04c4 b7bf 72c6 a184 9c3c c43f
00000200: 280f 4b42 b8e7 94bf 275b 75f0 3b72 b2bf
00000210: d68b 2e0b 63db c03f a81b 52bf e5ab a23f
00000220: a80f 8d2f b11c 993f 8bef 624c 7284 b93f
00000230: 80b4 b272 8b3d 583f 70b0 965a c5d4 853f
00000240: 4cbb c2c0 89db b93f b2c7 4100 53c0 c03f
00000250: b83f 7025 4225 ae3f 0011 c1b9 4054 9dbf
00000260: 32fc 2b9d 200d c23f 8897 5640 deb4 9a3f
00000270: dabd c1bc a46b b43f da5e 799f 7301 c2bf
00000280: 1832 bd97 3771 ad3f 2416 0a46 bba2 c23f
00000290: 7c0f f923 57fe b83f ee3b c8da 92be bcbf
000002a0: 10c3 4cf5 f11f 983f b45d b54c 2b46 c43f
000002b0: c092 635b b1b2 94bf facc 9c52 bd93 a8bf
000002c0: 9ef3 94ad 5ae6 c43f 76db 9407 12d9 c03f
000002d0: 9084 c2fe 0dfe a83f 90ee c017 ab09 c03f
000002e0: ea38 5ff7 cd0a b43f e750 f545 8bb2 b4bf
000002f0: 35d2 1a36 c782 c3bf e295 7b6f 48cd c33f
00000300: 0ff2 4bf6 9616 c3bf 6c2e 77a1 bbbb b4bf
00000310: f01d faee 41ea ba3f 508f 458e e98c a1bf
00000320: 4389 05d5 bf33 c4bf aad8 7ca3 855d c23f
00000330: b126 28ef 4bed b5bf 0f94 fe8c a8b5 c4bf
00000340: f064 50ca 6cef 86bf c1c6 0537 8310 b4bf
00000350: 088a 29fc b087 c43f 6c81 4699 3175 bdbf
00000360: 1c8b a8a9 d577 b1bf a4ee f4e6 9fcd aa3f
00000370: 60cc 8d3a 92c0 7d3f e15e 4238 d44a c2bf
00000380: 0ebf c25d ef88 8e3f b6cb 5741 2938 bfbf
00000390: 404c 1ae2 3ce8 ba3f 0095 c976 04ae 9b3f
000003a0: 08bf f6c2 441c a03f 46f0 613f 2fbd bdbf
000003b0: d06f 2c79 5cbb b73f c062 db97 c647 6e3f
000003c0: 7ed1 bf16 6f8a aabf 07cb 5839 f097 b4bf
000003d0: 6e2e 2d50 a51f c1bf e6ef 65d8 a508 c33f
000003e0: ae89 6893 0ba9 a6bf 043c 48f0 8b41 a33f
000003f0: b1af 7bc0 8d21 b8bf 7077 71e2 9d31 9dbf
00000400: ee1e 41ec fbf4 c13f 90ab 4953 a1c1 c43f
00000410: 10c3 8d6f 0e39 c33f 1736 54e7 08c9 c0bf
00000420: c2e4 84ec 5a07 9ebf 36e8 60cd 8f7b c13f
00000430: 74fd 227a 3411 a7bf b004 09f1 c8ff a43f
00000440: 1ffa 05ec d2d6 b5bf 1a2e c54e 5c44 c53f
00000450: a074 c3be 1e39 923f 8ee7 4952 0d0c c13f
00000460: 5006 2b41 aa54 9a3f bce8 e6a3 7dcd c33f
00000470: 2222 1898 f716 c23f eec1 f102 881a c43f
00000480: 69df d9a5 33f9 b2bf e44d b55d b226 b13f
00000490: b9c3 6631 6ce4 b5bf 2859 0561 0da3 abbf
000004a0: c0e2 4047 a123 65bf 14a8 fbe4 d924 a03f
000004b0: c45f dc8c 6a18 c03f 6039 d0d9 9d37 c13f
000004c0: 3454 ef1c f921 c13f aab0 58d1 4171 b0bf
000004d0: 3087 2704 9db8 9abf 10a1 cff6 6741 a03f
000004e0: a024 f8bb f8ce 7f3f b3d0 eac2 a8d8 c4bf
000004f0: b6f5 251e 4d7d b9bf c844 9a3e 9057 953f
00000500: 3720 9aca 14f4 ba3f 86b8 2600 e9c5 c23f
00000510: 00a4 b70a ce06 6bbf 70c6 2853 99d6 9bbf
00000520: 108b 11a8 607e 98bf f04b d382 a0d3 8cbf
00000530: b46c 1953 afa3 ba3f 4037 82fd 40b4 b53f
00000540: 1030 9319 ae63 b63f 8c87 ff83 1cf1 b7bf
00000550: d4ca fae8 80f7 b33f 2e07 aa5c 30dd a8bf
00000560: 34a0 4563 9c88 acbf 4025 6abd 5ac9 91bf
00000570: 900d 36be fa52 b73f e8ff c141 0d96 91bf
00000580: 1cec c608 a4b4 c33f a9ba 498a 79d2 b6bf
00000590: fac4 1c76 3fde b33f 8020 a814 f765 b53f
000005a0: eac8 b17b 6a0f b03f d45c 191f 794f babf
000005b0: 9ffc 5780 100c b3bf 20fb c957 d30b ae3f
000005c0: acd0 74b3 fa17 c2bf a1fc eb16 ed30 c4bf
000005d0: 145c fc48 f104 a13f d2e9 3ecb 286c b0bf
000005e0: 9edc 4899 9d85 a7bf e4d9 baec 7480 a13f
000005f0: 943f fd97 a1b0 a4bf a9ba fe9a 106b b5bf
00000600: b448 1331 f625 a5bf ba33 f57e 8945 c2bf
00000610: 080f 2086 0e2f abbf e011 4e22 9747 7abf
00000620: 00d8 e04e d9d4 88bf faf6 1517 0637 b13f
00000630: a806 1c78 a511 9abf f039 207b 5951 bf3f
00000640: ba95 e94e d7e6 a8bf d071 e65f 72b7 823f
00000650: 5a72 f906 40a5 c1bf 8426 c113 b628 943f
00000660: 4058 85d3 800b 62bf d480 21ac 9484 c13f
00000670: 5ca8 7e7a b2c8 ba3f 80d7 695c 22e9 99bf
00000680: d601 9bb3 a92f bcbf 40b7 6b1e 9f12 a4bf
00000690: 919e 2a63 14ac c3bf 84bd 53e2 63d2 b23f
000006a0: 20b9 d4f5 1b7b 983f 168f 6d8b aeef b03f
000006b0: b6bc 0b26 7455 b13f f837 797b 9c10 913f
000006c0: c0ac ef78 997f 95bf 3208 5bd5 ab7d b2bf
000006d0: 816f 61e8 c2e4 b7bf e2d6 a7c2 7da2 b33f
000006e0: 4cba ea92 423b c0bf e66c 230b debc b43f
000006f0: 3d63 b90a 2d56 b3bf 28cf 07d5 05af aa3f
00000700: 3634 ab6e 3e24 c43f fe30 6a0d 2d26 bebf
00000710: 080d 1e9b a6e5 96bf 18d8 9b6d 360d ba3f
00000720: 8086 f09d 4d35 bb3f 5824 409a 6c71 933f
00000730: 089f c69a e0e6 c33f 44d9 da9f 9885 babf
00000740: 34a8 8b96 fd82 b53f b0a7 1ba6 a2dc 873f
00000750: b0f6 884b 35b9 b83f c980 6c8e 45be b5bf
00000760: 9cbc 8bc6 9f51 c23f c06e 56dd 96bc 6d3f
00000770: 000e e036 6731 51bf 60d4 5bde 3308 963f
00000780: f832 5300 01d9 a53f 89ff 37d3 b150 b3bf
00000790: b061 cd0b 5cf7 bd3f 64b9 cb70 3491 abbf
000007a0: 00a4 d9b4 22bd 913f 2e22 b042 813c c13f
000007b0: c622 5a43 58d0 c43f a20d 6aac 57a6 b0bf
000007c0: 6489 444f 1e36 a33f 600d 63e4 dfc1 9a3f
000007d0: 9044 5642 c9b9 823f ec91 3f9a dd7e b23f
000007e0: c201 95cb 00e1 c03f b85e 4d77 641f a53f
000007f0: 2067 7b81 af09 9bbf 0409 72e9 8ae8 b7bf
-0.0034441137008721897 0.09601518178565605 -0.08635952691706437 0.14399347120672717 0.013621128944137159 0.050069494824904415 0.09044252277488907 -0.11313854426013478
-0.11899254771972458 0.0509834730064046 -0.05456625001293819 0.031067810629489268 0.07641719940805533 -0.07258512839740908 0.1602374044376429 0.12328282589466943
-0.01730823317782923 -0.0628457386728089 0.11506487172908036 0.021535720011963688 -0.06769251125443349 0.01774179863906375 0.03253832452811714 -0.10052937909135075
0.13286315157430578 -0.09742436946671341 -0.001453635470182929 -0.15720088820648692 -0.07148341113591826 -0.08686068030711112 0.09607702670950097 0.05300449915461439
-0.15396072204185118 0.12379630110204187 -0.14543363919477093 -0.0716986736695984 -0.10972147201866635 0.04941753158561826 -0.022282519120668143 -0.11907407321787417
-0.09197259312312728 -0.09815526931866533 0.09832563766227481 -0.06629147313161757 0.1463295285016703 -0.05066027738812587 0.08771689839859598 -0.008538592623737129
-0.10859717370835006 0.08163029378827338 -0.15930957835128412 0.06477140468748208 -0.09412933345409497 0.04413747728261466 -0.024325764480451123 -0.16351789493327096
-0.020791684483519063 0.07881739298052687 0.013718735827667163 -0.1419437735331427 0.11066897322477653 -0.11176981578272095 -0.09283471951671383 0.15809971309822718
-0.02041519074079115 -0.07205557461325594 0.1316951565359818 0.03646772346933541 0.024523514296802468 0.09967722287086482 0.0014795171544322028 0.010659734561009965
0.1010061355216127 0.13086926949068595 0.058878008909345636 -0.028641711556944394 0.14102561640172123 0.026080582310576556 0.07976750953979864 -0.1406693009073397
0.0575044033745124 0.14559117240803332 0.09763092640156218 -0.11228292313920438 0.023559361073412666 0.1583913921883614 -0.020212908938350038 -0.04800216325238611
0.1632798526351537 0.13162446375073572 0.04881328329907675 0.12529505405278885 0.07828986443857713 -0.08084936578717682 -0.15242853299936746 0.15470223849767623
-0.14912688280300343 -0.08098957721738892 0.10513698658370862 -0.034278200738099174 -0.15782926465460365 0.14347906573101926 -0.08565210903921174 -0.16179377445692508
-0.01119885437406018 -0.07837696164440457 0.16039097130403968 -0.1150694846351194 -0.06823478118944276 0.05235004133507218 0.007263728338204961 -0.1429085993483943
0.014909620331621489 -0.1219507011917774 0.10510616798482975 0.02703101134320196 0.031465672301576986 -0.1161679773085221 0.09270265539492972 0.003696334721876887
-0.05183741715146349 -0.08044339561528711 -0.1337782517897383 0.14870141092603645 -0.044258462661918116 0.0376094561398688 -0.09426198910995144 -0.028509585329053733
0.14028882060869513 0.16215912405763477 0.1501787228294451 -0.13113509459837822 -0.0293249327525913 0.1365833046746176 -0.045053138646376306 0.0410139841301399
-0.08530920278824582 0.16614869924738757 0.017796020882873465 0.13318029897692124 0.025713596560996088 0.15470858099962992 0.141325902237683 0.15705967086570588
-0.07411501692865631 0.06699671542929014 -0.08551670271005109 -0.05397836503350312 -0.00258046626734329 0.03153115196421666 0.12574512365313073 0.1345097840825913
0.13384927666507596 -0.0642281662082406 -0.02609486902100072 0.03174900901632516 0.007765742891487154 -0.1628619148010607 -0.09956819520990376 0.020841840573272902
0.10528688379611216 0.14666473872552305 -0.003299143243328917 -0.02718581743301346 -0.023919592149819258 -0.01407552146193855 0.10406013277809018 0.08478170575309907
0.08745849728001098 -0.09352281782733324 0.07799535453777234 -0.04856253749041027 -0.055729758375321486 -0.017369668780280678 0.09110991615130204 -0.01717396463254764
0.1539502184731142 -0.08914909006282791 0.07760998376467745 0.08358711485209547 0.06273522872814721 -0.10277516373877243 -0.07440283902541232 0.05868397184985086
-0.1413567901851186 -0.1577431070254294 0.0332408334344835 -0.06415038072638105 -0.04594128128194906 0.03418317212838298 -0.04041008930528203 -0.08366493019159783
-0.04130524968208374 -0.1427471036826356 -0.05309338938971392 -0.006415930144502785 -0.012124726981806333 0.06724584640138778 -0.025457940536404294 0.12233504539492634
-0.04863617742811806 0.009138959457055146 -0.13785553303286485 0.019686551051825166 -0.0022027507913362776 0.13685854344203696 0.10462489595980301 -0.025303398981541658
-0.11010227808856796 -0.03920457121226528 -0.1536889538012827 0.07352279925884458 0.023907124404268676 0.06615725425723115 0.06771017006734578 0.016664929424500458
-0.020994565969812085 -0.07223009070278932 -0.09333437131266288 0.07669816973051582 -0.12680847333600054 0.08100688716824642 -0.07553369056530541 0.05211656785459545
0.15735607532261192 -0.11777001931676875 -0.02236042329560653 0.10176410842890993 0.10628209215112783 0.018987366594988536 0.1554833179227375 -0.10360101607043243
0.08403000760486706 0.01165129727765532 0.09657605260960156 -0.08493456580299887 0.14311597056027814 0.0036299654554577676 -0.0010493762924860262 0.02151566548032624
0.042671233453438207 -0.07545005232532111 0.11705565727368739 -0.05384220005895449 0.01732305744954843 0.134658963739882 0.16260817803074284 -0.06503818473179604
0.03752226560233643 0.026130197825080415 0.00914342149443062 0.07224831596210607 0.13186654987840823 0.04125513035131462 -0.02640413501544636 -0.0933920688567334

main_network.conv_layers.0.bias f8 [32]
00000000: c4df ffdb ea7a a6bf 289e 202d 549a 99bf
00000010: bc33 02a7 7e44 a5bf 909e 0fef 240d abbf
00000020: ea36 7a96 ece4 b63f 009d 3f37 d3d5 abbf
00000030: 9a9f da6e ab48 a6bf 76c3 e43d 69ab b73f
00000040: e85a 66c4 665a b6bf f90c 8a22 df72 c13f
00000050: ec5f 2492 1841 a53f ecde 4bdf a4c2 c4bf
00000060: a062 ef53 3dce 79bf 164c d9cd e449 bc3f
00000070: 5479 6f12 1b6f af3f ddb1 d212 3b3e c2bf
00000080: d039 094a 6296 b5bf c006 76b3 1768 6ebf
00000090: a4f7 9aef e3e0 a53f c837 3486 c54e 913f
000000a0: d0c4 411a 5354 abbf 2578 136b da81 c23f
000000b0: 3c80 b60f b55b a33f 6043 e2f7 e0e1 793f
000000c0: 6861 ae2d 7a65 95bf 5662 7d5d 7e7e c1bf
000000d0: 20fc e621 e379 9a3f f0ea 0800 1641 a43f
000000e0: bf3b b750 7093 c13f a012 ffad 105b 9fbf
000000f0: da75 7992 749a b1bf 8426 2d0f 8138 adbf
-0.04390653548756476 -0.025002780203207703 -0.04153819836310599 -0.052834657842877 0.08943060563816699 -0.054365730756950725 -0.04352317550848213 0.09245927582811739
-0.08731691641728967 0.1363181036614163 0.04151226791344684 -0.16219006446021156 -0.006300200998304334 0.1105025293884839 0.06139454460184149 -0.14252413195698824
-0.08432592685242146 -0.0037117445860424814 0.042731402395914914 0.016902052227173475 -0.05337772079008973 0.1445878050644193 0.03780904595191756 0.006318930418402896
-0.02089491752448805 -0.1366727787488055 0.025855587906104316 0.03955906629967909 0.13731197301100725 -0.030620823497673144 -0.06876305175816047 -0.05707171736009989

main_network.conv_layers.2.weight f8 [64, 32, 3, 3]
00000000: 9698 5495 bfc5 a4bf e03a 5743 c58f 8abf
00000010: 5a10 7f0c dbf8 ab3f 7035 092e ee8c 6b3f
00000020: ca37 aeca 61e4 a73f c439 ec36 b137 a13f
00000030: 43e5 aac4 6adf a0bf 10f1 6d52 3dd6 a1bf
00000040: 2eef 4b14 d2e3 a7bf d899 9b1d 1573 a83f
00000050: 80e0 01ad faeb a73f 94bc b946 1047 a23f
00000060: f8a6 674d 3c5d 973f 7c28 e0af 0b94 a33f
00000070: d3e9 a5e8 1ea5 abbf a03f 29ae b303 69bf
00000080: 680b ff47 1fd6 a83f 50cd d4c9 5b23 67bf
00000090: 7489 11d2 a26b a83f 6477 1926 a101 ad3f
000000a0: 5cfb 2b9f a00c 9b3f 486f e771 66ef 8b3f
000000b0: 68c8 0baa 35d4 863f a01f bf4d 5729 823f
000000c0: 10de 95c2 07fc 9d3f 70db d15b f107 9bbf
000000d0: 84eb 7885 fe32 aa3f 404d b9c2 c02a 713f
000000e0: 82fd 5288 1b79 a33f c452 ab0d f10d 9d3f
000000f0: 6e87 f527 ac89 a6bf 2046 8200 6748 6b3f
00000100: 0c1e e9c5 bc52 863f 6036 fffc 86cf 783f
00000110: c27d 0419 6316 98bf e059 f64d 1d9f 843f
00000120: 2f4c 7fdc f7b4 6a3f c020 624e e4e0 a33f
00000130: 13ff 7800 6b09 aabf d0f7 8c38 8f17 ae3f
00000140: a0bc e820 d5af 8fbf e29a ea15 c90c a0bf
00000150: 3013 d4da aeae 8c3f 308b d69f 599c 88bf
00000160: 137a 69c4 5340 98bf ac5c 92d2 ac3b a5bf
00000170: abf7 052f 2ba7 aabf dccd 2417 7cd5 a2bf
00000180: e8ca 284a 4443 85bf 2776 724e db6c a9bf
00000190: e867 fcdf aa60 83bf e845 b8f7 a201 9cbf
000001a0: 5075 790a b4c0 a9bf 7019 2ec0 440a 7dbf
000001b0: 2a02 4a00 909b 98bf e23d d297 1672 a23f
000001c0: 00c5 c289 86f5 26bf f2e4 dfb7 6a4e a43f
000001d0: 543a 9303 2952 a4bf 00e6 8a54 b2ef 863f
000001e0: 5091 9dec ab86 603f c645 c541 292c ac3f
000001f0: fa24 324c 01df ad3f 9b0c 762e e2ba 99bf
00000200: 30d1 c5aa 0883 803f 0ed5 4e6d ea9d a03f
00000210: 681c 4056 2f04 a2bf dc1d 69cf 3a97 9b3f
00000220: e4da 991b 6ed4 ab3f ec9a dd0c f1a1 983f
00000230: ce0f 73ec cc3f 91bf 7a81 504f d39d aa3f
00000240: e4df 0493 aa17 a43f 8047 99c6 be8a 8abf
00000250: 807c f26b 8bb2 66bf bc67 17ef 6c76 8abf
00000260: 7e70 4df2 8ec9 a7bf 8ce9 cd9c b6cb a33f
00000270: 24a7 7595 caba 95bf 43e0 d6c8 4f04 aebf
00000280: d846 3e92 8cba ad3f aaf5 2c2b c9cc 9bbf
00000290: ba52 cd35 2f0c abbf 9065 23c8 b23b 953f
000002a0: 5858 a4d7 fcfe ad3f 3425 bb07 99a8 963f
000002b0: f9e0 50f5 81f6 9ebf f0eb 5ee2 6cf4 8abf
000002c0: 808f 9cd1 77dc 353f ee7a 1f4d 51c3 a33f
000002d0: 00f5 9ce9 166d 503f 500e f041 b3a5 82bf
000002e0: 244c c589 6f27 8fbf e84d 1683 494d 82bf
000002f0: e259 8805 e54e ac3f 7894 b939 18fd 973f
00000300: ca35 359b c85b a93f aa02 7966 2f8a acbf
00000310: 78a3 0e24 287c 8cbf 0557 42c6 6bff a0bf
00000320: f8a9 4463 9faf 9d3f a07b 1b28 21da 7d3f
00000330: a4f4 5002 f92d 933f dee4 e42b 7da7 a6bf
00000340: 6880 a990 e71f 87bf c695 3335 c36d ac3f
00000350: 884a faee 0e33 953f 687e c330 d4da 82bf
00000360: 9424 b714 d971 ab3f 561f df0d 2699 a8bf
00000370: e266 855d 7a16 a8bf 1052 2f73 72c5 9b3f
00000380: d217 ef36 d95d a83f 483a b064 f3be 9e3f
00000390: 5897 1811 cfad 813f 72ca fda9 edc6 a93f
000003a0: c8d4 7f94 0860 a2bf 9069 f3df 1ebc 943f
000003b0: 9950 16ea 5e57 a0bf e451 ab3b b02a 91bf
000003c0: 4022 8052 be06 45bf f822 2bf0 e64c a8bf
000003d0: 70f7 0220 0c5d 6ebf 48d6 29f8 1ccc 903f
000003e0: ec75 52ec 8d05 a2bf 73ba 507a 62de 993f
000003f0: bbad 7936 20fe a3bf cfdf ae6f 8083 a4bf
00000400: fc4d d404 4908 ae3f a01f ce98 4391 523f
00000410: b411 a503 d5fc a7bf 1465 85ff e2d4 a93f
00000420: f8df bf92 7020 78bf 7a22 1145 c839 adbf
00000430: 72f5 9ca5 8918 abbf f0b1 e25e 9f62 8f3f
00000440: ec44 650d 1590 a73f 30d5 3b05 e973 763f
00000450: c02c eb99 27a6 87bf 7a3c bf65 4f1b a83f
00000460: ad15 e13d 7b8c a7bf 18c8 fe87 2ab2 81bf
00000470: 88e4 c88e f721 a0bf d7ce 6279 55f3 a93f
00000480: cbac 8681 e451 acbf 18f1 2e4f 6f26 7cbf
00000490: 102b 56b0 af01 a7bf f02c 02f9 8d26 953f
000004a0: d083 fbc6 daf7 7d3f 0210 14a2 c8a8 a73f
000004b0: eee2 7e86 6b16 9dbf 0f8b 0533 79b5 acbf
000004c0: c087 6b1f 036b 913f 1ee8 d64f c41a a13f
000004d0: d0a3 636b 87a5 753f b32e 314c c606 aabf
000004e0: b013 f846 166c 6abf 0ea2 1c1a 5a97 99bf
000004f0: fc80 7a4a cc3a 9f3f da00 71b0 5018 a3bf
00000500: 966f 7d87 af05 a6bf 14db 45d0 2e96 963f
00000510: c057 879d 32ff 67bf 2cf9 e2cd 9840 9e3f
00000520: 1c9a c241 2401 9cbf 84f9 bca3 1bb3 8fbf
00000530: e0ae 0f22 a75e 7a3f 01bf 9394 9263 adbf
00000540: e041 7676 0453 923f 7de9 7058 dbc8 723f
00000550: 24ca 0f3e 2521 8cbf a059 1a76 0196 aabf
00000560: e0db 48d0 dce1 8dbf 9eb3 7f42 5eb4 a1bf
00000570: 82d3 3049 76a4 a03f 5c38 7c2b f8f9 ad3f
00000580: 32e0 448f 1575 abbf 868b 3a31 4565 acbf
00000590: d07f 1f79 fc08 763f 96fe 24e0 a0f7 aa3f
000005a0: 9765 e3d6 ed54 a6bf fe6a 2967 44f0 a2bf
000005b0: e62d 1be3 25f5 93bf b8fc c9f7 9730 7abf
000005c0: f1ff eb63 a4ee acbf 0014 8316 771f 8d3f
000005d0: 687f b2fd 8f5d a5bf 0cd1 299b 10f0 ad3f
000005e0: 041b d520 fc4e 923f 048c 0967 df41 a1bf
000005f0: 82f4 f022 decb a83f 603d 4c9a edfc 613f
00000600: 590a 54bf 993c 9ebf 703f 8331 99aa 87bf
00000610: 38e5 acaf 9891 8bbf 0cb8 bcc0 5a7b 9f3f
00000620: 50ec ad99 7869 663f ec78 169e 9aeb 9c3f
00000630: 00df a12a 6148 7e3f 7045 d193 61d7 6a3f
00000640: c7b2 a4e7 fad0 abbf a678 6032 22ad a33f
00000650: 98e7 caf5 143f 75bf 20f4 43ae a433 82bf
00000660: 740c 81ba 8573 a73f be0f bc89 e9e1 a63f
00000670: 226e 9d55 520f ae3f d81f 338f ca36 a6bf
00000680: d62b 702f 86f8 a5bf 9267 3300 d656 a5bf
00000690: a0e2 cddf cc3e 633f 68bd d12b 593b 953f
000006a0: b00a 56e9 54f0 7bbf 2054 662c f57e 583f
000006b0: 80f4 a7f6 7558 95bf 7c01 36df 42a4 88bf
000006c0: b434 3ab9 6376 a0bf eac7 5ac7 a380 93bf
000006d0: 80b0 47da 097a 9c3f d0a6 26e1 0ad1 9f3f
000006e0: 2005 d237 1e0c 8f3f dc4d ddaa 8210 a03f
000006f0: d39b c0c9 8d16 a1bf f8ed 7644 ef62 a5bf
00000700: 38bc db88 b6e3 893f 0a5c 9882 a629 a8bf
00000710: 9ce7 aa59 3f22 95bf c06b db9a 1cb0 60bf
00000720: e80e 991c da80 aa3f f458 c00d 8e39 ac3f
00000730: 1085 f043 516c 783f 605a 4d3e d100 64bf
00000740: 849b fce4 db19 a43f 36bb 9577 1ecb aa3f
00000750: 503d f997 9957 97bf d84a 202d 0c5a 91bf
00000760: 4c71 db68 9da7 a73f 08eb ab49 e2b8 9e3f
00000770: 3a0f 9e4a f385 ab3f 1434 00cf 1b82 9e3f
00000780: 8c7e 0275 12fb 94bf 7871 86a8 b29f ac3f
00000790: e013 3b7b d4d8 513f ba00 d127 285c 93bf
000007a0: 88ac cd49 991c 873f a0fa 0892 b232 8e3f
000007b0: 8096 3bfa 529a 72bf 9849 29f7 432f 98bf
000007c0: aed9 784b d832 ac3f f243 45a2 d1b1 ac3f
000007d0: bcba d06a e75f a43f ced7 cb5c 79bd a63f
000007e0: 4555 98fa 3b81 aabf a344 e5d8 af80 983f
000007f0: 740e 7bc0 73bf a7bf 4412 f973 70bf 9c3f
-0.04057120035058508 -0.012969533078743323 0.05463299300711873 0.003363099284149733 0.046664291373516756 0.03362802310413174 -0.032954536921759224 -0.034837642967405213
-0.04666000840913252 0.047753009666667345 0.04672225343614489 0.03569842208241272 0.022816602920932433 0.038238873690787906 -0.05399414625113121 -0.0030535230046453005
0.048508622683150204 -0.0028244774572613665 0.04769619764626301 0.05665305700379866 0.02641535731799692 0.013640213347506994 0.011146945239918618 0.00886791425718042
0.029281731845427983 -0.026397486905320233 0.05117030505467482 0.004191163035631107 0.03803335227120909 0.028373495539954843 -0.04401910770208316 0.0033304225690436035
0.010899996556999823 0.006057288453985871 -0.023522900011014654 0.010069111768456318 0.003260120491157113 0.03882516342952291 -0.05085310345429952 0.058773494389683045
-0.01547209269219102 -0.03134754555258269 0.01400505643187841 -0.012016964140291714 -0.023682888854063288 -0.04147090979056975 -0.05205664586081523 -0.03678500921742131
-0.010382207406200064 -0.049658635450424086 -0.009461722336300896 -0.02734999310457012 -0.05029833438741582 -0.007089870984492527 -0.024030923860211363 0.036026674301975495
-0.00017516391097197742 0.03966077322542984 -0.03968933266297783 0.011199372487101122 0.0020173414131240755 0.055024422911297985 0.05834201865315865 -0.02512696655822975
0.008062427245683595 0.032454801409963804 -0.03518817832814919 0.026944083127345184 0.05435508810926651 0.024055258188492454 -0.016844942027787906 0.05198536246485026
0.039243059584293666 -0.01295994800162581 -0.00277068358225524 -0.012921191259852687 -0.04645964343828356 0.038663584366946585 -0.021220364925660054 -0.058626645342372295
0.058063881732903944 -0.027148383388739518 -0.05282733470690944 0.020735543694944847 0.05858602650020889 0.022127524468293205 -0.03023722705640439 -0.013161516817367741
0.0003335754896502882 0.03859952990000247 0.0010025714640982675 -0.009105110597381089 -0.015211936370780839 -0.008936476052247636 0.055289418149346195 0.023426416896104446
0.04952837843539333 -0.05574176908385671 -0.013908685303094734 -0.03319870753436586 0.028990259584285 0.0072881026441952435 0.018730059400912893 -0.044246589286964996
-0.011291321851956762 0.05552492165024207 0.020702584587136502 -0.009206445444248604 0.05360296609757956 -0.04804343146639549 -0.04704649345030788 0.027120388298344678
0.04759100719051869 0.030025294323474477 0.008632295331220938 0.05034582805719347 -0.03588892758117762 0.02024887315642726 -0.03191658599385611 -0.016764405862731993
-0.0006416730220744696 -0.04746171647781766 -0.0037064778153696396 0.016403629919713475 -0.03519862661162762 0.025262392726455873 -0.03904820122701432 -0.0400657783824837
0.058656961287990556 0.001133266460984196 -0.046850830740854305 0.050452321712052633 -0.005890311946124875 -0.05708146899320794 -0.0529215826668218 0.015324826319862844
0.04602113522072124 0.005481634365186935 -0.011547383675312495 0.047083359880724054 -0.045993663123719976 -0.008640606189008124 -0.03150914781549213 0.05068461519968331
-0.05531229096535525 -0.006872591783516201 -0.044934740329230505 0.02065488655402431 0.00731645069001359 0.04620959261413306 -0.02840583809276869 -0.05607203243086733
0.0170097816397925 0.03340733980753917 0.005284813864116125 -0.0508329360969503 -0.0032253680326470233 -0.0249914244115264 0.030497734113510852 -0.03729488519502562
-0.04301212815218418 0.0220572771663355 -0.002929304941271277 0.029543292585679712 -0.027348104966813933 -0.015478340086357852 0.00643792425487863 -0.057400303494317136
0.01789481137308424 0.004586083238843461 -0.013735094982597458 -0.0519257027310005 -0.014590954881993967 -0.03457922517541266 0.03250474589768883 0.05854774027658102
-0.053627656687638484 -0.05546013093887496 0.005379663680258731 0.05267050491465601 -0.04361670730731786 -0.03698934325503521 -0.01948985289236118 -0.006393998741827271
-0.056508195111746214 0.014220171331894349 -0.04172944995775546 0.05847217458804907 0.017879428390439336 -0.0337056935575433 0.04843038727310846 0.0021958008459318917
-0.029528047850371972 -0.011555859397418294 -0.013461296902834805 0.030743997586959934 0.0027358394121939425 0.028242507838165773 0.007393245274321947 0.003276529866106763
-0.054328766609932404 0.03843027939750358 -0.005187112689492589 -0.008887564247283264 0.0458032407919057 0.04469232374506714 0.058710644675297866 -0.043386774044449516
-0.04291171387747965 -0.04167813065005456 0.0023492814493091957 0.02073420839263687 -0.006820995030809726 0.0014951128265228222 -0.02084526365250783 -0.012032053410394587
-0.032153240547907386 -0.01904540924324031 0.027809289882427368 0.031070871345639628 0.015159832075598845 0.03137596450565258 -0.03337519729421214 -0.04177043638943795
0.012641359378419023 -0.047192767564574536 -0.02063845619952752 -0.002037101620641718 0.05176431273551235 0.05512660901892899 0.005962674563336337 -0.0024417959961440666
0.039259788229450115 0.05233092508102859 -0.022795104885799333 -0.01694506669452775 0.046200675058318014 0.030002151247553704 0.053756335123607404 0.029793200024915548
-0.020489014045436835 0.05590589816276553 0.001089293958032693 -0.018906238012505773 0.011285016598512124 0.014745135385166919 -0.004541706209897023 -0.023617803535964293
0.05507541581430374 0.05604415040819068 0.03979418925188358 0.04441432245032183 -0.05176722940465565 0.023928401578193214 -0.046382539030244724 0.02807403285830136

main_network.conv_layers.2.bias f8 [64]
00000000: 7e34 6d0d b05a 4f3f 779c 2401 6df2 a73f
00000010: faa2 a08f dc86 a6bf f4f5 b352 015e 92bf
00000020: 85ba c346 6bfd a9bf 0eed efa5 160c 95bf
00000030: 0bfa f266 f978 a03f 34a1 2b5a 9391 823f
00000040: 804a 654b 146d 58bf ae3a 4a03 e266 953f
00000050: f9c2 40f3 c16f a1bf 40c1 7aaf 8a2d 82bf
00000060: 39b2 7cba 7971 a0bf b7b9 8b4a fa1e a83f
00000070: 6cc2 e6fa 2bc7 8e3f 98e1 5ff9 3453 723f
00000080: 322f 8180 09d9 923f 3832 f144 624a 81bf
00000090: be92 f56c 4e73 9bbf 000c f697 43b1 1a3f
000000a0: 053f 2de7 200b aa3f 1955 4b1a c64d ab3f
000000b0: b000 7161 0333 6dbf 2548 717f e1bd a93f
000000c0: bb51 ff88 2d6b 9fbf 07d1 e8d1 9656 99bf
000000d0: 8d18 538a a9ee ad3f f0dc 5678 9dc9 9bbf
000000e0: 9ef9 fda1 a3aa 923f d9fa 1343 be52 a83f
000000f0: d06c 1f51 b55a a8bf ea61 1f15 cacd 983f
00000100: 82ee a3f2 5997 953f aa5e c315 f70a 923f
00000110: 34a0 f599 3f02 90bf 69b2 1b33 65f9 a3bf
00000120: d0be 5192 a098 6ebf c9aa 7828 07aa adbf
00000130: 222f 023a 80c8 973f 8ea6 4a56 aee0 a2bf
00000140: fc0e 0516 a96c abbf ee80 f588 e28c adbf
00000150: 985d 2618 996a acbf bbfa 4fa1 1776 ac3f
00000160: 96d7 6d02 6682 903f 6f36 7dcd 6402 a13f
00000170: 9746 6938 90bf 8abf 6cf2 787e 148b 81bf
00000180: c8fa 3973 9e2a a2bf 0a2c b037 db6d a9bf
00000190: 4cca 09e5 ff7e 8ebf f217 14b4 4bd5 933f
000001a0: 3cce 430a 2087 893f d930 82a5 6741 abbf
000001b0: d871 3ef4 e185 7d3f e635 0f2b e97b 9f3f
000001c0: fc7b 5080 6c78 8b3f ecda 87fd f5d2 8d3f
000001d0: 0809 bd12 0282 773f 652e 52ce 9059 a33f
000001e0: ba54 bef0 05f9 ac3f d5fd ec27 8e0a a1bf
000001f0: 1a21 0370 62df 933f fc4a 2d58 219c 833f
0.0009568557387439473 0.04677143706276692 -0.043997662098552895 -0.017936726258076477 -0.05076155890298132 -0.02055392635155067 0.03217296010688039 0.009066725911410424
-0.001490850275861405 0.020900279475024312 -0.03405576795956295 -0.008875926475724882 -0.03211574937299528 0.04711134109480802 0.015028327555087283 0.004473883562234347
0.01840605589704509 -0.008442657212207924 -0.026807046318384257 0.00010182356890280075 0.050866153926675074 0.053327742299794596 -0.003564364054483425 0.05027680092520396
-0.03068228863397036 -0.024744373857360304 0.058461473594023074 -0.027136288137367737 0.0182290618536115 0.04750628060172852 -0.0475670491720962 0.02422252420351071
0.021085172113983315 0.017619953826253955 -0.01563357712930742 -0.03901211022261892 -0.0037348877108839065 -0.057937835398055144 0.023225787678298755 -0.0368704300247603
-0.053563388765295955 -0.057715491503360514 -0.055500778387052196 0.05558847278733966 0.016122430704363554 0.033221387943382356 -0.013060690614256116 -0.008566055402405591
-0.03548140675137784 -0.04966626219546562 -0.014890669991676785 0.01936834608661537 0.012464762032755698 -0.05323337455146921 0.007207758553616071 0.030746119740617937
0.013413283983082273 0.01456253223385092 0.005739219759393295 0.03779270666663307 0.05658739627612293 -0.033283655523060375 0.019406831824000915 0.009575138572164736

main_network.conv_layers.4.weight f8 [128, 64, 3, 3]
00000000: cebd e538 39f5 913f 7c70 7a42 4c90 9ebf
00000010: 50eb 991e 3dc6 6f3f a4c1 c33c a166 95bf
00000020: 80eb 672f d796 9f3f 1ae2 4ef4 7062 a2bf
00000030: 4f5a be4d 51a7 a4bf 902c 7f92 e36c a2bf
00000040: c028 cf30 dd14 443f 5826 97ad 21a2 9f3f
00000050: 643e 9e9d 20a0 9e3f d3d6 3437 c189 9a3f
00000060: 1c5e 958e a746 a3bf 0ac9 db3c 4630 913f
00000070: 8855 7fb6 4166 9e3f d83d c5f5 1f20 8d3f
00000080: 064a aad0 8550 9cbf 2047 5f74 a532 81bf
00000090: a8ed 8189 c616 973f 3c50 aae8 5e38 97bf
000000a0: 5000 b589 0d62 6ebf e0df c1dc 56eb 973f
000000b0: dfdd 6718 5ecf a4bf fae6 bd44 7fad 933f
000000c0: 28a8 5d98 9d9f 8d3f a70a d31d 7ac3 90bf
000000d0: 2e8f 6188 61c6 8dbf 64f9 bb14 025a 923f
000000e0: 417f 2932 e1b3 9abf c07f 1c69 b77d 84bf
000000f0: f850 79ac 441d 833f c1b7 dd2e 3a74 9abf
00000100: a87d 8b7f 20f0 783f 64ad cba7 41f8 9e3f
00000110: 7793 3227 d2ac 94bf fcf7 7b68 384f 973f
00000120: be1a a4f7 337e 933f ee36 23bf 2b8e a43f
00000130: e82e d2f2 d874 9fbf b6b4 a2ca b049 a03f
00000140: 2044 8870 4aa6 a23f 905b a31c 0758 9e3f
00000150: 28a6 307c 9c0d 73bf 3a01 58f8 df6f 88bf
00000160: 7cc0 4740 e380 91bf 3654 7f01 cfbc 923f
00000170: 4ae0 d397 fad6 90bf a669 ffb8 dd8a a23f
00000180: 903c 129a e60e 66bf 06a8 3695 26f2 9ebf
00000190: 803b d451 53ce 313f 2093 69df f780 5bbf
000001a0: 9c7e 9425 fe2a 953f 0ec6 b66a ca65 8ebf
000001b0: 1acf 099f 3fa8 90bf 382e d6bf 99fb 9e3f
000001c0: 4777 ea5c f965 97bf 64dc acb4 9557 8d3f
000001d0: b800 2d7e ea12 73bf 6466 b8b0 e627 943f
000001e0: 4864 3a98 7187 a33f 3f4b 56c9 4009 96bf
000001f0: 28fd 58ff 81fc 7bbf 2e07 9131 2bc7 86bf
00000200: a0d8 55ca 51e7 50bf 583d be0e b6b5 74bf
00000210: cf74 663f e1ae 96bf f0a2 cf68 e3d0 613f
00000220: f077 0fcd bb9d a1bf 484e 8162 32ef 9d3f
00000230: b005 9176 5d3b 6abf 68b9 0467 3be8 813f
00000240: 240c 8d1d 208b 9a3f 1c77 699d 6220 a53f
00000250: 6966 4167 2f83 99bf 567a b1a0 b11d 913f
00000260: b29c ceef b008 91bf 4e36 b279 d0d4 8dbf
00000270: 6cd3 514f 4a74 a4bf 2f92 8f7a bee8 93bf
00000280: 40df b1c6 ac05 723f d8a9 a819 115d 9e3f
00000290: 4c19 5b6a 39e5 963f d2d1 9b77 1286 91bf
000002a0: e79a e7f1 508c 94bf 3070 5051 2daa 6abf
000002b0: f008 f9e3 d70f 7cbf c4e0 e812 b8cb 9abf
000002c0: 5eaf 85f7 121b 89bf 163a a9f3 135c 9cbf
000002d0: b25a 1a8f 908f 91bf e88a 23d0 f899 a43f
000002e0: 48d6 2409 5e85 783f ea43 6034 00f7 a0bf
000002f0: eca6 7ab4 7a53 a0bf d0eb f065 8a87 813f
00000300: 76cb 1696 128f 903f b8bf 7e72 d63f 973f
00000310: 603f c829 2dbd 843f 0a9c d58d c0dd a2bf
00000320: 405e 7a8b fa2f a03f ff55 33fc 78b9 a4bf
00000330: 2c65 050f 0503 97bf 3078 63bc ef9f 67bf
00000340: d8ef f847 37af 983f 7c2e 034c 89ce a2bf
00000350: 4ac6 ee1e 4ed1 a43f 7494 2881 7bbf a03f
00000360: 6244 db2b 7665 a1bf e2bd ae67 b63c 953f
00000370: 3291 ef87 3cf9 a2bf 7012 8e29 2402 9d3f
00000380: 90c2 e37c 60b3 803f e620 248e ef9d 9cbf
00000390: 7880 2d78 6997 8c3f b41a 3549 df13 87bf
000003a0: 940f 06b3 8d1a a13f 817a d73b cb77 9dbf
000003b0: f8f2 d3fe 89e9 9f3f 000d 2df1 6c7a 953f
000003c0: bc04 d1ad 5163 a23f 9eb5 5d97 d936 8abf
000003d0: 78a2 d783 f416 a5bf b0d7 3b10 ddef 793f
000003e0: c019 cbd5 3042 893f f052 fc84 ba03 6ebf
000003f0: 34fa aa83 bd5d 81bf 1825 eae6 bd7e 8fbf
00000400: c723 e3c9 55b4 8a3f 98dc c8df 6395 9c3f
00000410: 5a81 5e5d a188 a23f 2a4f 4370 b168 a33f
00000420: 28b8 5665 4215 7dbf aa0c 0d0f c173 943f
00000430: 908c 00cd 0881 673f b033 8c7d 9ebd a2bf
00000440: 3c84 a93f bf1a 94bf 3ed2 d2d9 bf87 a13f
00000450: 54de 1a8c cd1c 8d3f d9ce 7c00 ac21 96bf
00000460: 6cad 7677 cd08 9a3f c45d 18b1 1d37 963f
00000470: 4ca4 dd0b d954 a1bf 7807 736e f86f 713f
00000480: a8df 03fe 471d 83bf 2328 06e3 b77c a1bf
00000490: e2fd 9a1f 9f31 903f c05d 771a 0d49 40bf
000004a0: 00ab 7b4f ce67 4cbf 6eee 4d04 ce90 8bbf
000004b0: ab43 535f c59a a4bf 44e3 bb45 1769 8e3f
000004c0: c8b6 bb9e a45f 9e3f e309 d73e d4a9 a1bf
000004d0: 4026 3c9b 5478 6dbf 76ea f672 5260 a23f
000004e0: 5add 004d edbc 943f 38df a37a 8615 823f
000004f0: b0e3 eb1b 3321 873f fce1 7096 7243 933f
00000500: 112a e48e 4cae 9abf ce22 9e09 60ef 87bf
00000510: 206a 3ad0 f45c 74bf f23a c603 89a8 a13f
00000520: 81ba 9905 fcc9 95bf 4406 0f21 3d65 9b3f
00000530: f883 48a0 13a9 a1bf 8025 9342 b7a4 643f
00000540: 6e45 3d1d a3af a13f 08ea da4b 4f77 a23f
00000550: 7c0f 6c94 b751 9dbf 2c77 f672 3adb 95bf
00000560: a6b9 2a51 d48f a23f 30d5 45ca 7d69 82bf
00000570: ac27 37c1 923b a5bf f80e 3f77 5c11 81bf
00000580: 0092 bfd8 8368 553f 7a95 c7f2 f6a8 a43f
00000590: f00d dcf1 52ed 953f 264b 2f36 403f 9cbf
000005a0: bc58 d23a 4532 a3bf 886c 9067 4206 a43f
000005b0: 68b5 ae97 5900 7b3f b0ea e7b5 907f 893f
000005c0: 083d 8fa3 0241 853f 687a 4678 5e6e 743f
000005d0: 900b 9047 1739 66bf 7096 58cf 688a a03f
000005e0: 0654 6b93 72f1 7cbf 9c3c 01a5 3f7f 98bf
000005f0: 98f7 948e f347 9d3f ccb9 606d efcc 993f
00000600: 8061 e574 28eb 6abf 9426 2778 1e3f 913f
00000610: 345e e6ef 5c44 82bf aa12 3795 5b00 a2bf
00000620: d4d4 e25b c2ee 97bf f07f 1213 630d 693f
00000630: e4e2 3e9e 8f6b 9d3f 6e37 17dd c58c a23f
00000640: c1c0 01fd e567 97bf f473 d094 bd53 893f
00000650: 4e36 b1fa 708c 86bf 008c 7a1d 53a5 543f
00000660: 59f6 69a4 512e 97bf 0693 6a57 a1f9 9dbf
00000670: 2053 2f12 e1d3 8a3f 04ba a427 f9a3 883f
00000680: 2aa7 4753 fd58 87bf 8c4e e92d 01f7 94bf
00000690: f44a 3b14 c5fe a1bf d81e 8649 0d73 883f
000006a0: d202 bcc5 7293 a1bf 78c6 9ff5 e949 873f
000006b0: 7e96 1720 0304 903f 48fe 9980 e81f 963f
000006c0: 8a41 a29b d052 923f 376f 067b a2f3 92bf
000006d0: f088 95e8 ef5c 863f 88ea 9f04 d5ef 7e3f
000006e0: aec1 83fe 9415 9dbf 16de e136 ee66 a13f
000006f0: d024 edb0 b862 a23f ba35 8966 6a8a a13f
00000700: d23d 89dd 3cba 933f 022c 942c 0314 91bf
00000710: 3820 f859 c802 9f3f 2067 3058 c5ef 5abf
00000720: 187d 8508 c24e 8e3f d0e5 244c d8b7 9e3f
00000730: 6842 3c4e ec34 8bbf f9a9 66c6 5af4 93bf
00000740: 46c7 1101 d044 933f c879 d200 fd01 853f
00000750: f32d c14b 9955 a2bf 789b 897a 47fc 9ebf
00000760: 2cc9 dc4f 66cd 77bf 8ca1 ce65 a31a a03f
00000770: 9a24 88db 2ec9 9ebf ec4d 7d58 8a12 a3bf
00000780: a855 fb5b ef97 703f 16ed 77f7 ac47 913f
00000790: fc79 1683 db7b 96bf 6205 9560 d69d a23f
000007a0: c0e2 810f 3957 7a3f 8c2d c976 f20d 9e3f
000007b0: a7be b9bd 06d8 a4bf 9e53 de1b e54b 8cbf
000007c0: 600c f4e8 2b9f 50bf c4fe bef9 af4c 933f
000007d0: 2a45 092c ba19 a03f 1036 919c fe15 84bf
000007e0: 80dc 04ea 049b 5b3f 9430 89f5 4e13 a53f
000007f0: c1c1 9131 fa75 99bf 04aa 9584 8ce8 82bf
0.017537016008132338 -0.029847327764045847 0.0038787072888316967 -0.02089931424501547 0.030848848598889145 -0.03590729696538038 -0.04033903192537435 -0.035987006791026066
0.0006128387482189565 0.030891920299643466 0.02990771257424142 0.02591611766293662 -0.03764842620392647 0.016785714592466618 0.02968695331931806 0.014221429527110738
-0.027650919781601523 -0.008397381414315286 0.022547819273751962 -0.02267597479892934 -0.0037088646328414035 0.023358685707051907 -0.04064458892747402 0.01921652657572446
0.014464598858200686 -0.016370685644469998 -0.014538537954826927 0.017921478763122237 -0.02607681149163388 -0.010005410094492961 0.009333168519483057 -0.025833996878126934
0.006088377901249421 0.03024389826434283 -0.020190509455136642 0.022763139130795182 0.019036113729294916 0.04014717777464037 -0.030719175167674445 0.03181221459940657
0.03642494796452689 0.029632674334461095 -0.004651652593602708 -0.011932134405470241 -0.017093230055195793 0.01829837271346354 -0.016445079342674064 0.03621571429512764
-0.002692652124614954 -0.030220606667775506 0.0002716973702527256 -0.0016786976463205108 0.020671816867546697 -0.014842587834979628 -0.016266817171028604 0.030256655057696785
-0.022849937721381577 0.01432721097590512 -0.004656711566724585 0.019683460746909978 0.03814272864583096 -0.021519672669067843 -0.006832607080979693 -0.011122071695470827
-0.0010317133649926716 -0.005056105768644535 -0.022151488775865865 0.002174801024456101 -0.034406536847867986 0.02923277593829557 -0.0032021356060176406 0.00874372871529934
0.025921346477172716 0.041262704577759574 -0.024914494206632307 0.01671483557981398 -0.016634716641104226 -0.014566067422744269 -0.03994972437150221 -0.019442535620230735
0.0043999432629034385 0.029651896658984572 0.022358796230741704 -0.017113007116636166 -0.020066513790790188 -0.0032549748525650055 -0.006851046869601016 -0.026167751459269764
-0.012258670977381033 -0.027694999453439527 -0.01714921830588407 0.04023721256978324 0.005986563994431267 -0.03313446654659187 -0.03188689663995867 0.008559304462428502
0.016170778666217932 0.022704458940722566 0.010126450383750984 -0.03684808474900343 0.031616048360942006 -0.04047754362697375 -0.022472456971944485 -0.0028838808385520873
0.024105895774695657 -0.03673199704061589 0.04065937163921925 0.03271089507715255 -0.03397721562726798 0.020739412382395524 -0.037057773202635494 0.028328480755151764
0.008154634295779034 -0.027946227121930976 0.013960670452149979 -0.011268371984113436 0.03340571222636793 -0.028777289893577866 0.0311643182549117 0.020974828930104827
0.035913994281608436 -0.012799930507493337 -0.04119075879481654 0.0063322673120093514 0.012333280109840028 -0.00366388730607025 -0.008479576664624046 -0.015378459557967392
0.01303927442894971 0.02791362813351536 0.036198656699755374 0.03790812011143736 -0.007100352629477093 0.019972816985739307 0.0028691455736563135 -0.03660292894901518
-0.01963328195632051 0.034238810863290045 0.014215093458331975 -0.02161282303786902 0.02542420426986551 0.021694625791580227 -0.033850462625942684 0.004257173953364439
-0.009333193244387264 -0.034154650175949784 0.015814291290323974 -0.0004969896298758145 -0.0008668668151277925 -0.013459786898003059 -0.04024330891264268 0.014848882499323708
0.02966172427016181 -0.03449881808366564 -0.0035974171131598898 0.035891129049066814 0.020251949143326932 0.00883011876838645 0.011293792047114198 0.018811979705988677
-0.026055523129835893 -0.011687040608891943 -0.00497146253806105 0.03448894663880776 -0.0212783220690036 0.02675338281892993 -0.03449307757933434 0.002519948892402979
0.0345431302254252 0.03606651116338716 -0.028632038530318024 -0.021344102160234232 0.036253580959385176 -0.008990271315932746 -0.04147013290965104 -0.008333895100697472
0.0013066566052596373 0.0403515979158255 0.021413131725251888 -0.02758503275601778 -0.037492907934550485 0.039110255376919645 0.006592130633106798 0.012450342704132339
0.010377903572502692 0.004988068602328789 -0.002712769954543011 0.032305980025097436 -0.007066199838580372 -0.023922914930434844 0.02859478528738854 0.025195828486340763
-0.003285960213514183 0.016842342456391338 -0.008919454642451453 -0.03515897938226449 -0.02337173162296298 0.003058141236195404 0.028730625184581707 0.03623026203022915
-0.02285727841120955 0.01236675367732152 -0.011010058069724906 0.0012601195975683321 -0.022637630138424878 -0.029272576294391527 0.01309943997140689 0.012031504175493708
-0.011400202850342451 -0.02047349779816314 -0.03514686462371755 0.011938194090148554 -0.03432806648016186 0.011371448334077203 0.01564030536055449 0.021606095170225964
0.017894038676389758 -0.01850751758466559 0.010919451032070232 0.007552940465752507 -0.02840264132913866 0.03398842258405581 0.03590943488831899 0.03425915242824425
0.019265128156176044 -0.016677903743623552 0.03028405236366913 -0.0016440798942824533 0.014798656354001724 0.029998187682599042 -0.0132845364928766 -0.019486826285779888
0.018817186417840824 0.010257698619452152 -0.035809317109478565 -0.030259243826005172 -0.005811118751625249 0.03145323388827412 -0.03006432738223861 -0.03725082712358216
0.00405114650466968 0.016874983410145004 -0.021956853748287472 0.03636045388203503 0.006430838482736234 0.029350079059708586 -0.04071065011964708 -0.013816633141496667
-0.0010145119484270756 0.018847226732531266 0.03144628322173511 -0.009807576325466832 0.0016849086751571651 0.04116293666138052 -0.024864110255693243 -0.00923261432281653

main_network.conv_layers.4.bias f8 [128]
00000000: 3865 1bf6 22e7 76bf 201f 6637 82a6 83bf
00000010: 3831 9a74 5076 73bf d376 8808 da67 a13f
00000020: 10a4 3632 f09d 6c3f 47fb d2cd 0252 a53f
00000030: 7080 aba1 d9bf 64bf 80f4 9258 d568 3a3f
00000040: d276 8bb0 5a47 963f 3a54 be11 365e a1bf
00000050: ca73 cdfd 3c5e 8fbf 82f1 4613 8246 943f
00000060: 9c1b 82f2 281c 893f a16e 330a 0690 a2bf
00000070: 3ece ded6 989e 983f 60ef 41c9 1fcb 503f
00000080: 7729 d185 bac9 983f a523 f3c9 fd66 96bf
00000090: 7452 cd3d 91c9 8dbf 0dd9 a00c 90d7 833f
000000a0: 2faf 42d8 b67a a13f d83d d3f5 8edf 703f
000000b0: 9aca 418a d3cc 983f 7db7 19cc ab9f a33f
000000c0: a04b 992e e225 573f 016f 2731 072b a1bf
000000d0: 132c ad8a aa42 a23f 750a 4a9d 7989 933f
000000e0: 3621 9fab ea9f 973f 3a96 256f 7970 963f
000000f0: 8cdd f8a7 09c0 803f a0e8 0f27 29e8 7fbf
00000100: 5a75 c32c fe56 a0bf 8c5d 4116 b5d0 80bf
00000110: 6d91 5102 fc51 a3bf 0e4b 9f4c 0b48 993f
00000120: 4857 a9eb ef75 97bf 80b4 785d c9b8 7b3f
00000130: cc8e 1017 a211 a2bf 3b1f 54bb 0283 a03f
00000140: 8642 d482 4050 9a3f f23d 3e62 b219 90bf
00000150: eb9c b393 bd73 a33f c4b6 7722 2255 833f
00000160: 924e c031 165e 90bf 50de 66ad be03 90bf
00000170: b879 c0ad 264f 7e3f bec6 aa51 edd2 a4bf
00000180: c00f d02d af73 8a3f 70c5 9bc0 eba0 823f
00000190: a045 abf0 eadb 58bf dc87 f59a 5679 84bf
000001a0: 0e83 0546 d7d6 953f d4e9 51d7 dd22 84bf
000001b0: 44cd 0560 f714 8b3f b23c 3b91 be66 a1bf
000001c0: 1808 dd78 fc33 7b3f 9e22 20e5 a3ee 9c3f
000001d0: 01b8 7199 6cc4 a23f 3864 dd27 5a63 913f
000001e0: 8090 0dec cc5f 543f 344b d49e 5fbf 883f
000001f0: 10ca 6b89 22a6 63bf 203e 34d6 ae01 553f
00000200: 8ad7 a20d dfc6 9bbf 761b 2e19 ad54 963f
00000210: b88f f74d fa89 92bf 90d3 5bd5 bd3a 68bf
00000220: 5098 a799 3b0b 873f 84bf 61e5 789d a4bf
00000230: 9447 0768 b50b 8bbf 0052 0c29 05d5 98bf
00000240: 849e a1df 5348 8ebf f8e9 1826 261d 79bf
00000250: ccd0 1ca5 f571 a3bf 000c 6c62 286e 293f
00000260: 2771 c7f7 304d a53f 509e d358 ab2f 68bf
00000270: 0062 0b47 80f5 933f f0fd 3eee 823e 913f
00000280: 50f2 117e 9d31 683f 6451 bb75 8040 813f
00000290: 281c 9b86 46d6 783f 62b1 caa3 eb9d 95bf
000002a0: 02fb 449d 9936 9c3f b430 2fe5 352d a0bf
000002b0: cfee 2103 7f92 a33f e43b fa5c d657 8f3f
000002c0: 1088 40ae 6b5d a3bf 9669 b038 ecdb 963f
000002d0: a016 c4d7 44b0 50bf 0ad6 6f71 9e0a 9ebf
000002e0: 2a40 4064 57cb 9abf 0005 05db 6fe5 50bf
000002f0: 0a9c 9838 222b 8cbf e973 8ba4 4d6a 90bf
00000300: 8a74 961a e03c 993f 1dc7 1cee 1c77 9bbf
00000310: deaf 5881 9bc2 983f 0dd4 7901 9d51 95bf
00000320: a751 5a2c bf75 a43f 5e03 09cd 01e2 993f
00000330: ac3d 0c26 9f9d 893f e2ca 5e1b 4064 9ebf
00000340: c0b7 15e3 a38d 863f 06d2 f49f 9723 9a3f
00000350: e0e8 d9cb 551f 97bf 3efe 8e11 c841 9b3f
00000360: e020 a5cc 196f 583f 8077 87b8 a8c6 3dbf
00000370: d0e8 9bd2 3b46 81bf 80cc be1c 1f0f 693f
00000380: 0083 a5ce d669 46bf 5649 7e21 8128 993f
00000390: c65d aed9 3865 953f 0e66 69cd e8f9 9d3f
000003a0: 6070 5399 7e8a 9cbf c666 df08 e34a 973f
000003b0: 7238 8c3c cf09 953f 5823 d672 ee72 7e3f
000003c0: 704a 3673 0bc5 623f 202d f867 aeec 8fbf
000003d0: 9293 5915 4014 9ebf 3218 a14f 3c96 a4bf
000003e0: da41 d847 82eb 8abf 0b30 3aea e809 9a3f
000003f0: 44de d6d2 1a52 80bf 4cdc f08e 57e7 803f
-0.005591522758288385 -0.00959493381084503 -0.004751505164346796 0.033995450536378556 0.0034932795840245737 0.04164131891729155 -0.0025328875175177276 0.00040297707216636197
0.021756569886625617 -0.03392189947695852 -0.015316463942946518 0.019800217081625167 0.012260742092861147 -0.036255062813976176 0.024042499651569786 0.001024991074728164
0.02420703355554951 -0.0218772558698991 -0.014544615458057943 0.009688496957192894 0.03413936033152109 0.0041194519410079 0.024218850434815843 0.03832756868801732
0.0014128407296041048 -0.03353140330338356 0.035664872577932404 0.019079113221332784 0.023070971226645663 0.02191343060385107 0.008178782881357781 -0.007789765121737485
-0.03191370293073233 -0.008210577718428501 -0.037734866412196456 0.024688889075899438 -0.02291083217490744 0.006768023092758146 -0.035290780368340074 0.03224953209615796
0.02569676207082463 -0.015723025556836086 0.03799240520475585 0.009439722706669491 -0.01598391226441593 -0.015639285405738612 0.007399703110449733 -0.04067174550926954
0.012915962777704126 0.009095994773334865 -0.001517276223854537 -0.009997059444405147 0.02132736554028996 -0.009832127698463568 0.013223583810691004 -0.03398700259060074
0.006641374797085951 0.0282540901753544 0.03665484784220042 0.01698056095424169 0.001243543738575631 0.012083766016564114 -0.002398555235566542 0.0012821395292269624
-0.027125821311265542 0.021807388936874138 -0.018104468353967923 -0.0029576976474978214 0.011251893641155558 -0.040263917923652165 -0.013205926167674943 -0.024250107412699506
-0.014786391508280212 -0.006131314295596095 -0.03797881737264816 0.00019401782011393975 0.04160454773566107 -0.0029524180050548923 0.019491199814043014 0.016840024749169957
0.002953345873321113 0.008423808663260153 0.006063724032805452 -0.021110231277519438 0.027552032684293522 -0.031594928957561136 0.038227051861182575 0.015304255211303137
-0.03782211782551326 0.02232331367495418 -0.0010185882848089758 -0.029337382959019144 -0.026166310781320735 -0.0010312645282087307 -0.013754145958115433 -0.016030514877332456
0.024646283743653664 -0.02682156756708941 0.02417986847846964 -0.020819142546731274 0.039960836567078765 0.025276210917812285 0.01250767073500366 -0.029679299994039073
0.0110123447109024 0.025526398790320946 -0.02258047157963794 0.026618124076547504 0.0014913322398389314 -0.00045434588585446106 -0.008434741368081339 0.003058968321022315
-0.0006840037215561645 0.024568574589986035 0.020893944059563706 0.029273641145072964 -0.02787206469371062 0.02274660817770415 0.020545232840099854 0.007433825912252022
0.0022912238725408193 -0.015588152454276527 -0.02937412386235711 -0.04020870658909849 -0.013144510095146101 0.025428427978610595 -0.00796910243921823 0.008253749894818217
