AlphaZero_Gomoku/model/current_policy.model (torch, 426677 bytes, 15 tensors)

layers.0.weight f4 [32, 4, 3, 3]
0	0xbd3d4b63	-0.046214473
1	0xbd6b7436	-0.057483874
2	0xbcfbea52	-0.030751381
3	0xbcbf30c8	-0.02333869
4	0xbd7af304	-0.061266914
5	0x3cf69b3f	0.030103324
6	0xbd148183	-0.036256324
7	0xbd626d52	-0.055280037
8	0x3dabaa2e	0.083820686
9	0x3c0dec03	0.008662227
10	0xbd502694	-0.05081804
11	0x3d71f9fe	0.0590763
12	0xbcb356f7	-0.021892054
13	0x3dc62293	0.09674563
14	0xbcdd435c	-0.027009659
15	0xbd2988a4	-0.041390076
16	0x3db6b68b	0.08921536
17	0x3d703e38	0.058653086
18	0xbc0a3e86	-0.008437758
19	0x2d1775af	8.609487e-12
20	0x3bc91b20	0.0061372668
21	0xbbc25bab	-0.005931338
22	0xbc38d1ce	-0.01128049
23	0xb938c7dc	-0.00017622061
24	0xb52e5fd0	-6.4959477e-07
25	0xbc7195f8	-0.014745228
26	0x3ca147e9	0.01968761
27	0x3b660b50	0.0035101958
28	0xbb938b5e	-0.004502698
29	0xbbf8d552	-0.007593789
30	0x3c3a53db	0.011372532
31	0xbcde9181	-0.027168991
32	0xbc82f379	-0.015985237
33	0x3b67dd17	0.0035379583
34	0xbc73ec4a	-0.014887879
35	0x3b2c85f0	0.002632495
36	0xbc55fe5d	-0.013061133
37	0x3d042fb8	0.03227207
38	0xbc5d8a3e	-0.013521729
39	0x3dc557fa	0.09635921
40	0xbcfaba53	-0.030606424
41	0x3da539fd	0.08067701
42	0xbc0f9540	-0.008763611
43	0x3cc5a26c	0.0241253
44	0x3c3ded9e	0.011592297
45	0xbd296083	-0.041351806
46	0x3ad7cb96	0.0016463872
47	0xbd235d42	-0.03988386
48	0xbd45b350	-0.04826671
49	0xbd6c4434	-0.05768223
50	0xbc2ac139	-0.010422044
51	0x3cb5409e	0.022125538
52	0xbca76761	-0.020435037
53	0xbd2caaf8	-0.042155236
54	0x3490fb1c	2.7004796e-07
55	0x3a4ff6bc	0.00079331896
56	0xb846077a	-4.721384e-05
57	0xb86dff90	-5.6743214e-05
58	0x39a2d38f	0.0003105667
59	0xba0166dd	-0.00049362873
60	0xb9370840	-0.00017455313
61	0x3a1fea2b	0.00061002624
62	0xba010a78	-0.00049225194
63	0xbd9a37cb	-0.07530173
64	0xbdfcf0b8	-0.12350601
65	0x3dccb5c8	0.099956095
66	0x3c57d62d	0.013173622
67	0x3da490cc	0.0803543
68	0xbde341c6	-0.1109653
69	0x3d869a88	0.06572443
70	0x3df7c7c1	0.12098647
71	0x3c19a690	0.0093780905
72	0x3d16465a	0.036688186
73	0x3dc23d9d	0.09484408
74	0x3c9bb912	0.019009147
75	0xbbead3a8	-0.0071663447
76	0x3cebca03	0.02878285
77	0x3d23cc93	0.03999002
78	0xbc243b7c	-0.010023948
79	0x3dde255c	0.108469695
80	0x3cba2ae9	0.02272554
81	0xbd413a35	-0.04717465
82	0xbd829cad	-0.0637754
83	0xbd5fdb4e	-0.054652505
84	0x3d5fb6e6	0.054617785
85	0xbd0539f5	-0.032525975
86	0x3d39642a	0.04526154
87	0x3d1f0d84	0.03883125
88	0xbd592fe8	-0.053024203
89	0x3d01db7b	0.031703454
90	0xb907adbc	-0.00012939324
91	0x3a530955	0.0008050402
92	0xba11d0b3	-0.00055624096
93	0x3c39f9da	0.011351073
94	0xbb1c5036	-0.002385152
95	0x3b059f18	0.0020389017
96	0xbb3daaa7	-0.0028940828
97	0x3b177f25	0.0023116556
98	0x3b3a57aa	0.00284336
99	0xbcc18676	-0.023623686
100	0x3dd4baa6	0.10387163
101	0x3db444ae	0.08802162
102	0xbe0a626d	-0.13514109
103	0x3d94037e	0.072272286
104	0xbd6bf052	-0.057602234
105	0x3d4e1445	0.0503123
106	0x3da51ed7	0.08062523
107	0xbca8980a	-0.02058031
108	0x3d240b6d	0.04004996
109	0xbc88ecb4	-0.016714431
110	0x3d036c59	0.03208575
111	0x3c29c224	0.010361228
112	0x3d0bad07	0.03410056
113	0xbc8cd5fa	-0.017191876
114	0x3d7ca897	0.061684217
115	0x3c1475b9	0.00906127
116	0x3d76863b	0.060186606
117	0x3d153bf6	0.036434136
118	0xbcf68d06	-0.030096542
119	0xbc7bda20	-0.015371829
120	0x3cf2c607	0.029635442
121	0xbcceb2a8	-0.025231674
122	0xbc8565f8	-0.016283974
123	0x3d2a1143	0.04152037
124	0xbc0ae223	-0.008476767
125	0xbcad1c26	-0.021131586
126	0xba6ef1b2	-0.0009114995
127	0xb7085158	-8.125171e-06
128	0x3a343077	0.0006873677
129	0xb91417c1	-0.00014123229
130	0xb9bdfc7b	-0.00036237002
131	0xb8894f1c	-6.547404e-05
132	0x3a1c4a02	0.0005961956
133	0xb9cd312d	-0.00039137286
134	0x3a7f8ec7	0.00097487535
135	0xbdbb9a5c	-0.09160301
136	0x3dd976e8	0.10618383
137	0x3d26552f	0.04060858
138	0x3d947173	0.07248201
139	0x3e029993	0.12753896
140	0xbdba9ced	-0.091119625
141	0x3c992f38	0.018699273
142	0xbd05ff1b	-0.03271399
143	0xbc2bfdf4	-0.010497559
144	0xbca53b9f	-0.020170031
145	0xbc0a8e7e	-0.008456824
146	0xbc40fdff	-0.011779307
147	0xbcf720bd	-0.030166978
148	0x3d644e0a	0.055738486
149	0x3d85ffcc	0.0654293
150	0xbd03e3d0	-0.03219968
151	0x3d0eae9d	0.034834493
152	0xbc9f6d0e	-0.019461181
153	0xbc8504ec	-0.016237698
154	0x3ca88556	0.020571392
155	0xbce19e46	-0.027541291
156	0xbc41cb0d	-0.011828196
157	0x3bebfbc0	0.007201642
158	0x3cfc5ca2	0.03080589
159	0xbced5c82	-0.028974775
160	0x3d06ba03	0.03289224
161	0x3cfeaa95	0.0310872
162	0x3b6b9c08	0.0035951156
163	0x3ba5b571	0.00505703
164	0xb90fc213	-0.00013709841
165	0x3c67fd6a	0.01415954
166	0xba6fcaf4	-0.0009147369
167	0x3ba705b4	0.0050971154
168	0xb8907ccd	-6.889701e-05
169	0x3879ea75	5.958458e-05
170	0xbab9ebb4	-0.0014184625
171	0xbb50509c	-0.0031786328
172	0x3d56ebed	0.05247109
173	0x3d99db77	0.07512563
174	0xbb833a11	-0.004004725
175	0xb90ed3ca	-0.00013621073
176	0x3cf8ed48	0.030386582
177	0xbdb6f6c5	-0.08933786
178	0x3c6f0f24	0.014591012
179	0xbd67999a	-0.05654297
180	0xbd0ba7a4	-0.03409542
181	0xbd6b19e3	-0.057397734
182	0x3c33c1ea	0.010971526
183	0xbd234222	-0.03985799
184	0xbda0ba92	-0.078480855
185	0xbcaa725b	-0.020806482
186	0xbd933a2d	-0.071888305
187	0xbd36ee51	-0.04466087
188	0xbc016570	-0.00789772
189	0xbd15137c	-0.036395535
190	0xbc489301	-0.01224208
191	0x3a236ba7	0.0006233998
192	0xbd4713e9	-0.048602972
193	0x3dc21066	0.09475784
194	0xbd32db6e	-0.043666296
195	0xbc064e03	-0.00819731
196	0xbdb01e75	-0.08599559
197	0x3ccb3bb2	0.024808738
198	0xbbb42f29	-0.005498786
199	0xb9aadfd6	-0.00032591698
200	0xb9abcd78	-0.00032768748
201	0xada62fc1	-1.8893222e-11
202	0xbd4e61b8	-0.05038616
203	0xb41e7ef9	-1.4761089e-07
204	0x3c8275da	0.015925337
205	0x3b6eda1e	0.0036445926
206	0x3caec2aa	0.021333057
207	0x2bad40c2	1.2310363e-12
208	0xabf168d8	-1.715318e-12
209	0xad273c88	-9.506292e-12
210	0xad702cce	-1.3652369e-11
211	0xac1b9885	-2.211149e-12
212	0xae667558	-5.2400168e-11
213	0xac94649a	-4.217582e-12
214	0xac286744	-2.393156e-12
215	0xac85f179	-3.806896e-12
216	0xbb8d3d1b	-0.004310263
217	0xbd2fc579	-0.042912934
218	0xbc15ca86	-0.009142524
219	0x3d29165b	0.041281085
220	0xbb44b3a4	-0.00300143
221	0x3adf1c91	0.0017022063
222	0x3d458d3c	0.048230395
223	0xbb53a534	-0.0032294514
224	0xbbb8aacf	-0.0056355963
225	0x3d0fe42c	0.03512971
226	0xbc05adac	-0.008159082
227	0xbce7e24f	-0.028306155
228	0x3c2334ae	0.00996129
229	0x3d4c1f3a	0.049834467
230	0x3d884b70	0.066550136
231	0xbc277ed2	-0.010223107
232	0x3c52c8f3	0.012865293
233	0x3d7fdd76	0.06246706
234	0x2f3fd239	1.7446035e-10
235	0x39275939	0.00015959599
236	0x3b74e7ce	0.0037369612
237	0xbc1e29e7	-0.009653545
238	0xbcb52dc3	-0.022116547
239	0xbb8528e6	-0.0040637134
240	0x383b3d7c	4.4641536e-05
241	0x3cc27dd3	0.023741638
242	0xbc0870aa	-0.008327642
243	0x2cc77775	5.6691826e-12
244	0x2acbc332	3.6195488e-13
245	0x2c843ec6	3.758635e-12
246	0x2c035c79	1.8667552e-12
247	0x2bc3f201	1.3922753e-12
248	0x2cb46b30	5.127808e-12
249	0x2c9a873c	4.3919573e-12
250	0xab05df33	-4.7560843e-13
251	0xaba32e4c	-1.1594697e-12
252	0xbcd79a2d	-0.026318634
253	0xbd229c64	-0.039699927
254	0x3d36b212	0.044603415
255	0xbd1b804d	-0.037964154

layers.0.bias f4 [32]
0	0xbc5c445d	-0.013444033
1	0xbde67e1b	-0.112545215
2	0x3d20c0b2	0.03924627
3	0x3d7bccf9	0.061474774
4	0x3d0ece2f	0.0348646
5	0x3d42e081	0.047577385
6	0xbdd02f1c	-0.101652354
7	0x3e0222e1	0.12708618
8	0xbc9211d8	-0.017830774
9	0x3c93691b	0.017994454
10	0xbe04a9e9	-0.1295544
11	0x3dea55d5	0.114421524
12	0x3da23b11	0.07921422
13	0xbd187b13	-0.037226748
14	0xbd063218	-0.032762617
15	0xbd07e610	-0.03317839
16	0x3d1f0455	0.03882249
17	0xbe167ae5	-0.14695318
18	0x3e259b22	0.1617246
19	0xbd7bf1c8	-0.061509877
20	0xbd498fd8	-0.049209446
21	0xbd3d78ac	-0.04625766
22	0xbd01dabc	-0.031702742
23	0xbe2c9a73	-0.16855793
24	0x3dd0a33a	0.10187383
25	0x3dfbc0e8	0.12292653
26	0x3db14fa8	0.08657771
27	0x3ae05544	0.0017115255
28	0x3c40d886	0.011770373
29	0xbd5c19b0	-0.053735435
30	0xbc8f9387	-0.017526401
31	0xbe0b2f88	-0.1359235

layers.1.weight f4 [64, 32, 3, 3]
0	0xbbd7656f	-0.006573371
1	0x3a965b6b	0.0011471336
2	0x3accf167	0.0015635908
3	0x3b9d95b1	0.0048091044
4	0xb8a3114b	-7.775667e-05
5	0xbb3c5692	-0.0028738123
6	0xbb487c7d	-0.003059178
7	0x39fecdd7	0.00048600018
8	0xb961ff9b	-0.00021552893
9	0xb98e6f09	-0.00027167078
10	0x37330105	1.0669469e-05
11	0xb91122bb	-0.00013841216
12	0x3a13d1c7	0.0005638864
13	0x398e14e0	0.00027099904
14	0xb9b04637	-0.0003362165
15	0x349ea5ef	2.9550526e-07
16	0x3852f9dd	5.0300605e-05
17	0x390af0f5	0.00013250469
18	0xbb782cba	-0.0037868456
19	0xbbc777f0	-0.0060872957
20	0xbb451237	-0.0030070671
21	0xbbab592d	-0.0052291364
22	0x3a84c4aa	0.0010129411
23	0x3b7c11fc	0.0038462868
24	0xbb0abdf0	-0.002117034
25	0xbb6560d3	-0.0035000339
26	0x3a6824ed	0.00088556
27	0xbbbecf1e	-0.00582303
28	0xbb30b1b8	-0.0026961397
29	0xbac33fee	-0.0014896372
30	0xbb2f93ea	-0.0026791045
31	0xbc0dab55	-0.008646806
32	0x3af236b7	0.0018479441
33	0xbbd75cae	-0.0065723276
34	0xbb01f7b7	-0.0019831487
35	0x3ac0e8d0	0.0014717821
36	0xb89bb416	-7.4245196e-05
37	0xb9927a3d	-0.00027938365
38	0x360fc9f5	2.1426215e-06
39	0x390d2ade	0.00013462777
40	0x3a37b61e	0.00070080336
41	0x39c5fc0a	0.00037762552
42	0x389ccdf6	7.477023e-05
43	0x3a499de3	0.00076910685
44	0xb818939a	-3.637709e-05
45	0x3b87e441	0.004147083
46	0xbb81bcfe	-0.003959297
47	0xbaf1c2d9	-0.001844491
48	0x3b8cfd78	0.0043026768
49	0x3b0da6a4	0.0021614218
50	0xbba00495	-0.0048833587
51	0x3abb8301	0.001430601
52	0xbb53828f	-0.0032273864
53	0x3b0ec50c	0.002178493
54	0x3184f4b0	3.8695234e-09
55	0x31f5e08f	7.155968e-09
56	0xaf49cf21	-1.835443e-10
57	0xb4a30299	-3.0363006e-07
58	0xb20a1ba4	-8.038942e-09
59	0x324f9450	1.2082708e-08
60	0xb0ae6f04	-1.2691719e-09
61	0xb1129d47	-2.1335198e-09
62	0xb07df67a	-9.239113e-10
63	0x3a505cc3	0.0007948393
64	0x3ac77803	0.0015218261
65	0x3b310b83	0.0027014918
66	0xbbcae733	-0.006192112
67	0xbb9cef90	-0.0047893003
68	0x39d5b8a2	0.00040764088
69	0xba675fef	-0.0008826246
70	0x399e1678	0.0003015285
71	0x3b44a3f7	0.0030004957
72	0xb93bc530	-0.00017907168
73	0x399943ad	0.00029232856
74	0xba6556c0	-0.00087485835
75	0xbb00144d	-0.001954335
76	0xba056193	-0.0005088087
77	0xb8ad76d8	-8.271419e-05
78	0x393d2316	0.00018037515
79	0xba32103d	-0.0006792581
80	0xbb1a1464	-0.002351069
81	0xb4ac4942	-3.20908e-07
82	0x3726b171	9.935685e-06
83	0xb6cd4224	-6.117176e-06
84	0xb8c3ca40	-9.3359966e-05
85	0xb7fa40b8	-2.983246e-05
86	0xb8819590	-6.1790575e-05
87	0xb82b7428	-4.0877756e-05
88	0xb662bcf9	-3.378662e-06
89	0xb593c077	-1.1008368e-06
90	0xae1b17c7	-3.5264038e-11
91	0x2d7a4ba3	1.42276494e-11
92	0xaccfb396	-5.903232e-12
93	0xae26afaa	-3.790005e-11
94	0xae860c0c	-6.0957545e-11
95	0x2cf1a958	6.868433e-12
96	0xabfbd252	-1.7892998e-12
97	0xac097b36	-1.9537267e-12
98	0x2c861f3f	3.811978e-12
99	0xbc0918c7	-0.008367724
100	0xba9a5e30	-0.0011777338
101	0xb8bef1ca	-9.104943e-05
102	0xbc28d34a	-0.0103042815
103	0xbbe8eb62	-0.007108138
104	0x3b3a5d38	0.002843691
105	0xbc50d2f1	-0.012745605
106	0xbbc27699	-0.005934548
107	0xbc0700a3	-0.008239898
108	0x3bd4138d	0.006472057
109	0xbcc3ead8	-0.023915693
110	0xbb0e32a4	-0.0021697665
111	0x3b8153a3	0.003946738
112	0xbcd5c9a2	-0.026097123
113	0xba574be6	-0.0008212909
114	0x3ba48beb	0.0050215623
115	0xbc7646f1	-0.015031562
116	0xbba4a0f2	-0.005024069
117	0x38da9938	0.00010423589
118	0xba64455a	-0.0008707844
119	0xba0d6c4b	-0.000539486
120	0x398bf9b1	0.0002669818
121	0xb8ffc7ba	-0.000121965495
122	0xb987561b	-0.0002581336
123	0xba0383e1	-0.0005016905
124	0xb8999572	-7.323445e-05
125	0xb9e032bb	-0.00042762407
126	0x2c0f936c	2.0403358e-12
127	0x2bf290e8	1.7235354e-12
128	0xac087235	-1.939016e-12
129	0x2b90a348	1.0277135e-12
130	0x2c0aec33	1.9742096e-12
131	0xa9ab1eba	-7.599256e-14
132	0x2c020456	1.8476518e-12
133	0x2b2e374f	6.1893974e-13
134	0xaa5c5797	-1.9570314e-13
135	0x3882bd7b	6.2341765e-05
136	0x3914802a	0.00014162125
137	0xba4a2f49	-0.00077127345
138	0x3920a267	0.00015319289
139	0x3a2ebc86	0.00066656654
140	0xbb29d3a4	-0.00259135
141	0xb92a86bc	-0.00016262656
142	0x3b593083	0.0033140488
143	0x39456b23	0.00018827296
144	0xbb6fb7c9	-0.003657805
145	0xbae50f03	-0.0017475787
146	0xbb934650	-0.004494466
147	0xbb162016	-0.0022907308
148	0xbb787ec5	-0.0037917357
149	0xba84a615	-0.0010120297
150	0x3ae16146	0.0017195127
151	0xbb562b63	-0.003267967
152	0xbaf27b94	-0.0018499964
153	0x3559a18a	8.107387e-07
154	0xb4cb6a81	-3.7889188e-07
155	0xb5004b88	-4.779363e-07
156	0xb7b05369	-2.1019676e-05
157	0xb7472dec	-1.1872016e-05
158	0x35b40e68	1.3415238e-06
159	0x3732674a	1.0633676e-05
160	0xb7aa418d	-2.0296104e-05
161	0xb64c9a84	-3.0488309e-06
162	0xbc0c85f4	-0.008576859
163	0xbb5410fc	-0.0032358756
164	0xba948e0a	-0.0011333835
165	0xbc119ed8	-0.008887969
166	0xb9c58de3	-0.00037680482
167	0x3bc44d2b	0.0059906445
168	0xbc563c0a	-0.013075838
169	0x3be59321	0.0070060645
170	0x3b9451ff	0.0045263763
171	0x399281d0	0.00027944008
172	0xba4c5a64	-0.00077954517
173	0xba71eb22	-0.0009228458
174	0x3aa856a1	0.00128432
175	0x3a72bafe	0.00092594314
176	0x3b9dca32	0.0048153633
177	0xba852e37	-0.0010160868
178	0xbab11fce	-0.0013513507
179	0x3bc337b5	0.0059575685
180	0xbb0849dd	-0.002079598
181	0xb8ba50d5	-8.884227e-05
182	0xb94d22e4	-0.00019563321
183	0x3a670b83	0.0008813666
184	0x3af340f2	0.0018558784
185	0x3a13b9c6	0.00056352874
186	0xba453417	-0.00075227156
187	0x3a08896f	0.00052084675
188	0xb9eebc27	-0.00045535082
189	0xb75baca3	-1.3093612e-05
190	0xb56a2c05	-8.723585e-07
191	0xb1541f0d	-3.086771e-09
192	0xb7bde596	-2.2637465e-05
193	0xb6af0070	-5.2154573e-06
194	0x358f3c41	1.0671866e-06
195	0xb71568e5	-8.905515e-06
196	0xb55bb593	-8.184808e-07
197	0xb5d50c82	-1.5873377e-06
198	0x3b0441ea	0.002018089
199	0x3b3cb588	0.0028794724
200	0xbaa9b45f	-0.0012947432
201	0x381f6872	3.8005826e-05
202	0xba998384	-0.0011712168
203	0xba9d9d41	-0.0012025015
204	0x38c96ea1	9.605033e-05
205	0x3713520b	8.780985e-06
206	0xb905eed8	-0.00012772845
207	0x2a978f69	2.69225e-13
208	0x2bbfca8d	1.3627585e-12
209	0x303de332	6.9080663e-10
210	0xac9a0ee1	-4.378595e-12
211	0xab094572	-4.876855e-13
212	0x2eb5b1c3	8.262504e-11
213	0xac4347c0	-2.7750996e-12
214	0xab4e5411	-7.330257e-13
215	0x2b99e184	1.0933897e-12
216	0xbc684687	-0.014176971
217	0xb993a800	-0.00028163195
218	0xba98f28a	-0.0011668962
219	0xbbf588e1	-0.007493124
220	0xbb6d87eb	-0.0036244344
221	0xbbcd01df	-0.0062563266
222	0x3b25445c	0.0025217747
223	0xbba993bd	-0.0051750825
224	0xbb83ba69	-0.0040200246
225	0xb9de61cd	-0.00042416007
226	0x3aa1fbb0	0.0012358334
227	0xbc5592a0	-0.013035446
228	0x3b9a1f97	0.004703473
229	0xbcb647aa	-0.022250969
230	0xbc14fc8b	-0.009093414
231	0xbc8dd72d	-0.017314518
232	0xbb48ce5a	-0.0030640573
233	0xbc97c1e2	-0.018525068
234	0xbbee8949	-0.0072795493
235	0xbc68c1a9	-0.014206328
236	0xb9974a34	-0.0002885625
237	0xbc40e311	-0.011772887
238	0x3a86177e	0.001023039
239	0xbbea3775	-0.0071477243
240	0xbc23ec99	-0.01000514
241	0xbc3f8019	-0.011688256
242	0xbc5d9601	-0.013524533
243	0xba831800	-0.0010001659
244	0x3acba837	0.0015537803
245	0xbabd0c8f	-0.0014423298
246	0x37312a4d	1.0559871e-05
247	0x3b083214	0.0020781802
248	0x3a46de6a	0.0007586243
249	0xbb215073	-0.0024614602
250	0x3b4d350b	0.0031312134
251	0xba9bf726	-0.0011899217
252	0xbc1c1e03	-0.00952864
253	0x39a6d0d1	0.00031817568
254	0xb995c534	-0.00028566422
255	0x3aa94fcc	0.0012917458

layers.1.bias f4 [64]
0	0xbd676d50	-0.056500733
1	0xbd4d23c4	-0.050082937
2	0xbd865e3c	-0.065609425
3	0xbb159d3e	-0.002282932
4	0xbd1c5774	-0.03816934
5	0xbd67074b	-0.05640344
6	0xbd0500d5	-0.032471497
7	0x3c8b85d9	0.017031597
8	0x3d09f55f	0.03368127
9	0x3ce48dbc	0.027899615
10	0x3afca13d	0.0019274127
11	0x3cb54181	0.022125961
12	0xbc81dce4	-0.0158524
13	0xba544387	-0.00080972206
14	0xbcc4167b	-0.0239365
15	0xbd11c687	-0.03558972
16	0x3d5beaa8	0.053690583
17	0x3b6d64af	0.0036223342
18	0x3d25c3f8	0.040470093
19	0x3c1bdc3a	0.009512955
20	0xbce372c9	-0.027764695
21	0xbcdf7547	-0.027277602
22	0x3cdb818f	0.026795177
23	0x3d26b25d	0.040697444
24	0xbcfb127f	-0.030648468
25	0xbcefe150	-0.029282242
26	0x3c4b54e0	0.0124103725
27	0xbc38e764	-0.011285637
28	0xbb0a7238	-0.0021125209
29	0xbd78ac68	-0.060711294
30	0xbd0bf92d	-0.03417318
31	0xbba2838c	-0.0049595293
32	0x3d1545d6	0.036443554
33	0x3a6e10eb	0.00090815005
34	0xbd3e383d	-0.04644035
35	0x3cd883fd	0.026430124
36	0x3d39b322	0.04533685
37	0xbd9a78c9	-0.07542569
38	0x3cb93324	0.022607394
39	0x3c95ae00	0.018271446
40	0xbd1711cb	-0.036882203
41	0xbcd231f0	-0.025658578
42	0x3b93f266	0.00451498
43	0x3ca39486	0.019968282
44	0x3c6d9ff3	0.014503467
45	0xbd0fdf12	-0.035124846
46	0x3c7ef875	0.015562166
47	0xbc87b655	-0.016566435
48	0xbbe90883	-0.0071116104
49	0xba4735f6	-0.00075992884
50	0x3d5da7e3	0.054115187
51	0xbd2c5aca	-0.04207877
52	0xbb9cfd2c	-0.0047909226
53	0x3c8954a4	0.016763993
54	0xba705194	-0.00091674295
55	0x3c9a4e35	0.01883612
56	0x3ccbf282	0.02489591
57	0x3cb68b68	0.022283271
58	0xbba912a2	-0.005159692
59	0xbd14586d	-0.036217142
60	0xb9ab8d59	-0.00032720974
61	0x3bdc6ca5	0.0067268186
62	0xbb34dc93	-0.0027597293
63	0xbc8ee1e7	-0.017441703

layers.2.weight f4 [128, 64, 3, 3]
0	0xb802ddc0	-3.1200936e-05
1	0xb85180f1	-4.994957e-05
2	0xb583720e	-9.793455e-07
3	0xb8ac2b14	-8.209623e-05
4	0xb846efe7	-4.7430305e-05
5	0xb733efd5	-1.0725072e-05
6	0xb926f6dd	-0.00015922957
7	0xb8ea257d	-0.00011164972
8	0xb6941cda	-4.4141025e-06
9	0xbbc1ee4a	-0.005918299
10	0xba85b62e	-0.0010201389
11	0xbbdc75b8	-0.0067279004
12	0xbaf495d0	-0.001866037
13	0xbbe309a0	-0.0069286376
14	0xbaa578f4	-0.0012624548
15	0xbb4d5918	-0.0031333622
16	0xbbbb022e	-0.005707047
17	0xbb418660	-0.0029529557
18	0xb33a2a95	-4.3345228e-08
19	0xb580d699	-9.599199e-07
20	0xb4a22180	-3.0199226e-07
21	0xb7396b6c	-1.105187e-05
22	0xb7e7323b	-2.7560736e-05
23	0xb73d2a84	-1.1275177e-05
24	0xb41e1f7c	-1.472635e-07
25	0xb63827ef	-2.744138e-06
26	0xb642b4e9	-2.9013556e-06
27	0xb9d32d74	-0.0004027892
28	0xba51f282	-0.0008008854
29	0xba07b845	-0.00051772996
30	0xb7a2cdef	-1.94078e-05
31	0xbb1f4e97	-0.0024308318
32	0xba120f60	-0.0005571749
33	0xba091772	-0.0005229629
34	0xba7ff4c8	-0.0009763953
35	0xb9c81dfa	-0.00038169307
36	0x3b2c7cf2	0.002631959
37	0x3c1a4f53	0.009418326
38	0xbb8a1937	-0.0042144316
39	0xbab41071	-0.001373781
40	0xbc6d89dd	-0.014498201
41	0xbc1c6144	-0.009544674
42	0xbb2aebbc	-0.002608045
43	0xbc24d7ad	-0.010061187
44	0xbb53e93b	-0.003233506
45	0xb9196c96	-0.00014631668
46	0xb91d09e6	-0.00014976374
47	0xb9ee0740	-0.000454003
48	0x38cc2068	9.733514e-05
49	0xb8b98f15	-8.8481385e-05
50	0xb988ada6	-0.0002606932
51	0xb8302ad0	-4.2001542e-05
52	0xb7a400f5	-1.955077e-05
53	0xb8f5537c	-0.000116980606
54	0x3b920dde	0.0044572195
55	0xbc03b9f8	-0.008039944
56	0xbbcdc145	-0.006279143
57	0xbb2f59b3	-0.0026756346
58	0x395d17c7	0.0002108506
59	0xb99b37fd	-0.00029605618
60	0xba44d4d7	-0.0007508522
61	0xbb56cbd8	-0.003277531
62	0x3a8b48ed	0.0010626592
63	0xb6ed9f61	-7.0817046e-06
64	0xb7bcbdc2	-2.249971e-05
65	0xb687e874	-4.0503746e-06
66	0xb93957e6	-0.0001767572
67	0xb9b9092b	-0.0003529278
68	0x37654257	1.366491e-05
69	0xb831afbf	-4.2363765e-05
70	0xb900432c	-0.00012232055
71	0xb7f5f8a3	-2.9322056e-05
72	0xb7c06b06	-2.293802e-05
73	0xbc3749a8	-0.011186995
74	0xba917877	-0.0011098523
75	0xbbfde23c	-0.0077479165
76	0xbc1bb14c	-0.00950272
77	0xbc14dc87	-0.009085781
78	0xbac559f2	-0.0015056713
79	0xbbf8f04c	-0.007597005
80	0xb9ca7cb8	-0.00038621365
81	0xbaff2c3f	-0.0019468142
82	0xbb5dc4f5	-0.003383932
83	0xbb97d697	-0.0046337354
84	0xbc051483	-0.008122566
85	0xbc3253b5	-0.010884215
86	0x3a23f525	0.0006254486
87	0xbae0b2a5	-0.0017143084
88	0xbb271afc	-0.0025498262
89	0xbb0006d6	-0.0019535325
90	0xbb1313e1	-0.0022442269
91	0xbb07cf2e	-0.0020722854
92	0xbadbb905	-0.0016763514
93	0xbb4ff223	-0.0031730018
94	0xbb5d44e6	-0.003376299
95	0xbb2e7a47	-0.0026623176
96	0xba696db6	-0.0008904593
97	0xbad1c0ed	-0.0016002931
98	0xbaa9a2a7	-0.0012942151
99	0xad128a88	-8.329899e-12
100	0xae5387c6	-4.8096437e-11
101	0x2d103792	8.197791e-12
102	0x3025bb8c	6.029317e-10
103	0xb51f927c	-5.944528e-07
104	0xb4ddfb00	-4.1347084e-07
105	0x2f9c7dda	2.8465658e-10
106	0xb00cdd8a	-5.124653e-10
107	0x2f4822c6	1.8202248e-10
108	0xb779f2f8	-1.4898127e-05
109	0xb9f58b79	-0.00046833957
110	0xb9cd27cb	-0.00039130295
111	0xb9860035	-0.00025558626
112	0xba7dca37	-0.00096813164
113	0xba6a462d	-0.00089368486
114	0xb8add511	-8.2889695e-05
115	0xb986df57	-0.00025724873
116	0xb9a02da0	-0.0003055157
117	0xa8da8eb0	-2.4264743e-14
118	0x2b6854a7	8.2540436e-13
119	0x2ab2597e	3.168125e-13
120	0xab8cbbe5	-9.99975e-13
121	0x2a46f29c	1.7670105e-13
122	0x2b7d6e4e	9.0036735e-13
123	0x2adb4677	3.895111e-13
124	0x28b85608	2.0465414e-14
125	0xa960de16	-4.993062e-14
126	0xb6930dfc	-4.3825694e-06
127	0xb75d1f26	-1.3179879e-05
128	0xb5125daa	-5.452554e-07
129	0xb7bb28bd	-2.2311107e-05
130	0xb874574b	-5.825543e-05
131	0xb73a372b	-1.1099309e-05
132	0xb82dd263	-4.1442352e-05
133	0xb8791e88	-5.939466e-05
134	0xb80a3ebb	-3.2960186e-05
135	0xb0c980a1	-1.4661233e-09
136	0xb664d42a	-3.4098143e-06
137	0xb53fdf9b	-7.1478433e-07
138	0x319a3a8d	4.4886463e-09
139	0xb718edd8	-9.115283e-06
140	0xb670f509	-3.5905416e-06
141	0xb0eace60	-1.7084396e-09
142	0xb581f0bc	-9.681312e-07
143	0xb3bdb2ab	-8.833498e-08
144	0xb8bbcdf7	-8.955219e-05
145	0xb8bd3542	-9.022142e-05
146	0xb7588627	-1.2905838e-05
147	0xb933bcd2	-0.00017141111
148	0x38557a04	5.0896793e-05
149	0xb89a5359	-7.358817e-05
150	0xb75e1986	-1.3238174e-05
151	0x3646954f	2.9591208e-06
152	0xb62b0502	-2.54839e-06
153	0xbb875955	-0.0041305223
154	0xbb76a925	-0.003763744
155	0xbaf2c56f	-0.0018521975
156	0xbb5f1f17	-0.003404563
157	0xbbc7f824	-0.0061025787
158	0xbb80fe47	-0.003936562
159	0xbb0b2b5c	-0.002123556
160	0xbb6833e2	-0.0035431315
161	0xbb03d513	-0.0020116016
162	0xba9f5126	-0.0012154921
163	0xba9b8b16	-0.0011867012
164	0xb974fa03	-0.0002336279
165	0xba6e71dc	-0.0009095946
166	0xbb04013a	-0.0020142333
167	0xba8f29e8	-0.0010922523
168	0xba10798b	-0.00055112754
169	0xba842579	-0.0010081969
170	0xb96d5309	-0.00022633014
171	0x3880c6e7	6.140564e-05
172	0xbacdda6a	-0.0015705351
173	0xba534889	-0.000805982
174	0x3b04a0b5	0.002023739
175	0x3b007217	0.0019599253
176	0x3aa61c8a	0.00126733
177	0xbaa5b7e5	-0.0012643306
178	0xbadef618	-0.0017010598
179	0xbab5c0e4	-0.001386669
180	0x39c7613c	0.00038028683
181	0x3b1d04eb	0.002395923
182	0xbac2c868	-0.0014860751
183	0xb94760db	-0.000190142
184	0x3a9d20de	0.0011987945
185	0xbb04600e	-0.0020198855
186	0xb869ccf9	-5.5742425e-05
187	0x388fb824	6.85307e-05
188	0x35a049e6	1.1942436e-06
189	0xbc045fc1	-0.00807947
190	0xbaf375ef	-0.0018574576
191	0xbb97d7ce	-0.00463388
192	0xbb0fa9ba	-0.0021921233
193	0xba1afe66	-0.0005912542
194	0xbbbb55f2	-0.0057170326
195	0xbb91eb31	-0.004453086
196	0xb9aa72cc	-0.00032510457
197	0xbb5206a1	-0.0032047408
198	0xb82c24f6	-4.1042418e-05
199	0xb9486d3e	-0.00019114182
200	0xb854536a	-5.0622424e-05
201	0xb94d68a4	-0.00019589305
202	0xb90286c9	-0.00012447977
203	0xb96dc620	-0.00022675889
204	0xb893e176	-7.0515016e-05
205	0xb9627809	-0.00021597756
206	0xb909400f	-0.00013089202
207	0xb4e95d6d	-4.3467608e-07
208	0xb85bdd21	-5.241961e-05
209	0xb5ec36f9	-1.7599369e-06
210	0xb66f985f	-3.5702467e-06
211	0xb91dab20	-0.00015036436
212	0xb8ddf73c	-0.00010584152
213	0xb6a5da1d	-4.942775e-06
214	0xb81825d6	-3.627486e-05
215	0xb62f867f	-2.615532e-06
216	0xb96aca97	-0.0002239145
217	0xbac72a2c	-0.0015195063
218	0xb9c4c155	-0.00037528077
219	0xba1001ce	-0.0005493433
220	0xba11ef9d	-0.0005567016
221	0xba583296	-0.0008247284
222	0xb92af2be	-0.00016302892
223	0xba48d4a6	-0.00076610816
224	0xba42597f	-0.00074138487
225	0xb96ba03e	-0.00022471041
226	0xb9666684	-0.000219727
227	0xb920302e	-0.00015276737
228	0xba24d8c2	-0.0006288403
229	0xbacc2004	-0.0015573506
230	0xb9fc0cd7	-0.00048074752
231	0xb9b8b0ff	-0.00035227087
232	0xba0888d7	-0.0005208379
233	0xb8e3cae8	-0.00010861998
234	0xb8f184a1	-0.000115164796
235	0xb9944fec	-0.00028288306
236	0xb920773c	-0.00015303207
237	0xb91204c8	-0.00013925426
238	0xb9fd6bc2	-0.00048336206
239	0xb9d77e82	-0.0004110225
240	0xb902ea87	-0.00012485134
241	0xb806730b	-3.205523e-05
242	0xb900ac1c	-0.00012271147
243	0xbb341166	-0.002747619
244	0x39b26f5e	0.0003403378
245	0xba77490c	-0.0009433187
246	0xba810c84	-0.0009845649
247	0xb838dac7	-4.407277e-05
248	0xbb0a217d	-0.002107709
249	0xbb2e0823	-0.0026555143
250	0xbb42dca5	-0.0029733565
251	0xbb2f7a4d	-0.0026775778
252	0x2cbf60c0	5.439288e-12
253	0x2c2cc966	2.4554469e-12
254	0xad0e8404	-8.101079e-12
255	0xae478cce	-4.537242e-11

layers.2.bias f4 [128]
0	0xbc57afa8	-0.013164438
1	0xbcf7cb6d	-0.030248368
2	0xbd6491a4	-0.055802956
3	0xab263b20	-5.90571e-13
4	0xbb825a2f	-0.003978036
5	0xbc6d7b65	-0.014494752
6	0xbca784c6	-0.020449053
7	0xbd0168ad	-0.031593967
8	0xbc655a97	-0.013998649
9	0x3c415ebf	0.011802374
10	0x3be5a9a5	0.0070087486
11	0xab1dbb59	-5.60376e-13
12	0x3d64087c	0.055672154
13	0xbb35925a	-0.002770564
14	0x2ac85f0e	3.5593094e-13
15	0xbcbf3b66	-0.023343753
16	0xbc19e88d	-0.009393823
17	0x3b5f4fe1	0.003407471
18	0xbccd980a	-0.025096912
19	0xbbeac783	-0.007164897
20	0xbc91dbef	-0.017805068
21	0xbb10083d	-0.0021977567
22	0x3c6cfd67	0.014464713
23	0xbcffc8ea	-0.031223733
24	0xbc056d56	-0.0081437435
25	0x3b20e350	0.0024549551
26	0xbbf043e0	-0.00733231
27	0xbd4fb924	-0.050713673
28	0xb0162203	-5.4618016e-10
29	0x3d0cf3e6	0.034412287
30	0x3d82f42d	0.06394229
31	0xb7571cfd	-1.2821748e-05
32	0x3d205fbd	0.039153803
33	0x3c08c5d2	0.008347945
34	0xbb3c604d	-0.0028743923
35	0x3c610fdb	0.01373669
36	0x3b91d2f1	0.004450195
37	0xbcf1deeb	-0.02952524
38	0xbc95712a	-0.018242437
39	0x3bd02e8f	0.0063532065
40	0xb96649fa	-0.00021962068
41	0xbb375481	-0.0027973952
42	0xbcc409c5	-0.02393044
43	0xbc7f9983	-0.015600565
44	0x3d80a1fc	0.06280896
45	0xabc937fa	-1.4297446e-12
46	0x2b681f3a	8.2466293e-13
47	0xbb0131b7	-0.001971347
48	0xbd2b4572	-0.041814275
49	0xbd28a99a	-0.04117737
50	0x3c2035f1	0.009778486
51	0x3d14ddb9	0.036344264
52	0xbc1536a0	-0.009107262
53	0xbcfeb6ab	-0.031092962
54	0x3d011379	0.03151271
55	0xbc99f7ed	-0.018794978
56	0x3b34d996	0.0027595512
57	0x3ce36247	0.027756823
58	0xbcc726a5	-0.02431042
59	0xbcec814d	-0.02887025
60	0xbce076de	-0.02740043
61	0xbc324568	-0.010880806
62	0x3b22bd1f	0.0024831963
63	0x3c352fa8	0.011058725
64	0x3d8cc54f	0.06873571
65	0x3d459e5f	0.048246738
66	0x3a7bc588	0.00096043246
67	0xbb74a4fc	-0.0037329784
68	0xbcd995b4	-0.026560642
69	0xbc3284d5	-0.010895927
70	0x3c03014a	0.007995913
71	0x3d80fbad	0.06298003
72	0x398c82d6	0.0002680036
73	0x3d114efa	0.03547571
74	0x3d767696	0.060171686
75	0x3b2d40f4	0.002643642
76	0x3b7aa8dc	0.003824762
77	0xaa5d87da	-1.9675876e-13
78	0xb990d494	-0.00027624203
79	0xbc1456d3	-0.009053904
80	0xbc7c9599	-0.015416526
81	0x3d133d07	0.035946872
82	0xb73b4502	-1.1162136e-05
83	0x3c4efbbe	0.012633262
84	0x3d82f51e	0.06394409
85	0x3c873be4	0.01650805
86	0xbd4f9d44	-0.05068709
87	0x3cac7f53	0.021056807
88	0xbcd5587d	-0.026043171
89	0x3d72c24c	0.059267327
90	0xb9158cd1	-0.00014262206
91	0x3b1998c9	0.0023437014
92	0xbacf3727	-0.0015809283
93	0x3c0e8eb3	0.008701014
94	0x3c0f0b69	0.008730748
95	0xbc146b29	-0.009058752
96	0xbb51a034	-0.0031986358
97	0xb2393730	-1.07809655e-08
98	0xbbc42681	-0.0059860353
99	0xbca89ce5	-0.020582626
100	0xbbb7a7b9	-0.005604711
101	0xbb82e506	-0.003994587
102	0x3ca8f90c	0.020626567
103	0xbb1355d4	-0.0022481577
104	0xb84f3970	-4.940614e-05
105	0x3c7445f9	0.014909261
106	0x3a5c27c3	0.0008398259
107	0xbd180a87	-0.037119415
108	0xbd088816	-0.033332907
109	0x39d4ecd6	0.00040612248
110	0xbb6736e8	-0.003528053
111	0x3d53c569	0.051701937
112	0xbc239112	-0.009983318
113	0x3b1fdc49	0.0024392775
114	0xbc8ef1db	-0.01744931
115	0x3ca796d5	0.020457665
116	0x3c18df8d	0.009330642
117	0x3aab67fe	0.0013077257
118	0xbb9ea65b	-0.0048416085
119	0x3b98d06d	0.004663518
120	0x3c86c5d1	0.016451748
121	0x3ccd96ea	0.025096375
122	0x3ae666c1	0.001757823
123	0xbaf4654a	-0.0018645909
124	0x3ab5f92c	0.0013883463
125	0x3d0a9d77	0.033841576
126	0x3d549161	0.051896457
127	0x3c6e6cc2	0.014552297

layers.3.weight f4 [2, 128, 1, 1]
0	0x3cb96dbd	0.022635335
1	0x3d10b115	0.03532513
2	0x3d10ba63	0.035334002
3	0x2bde5958	1.5798847e-12
4	0xbd116834	-0.035499766
5	0x3cc8a23f	0.024491427
6	0xbb895601	-0.0041911607
7	0x3c312a1c	0.010813262
8	0x3d0d1f3a	0.034453608
9	0xbdb3d6e8	-0.087812245
10	0xbd7ca74f	-0.061682995
11	0xaac23754	-3.4499714e-13
12	0xbe1bcab5	-0.15214045
13	0xbd2e317f	-0.042527672
14	0x2b754121	8.713187e-13
15	0xb97794e0	-0.00023611216
16	0xbc0c2a67	-0.008555031
17	0xbd0a3019	-0.033737276
18	0xbce2071c	-0.02759128
19	0xbc91fd4f	-0.017820982
20	0xbd988551	-0.07447303
21	0x39de39e1	0.00042386263
22	0xbd197a60	-0.03747022
23	0xbd2bc841	-0.041939024
24	0xbd3b09cb	-0.045663636
25	0x3c688186	0.014191037
26	0x3c0e7db9	0.008696967
27	0x3c203f03	0.009780648
28	0xab8e16ac	-1.0096e-12
29	0xbe146fc8	-0.14495766
30	0xbdcbeedd	-0.09957669
31	0x2c2d7975	2.46522e-12
32	0xbe153b3a	-0.14573374
33	0x3ca676fd	0.02032041
34	0x3cb9f6e2	0.02270073
35	0x3ce99cce	0.028517153
36	0x3ca6b31b	0.020349076
37	0x3b7ba6fc	0.003839909
38	0xbd3841f7	-0.044984784
39	0xbdb677c7	-0.089095645
40	0xab2ec325	-6.2088035e-13
41	0xbda72e0b	-0.08163079
42	0x3cf8a102	0.030350212
43	0xbd292ec8	-0.04130438
44	0xbdf7944f	-0.120888345
45	0xaaa6645c	-2.9557162e-13
46	0x3a283622	0.0006416758
47	0xbd45c775	-0.04828592
48	0xbd777a04	-0.060419098
49	0x3cd9e823	0.02659995
50	0x3d3b73e0	0.045764804
51	0xbdb39807	-0.08769231
52	0x3bec148a	0.007204597
53	0x3cf09e70	0.029372424
54	0xbd4173cb	-0.04722957
55	0xbc8e5952	-0.017376576
56	0x3c5e061a	0.013551259
57	0xbdb27ede	-0.08715604
58	0xbc8fb0db	-0.017540386
59	0x3cdc770b	0.026912233
60	0xbd17b966	-0.037042044
61	0xba4a6742	-0.0007721075
62	0xbcc148c6	-0.023594271
63	0xbced548b	-0.028970977
64	0xbd85db06	-0.06535916
65	0xbddba3ac	-0.10724577
66	0xbcc825cd	-0.024432087
67	0xbd9207b9	-0.07130379
68	0x3cab06d7	0.020877285
69	0xbc867c7d	-0.016416783
70	0x3d20cae5	0.039255995
71	0xbdde0fce	-0.10842858
72	0xbc9dd23b	-0.019265285
73	0xbdc9c2bf	-0.09851598
74	0xbe01d037	-0.12677084
75	0xbb2c1634	-0.0026258351
76	0x3cd522da	0.026017595
77	0xa9166170	-3.3391204e-14
78	0xbce88c78	-0.028387293
79	0xbcef591a	-0.029217292
80	0xbd16edb0	-0.03684777
81	0xbda0a7f8	-0.078445375
82	0xab525e0c	-7.4737504e-13
83	0xbd67edaa	-0.05662314
84	0xbdf3320a	-0.118747786
85	0xbd5d0f09	-0.053969417
86	0x3d2ff1b0	0.0429551
87	0x3cc8453c	0.024447076
88	0xbd81e4b8	-0.06342453
89	0xbe12a1d8	-0.14319551
90	0x2f09fc97	1.2549815e-10
91	0xbdd6c039	-0.10485882
92	0x395d8dd0	0.00021129032
93	0xbde862f4	-0.11346999
94	0x3a5f7a5a	0.00085250067
95	0x3cb90726	0.022586416
96	0xbd4fc159	-0.0507215
97	0xbb2aff69	-0.0026092178
98	0x3b748efb	0.0037316668
99	0xbd878080	-0.06616306
100	0xbc46c473	-0.012131798
101	0x3cc5b9c0	0.024136424
102	0xbd2f74dd	-0.04283606
103	0xbc9a3a81	-0.018826725
104	0xac5a1fd8	-3.099734e-12
105	0xbd7e8810	-0.062141478
106	0xbd8a3d64	-0.067499906
107	0xbd902d45	-0.070398845
108	0xbcb0f4b0	-0.021601051
109	0xb9b2a881	-0.0003407635
110	0x3d249ea3	0.04019035
111	0xbe151635	-0.14559253
112	0x3c5b7afe	0.013396023
113	0xbd0fcdd7	-0.035108414
114	0xbc5d88aa	-0.013521353
115	0x3d0ab43d	0.033863295
116	0x3beb3ae2	0.0071786502
117	0x3d12b8c4	0.035820737
118	0xb80afc5f	-3.3136803e-05
119	0xbcf74b05	-0.03018714
120	0xbd505112	-0.050858565
121	0xbc8a425c	-0.016877346
122	0xbc659fd1	-0.014015154
123	0xbba2613b	-0.0049554384
124	0xbb5fd456	-0.0034153662
125	0xbd134d78	-0.03596255
126	0xbe026c40	-0.12736607
127	0xbd3df9fe	-0.04638099
128	0x3b87f942	0.004149587
129	0xbd3ce1d2	-0.046113797
130	0xbb1e15ca	-0.0024121874
131	0x2a88b0dd	2.4281177e-13
132	0xbc6f170f	-0.0145929
133	0x3ce369c6	0.027760398
134	0xba910459	-0.0011063918
135	0xbd71fcf1	-0.059079114
136	0x3d59c034	0.053161815
137	0x3cc8af85	0.024497757
138	0xbce2dd99	-0.027693557
139	0xabf6a148	-1.7524116e-12
140	0xbc37ff96	-0.01123037
141	0xbc8abbd9	-0.016935276
142	0xaa71c350	-2.1472863e-13
143	0x3cba99f3	0.022778487
144	0xbbc6ca9e	-0.0060666343
145	0xbc80b338	-0.015710458
146	0x3b58ed79	0.003310053
147	0xbbc9ca05	-0.006158116
148	0xbd3e9e02	-0.046537407
149	0x2a6bc03b	2.0938886e-13
150	0x3d1625b7	0.03665706
151	0x3cb857cc	0.022502802
152	0x3d4eebe8	0.050517946
153	0xbd25b18d	-0.04045253
154	0xbda41954	-0.080126435
155	0xbb94123d	-0.0045187757
156	0x2b21ef34	5.753065e-13
157	0xbb9d27d3	-0.004796007
158	0xbd2772cf	-0.040880974
159	0x29e75d0a	1.02746005e-13
160	0xbda4a72f	-0.080397
161	0xbc8c5eca	-0.017135043
162	0x3b32c418	0.0027277526
163	0xbd861653	-0.06547227
164	0xbc9fb8bb	-0.019497266
165	0xbd83d55c	-0.064371794
166	0x3d24945e	0.040180556
167	0x3d1c7ed6	0.038206898
168	0x2b663cce	8.17968e-13
169	0x3d2672b5	0.040636737
170	0xbb8fa875	-0.0043840953
171	0xbc8ebfa0	-0.017425358
172	0xbd40550d	-0.04695611
173	0x2ad6642b	3.8083542e-13
174	0x2bc815dd	1.4216923e-12
175	0xbd022a29	-0.03177849
176	0x3cbd5794	0.02311305
177	0xbd1af1f9	-0.03782842
178	0x3beb43de	0.0071797213
179	0xbdf6bfd7	-0.12048309
180	0xbd6c9524	-0.05775942
181	0x3c06b928	0.008222856
182	0xbd36dfe7	-0.044647124
183	0xbc80d498	-0.015726373
184	0x3b9dc7a0	0.004815057
185	0xbdc8cd0f	-0.09804737
186	0xbd0cc520	-0.03436768
187	0x3cd9b4fe	0.026575562
188	0xbbaf48bf	-0.005349248
189	0xbcfd738d	-0.030938888
190	0xbd7d340f	-0.061817225
191	0x3c855f56	0.016280811
192	0xbded2803	-0.11579897
193	0xbd23f005	-0.040023822
194	0xbd057969	-0.03258649
195	0x3c9435a7	0.01809199
196	0xbce975da	-0.028498579
197	0xbdc05ae7	-0.09392338
198	0xbd9da5bb	-0.07697626
199	0x3d349a64	0.04409255
200	0xbd96dd1b	-0.07366391
201	0xbc3d17cb	-0.011541317
202	0xbd37347b	-0.044727784
203	0xbd43d0f6	-0.047806703
204	0x3cd94eae	0.026526775
205	0xabd6803b	-1.5241206e-12
206	0xbcc4c597	-0.02402
207	0x3cb60c7b	0.022222748
208	0x3d1d5a1b	0.03841601
209	0xbdf00508	-0.1171971
210	0xac111802	-2.0619066e-12
211	0xbdb9df95	-0.09075848
212	0xbab20588	-0.0013581971
213	0xbd1c65eb	-0.038183134
214	0x3ca20b6f	0.019780843
215	0xbd21a58e	-0.039464526
216	0xbc83511c	-0.016029887
217	0x3d337820	0.043815732
218	0xa8ea2dd1	-2.5999088e-14
219	0xbd14628b	-0.03622679
220	0x29f8ea18	1.1054021e-13
221	0xbd81d7f3	-0.06340017
222	0xbd0df70c	-0.03465943
223	0x3b8e0f78	0.00433534
224	0xbcb20ed4	-0.021735586
225	0x300fe662	5.235049e-10
226	0xaaeb99f3	-4.185121e-13
227	0xbc01278e	-0.007882966
228	0xbb21ede8	-0.0024708454
229	0xbd13a1c8	-0.03604296
230	0x3cd1bc0c	0.025602363
231	0xbd137f0a	-0.036009826
232	0xaaa25504	-2.8835972e-13
233	0xbcc4a2e9	-0.024003463
234	0xbcb54300	-0.022126675
235	0x3ca0a8f7	0.019611819
236	0xbd39fbc6	-0.045406125
237	0xbcef3b8a	-0.029203195
238	0xbc662919	-0.014047884
239	0xbc1df35d	-0.009640542
240	0xbd92af17	-0.07162302
241	0xbc5a27ee	-0.013315184
242	0x3c882dd0	0.016623408
243	0xbd46c5de	-0.048528545
244	0x3a235e44	0.0006232003
245	0xbbe8e6e4	-0.0071076024
246	0xbb2caa20	-0.002634652
247	0x3a9b30eb	0.001184014
248	0xbd46c335	-0.048526008
249	0xbdbb5469	-0.09146959
250	0xbaad5fc5	-0.0013227394
251	0xbd6034a8	-0.054737717
252	0xb95889c6	-0.0002065069
253	0xbd9166f7	-0.07099717
254	0xbb39f051	-0.0028372
255	0x3ca6860e	0.020327594

layers.3.bias f4 [2]
0	0x3d7328dc	0.05936514
1	0xbd97b31d	-0.0740721

act_fc1.weight f4 [64, 72]
0	0xbd5809e0	-0.052743793
1	0xbdaa76ec	-0.08323464
2	0xbd1a4f13	-0.037673067
3	0x3c5c8651	0.013459758
4	0xbda90513	-0.08252921
5	0x3d0d8df4	0.034559205
6	0x3d3454cb	0.044026177
7	0xbd4ab499	-0.049488638
8	0xbde0a527	-0.10969
9	0x3d2262b3	0.03964491
10	0x3d43b174	0.047776654
11	0xbd4c599e	-0.049890153
12	0x3d22d9d3	0.039758515
13	0x3d52e573	0.05148835
14	0xbdeeaec8	-0.11654431
15	0x3c78a77f	0.015176653
16	0x3cb30cba	0.021856654
17	0xbd9d0c3b	-0.076683484
18	0xbb7f38ef	-0.0038943847
19	0x3d1db6f6	0.038504563
20	0xbb836e98	-0.0040109865
21	0x3d1bd91f	0.03804886
22	0x3d309c4c	0.043117806
23	0xbd28b99f	-0.041192647
24	0x3bfdd5ff	0.0077464576
25	0x3cca3b1c	0.024686389
26	0xbdb13778	-0.08653158
27	0xbdbcf036	-0.09225504
28	0xbd7e2bff	-0.062053677
29	0x3ce195fa	0.027537335
30	0x3ce8719e	0.02837449
31	0xbd4fc8b5	-0.05072852
32	0x3d0736c9	0.03301123
33	0x3c920208	0.017823234
34	0xbb71dd63	-0.0036905638
35	0xbd5bc867	-0.053657915
36	0xbc0b79b0	-0.008512899
37	0x3c30b2a7	0.010784782
38	0xbc92e11e	-0.01792961
39	0xbc0c0d4b	-0.008548091
40	0xbbcb7cac	-0.0062099304
41	0xba1656c2	-0.0005734974
42	0xbcd9dd7f	-0.026594875
43	0xbd20046d	-0.03906672
44	0xbb89d419	-0.004206192
45	0x3c357624	0.01107553
46	0x3c42b5d6	0.011884173
47	0xbbc062d5	-0.0058711567
48	0xbd1395a3	-0.036031377
49	0xbd29e103	-0.041474354
50	0xbbdbd104	-0.006708266
51	0xbd4bb11a	-0.049729444
52	0xbaf6a555	-0.0018817583
53	0xbc2c7069	-0.010524848
54	0xbc712601	-0.0147185335
55	0xbaca51c3	-0.0015435744
56	0x3cbb7309	0.022882001
57	0x3ca3686d	0.019947255
58	0x3cb37e0a	0.021910686
59	0xbcb48da5	-0.022040198
60	0xbc280f74	-0.010257591
61	0x3c290488	0.010316022
62	0xbc9bded4	-0.019027151
63	0xbc3999de	-0.011328189
64	0xbd1ea878	-0.038734883
65	0xbc1d0238	-0.0095830485
66	0xba4e6738	-0.0007873657
67	0xbc12b584	-0.0089544095
68	0x3c85dfd3	0.01634208
69	0x3b914920	0.004433766
70	0xbc941181	-0.018074753
71	0xbb2cfd0b	-0.0026395943
72	0xbccf6b5a	-0.025319744
73	0xbd5b9c1d	-0.053615678
74	0x3cde9ca9	0.02717431
75	0xbcc4f49b	-0.024042418
76	0xbc3b88ef	-0.011446222
77	0x3c550101	0.013000728
78	0x3c909fea	0.017654378
79	0xbc4ec975	-0.012621273
80	0x3c97d30c	0.018533252
81	0x3c08c6ee	0.00834821
82	0xbd6fb12d	-0.058518577
83	0x3c2f8d6e	0.010714872
84	0xbcd1a270	-0.025590152
85	0x3aa0dc28	0.0012272643
86	0xbd91050e	-0.07081042
87	0xbb9abcd5	-0.0047222176
88	0xbb8dd746	-0.004328641
89	0x3cbfa438	0.023393735
90	0xbce7691a	-0.028248359
91	0x3d223a24	0.03960623
92	0xbd1d99c3	-0.038476717
93	0xbd7e75c7	-0.06212404
94	0xbd91b37b	-0.07114311
95	0x3c9ed87d	0.019390339
96	0x3c9f9bc5	0.019483456
97	0xbd50cc26	-0.05097594
98	0xbd77e0c5	-0.06051709
99	0xbd413610	-0.0471707
100	0x3c803eb2	0.015654895
101	0x3c04d76b	0.008108
102	0xbb9bcda1	-0.0047547375
103	0x3bc17c92	0.0059047425
104	0xbc7c0a4b	-0.015383313
105	0xbd37162a	-0.04469887
106	0x3bd84792	0.0066003287
107	0xbb5a7545	-0.0033334058
108	0x35194b05	5.710611e-07
109	0xb87bd137	-6.003791e-05
110	0x3810eeac	3.4554556e-05
111	0xb8998aad	-7.321439e-05
112	0xb65840c3	-3.2224204e-06
113	0xb017a83c	-5.5172555e-10
114	0x39f09db5	0.00045893868
115	0xbb2924a0	-0.0025809184
116	0x3aeeaa4f	0.0018208715
117	0xbb305b78	-0.0026909988
118	0xbac51fda	-0.00150394
119	0x3653f87a	3.1586083e-06
120	0xbaa169fc	-0.0012314911
121	0xbba55044	-0.005044969
122	0x3b591610	0.0033124723
123	0xbbf8c9c8	-0.0075924136
124	0xbb88dd53	-0.0041767745
125	0x35e05a3b	1.6715561e-06
126	0xba8a755f	-0.0010563544
127	0xbb28a543	-0.002573327
128	0xbbaaf18d	-0.0052167834
129	0x3b8d3b57	0.0043100524
130	0xbae36a79	-0.0017350457
131	0xb7a3f980	-1.9547297e-05
132	0xb88c8d66	-6.702058e-05
133	0xbb3acaeb	-0.0028502296
134	0xbb6c4c56	-0.0036056242
135	0x3aab21fe	0.0013056395
136	0x3ac17243	0.0014758784
137	0xb7c470c0	-2.3417524e-05
138	0x38042a3b	3.1510583e-05
139	0xb9a9e43d	-0.00032404243
140	0xbab3d469	-0.0013719919
141	0x39da17fa	0.00041598064
142	0xb916859a	-0.00014354885
143	0x32430c43	1.1353282e-08
144	0x3b7d4e0c	0.0038651256
145	0x3c2457d4	0.0100307055
146	0x3ca6c6c7	0.020358456
147	0x3b8a724f	0.0042250524
148	0xbb7d8c21	-0.003868826
149	0xbab029f1	-0.0013440234
150	0x3b4e28cb	0.003145742
151	0x3ba5720d	0.0050489963
152	0x3b5fe1c3	0.0034161664
153	0x3be80556	0.007080714
154	0x3be17e91	0.006881543
155	0x3b228ebf	0.0024804322
156	0x3c471797	0.01215162
157	0x3cb96047	0.022628916
158	0x3c517586	0.012784367
159	0x3ca0a128	0.019608095
160	0xbc46146c	-0.01208983
161	0xbc0aa14b	-0.008461307
162	0x3b1384ce	0.0022509578
163	0x3c5bb9af	0.01341097
164	0x3b495b3b	0.0030724544
165	0x3d0bd60d	0.03413968
166	0x3cefdba1	0.029279532
167	0xbb548d14	-0.0032432722
168	0xbb04ebaf	-0.002028208
169	0x3cd4b3fa	0.025964726
170	0x3c04b134	0.008098889
171	0xbc05db1c	-0.0081699155
172	0x3bd799fe	0.0065796366
173	0xba323f9f	-0.00067996414
174	0x3850623e	4.968256e-05
175	0xbb8eb780	-0.004355371
176	0xb9ab7fa4	-0.0003271076
177	0x3b33bc02	0.0027425294
178	0x3b5c0954	0.0033574896
179	0x399dfe23	0.0003013472
180	0x324e2b0a	1.2000564e-08
181	0xb717dccf	-9.051712e-06
182	0x37c13bfe	2.3035329e-05
183	0xb8961863	-7.1571e-05
184	0x35218ba0	6.0180355e-07
185	0x2e450419	4.4796254e-11
186	0xb8389a98	-4.4012995e-05
187	0x3ac90c8b	0.0015338821
188	0xbb439524	-0.0029843533
189	0xbb316666	-0.002706909
190	0xba9e9c31	-0.0012100992
191	0xb7246d46	-9.800604e-06
192	0xb9ab35f5	-0.00032655863
193	0x3b10d234	0.0022097947
194	0xbbd13808	-0.0063848533
195	0xbbcf25f9	-0.0063216654
196	0xba6025a8	-0.0008550533
197	0xb83d7972	-4.5174216e-05
198	0x39d9446c	0.00041440444
199	0x3b5792c1	0.0032893869
200	0xbab35229	-0.0013681102
201	0xbb86e182	-0.004116238
202	0xbb071c01	-0.0020616057
203	0xb8f3c12e	-0.000116231255
204	0xb985a202	-0.00025488442
205	0x3ab401a1	0.0013733396
206	0xbb718744	-0.0036854306
207	0xbace9a75	-0.0015762585
208	0x3abe47c6	0.001451724
209	0x382825f7	4.008968e-05
210	0xb5187f12	-5.6809324e-07
211	0xb7ded0fa	-2.6561775e-05
212	0xb96cb4a1	-0.00022574003
213	0xb991eb8e	-0.00027832057
214	0xb8090f38	-3.267752e-05
215	0x340393e2	1.2254125e-07
216	0x2c34b900	2.5682234e-12
217	0x2c3f970f	2.7226587e-12
218	0xab853222	-9.464133e-13
219	0x2afe01d4	4.5120732e-13
220	0xaa2cdc8c	-1.5353186e-13
221	0x2a4caa0c	1.8177837e-13
222	0xab5925e9	-7.71465e-13
223	0xac151326	-2.1184803e-12
224	0x2b944b1c	1.053688e-12
225	0xaa6bb942	-2.0936467e-13
226	0x2b23705a	5.806515e-13
227	0x2a290da3	1.5014946e-13
228	0x2bffb19e	1.8168138e-12
229	0xbaab739e	-0.0013080721
230	0xabe51d1c	-1.6279508e-12
231	0x286b5130	1.3062725e-14
232	0x2a92b85d	2.6062738e-13
233	0x28b85c00	2.0468002e-14
234	0xac1068ba	-2.0521766e-12
235	0xac0082a1	-1.8262408e-12
236	0xa9935b14	-6.543911e-14
237	0x2b6ffc15	8.525969e-13
238	0x2ad56c0c	3.7911373e-13
239	0xaa09147c	-1.2175151e-13
240	0xac2b67be	-2.435815e-12
241	0x2a01f2e0	1.1541766e-13
242	0xaae8eab5	-4.137434e-13
243	0xab85135e	-9.455594e-13
244	0x2b7e33e4	9.031094e-13
245	0xaad89b89	-3.8477232e-13
246	0x2c4ea5ae	2.9366331e-12
247	0xab81d51d	-9.225152e-13
248	0x2b44b549	6.988477e-13
249	0x2b80d973	9.155301e-13
250	0xab923ba8	-1.0390482e-12
251	0x2beb1c2a	1.6705571e-12
252	0x2b6ba2e6	8.371484e-13
253	0xabd95668	-1.544276e-12
254	0xac39a242	-2.6380152e-12
255	0xabc83480	-1.4225426e-12

act_fc1.bias f4 [64]
0	0xbcbb1a33	-0.022839641
1	0xbd409af8	-0.04702279
2	0xbbb95f51	-0.0056571146
3	0xbdaee382	-0.085394874
4	0xbc959168	-0.018257812
5	0xbc327f59	-0.01089462
6	0xba95f388	-0.0011440376
7	0xba0b082e	-0.0005303648
8	0xbccfa569	-0.025347428
9	0xbc5d3895	-0.01350226
10	0xb9352262	-0.00017274314
11	0xbd80f651	-0.06296981
12	0xbdc9ac6d	-0.09847341
13	0xbd3c0a4b	-0.045908254
14	0xbd1be7cf	-0.038062867
15	0xbc00ef9c	-0.007869627
16	0xbd67fa2e	-0.056635074
17	0xbdaf77e8	-0.08567792
18	0xbd8236de	-0.06358121
19	0xbd4b7c66	-0.049679182
20	0xbd756a0e	-0.059915595
21	0xbc55e94a	-0.013056109
22	0xbc69f9ed	-0.014280778
23	0xbd543379	-0.0518069
24	0xbcb2d949	-0.021832125
25	0xbc284d82	-0.010272386
26	0xbd55ed6d	-0.05222838
27	0xbd8c1061	-0.068390615
28	0xbb53d89a	-0.003232515
29	0xbd24a2a8	-0.040194184
30	0xbaf94c07	-0.001901985
31	0xbcd15454	-0.025552906
32	0xbd265573	-0.040608834
33	0xbdf99cfd	-0.12188146
34	0xbbb2ab55	-0.0054525533
35	0xbc60d31f	-0.01372221
36	0xbd3523ad	-0.044223476
37	0xbd800c04	-0.06252292
38	0xbc2b831a	-0.010468269
39	0xbb25e75f	-0.002531491
40	0xb45be092	-2.0477663e-07
41	0xba753ba1	-0.00093548937
42	0xbd2861e6	-0.04110899
43	0xb9ba15ea	-0.00035493012
44	0xbd1ee4a8	-0.038792282
45	0xbe13284f	-0.14370845
46	0xb95d43db	-0.0002110148
47	0xbcf0b958	-0.029385254
48	0x3d9a71b4	0.075412184
49	0xbb8f5d23	-0.0043751164
50	0xbb19f932	-0.002349448
51	0xbd1933b4	-0.037402824
52	0xbd1f54f7	-0.03889939
53	0xbad7f4c3	-0.0016476143
54	0xbb3774bb	-0.002799316
55	0xbd087dad	-0.03332298
56	0xbcbe61ec	-0.023240052
57	0xbd0ad012	-0.033889838
58	0xbd3e8912	-0.04651744
59	0xbe5b4384	-0.21412474
60	0xb751b023	-1.2498381e-05
61	0xbc22a1fa	-0.009926314
62	0xbd3ab31f	-0.04558098
63	0xbbee8621	-0.007279173
