AlphaZero_Gomoku/model/current_policy.model (torch, 426677 bytes, 15 tensors)

layers.0.weight f4 [32, 4, 3, 3]
000000 7a 9d bc be 88 28 08 bf 5c d8 1d 3f f9 07 92 3d
       -0.36838895 -0.53186846 0.61658263 0.07130427
000010 1d fb 3f be ba f5 a6 be b0 83 44 bd 1f 84 bb 3e
       -0.18748136 -0.3260935 -0.04797715 0.36624238
000020 b0 23 ad be 74 f8 d4 3e 97 d7 22 3e 6d 9f 0b bd
       -0.3381629 0.41595805 0.15902553 -0.034087587
000030 b2 da 4f 3e bc 3d 48 bd a5 6b 58 3e 29 bc 10 3e
       0.2029827 -0.048887 0.21134813 0.14134277
000040 37 9e 27 3e 2f 58 ba 3e ef a7 07 be 82 83 17 be
       0.16368948 0.36395404 -0.13247655 -0.1479626
000050 a6 e4 8c bd eb be 25 bd 1c 8b 2d 3e dc a0 22 be
       -0.06879549 -0.040465277 0.16947597 -0.15881675
000060 35 71 7d be 9a d1 ee bc d2 a9 a6 bd 41 f2 4a be
       -0.24750216 -0.02915268 -0.081378594 -0.19818975
000070 f7 1b c7 bd 6c c6 98 be 68 f8 f1 3d e6 fc 4b 3e
       -0.09722131 -0.29838884 0.11814958 0.19920692
000080 0c b1 27 3e 75 3a 66 bd b1 87 52 3c 43 c4 33 3e
       0.16376132 -0.056208093 0.012849734 0.17555337
000090 2d 1f a5 3e 14 3f 36 bf 04 7f b9 3e cd 96 d1 bd
       0.32250348 -0.7119 0.36229718 -0.10233841
0000a0 50 6a ec bc b1 d7 81 be ea 3a 8a 3e 65 5c 57 bf
       -0.028859288 -0.25359872 0.26998073 -0.8412536
0000b0 ca 15 31 3e 96 01 80 3e dd 34 4e be 57 ba ac bc
       0.17293468 0.2500121 -0.20137353 -0.021084948
0000c0 55 e2 c1 3e 55 35 9a bd 0b fe 4e 3e 4e 53 db 3e
       0.3786799 -0.075297035 0.20214097 0.42836994
0000d0 f0 bd c8 bd b2 bb a7 3e d0 01 e5 3d f8 df ec bc
       -0.09801853 0.32760388 0.11181986 -0.02891539
0000e0 d8 66 f0 3c 48 78 e6 3d c7 53 d0 bd 57 94 04 bd
       0.029345915 0.112534106 -0.10172229 -0.03236803
0000f0 42 69 99 be 2e 5b ce 3d 13 87 82 3c 02 6a 15 3e
       -0.29963118 0.10075985 0.015933549 0.1459122
000100 9b a4 98 bd 49 73 eb bc be 58 32 3e 7f 42 68 3d
       -0.07453271 -0.028741496 0.17416665 0.05670404
000110 04 71 7a bd 3c d0 b0 bd dd 36 0c bd 56 a3 fc 3d
       -0.061142936 -0.086334676 -0.03423201 0.12335841
000120 95 b2 5c 3e eb 4e f3 3e 60 70 a5 3e 64 77 2f be
       0.21552499 0.47521147 0.32312298 -0.17135388
000130 4a f2 00 3e cf 5f c9 3d 52 8a 31 be e2 24 f8 be
       0.12592426 0.09832727 -0.17337921 -0.4846564
000140 94 d3 ee 3d 36 c1 aa 3e 01 93 6d 3e ac 39 a1 3e
       0.11661449 0.33350533 0.23200609 0.31489313
000150 8f e3 22 be ed 00 5a 3e a6 e0 4b 3e 2e 2d e2 be
       -0.15907119 0.21289416 0.19909915 -0.44175094
000160 92 12 98 3c c5 ef 62 bd d7 b3 c7 bd d7 d1 61 3d
       0.018563543 -0.055404443 -0.097510986 0.05513176
000170 83 8a 2d 3d 24 81 75 3c 90 18 14 be bf bb 55 3d
       0.042368423 0.014984403 -0.14462495 0.052181
000180 aa 18 5c 3d 1c f3 75 3d 70 c5 7f 3e f5 35 59 3c
       0.05373446 0.0600463 0.2497766 0.013257493
000190 d7 71 13 be ad ce 44 be 55 7d 77 bd 01 06 2a be
       -0.14398895 -0.19219466 -0.06042226 -0.16603853
0001a0 00 9f 01 be fd 51 ad bd cc 9e 61 be 4e 7e 94 bd
       -0.1265831 -0.08462904 -0.22033232 -0.07250653
0001b0 e9 18 7b 3c 24 6a 8c be 41 f9 2d bd ae 52 5d 3d
       0.015325763 -0.2742473 -0.042474035 0.054033928
0001c0 60 ff c5 bd 49 df 83 3e 2f aa d4 3e 7f 84 8f 3e
       -0.096678495 0.2575629 0.4153609 0.28030774
0001d0 ea 60 62 be df cc b6 3e 43 b6 b0 be 1e 0b 39 3d
       -0.22107282 0.3570318 -0.34514055 0.045176618
0001e0 91 3a ab 3e f9 9b 39 bf 6f 56 18 bd 81 63 d7 3e
       0.3344312 -0.7250362 -0.037191804 0.42068103
0001f0 55 67 c9 be bf a6 9f 3d 07 17 a5 bd a9 62 65 bd
       -0.3933665 0.07795476 -0.08061033 -0.056002293
000200 74 92 a5 be c2 c8 94 bd ec d3 5a be f6 73 af 3d
       -0.32338297 -0.07264854 -0.21369904 0.0856704
000210 6b 69 00 be 33 5a 3b be ff 7f c6 3d 78 18 12 be
       -0.12540214 -0.18296127 0.09692382 -0.14267147
000220 7f 9b 2e be ba 75 1c be 33 c1 d3 3c a2 53 05 3b
       -0.17051505 -0.15279284 0.02584896 0.0020344038
000230 69 a0 6c be c2 54 84 bc 71 54 0b 3e 9c 18 59 be
       -0.23108067 -0.016153697 0.1360643 -0.21200794
000240 18 ac f3 be 03 2d 7e 3d 9e d5 ae be db 76 d6 bd
       -0.47592235 0.062054645 -0.34147352 -0.10471889
000250 ed 71 26 be 0f 9b dc 3b e1 c2 86 bd 92 4b 8e 3e
       -0.16254397 0.0067323516 -0.06580139 0.2779203
000260 c2 05 da be 4b 80 af 3c 92 9c c0 be a7 e3 10 be
       -0.42582518 0.02142348 -0.37619454 -0.14149342
000270 dd fe 10 3d 1e 11 a3 3e 91 a6 22 3e c6 96 ef 3d
       0.035399307 0.31848997 0.15883853 0.116986796
000280 9a 42 9f 3e e3 de 1c 3e ff 2d cc 3b 28 97 06 be
       0.311055 0.153194 0.006231069 -0.13143599
000290 54 25 30 3e c9 1e f5 3d a6 50 13 bd 7a e1 da bc
       0.1720174 0.119687624 -0.035965584 -0.026718844
0002a0 aa 8c 3f 3e 37 a7 19 be 81 4e b9 bc 84 d8 d6 bb
       0.18706003 -0.15005194 -0.022620441 -0.0065565724
0002b0 f1 4f 07 be 8f ad 13 bd a6 cb 5a 3d 16 34 32 be
       -0.13214089 -0.03605419 0.05341687 -0.17402682
0002c0 64 ce 65 be 9f 9c 48 bd e2 f5 26 3d 40 c0 33 3d
       -0.22442013 -0.04897749 0.040761836 0.043884516
0002d0 ee 87 29 be 42 11 d9 3e 1e 2b f1 3d 2e b7 5e 3e
       -0.1655576 0.4239598 0.11775802 0.21749565
0002e0 b1 0f 80 be d4 e2 23 be 9d a7 ee bd 0b 8e ca 3d
       -0.25011972 -0.16004497 -0.116530634 0.09890374
0002f0 57 54 1b bd 53 2f 9f be bf 02 3a 3e 8b 67 2d be
       -0.03792223 -0.31090793 0.1816511 -0.1693403
000300 ac 49 84 be 27 32 a6 be 10 b6 95 be 5a 1c b2 3e
       -0.25837457 -0.32460138 -0.29240465 0.34787256
000310 c7 31 d8 be 8e d4 ac 3e 59 2a c0 3d 4d db 96 3c
       -0.42225477 0.33755916 0.09383077 0.018415118
000320 c0 b9 95 3d 56 6c e9 bd 89 9c fe 3c 62 77 2f be
       0.073108196 -0.113976166 0.031080501 -0.17135385
000330 b2 95 10 3c 44 4c 71 39 14 a1 f6 bd fd 71 71 bd
       0.008824753 0.00023011962 -0.12042442 -0.0589466
000340 6c bc 57 be c1 6b 8e be 13 1e 69 bc 24 f0 86 bd
       -0.21067971 -0.27816585 -0.014228362 -0.06588772
000350 1c 33 3e 3c 6e 0e 43 3c 56 8b 31 be e0 6a 70 be
       0.011608865 0.011905296 -0.17338309 -0.2347827
000360 50 ce d2 3e 43 41 89 3e 15 21 76 3e 34 35 8c 3e
       0.4117303 0.26807603 0.24036057 0.2738434
000370 1b f6 8f 3e b7 2f 7c 3e 07 fc 3f 3e f2 88 f9 3e
       0.2811745 0.24627577 0.18748485 0.48737293
000380 e3 e5 c4 3e 80 70 80 3d aa dc 72 be 97 f6 91 be
       0.3845664 0.06271458 -0.23716989 -0.28508446
000390 f6 4b 91 be 50 55 36 3d 3b b4 d0 3d a9 d5 fc 3d
       -0.28378266 0.044514954 0.10190626 0.1234544
0003a0 e7 38 63 be 83 2d c5 3c 98 30 18 bd 69 ab 95 bd
       -0.22189675 0.024069553 -0.037155718 -0.073080845
0003b0 f1 62 23 bd cd 20 9c bd 75 5b e0 3c b8 ef 1f be
       -0.03988928 -0.07623444 0.02738736 -0.15618789
0003c0 de 31 86 3d 6c 5d 98 bc 2c 93 27 3e 0f 14 f1 bc
       0.0655248 -0.018599235 0.16364735 -0.02942851
0003d0 39 b2 74 be f6 46 08 3d c8 e3 9b 3c 83 06 03 be
       -0.23896112 0.0332708 0.019029513 -0.12795453
0003e0 18 48 c1 3d b9 23 0e 3c c2 16 4d bd cf 9b f7 3d
       0.09437579 0.008675509 -0.05007053 0.12090265
0003f0 35 a4 c1 3e 88 cc 6f 3e f9 52 de bd ad a9 91 3e
       0.37820593 0.23417866 -0.108556695 0.28449765

layers.0.bias f4 [32]
000000 b2 e9 81 bd cf d9 43 be b5 61 8b be c3 18 c9 bd
       -0.06343402 -0.19126056 -0.27222982 -0.09819176
000010 73 88 28 bd f3 cf 38 3c 83 8d c6 bd 5f 51 f7 bd
       -0.041145753 0.011280048 -0.0969496 -0.12076067
000020 b8 26 52 3e 2a 16 f3 bd 5c 03 6f 3d 7a 4f 2f be
       0.20522583 -0.11869462 0.058352813 -0.17120162
000030 c6 6d 82 bd f0 2e 08 3e cc 33 bc bd 97 88 9e bd
       -0.06368594 0.13299155 -0.09189567 -0.07740896
000040 f0 2f 71 bd 00 a7 e3 3c b4 46 6c 3d 65 fc 0e 3e
       -0.058883607 0.027789593 0.057684615 0.13963468
000050 e7 ff f9 3c 2e ed 30 bd a7 31 4e be 1c 53 0e be
       0.030517532 -0.043194942 -0.20136128 -0.13898891
000060 b8 d4 3f 3e ae a6 16 bd d1 67 b9 be 44 8f a7 3c
       0.1873349 -0.036780052 -0.36212018 0.020454057
000070 24 90 95 bd 94 15 92 3d b2 cc 32 3d 72 be 0f be
       -0.07302883 0.07133022 0.043652244 -0.14037493

layers.1.weight f4 [64, 32, 3, 3]
000000 75 68 6a 3c 4a dc c4 3d d5 7c 69 bd da eb 09 3e
       0.014307131 0.09612329 -0.057003815 0.13468876
000010 02 10 51 3e 75 4b 08 3a 81 27 b2 3d cd 61 df 3d
       0.20416263 0.0005199232 0.08698941 0.10907326
000020 d8 58 83 3d bd 9a 35 3d ce 56 48 3d 1c e6 7d 3d
       0.0641343 0.044337023 0.04891091 0.061987028
000030 28 ef 88 3e 26 79 34 3c 91 7b 37 3d e8 ab 5e 3d
       0.26744962 0.011015212 0.044795576 0.05436316
000040 eb 0b 01 3e 86 0b 31 3e 73 96 9f bd f4 45 2a bd
       0.12602203 0.17289552 -0.07792368 -0.04157062
000050 b7 7f 9d 3d 23 16 f5 bc c4 f7 9b bd 43 da f0 3c
       0.07690375 -0.029917782 -0.07615617 0.02940095
000060 0c 2f 0e bd c2 60 8c bd e4 8e 9c 3c 5a bb a4 bd
       -0.034712836 -0.068543926 0.019111104 -0.08043547
000070 46 30 a6 3d 3a 89 88 3d 97 1a 9b be 87 d6 2e bd
       0.08114676 0.06666799 -0.30293724 -0.042685058
000080 26 2a d9 3d 71 ef 6d bc 72 74 07 be e0 f2 12 3d
       0.10603742 -0.014522419 -0.13228014 0.035876155
000090 df 65 d8 3d 1b 9f e7 bb 4a 06 55 bd ae 20 b9 3d
       0.10566305 -0.0070685274 -0.05200795 0.09039436
0000a0 e7 ff da 3d c7 3d 95 3c 9f 18 ab 3b e9 07 29 3d
       0.10693341 0.018217934 0.005221441 0.04126731
0000b0 be 35 ca 3c 0f b6 3c bd 96 03 bb bc 00 ad 11 3d
       0.02468383 -0.046072062 -0.022828858 0.035565376
0000c0 b2 de d0 bd 33 98 cf bd 99 e0 c1 3a 95 8e 74 bd
       -0.10198726 -0.101364516 0.0014791667 -0.05970629
0000d0 c6 6c a7 3b 0c fd 10 3d 05 0d ac bd 81 b9 52 3d
       0.0051094024 0.035397574 -0.08400921 0.05144644
0000e0 e2 7b 38 3e c2 dd 1d 3c 7c 6b cf 39 98 25 a0 bc
       0.18016008 0.009635391 0.000395622 -0.019549176
0000f0 ba af 14 be 25 31 3e bc 57 e6 99 3c 3a 72 00 be
       -0.1452016 -0.011608397 0.018786592 -0.12543574
000100 33 9c b3 bd 64 17 18 3e f1 3e 15 be 4d b7 03 be
       -0.08770027 0.14852673 -0.14574791 -0.12862892
000110 13 e9 20 be 5b 94 02 be 8f aa ca bd b8 7b 41 be
       -0.15713911 -0.12751906 -0.09895813 -0.18894851
000120 af eb 6f bd b3 bf 0e bc 1b a1 df bd 8a a0 51 3d
       -0.058574375 -0.008712697 -0.109194 0.051178493
000130 f1 5d 4b 3e 1e 3c 19 3c 80 2f 9b 3d f5 f2 92 3d
       0.19860055 0.009352712 0.07577419 0.071752466
000140 70 9a d6 b7 30 b5 2b 3d b9 23 e6 ba 9b 4f d4 3c
       -2.5582704e-05 0.04192084 -0.0017558254 0.025916865
000150 b9 20 21 3e 16 44 9f bd 3f 4a b7 3d 23 9e 92 3d
       0.15735139 -0.07776658 0.08949708 0.071590684
000160 5e 13 55 be 9f 45 8e bd 3d 6e f6 bc fe b4 6d 3d
       -0.20808169 -0.06946873 -0.030081863 0.058033936
000170 af b9 e9 3c fd aa 34 3e 72 8b 60 3d eb 72 57 3d
       0.028530924 0.17643352 0.054820485 0.05259983
000180 97 ad 10 bd 1c 5a 10 3e 11 01 a4 3d 7b a8 84 bd
       -0.0353218 0.14096874 0.08008016 -0.064774476
000190 e1 db 50 bd 3a 9f 28 bd 9a 54 1f be 86 18 52 be
       -0.050990943 -0.041167475 -0.15559617 -0.20517167
0001a0 2c f8 2a be fa 78 0f 3e 5c 4e 6e bd ad 10 17 bd
       -0.16696233 0.14010993 -0.058180198 -0.036881138
0001b0 69 27 25 be 7d b5 04 be a0 62 11 be 05 9d ef bc
       -0.16128315 -0.12959857 -0.14197779 -0.029249677
0001c0 65 8a 32 3d 0b ba 79 bd 64 97 99 bc e5 3c 5c 3d
       0.043589015 -0.06096844 -0.018748946 0.05376901
0001d0 f4 34 3e 3d 16 6d 59 be 5b ce 62 be 9c b1 70 bd
       0.04643722 -0.21233019 -0.22149031 -0.05876313
0001e0 b3 95 8a be a1 c7 fc bd 23 03 5b 3c 2f 19 4a 3c
       -0.27067336 -0.12342764 0.013367447 0.012335106
0001f0 8d 84 e9 3d a8 af d7 3d 4d 48 58 3d 62 99 16 3d
       0.11402235 0.10531551 0.052803326 0.03676737
000200 0c b8 4d 3d 34 28 61 3d b5 f8 8a 3e e1 34 fc 3d
       0.05022435 0.05496998 0.27142873 0.12314773
000210 e4 a5 10 3d 48 21 5d bc 94 de 0e bd bc de e6 bd
       0.035314456 -0.013496704 -0.034880236 -0.11272952
000220 d4 eb f8 bd 49 0f cf bd a2 9d 69 bd 4b 73 93 3d
       -0.12154356 -0.10110337 -0.057035096 0.07199725
000230 d3 97 1f bc 41 8a 37 be db 24 27 bc 8c 2b 6e bd
       -0.009740788 -0.17923833 -0.010201658 -0.058147
000240 20 bc e7 bd ab fd 65 be 84 f7 86 be aa 5c ab 3d
       -0.11315179 -0.22460048 -0.26360714 0.08367284
000250 7c 1f 7c 3d f6 8d ff 3a 07 e1 49 3e 7f 45 f7 3d
       0.061553463 0.0019497264 0.19714747 0.12073802
000260 b0 fc dc bd 45 a9 86 be 01 e4 78 be 9e e7 30 be
       -0.10790384 -0.26301017 -0.24305727 -0.17275855
000270 37 53 8a be 6e 9c 26 be c5 24 c6 be 75 b0 61 be
       -0.27016613 -0.1627061 -0.38699928 -0.2203997
000280 7f 5d e0 bd c8 70 11 be aa 82 8a 3c 53 a0 b5 3d
       -0.10955333 -0.14203179 0.016908009 0.0886847
000290 77 50 08 3d 4b 25 14 3e 6d a3 c5 3d ed 86 cc 3d
       0.033279862 0.14467351 0.096503116 0.099866726
0002a0 ab aa 00 3e ca 40 4d 3e 21 dd 9a 3d 6d b8 83 be
       0.12565105 0.20044246 0.07561708 -0.25726643
0002b0 b7 24 a3 bd b7 33 d5 bd 0d 4d 1a 3e 8d 06 fb 3b
       -0.07965987 -0.104102544 0.15068455 0.007660693
0002c0 1b 18 09 be de 85 08 3d b6 13 39 3d c4 21 8f be
       -0.13388102 0.03333079 0.045184813 -0.2795545
0002d0 e1 94 9b bd 17 f7 4d 3d 47 5c b6 bc be 73 58 bc
       -0.07596756 0.05028447 -0.022260798 -0.013211189
0002e0 c7 32 67 3d 3c 35 07 bd a8 12 8a 3b f1 a9 4e 3d
       0.05644491 -0.033009753 0.00421365 0.050455038
0002f0 4a 91 fc bc 61 8f c2 bc a3 2c f3 3d ed ea 35 3b
       -0.030830998 -0.023750009 0.11873748 0.0027758435
000300 31 8a 28 be b8 19 3d bd 57 28 7e bd 69 4b 5d be
       -0.16458966 -0.046167105 -0.06205019 -0.21610798
000310 92 03 98 bc 0b 21 92 bc e6 cd 85 3b 13 8e 8f 3d
       -0.01855639 -0.017838022 0.004083383 0.070095204
000320 c7 03 95 3d 94 0b f6 bc d6 b2 2d bd e3 bb 17 be
       0.07276111 -0.030034818 -0.04240688 -0.14817767
000330 b3 68 b8 3e d4 ec 80 3d 23 1b 02 3e a9 67 ba bd
       0.3601738 0.062951714 0.12705664 -0.09101803
000340 77 d0 51 be 60 32 9f bd f7 17 ae 3d 9d d2 3d bd
       -0.2048968 -0.0777328 0.08500665 -0.046343435
000350 3e d7 2c bc 76 2b 00 3e ae d3 a4 bd 34 5c 99 3d
       -0.010549365 0.12516579 -0.08048187 0.074882895
000360 70 00 5d be 38 a4 5a be 7b 84 0c be ef 27 77 bd
       -0.21582198 -0.21351707 -0.13722412 -0.060340818
000370 a3 ac ca bd 47 e3 d3 bd f3 c7 ab bd 94 b7 36 bd
       -0.09896209 -0.10346084 -0.08387747 -0.044608667
000380 0a 85 cc bd 54 46 3f bc 24 6b ea bb 28 da 5d bd
       -0.09986313 -0.011674482 -0.0071538854 -0.05416313
000390 33 eb be 3c 48 74 b5 ba da 92 fb bd 7d 13 19 3e
       0.023305511 -0.0013843859 -0.12283869 0.1494884
0003a0 40 35 22 3d fe 47 e3 bb 68 6b 0c 3e d8 66 c1 3b
       0.039601564 -0.0069360724 0.13712847 0.0059021525
0003b0 e8 d7 0c 3c 9e d6 88 3e d7 e5 87 3e 77 2c aa 3c
       0.008596398 0.2672624 0.2654254 0.020773156
0003c0 dc f2 55 3d 97 ed 2d bd 2a 88 f2 bd 02 d9 25 bb
       0.052233562 -0.04246291 -0.118423775 -0.0025306349
0003d0 de 59 67 bd c4 e4 12 bd 86 11 40 3d 4d 97 a3 bd
       -0.05648219 -0.0358627 0.04689171 -0.07987843
0003e0 e2 74 a8 be 7c 6e 14 3d 1f 35 b0 3d 12 ca 31 be
       -0.32901675 0.03623818 0.08603882 -0.1736224
0003f0 e0 13 85 be 9e 36 17 bd e4 2f dd bd 11 0c df bb
       -0.25991726 -0.03691732 -0.1080015 -0.0068068583

layers.1.bias f4 [64]
000000 83 15 e4 3c 9d 02 8b 3b 27 58 9f bd dd ce 23 bd
       0.027842289 0.004242255 -0.077804856 -0.039992202
000010 b8 39 23 bd ef 50 a9 3b 4b 3b ea 3d 3c 96 7e bc
       -0.039849967 0.0051671187 0.114370905 -0.015538748
000020 06 8d f4 bd 7b 29 0b bc 77 59 76 bd 1e e3 c7 bd
       -0.119409606 -0.008493776 -0.060143914 -0.09760116
000030 df 7d b2 bd 33 d6 c5 3c 56 b4 79 bd 02 61 88 3d
       -0.08715414 0.02414999 -0.060962997 0.06659128
000040 ad dc d8 bd f4 fb 9e bd 50 11 13 bd e3 71 9d bc
       -0.105889656 -0.077629 -0.035905182 -0.019219344
000050 b3 39 32 3e cc 2a c5 bc 06 c8 8c 3d 17 68 9e bd
       0.17404823 -0.024068259 0.06874089 -0.07734697
000060 87 08 48 bd ca 81 0e be 5f 3e a6 bc 9e 79 18 bb
       -0.048836257 -0.13916698 -0.020293413 -0.002326585
000070 e5 6c aa 3c 0f 98 c3 bc 48 90 4e bd c0 1f 4d bc
       0.020803878 -0.023876218 -0.050430566 -0.012519777
000080 43 fa 10 3c 71 7f e8 3d 99 ee 49 3d c6 b4 1a be
       0.00884873 0.113524325 0.04929981 -0.15108022
000090 37 ec 41 be 20 fb 04 bd 25 3c 0a 3b 25 33 88 bb
       -0.18937765 -0.032466054 0.0021092978 -0.0041564875
0000a0 56 d1 d7 bd 6a 4f a1 3d db 2c be bd 0e fd a2 bd
       -0.105379745 0.07876475 -0.09285899 -0.079584226
0000b0 f0 4b 51 bd e0 01 b6 bc a5 22 68 bd 58 9e 0c 3d
       -0.05109781 -0.022217691 -0.056673665 0.034330696
0000c0 e1 51 63 bd 62 1d d4 bc 7f 46 11 be 40 27 6a bd
       -0.055498008 -0.025892917 -0.14187048 -0.057166338
0000d0 2f 7c e9 3d bc ec 7a bd ea 9f 21 be dd 53 0e bd
       0.11400639 -0.061260924 -0.15783659 -0.034747947
0000e0 67 3f 65 3c 16 4c 2e be 81 53 6f bd 44 05 04 bc
       0.013992167 -0.17021212 -0.058429245 -0.008057896
0000f0 29 90 01 3e 18 4b ec bd 65 75 92 3c 60 84 ae bc
       0.12652649 -0.115377605 0.017878244 -0.021303356

layers.2.weight f4 [128, 64, 3, 3]
000000 0e 10 21 3d 66 5c 35 3c 89 80 3b bd f1 e4 61 bd
       0.03932195 0.011069393 -0.045776878 -0.055149976
000010 ae 55 03 3d 71 53 e5 bc 16 be 8e bd 87 de 05 be
       0.032064132 -0.02799389 -0.0696985 -0.13073169
000020 24 e9 97 bc 51 f2 df 3c c6 68 49 bd dd 8b 17 3c
       -0.018543787 0.027337225 -0.049172185 0.009249655
000030 66 5c a1 3d e1 af 74 3d cc ea 76 3d 81 c9 ac bd
       0.07878952 0.059738044 0.060282513 -0.08436871
000040 9e aa a6 3d c6 ad df 3c 06 e3 ce 3a 53 a3 5b 3c
       0.081380114 0.027304541 0.0015784211 0.013405639
000050 1c f2 8c 3c 70 0d 09 3b da 06 28 3c 86 ac 1c 3c
       0.01720529 0.002091255 0.01025554 0.009562617
000060 e6 6f 8e 3b 36 1c 23 3b 76 91 f6 ba b6 f5 91 39
       0.0043468354 0.0024888641 -0.0018811661 0.00027839624
000070 4c 15 52 3b b7 a2 12 bb a5 62 ee 3a d6 42 85 3a
       0.003205615 -0.0022374818 0.0018187357 0.0010167013
000080 ac eb 46 3c 4b 40 40 39 d2 24 eb b9 21 b3 09 bb
       0.0121411495 0.00018334498 -0.00044850126 -0.002101131
000090 12 38 fb b7 b2 e2 c0 b8 0b 7c 1c 3c 6f d2 86 b7
       -2.9947641e-05 -9.197499e-05 0.0095510585 -1.6072036e-05
0000a0 f1 f9 d1 b9 82 e6 f7 3b fe 7a 83 35 ea 28 b8 b9
       -0.00040049807 0.0075653205 9.796056e-07 -0.00035125698
0000b0 7b 9f 90 3a f9 cf 19 bd cb e3 bf 3d e5 d4 8a bd
       0.0011033857 -0.037551854 0.0936962 -0.06778888
0000c0 ec 9e c8 bc 71 8b a5 3d 0f 68 7c bd 62 b7 be bb
       -0.024489842 0.08083237 -0.061622676 -0.005820201
0000d0 24 90 e0 bc 18 69 9c 3d 17 bf 2d bb c3 57 99 bc
       -0.027412482 0.076372325 -0.0026511604 -0.018718606
0000e0 9d 87 b6 bd fa 97 98 bd 62 ff 0a bc 1c 5a 02 be
       -0.08912585 -0.07450862 -0.00848374 -0.12729686
0000f0 c6 fd 14 be cc 5a 5a be 8a 74 36 bd 5f ab f1 3c
       -0.14549932 -0.21323699 -0.044544734 0.029500661
000100 e2 14 47 bc 86 60 2e bc 72 15 04 3d bf f5 8a 3c
       -0.012150975 -0.01064313 0.032247014 0.016962884
000110 bf b1 1a bc d0 25 e4 3c 31 13 00 3c ef b1 12 3c
       -0.009441792 0.027850062 0.007817076 0.0089535555
000120 5c 9e c9 bd 01 0d b4 3d 7c 7c 46 bd 1d 70 a1 3c
       -0.09844658 0.08791543 -0.04845856 0.01970678
000130 84 7b 23 be 79 ad cb bd 6d f1 b7 3d 8d b3 dc bc
       -0.15965086 -0.09945197 0.08981595 -0.026941085
000140 4b 20 ed bd 08 3a ac 3b 57 3d 8a bb 48 9c f7 b9
       -0.11578425 0.0052559413 -0.004218738 -0.0004722795
000150 d5 36 7a 3a f8 b6 dc bb f6 20 6d bc bf 53 9f 39
       0.0009544914 -0.0067356788 -0.0144731905 0.0003038924
000160 03 59 c2 bb ff b7 b3 bb 55 ac d6 3a 89 67 db bb
       -0.005931021 -0.0054845805 0.0016378263 -0.006695692
000170 bf 0c 07 3b e1 32 a5 3b d6 93 5a 3c cf 5d d0 3a
       0.0020606962 0.0050414656 0.013340911 0.0015897098
000180 d0 2f f1 bb 1c 18 31 bc 6c c9 18 bc 99 6b 40 3d
       -0.007360436 -0.010808971 -0.0093253665 0.046977613
000190 06 05 00 3e 4b b5 6b 3d 0b 7b 81 bd 59 68 18 bb
       0.12501916 0.05754594 -0.06322297 -0.0023255555
0001a0 eb d6 0a bc ec c1 c4 bd d4 30 2f bc 56 95 60 3d
       -0.008474092 -0.096073 -0.010692794 0.054829918
0001b0 34 7c d0 bd 47 95 ab 3d 1b e2 69 bc a5 b8 f5 3c
       -0.1017994 0.08378082 -0.014275099 0.029995272
0001c0 d7 76 01 be cf a1 0c be ce 0c 57 bd a6 17 45 3c
       -0.1264299 -0.137336 -0.052502446 0.012029564
0001d0 66 26 a2 bd 9f aa 31 bd 89 9f ec 3d 2f 51 1f be
       -0.0791748 -0.043375608 0.115538664 -0.15558313
0001e0 d2 d4 b1 bd ed a9 3d 3c c4 d2 80 bc b8 b3 7b bd
       -0.086831704 0.011576158 -0.0157255 -0.06145069
0001f0 cd 5c 85 bc 75 84 1b be 84 5d e9 b9 b2 17 30 3b
       -0.016279602 -0.15187247 -0.00044510898 0.0026869592
000200 89 ab 5b 3a a4 ab 9a bb 7b 3a 82 3b b0 90 22 bb
       0.0008379748 -0.004720168 0.0039742566 -0.0024805479
000210 89 80 ce bb d8 26 0d bb 75 73 e1 ba 96 3a bb 3d
       -0.0063019437 -0.0021538045 -0.0017200547 0.09142034
000220 3f 3a d2 3d 60 ec 98 3d 38 83 06 bd 34 eb 24 be
       0.10265016 0.0746696 -0.032839984 -0.16105348
000230 65 88 1a bd 4a a3 23 3d 0e e8 1a be e8 17 64 bd
       -0.037727732 0.039950646 -0.15127584 -0.05568686
000240 f6 a7 88 bd c1 3d 33 3d 56 3f 40 3d fb 8f ac 3d
       -0.06672661 0.043760065 0.0469354 0.084258996
000250 da 59 9d 3d c5 5e e5 3b b9 33 27 be 29 a5 b3 3c
       0.076831535 0.006999823 -0.16328324 0.02192934
000260 3e 6d 1d 3e f4 84 65 3b 58 ce ba 3a c7 c8 4f bb
       0.15373704 0.0035021873 0.0014252169 -0.0031705366
000270 db f1 cc 3b f3 ab 19 3b f6 68 0b bc 42 46 75 3a
       0.0062544174 0.0023448437 -0.008508911 0.00093564775
000280 9e f7 27 3b e0 b3 2b bc ef 23 c2 b9 46 08 58 bd
       0.002562977 -0.010479897 -0.00037029336 -0.052742265
000290 2c a2 7d 3d 49 ed 28 bd 39 e1 25 be ae ad 30 bd
       0.061922237 -0.041241918 -0.16199197 -0.043134384
0002a0 00 09 2d 3d 43 ec c8 3a 07 e5 0b be 5c db fa bd
       0.04224491 0.00153292 -0.13661586 -0.12248871
0002b0 00 1b 07 be 74 3b 9c bd 6c ef 6f 3e b5 e1 17 bd
       -0.13193893 -0.07628527 0.23431176 -0.037080485
0002c0 12 10 ec bd a3 c9 52 bd 77 d8 f6 bc 1b f6 c7 bc
       -0.11526503 -0.051461827 -0.030132515 -0.024409344
0002d0 ab b0 0c be 24 20 c5 3c 8a 1b 05 be 8b 95 d5 bc
       -0.13739268 0.024063177 -0.12998787 -0.026072284
0002e0 38 04 6b 3e 7d 2f fb 3d 8f c3 1e be 82 b5 5d 3d
       0.22950828 0.12264917 -0.15504287 0.054128177
0002f0 58 86 86 3d 3d 3e 65 3b f3 33 71 bb 33 93 43 3c
       0.06568593 0.0034979724 -0.0036804646 0.0119369505
000300 a0 e9 12 3c a5 50 34 3c 5e 23 36 bb dd 37 b4 bb
       0.008966833 0.011005555 -0.0027792077 -0.0054998235
000310 c1 48 a8 3a 14 96 3d bc 3b c9 19 bd a5 e4 79 3d
       0.0012839065 -0.011571426 -0.037545424 0.061009068
000320 96 cc 86 bd 9f 43 d2 bd 9e ae 19 bd 8e 91 33 ba
       -0.065819904 -0.10266804 -0.037520044 -0.00068499974
000330 d2 4b 92 bc 97 e9 8b bd b9 13 05 bd 89 dd 7d bd
       -0.01785842 -0.06831663 -0.032489512 -0.06197885
000340 79 2a d2 bd 0b eb 08 3d c4 94 e4 bc dd bf 17 bd
       -0.10262007 0.03342728 -0.027902968 -0.03704821
000350 43 46 b3 3d ae dc 0a be 38 43 34 3e fc 65 a0 3d
       0.08753636 -0.13560745 0.17603767 0.07831952
000360 70 10 c6 3c e6 80 50 3c 5a f2 f9 3d 4d fc db bc
       0.02417776 0.012726044 0.12204428 -0.026853705
000370 db ff 17 3d 67 57 61 3d ed 1c 38 bd 63 ff ef bc
       0.037109237 0.055014994 -0.04494946 -0.029296583
000380 39 ce 8c 3c 79 b8 f3 bd e9 15 00 bb 82 df c4 3c
       0.017188178 -0.1190042 -0.001954431 0.024032358
000390 c9 92 42 3c 36 39 01 be 32 4e 74 bd 0d 57 2d 3e
       0.011875817 -0.1261948 -0.059644885 0.16927738
0003a0 60 1d c2 3c 9b b5 b7 bc f2 b4 b5 3c 42 01 1b 3d
       0.023695648 -0.022425463 0.022181008 0.037842996
0003b0 4d c7 05 3d cc fb 5d ba 71 74 d1 3b f7 1d d3 3c
       0.03266077 -0.00084680016 0.0063920547 0.025771124
0003c0 96 c9 a5 ba 76 56 b9 3c 14 80 61 bc e8 3b 91 ba
       -0.0012648578 0.022624236 -0.013763446 -0.0011080476
0003d0 a2 7a 2c 3b 5c ed bf bb 48 21 3f 3c 30 b7 20 3b
       0.0026318212 -0.005857153 0.01166565 0.002452325
0003e0 dc 99 84 3c 02 25 35 3b 60 08 bf 3b a3 11 be 3a
       0.016186647 0.0027640467 0.005829856 0.0014501106
0003f0 6e 58 cc 3c 5c b3 34 3a d7 f3 7c 3c 4f f4 81 3d
       0.02494451 0.00068931817 0.015438995 0.06345426

layers.2.bias f4 [128]
000000 ba eb 84 3d 44 af 79 3d c7 f8 ab bc 5c a6 8b 3d
       0.06490274 0.060958162 -0.02099265 0.0681884
000010 f1 51 d0 3d 6e c9 46 3d b4 67 ac bd f8 8d eb bd
       0.10171879 0.048531942 -0.08418217 -0.11501688
000020 ad b7 ab 3d 60 b4 3f 3d 8e 5a d0 bd 96 66 bd 3d
       0.08384643 0.04680288 -0.10173522 0.09248082
000030 dd e0 07 be c0 c0 44 3b b3 f9 ce 3d 96 75 c2 bc
       -0.13269372 0.0030022115 0.1010622 -0.02373771
000040 12 26 13 bd 10 95 12 3d 74 7d 41 bd 60 05 ed bd
       -0.03592498 0.03578669 -0.047238782 -0.11573291
000050 94 fb 41 bd 79 dd 5f b7 a8 60 de bd a1 e6 67 bc
       -0.047359064 -1.3343401e-05 -0.108582795 -0.014154107
000060 76 07 f6 3c 06 a8 36 bc b8 d0 4e bc 82 ca 36 3c
       0.030032855 -0.011148458 -0.012623005 0.01115668
000070 e5 b1 c7 3c f1 8c 19 3a a6 4a 6e bc e3 b8 b9 3d
       0.024376819 0.0005857489 -0.014544165 0.090684675
000080 b6 f2 b7 3d cb f7 7f bb 80 c8 56 bc 04 08 8e 3d
       0.0898184 -0.0039057608 -0.013109326 0.069351226
000090 d2 45 0e bd 22 51 0d 3d 15 35 e8 bd d7 49 c2 3b
       -0.034734555 0.034501202 -0.113382496 0.0059292126
0000a0 eb 07 d8 bc 18 d0 0a be da 23 a4 bd ce 77 d8 bc
       -0.026370963 -0.13555944 -0.08014651 -0.026424315
0000b0 8b 57 f2 3d 10 21 83 bc 9a 8c 88 bc ad fc 4a 3c
       0.11833104 -0.016006976 -0.016668607 0.012389344
0000c0 b4 5a 9a bb ca 84 b4 3c 7e be 3e 3d bc 82 85 bd
       -0.0047105197 0.022035975 0.046568386 -0.06519076
0000d0 e9 8b d5 3d 80 57 b4 bd 8f b6 b0 bd 40 6f aa bd
       0.10427076 -0.08805752 -0.0862857 -0.083220005
0000e0 65 cc 85 bb 86 b3 b7 bc e6 67 0a 3d af 6e 3a 3d
       -0.0040832036 -0.02242447 0.03379049 0.045515712
0000f0 5b 37 a5 bd 2a 05 d1 3d 7d b1 f8 3b bb a7 a7 3d
       -0.08067199 0.10206063 0.0075895176 0.08186289
000100 22 86 ee 3d e8 0a e0 3d 04 ae 15 3c aa 70 40 3d
       0.116466776 0.1093958 0.009135727 0.046982445
000110 5c d5 33 bd db 43 35 bd c5 4c d5 3d cc c5 34 3d
       -0.043904647 -0.044254165 0.10415033 0.044133946
000120 4d ac 02 bd dd 6b cd 3d de e1 dd bc 9e c3 12 bd
       -0.0319026 0.10030339 -0.02708524 -0.035831086
000130 3c 2c c5 3d 0d 07 99 bc ac 14 0a bb c3 d9 c3 bd
       0.09627578 -0.01868012 -0.002106945 -0.09563019
000140 b6 53 96 3c a0 84 ad 3d 56 a0 f4 3a 36 e8 0d 3d
       0.018350463 0.08472562 0.0018663506 0.03464528
000150 97 7d a6 3d 69 e9 27 3d d3 aa d0 3c 4e 73 7d 3d
       0.08129423 0.04099408 0.02547208 0.06187754
000160 19 8d b3 bd 14 02 26 3d 60 09 d2 bd 37 1a be 3d
       -0.087671466 0.040529326 -0.102556944 0.09282344
000170 06 a0 12 bb 18 89 3c bd 97 8d 8d bd 28 fb 88 bd
       -0.0022373213 -0.04602918 -0.06911772 -0.06688529
000180 92 19 89 bd d6 cd a0 3c fe d9 60 bd 53 9d a2 3d
       -0.0669433 0.0196294 -0.054895394 0.079401635
000190 00 2f 4b 3c 68 34 3f bd 3c 9d 3f be 52 59 9a 3c
       0.012401342 -0.046680838 -0.18712324 0.01884142
0001a0 af 73 81 bd ae fc 34 bd 7d ac 13 bd 63 91 2a bc
       -0.06320893 -0.044186287 -0.03605317 -0.010410639
0001b0 5f b6 eb bc 86 70 c2 bc da b9 8e bc 37 53 5e bb
       -0.028773485 -0.023735296 -0.017422605 -0.0033924112
0001c0 bd 3e 80 bd 17 25 9b 3b cd 04 a8 3d 93 a5 84 3d
       -0.062619664 0.004734646 0.08204041 0.06476893
0001d0 69 cd 24 3d 5a 6f 85 bd d8 82 c5 bc 4a 29 e7 3b
       0.040234957 -0.06515379 -0.024110243 0.0070544826
0001e0 50 5b 4a bc 8a 70 df 3c 2c 04 ae 3d 70 6d 9c 3d
       -0.012350872 0.027275342 0.084968895 0.07638061
0001f0 d1 81 97 bd fb ae 67 bc 18 f0 94 3d 3f 31 8e bd
       -0.073978074 -0.01414084 0.07272357 -0.06942987

layers.3.weight f4 [2, 128, 1, 1]
000000 41 bc a2 bd 07 a0 90 bd 0a 0c f8 3d 21 86 01 be
       -0.07946063 -0.07061773 0.12111671 -0.12648822
000010 1e 5e 40 3d a8 33 98 3d 21 3b d3 3d 88 16 55 be
       0.046964757 0.07431728 0.10314012 -0.20809376
000020 17 39 98 bd 1a 9a 15 3d 8e c2 02 bd dc 77 20 be
       -0.07432764 0.036523916 -0.031923823 -0.15670723
000030 4f e9 0d bd b5 f5 b6 3d 60 c9 30 be bf ec f4 bd
       -0.03464633 0.08933584 -0.17264318 -0.11959218
000040 88 f6 cf 3c 00 d4 86 be d0 d8 19 3d 5d 50 2b 3d
       0.02538611 -0.26333618 0.037560284 0.041824687
000050 da 90 32 3e c7 0d 93 2b 20 1f 0a be 3d c3 f3 bd
       0.17438069 1.0448802e-12 -0.13488436 -0.11902473
000060 ed af 7d 3d c6 b0 51 be a0 7a 60 ba 47 1a d9 3d
       0.061935354 -0.2047759 -0.00085631944 0.10600715
000070 3b f3 f8 3d 4b e6 5a be 43 89 8a 3d b1 b2 ff 3d
       0.121557675 -0.21376912 0.06764462 0.124852546
000080 a2 6b de bc 0b 82 40 3c 4c b8 00 3e 43 ff 86 bd
       -0.027150933 0.011749755 0.12570304 -0.06591656
000090 44 3d 2e bd 72 5d 1c 3e f4 93 3c 3d 89 0c 81 3d
       -0.042538896 0.15270022 0.046039537 0.06301219
0000a0 5f a5 11 3c 4e c0 18 be 6b f7 a0 bc 23 63 07 bb
       0.008889525 -0.14917108 -0.019649228 -0.0020658455
0000b0 74 bd c5 bd 86 9e d3 3b e0 c1 7c bd 0f b0 b2 bd
       -0.09655276 0.0064581065 -0.06170833 -0.08724987
0000c0 62 88 80 bd ba af 03 be 0c 46 da 3d 0a bd 7a bc
       -0.06276013 -0.12860003 0.10657892 -0.0153038595
0000d0 0f 5c e5 bd 27 8f 2f bd 1c 53 b3 bd 5b c4 c2 3d
       -0.111991994 -0.04286113 -0.08756086 0.09510108
0000e0 67 fd 1b 3a 19 27 34 3c 28 95 50 be 82 3f 9b 3d
       0.00059505407 0.01099565 -0.20369399 0.075804725
0000f0 df 1d d9 3a 74 56 0b bd 90 43 89 be 6d 25 4d 3e
       0.0016564688 -0.034017995 -0.2680936 0.20033808
000100 0f 82 32 be 2f 8a 51 be dd 54 64 be ad 27 20 3c
       -0.17432426 -0.20462869 -0.22297998 0.009775084
000110 02 ee d0 3c ad 04 ca bb e5 8c 8a 3d b7 f1 e4 bd
       0.025504116 -0.006165108 0.06765155 -0.11178916
000120 e1 8c fc 3d 14 33 4e be 2e 7e 34 3e eb c0 d3 3d
       0.12331558 -0.20136672 0.17626259 0.103395306
000130 6f 44 25 bc bd b0 64 3b 6b 35 a7 3d f6 0f 7b ba
       -0.010087117 0.0034895383 0.081644855 -0.00095772685
000140 bf 63 05 bd e2 09 37 3e f1 fe 03 3e c5 75 2f 3d
       -0.03256583 0.17874864 0.12890221 0.042836923
000150 f1 75 a7 3c 56 f3 14 be 5a 88 7d be 2b 1b 42 3d
       0.020441981 -0.1454595 -0.24759045 0.04738919
000160 e1 2d 87 3d 3c 1c 58 3d 2d 52 da bd b8 db 78 be
       0.066005476 0.0527613 -0.10660205 -0.24302566
000170 76 b6 10 bd d3 9c df 3c 80 77 86 bc a7 88 69 3d
       -0.03533026 0.02729646 -0.016414404 0.057015087
000180 03 9f f2 bd 7f 82 82 be 37 a1 55 be df 2d 78 3d
       -0.11846735 -0.25490186 -0.2086228 0.06059062
000190 33 97 a7 3d 37 c6 15 3c f0 7f 35 be 7f 6c 02 3d
       0.08183136 0.009141496 -0.17724586 0.03184175
0001a0 0e ff 96 bd a4 45 ae bb 33 71 99 3d 29 9a 36 3d
       -0.073728666 -0.0053183604 0.07492294 0.044580612
0001b0 0a df 04 3d 36 ab f3 3d a1 25 41 bc 16 ff 11 be
       0.03243927 0.1189789 -0.011788757 -0.14257464
0001c0 17 21 13 bd 40 c4 d5 3d 9e fb 53 be 28 ca 1e 3d
       -0.03592023 0.10437822 -0.20701453 0.03876701
0001d0 67 b8 e9 3d 79 65 a3 3d 79 2e 3f bc d7 e8 37 3d
       0.11412125 0.07978339 -0.011668795 0.044899788
0001e0 4d 57 d2 3d 07 45 a9 3d 58 1c 1d 3e 6a 6a a8 3c
       0.102705576 0.08265119 0.15342844 0.020558555
0001f0 c6 cc 73 3d 54 4d db 3b 37 76 da 3c a9 5f a4 3d
       0.05952146 0.006692568 0.026667697 0.08026058
000200 c4 ef 79 3d 89 82 42 be 68 b0 2a be ff 40 1e be
       0.061019674 -0.18995108 -0.16668856 -0.15454482
000210 98 aa 9a 3d a9 fa d1 3c 6c 88 e3 3c 08 53 17 3e
       0.075520694 0.02563222 0.027775012 0.14777768
000220 d9 38 69 bc 8f 6b 06 3e 1e e6 ae bd 9d 24 94 bc
       -0.014234745 0.13126968 -0.08539985 -0.018083865
000230 a6 d5 24 be d6 d6 1c be 72 03 2f 3d cf 0b 10 3d
       -0.16097125 -0.15316328 0.042727895 0.03516751
000240 84 59 1c be ab 43 87 3c 0b eb c2 bd 64 4a 17 be
       -0.15268523 0.016511759 -0.09517487 -0.14774472
000250 57 9f cc 3d 15 cd f1 aa bc ce e8 bd 8a 7c 04 be
       0.09991329 -4.2952504e-13 -0.113675565 -0.12938133
000260 0b fb 9f 3e 1d aa c0 3d 62 87 c6 ba e4 a9 ee 3d
       0.31246218 0.094074465 -0.0015146548 0.11653498
000270 9c 10 ea 3d 17 a6 36 bd 1f 47 de 3d 4e 60 1b 3e
       0.11428949 -0.04459199 0.10853409 0.15173456
000280 3e 9c 7e 39 e3 aa c2 be fc 8f 6d be ae f0 08 3e
       0.00024281532 -0.38021 -0.23199457 0.13373062
000290 cb 88 26 be a9 ed 0b 3e 73 73 05 3e 22 70 8d 3d
       -0.1626312 0.13664879 0.13032322 0.06906153
0002a0 94 25 05 bd d1 64 b9 bd db c7 8c bd e9 2a 31 bb
       -0.03250654 -0.09052432 -0.06874057 -0.0027033633
0002b0 d3 c6 b1 3d a3 30 9e 3c 65 e2 1c 3e 3a 0f f3 3d
       0.08680501 0.019310301 0.15320738 0.118681386
0002c0 50 22 3c 3e be 02 a1 bd bd 6c f7 3d b6 cc c1 bc
       0.18372464 -0.07861851 0.12081287 -0.023657184
0002d0 61 5c ec 3d 52 9b 1b 3e c3 39 6b bd 26 29 d6 bd
       0.115410574 0.15195969 -0.057428133 -0.10457067
0002e0 f2 f5 76 14 3b 11 44 3c f3 5d 4f 3c 17 df c1 3c
       1.246833e-26 0.011966999 0.012656677 0.023665948
0002f0 99 c4 37 be 01 01 96 3d db dc c4 bc ba 27 45 be
       -0.1794609 0.0732441 -0.024031093 -0.19253436
000300 63 f2 d1 ba 30 2f ea 39 8a 8b 8e 3d 6e 45 c4 3c
       -0.0016017671 0.00044667115 0.06960209 0.023958888
000310 10 8a 01 3b c2 a5 82 bd 64 44 10 3d ec d2 9c bc
       0.001976613 -0.06379272 0.035221472 -0.019143544
000320 d8 cc 8b 3d d6 8f d4 bc ae 93 52 bd 33 2f ef bd
       0.0682618 -0.025947493 -0.05141037 -0.116789244
000330 4d 07 93 3c 23 5e 84 3c ac 0a c6 3d e6 6d 35 bd
       0.017947817 0.01615817 0.09670004 -0.04429426
000340 a6 ed 12 3e ff 79 3a 3e c6 d3 50 be 54 95 24 bc
       0.14348468 0.182106 -0.20393285 -0.010045368
000350 f9 e3 fa 3d e9 ce 6d 3b c8 29 9e bd c1 72 47 be
       0.122505136 0.0036286658 -0.07722813 -0.19477369
000360 64 fe 49 3e 78 9f 0d 3e e5 e8 73 be 85 82 0c 3c
       0.19725949 0.13830364 -0.23819311 0.00857604
000370 18 09 8a be b6 67 1c bd 7f 07 0e bd 93 2b 9c 3d
       -0.26960063 -0.038184844 -0.034675118 0.076254986
000380 78 ec 3b be 13 f3 6c bd 33 61 1f 3d a2 ea ad 3d
       -0.18351924 -0.057849 0.038911056 0.08492018
000390 7b 7b 0c be a6 a7 99 bd 85 60 df bd 76 88 cb 3d
       -0.13718979 -0.075026795 -0.109070815 0.09938137
0003a0 6d b2 6d 3e c8 a9 83 3b 64 01 93 be de e9 22 3d
       0.23212595 0.0040180422 -0.28711998 0.039773814
0003b0 75 96 3d bd 97 fd aa 3d 67 18 c1 bb eb 3a 29 be
       -0.046286065 0.0834915 -0.0058928016 -0.16526382
0003c0 4c c3 e3 bd 78 f4 dc 3d 11 74 dd 3a 6b d4 92 3c
       -0.11121234 0.10788816 0.0016895552 0.017923554
0003d0 dd 1e 91 be 35 78 b8 bd 42 dc 83 be 54 8c f0 3d
       -0.2834386 -0.09007303 -0.2575398 0.117455155
0003e0 bc 98 f6 3b d6 4e d6 3c 05 1a 31 3d 18 bb 36 3c
       0.0075255316 0.026160639 0.043237705 0.011153005
0003f0 72 69 db bd 93 5e c2 3a 6c d7 ad 3c 88 8c de 3d
       -0.107134715 0.0014829211 0.021220885 0.10866648

layers.3.bias f4 [2]
000000 05 00 03 3e e1 69 f5 3d
       0.12792976 0.119830854

act_fc1.weight f4 [64, 72]
000000 f9 6f b8 b9 0c 70 05 bb 86 0a 33 bb 33 10 78 bc
       -0.0003517864 -0.0020360975 -0.0027319505 -0.015140581
000010 08 fd 96 ba 15 9b 22 3b d8 9c b1 bb a2 99 ec bc
       -0.0011519501 0.0024811674 -0.0054203086 -0.028881852
000020 cd e1 e9 3b 9f 66 56 bc 4a 84 72 bc 1b 86 5a bc
       0.0071375133 -0.01308599 -0.014802048 -0.013337637
000030 a9 38 48 3b 49 79 4c 3c 4a 3d 95 bc cf 44 7a bc
       0.003055135 0.0124800885 -0.018217701 -0.015275194
000040 a2 8d 19 bb af 83 91 3c 70 5c 46 bb aa 84 30 bd
       -0.0023430367 0.017762987 -0.00302675 -0.04309527
000050 5d 25 20 bd 1c fd dd bb d2 94 75 bc b2 b5 04 bd
       -0.039098132 -0.0067745578 -0.014989095 -0.03239984
000060 55 87 61 bc 99 ea be bb bf 58 07 bd 54 aa 80 ba
       -0.013765176 -0.005826306 -0.03304362 -0.0009816387
000070 ce 3d 1b bd a8 4e ce 3b 25 72 22 3c 13 81 17 bd
       -0.03790074 0.0062959976 0.0099149095 -0.03698833
000080 e2 96 08 bc f8 65 31 bd dc a6 4b bc 52 89 b3 bc
       -0.0083367545 -0.043310136 -0.012429919 -0.021916065
000090 0c 5f 86 bc a0 a8 04 bd cb a9 bb bc 79 b4 f0 bc
       -0.016402744 -0.032387376 -0.022908112 -0.029382931
0000a0 ed cf dc bc 1a 7c ba bb 16 75 95 3c 73 1c ff bc
       -0.026954615 -0.0056910636 0.018244307 -0.031141495
0000b0 49 cf 91 bc 5d 6e e4 bc 85 79 1f bd b0 6e 51 bc
       -0.017799037 -0.027884657 -0.03893425 -0.012782738
0000c0 c8 92 9b bd c0 86 a3 bb 30 75 6b 39 1c ce 13 bb
       -0.07596356 -0.0049904287 0.00022455002 -0.002255327
0000d0 56 6c 6a bc 4c 63 4c bc f5 5f 03 bd 31 41 c4 bb
       -0.014308056 -0.012474846 -0.032073934 -0.0059892167
0000e0 b7 ec 09 3c b1 05 d1 bc 07 74 21 bd 9a 91 45 3c
       0.008418254 -0.02551541 -0.039417293 0.01205864
0000f0 61 f5 33 bd 2a 4d d4 bd c1 e1 8d 3c d3 d5 bf 3c
       -0.043935183 -0.103662804 0.017319562 0.023417389
000100 02 43 73 bd c6 ca 27 3c 21 ac 80 bb d0 ca c7 3b
       -0.059390076 0.010241216 -0.0039267694 0.006097175
000110 57 6c 58 bd 34 fc d8 3c c7 2e a0 bd 02 7f 23 bc
       -0.052837696 0.026487447 -0.07821422 -0.0099790115
000120 a5 0b 44 17 3a 22 06 19 36 0c c2 19 64 90 d7 17
       6.3345713e-25 6.93455e-24 2.0064062e-23 1.3930499e-24
000130 ce 63 ca 99 81 88 cf 98 c2 27 7d 19 29 37 07 1a
       -2.0926621e-23 -5.364608e-24 1.30878225e-23 2.7961904e-23
000140 c3 c7 c4 98 56 ce 30 1a cc 7d 92 96 4a 28 74 16
       -5.086652e-24 3.6562624e-23 -2.366696e-25 1.9722876e-25
000150 d9 db 92 96 bf 7c 16 1a a0 c7 5e 98 17 bd ad 99
       -2.3726316e-25 3.1120042e-23 -2.8793612e-24 -1.7964154e-23
000160 a5 bd aa 99 18 ed 49 9a 7b b2 ce 99 df 1c 30 9a
       -1.7654185e-23 -4.175735e-23 -2.1371988e-23 -3.641927e-23
000170 22 f8 31 98 b8 13 6d 18 cd b6 e2 99 3b 1a 64 1b
       -2.3001989e-24 3.0641487e-24 -2.3441685e-23 1.8868193e-22
000180 42 a3 c7 17 fe 93 ec 99 98 12 7f 9a b7 e3 83 98
       1.2901286e-24 -2.4461602e-23 -5.2747784e-23 -3.409264e-24
000190 9c b6 f1 99 2b 37 99 99 3c 64 c6 18 f3 95 80 18
       -2.4992571e-23 -1.5842111e-23 5.128301e-24 3.3238635e-24
0001a0 31 f9 0a 9a 39 40 07 99 79 83 ab 98 e0 de 91 aa
       -2.8739026e-23 -6.992306e-24 -4.4335217e-24 -2.5911825e-13
0001b0 72 29 a2 ba 82 29 0b bb 8b 57 3b 3a 5a 47 92 bb
       -0.0012371971 -0.0021234457 0.0007146529 -0.004464072
0001c0 ff b1 13 ba 5b ec 9a b5 4b ab 69 b8 f3 84 97 bc
       -0.00056341285 -1.1542683e-06 -5.5711058e-05 -0.018496012
0001d0 fe a1 54 bc 50 c5 79 bc ed 55 97 bc 2b 42 c6 ba
       -0.012978075 -0.015244797 -0.01847359 -0.0015125921
0001e0 b1 1b 87 bc 0a 31 b1 3b 9a c9 f7 bb a3 1b fe bc
       -0.016492696 0.0054074572 -0.0075618746 -0.031019038
0001f0 c8 b2 29 3b e2 9d 47 b8 c1 3e 47 bc d7 d8 02 bd
       0.0025893915 -4.7592337e-05 -0.012160958 -0.031945076
000200 6c c7 e2 bc d2 d8 b5 ba 8c 63 d6 bc 83 2c 8d bb
       -0.027682982 -0.0013873822 -0.026170515 -0.0043082847
000210 1c ef 65 39 27 4e e2 bc 80 63 0e bb 12 71 0c bd
       0.00021928217 -0.027625157 -0.0021726787 -0.03428752
000220 d9 8d 12 3b 17 5c cc b9 8a 44 d3 ba 2f 61 73 bc
       0.002236238 -0.00038978524 -0.0016118449 -0.014854713
000230 77 e5 2b bc 8f d9 14 bb 5f 53 9b 3a e4 e3 9d b8
       -0.01049172 -0.0022712683 0.0011850408 -7.528791e-05
000240 9b 0f 38 3d 85 5e 04 3d a7 34 6a 3d 19 b2 dc 3d
       0.044936758 0.032316703 0.05717912 0.10776157
000250 8a 83 61 bd 86 1d 9f bd 8c 88 31 be b4 92 76 3e
       -0.055057086 -0.07769303 -0.17337245 0.240794
000260 fc c8 af 3e a4 d5 bc 3e 54 a0 62 bd 32 30 b2 bc
       0.34333026 0.36881745 -0.055328682 -0.021751497
000270 34 50 02 3d b3 42 00 3e 41 2b d5 3d 97 04 5e bd
       0.03181477 0.12525444 0.10408641 -0.054203596
000280 e3 da 47 3e 55 6c 29 be ff 84 d7 bc 61 a5 f7 3d
       0.19517092 -0.16545232 -0.026308535 0.120920904
000290 b6 7d 35 be 4d 8c e3 3d 0f 73 c7 3d a8 3a 9f 3c
       -0.17723736 0.111107446 0.097387426 0.01943715
0002a0 da 7e 5d be 25 3c 91 3d 00 a5 bd 3d 02 73 b5 3c
       -0.21630421 0.0709155 0.09259987 0.022149567
0002b0 a2 a4 f2 3d 2f 70 0c be d2 29 a7 3d d2 2b ab bd
       0.118478075 -0.1371467 0.081622735 -0.083579674
0002c0 85 cf 8d 3d 38 7a ac bd c3 b5 0e 3d 3f a4 39 bc
       0.06924347 -0.08421749 0.03484131 -0.011330663
0002d0 7f 9e 1d be 57 db f9 bd 84 72 c0 bd 94 af 0c be
       -0.15392493 -0.12200039 -0.09396842 -0.13738853
0002e0 fb 4a 59 bd 8c 95 ef bd 6a a3 92 bd 99 1a af bd
       -0.053050023 -0.11698446 -0.07160075 -0.08549995
0002f0 05 d6 24 be 4f e1 76 3d f6 26 25 3e 33 fa 7e 3e
       -0.16097267 0.060273465 0.16128144 0.24900131
000300 08 29 72 3c fd 1b e6 3d a7 d5 05 bd 66 53 2b 3d
       0.01478029 0.11235807 -0.032674458 0.04182758
000310 d1 41 20 be 02 3e 8c 3e e1 4f 47 3c bc c3 aa 3c
       -0.15650107 0.27391058 0.012165041 0.020845287
000320 bd f3 50 3c a3 d2 54 3c a3 02 6e be e6 c8 ea 3c
       0.012753424 0.012989673 -0.23243193 0.028660249
000330 22 79 4b 3e 88 ee 1d bd d1 de 50 3b 3f aa ab bd
       0.19870427 -0.03855756 0.003187109 -0.08382081
000340 1d 87 e8 bd 45 ef 8a 3d 55 27 a0 bd ba bd 11 be
       -0.11353896 0.06783918 -0.07820002 -0.14232531
000350 16 a1 51 be 13 c2 4d be c7 a2 33 be c3 96 37 3c
       -0.20471606 -0.20093565 -0.17542563 0.011205378
000360 89 1c 1d 3e 8f d6 69 3e ed a1 fc 3d 81 09 02 3e
       0.15342917 0.22835754 0.123355724 0.12698938
000370 1f 0e b4 3c 5f 97 0e be 48 a4 6d bd 7c 37 d1 3e
       0.02197939 -0.13924931 -0.058018 0.40862644
000380 52 a5 5f 3e d4 44 57 bd de f7 42 be 1d 01 c6 bd
       0.21840408 -0.052555874 -0.19039866 -0.09668181
000390 21 6c 04 be 13 54 db 3d 91 ae a5 3e 9f d4 12 3e
       -0.12931873 0.10709395 0.32359746 0.14338921
0003a0 94 42 96 be 22 4b 1b 3c 2e 80 f7 3c 69 d6 4c 3c
       -0.2934767 0.009478362 0.030212488 0.012502291
0003b0 f9 79 2d be 07 12 d7 3d d3 13 98 bd f8 49 99 be
       -0.1694106 0.10501485 -0.07425656 -0.29939246
0003c0 62 79 3d be 2b 3f d7 3c 99 d3 69 be b3 e4 c7 bc
       -0.18503335 0.026275238 -0.22834624 -0.024401044
0003d0 64 c6 6c bd 72 88 48 bd 84 b5 e2 bc 8d db 0f 3d
       -0.057806388 -0.04895825 -0.027674444 0.03512149
0003e0 ec a8 ec bd 4f ce 92 bc 86 f1 10 3e c1 f8 11 3d
       -0.11555657 -0.017920641 0.14154634 0.03563762
0003f0 25 c8 33 3e e2 c9 c7 3d 09 fe 37 bd ff 59 3a be
       0.17556818 0.09755303 -0.04492 -0.18198393

act_fc1.bias f4 [64]
000000 fc 8a 30 bd bc b1 18 bb 0e 9f ee bd d1 02 c6 bd
       -0.043101296 -0.0023299297 -0.11651431 -0.09668506
000010 b8 07 a3 ba 5f 79 3a bd c9 ec 87 bc dc 26 87 bd
       -0.0012438213 -0.045525905 -0.0165924 -0.06599209
000020 fe 2c 45 be 49 dc dd 3e 51 ff 84 bd 3c 7f 33 bd
       -0.19255444 0.43332127 -0.0649401 -0.043822512
000030 61 7b 17 3f 45 5e c2 3d 9b d0 5f 3f 2c 60 d9 bc
       0.59172636 0.09490637 0.8742768 -0.026535116
000040 bf 7f e3 3d 21 8d b0 3d b7 f0 2b 3f 77 7e 19 3e
       0.1110835 0.08620668 0.67164177 0.14989649
000050 4f 31 6f bd fb ab 87 bd 59 10 87 bd 83 df f5 39
       -0.058396634 -0.066245995 -0.06594915 0.0004689657
000060 4a de dd 3d 3f 32 78 bd 83 d2 6c 3d eb 8a 4e bc
       0.10833414 -0.060594793 0.057817947 -0.012606363
000070 28 f8 e1 bc 31 47 9b bd 1e 95 8c 3d f3 94 58 bd
       -0.02758415 -0.07581938 0.06864379 -0.052876424
000080 ae 92 0c bb 0e d7 20 bd e1 75 0f bd 71 9c 60 be
       -0.0021449733 -0.039267592 -0.035024527 -0.21934678
000090 9b f1 46 3e 1e 26 b7 3e 2b 5b 8e 3e 05 ec 12 3d
       0.19428103 0.3577127 0.2780393 0.035869617
0000a0 5e d9 23 bd f8 8f 53 3f 61 99 30 bd 6f 15 53 bc
       -0.04000222 0.82641554 -0.043115024 -0.012883528
0000b0 9a 21 72 bc b2 29 f1 bb 7f 22 5f bc 3b cc 0f 3d
       -0.014778519 -0.007359707 -0.013619064 0.03510688
0000c0 d3 d5 2f 3f bf b6 3c be 2a eb 03 bd c2 0e dd bd
       0.68685645 -0.18429087 -0.03220669 -0.107938305
0000d0 12 a5 0f bd d5 31 7e 3e 1d 49 32 b9 b7 72 31 3f
       -0.035069533 0.24823697 -0.0001700264 0.69315666
0000e0 da d4 01 bd 03 39 2b bd 71 a6 1e bb 9c 86 f5 3c
       -0.03169713 -0.041802417 -0.0024208094 0.029971413
0000f0 3b f8 b9 bd d8 3e a8 bd 91 dd a9 bc d9 7d 04 3e
       -0.09080549 -0.082151115 -0.020735534 0.12938632
