Server/src/ml/models/80895d19-1a04-4821-b57c-2264ac7d3194/best.model (torch, 124484 bytes, 10 tensors)

layers.0.lin.weight f4 [6, 4]
-1.1297246 0.924759 0.13668859 -0.49836364 -0.52408355 -0.20352487 -0.49332604 0.4489876
0.07178995 0.6772596 -1.1487268 -0.59391123 1.8316967 -1.2264775 0.50086814 -0.039670844
1.2439777 -0.12074775 0.22460702 -0.031657986 0.8644681 1.8385586 -0.10187163 0.24293046
00000000: d19a 90bf 01bd 6c3f 18f8 0b3e 8529 ffbe
00000010: 572a 06bf d368 50be 3b95 fcbe b4e1 e53e
00000020: 9c06 933d e360 2d3f 7b09 93bf 910a 18bf
00000030: 0a75 ea3f 37fd 9cbf e538 003f e57d 22bd
00000040: a93a 9f3f 994a f7bd 62ff 653e ceab 01bd
00000050: c84d 5d3f e355 eb3f 13a2 d0bd c3c2 783e

layers.2.lin.weight f4 [6, 6]
-0.11849775 -0.32908198 -0.9295889 -1.1928552 -0.45973238 0.8619962 -0.5084948 0.42393073
-0.24242288 -0.7393465 0.45318997 0.4617942 0.9002659 0.3286177 0.28964922 -2.1480353
-1.2258903 0.617546 0.8902715 -1.0876747 1.3872962 -0.58978665 0.25922626 0.1347925
-1.0995616 -0.7776367 0.033225097 -0.629188 0.8070617 1.026601 -0.35225993 0.31856796
-0.96830815 1.727141 0.5427488 0.059453137
00000000: f3ae f2bd 6f7d a8be 8af9 6dbf 7baf 98bf
00000010: 0b62 ebbe c8ab 5c3f b72c 02bf 730d d93e
00000020: b43d 78be d045 3dbf 8408 e83e 4a70 ec3e
00000030: d377 663f 9440 a83e e74c 943e 6979 09c0
00000040: f9e9 9cbf 7f17 1e3f d5e8 633f ed38 8bbf
00000050: ec92 b13f 42fc 16bf 4eb9 843e 0c07 0a3e
00000060: 6fbe 8cbf 3313 47bf 0a17 083d 7712 21bf
00000070: 989b 4e3f a967 833f 6a5b b4be 571b a33e
00000080: 0be3 77bf f512 dd3f 96f1 0a3f 2285 733d

layers.4.lin.weight f4 [6, 6]
-0.92904186 -0.99668545 0.27124634 1.1006409 -0.17867738 -0.31113562 0.14043699 0.14410713
0.52134126 0.49274647 0.57430017 -1.8191655 -0.47373444 -0.2006813 -1.0950431 -0.25170246
1.1958071 0.3759766 0.9156694 -0.30119818 0.68749934 -0.7023586 1.0382316 -0.6770632
-0.4001904 0.79695106 -1.4133505 0.6059587 1.0551779 -0.6366651 -1.8620943 0.12232298
-3.4193187 -1.6045998 0.575876 0.85343623
00000000: b0d5 6dbf c726 7fbf cde0 8a3e cde1 8c3f
00000010: 34f7 36be 2b4d 9fbe b7ce 0f3e d290 133e
00000020: 9f76 053f 4449 fc3e 5605 133f 6ada e8bf
00000030: 528d f2be 667f 4dbe 5f2a 8cbf 25df 80be
00000040: 3510 993f 0180 c03e 4f69 6a3f a636 9abe
00000050: f5ff 2f3f c6cd 33bf c6e4 843f 0454 2dbf
00000060: c2e5 ccbe fc04 4c3f abe8 b4bf 1c20 1b3f
00000070: 1210 873f 7cfc 22bf 1b59 eebf 7884 fa3d
00000080: 1ed6 5ac0 8763 cdbf 9c6c 133f cc7a 5a3f

act_fc1.weight f4 [64, 216]
-0.02709946 -0.3100104 -0.11955448 -0.39200878 0.05113103 -0.13499424 0.12248257 0.1034559
-0.10783269 -0.17477563 0.032070857 -0.048032075 -0.11472948 -0.051096246 -0.24208575 -0.11205589
0.06480931 -0.34051487 0.1502928 0.24405299 -0.022916006 0.22517256 0.13216944 -0.051022667
-0.014076223 -0.07929545 -0.09659469 -0.18363972 -0.13411574 -0.21712352 0.17757739 0.23204981
0.16990104 0.2831862 -0.070707396 0.26583454 0.18440986 0.16580822 -0.16791971 -0.09386969
0.052116916 0.01796111 -0.061661653 0.10718281 -0.012972163 0.079827584 0.07869963 -0.054365713
-0.031641036 0.022539958 0.10862481 -0.23000067 -0.19325878 0.29430318 -0.06942562 -0.015018925
-0.608196 0.21349451 -0.20103298 -0.40577617 0.068058744 0.19516085 -0.009706609 -0.05527373
0.3648899 -0.12689464 -0.07289482 -0.23034188 0.01715043 -0.42804077 -0.23239402 0.236822
0.022019105 0.1315938 -0.2308666 -0.06855852 -0.027857276 -0.28285378 -0.01533938 -0.10114442
0.052326 -0.50742006 0.0038807779 0.1266518 0.0456644 0.3046047 -0.5113804 0.7683029
-0.48476154 -0.06444996 -0.080766566 -0.20857774 0.33301014 -0.43117708 -0.33460292 0.31728885
-0.08388534 -0.025392102 -0.6217789 0.11291936 -0.38826093 -0.3871166 0.07475718 0.050870914
-0.15767801 -0.11124415 0.27212703 -0.16932246 0.12434706 0.036403447 -0.19536814 -0.008782474
0.26928222 -0.22992548 -0.025180472 0.1092285 -0.50427747 0.3735953 -0.036780227 -0.5806276
-0.14250895 -0.21851252 0.35952386 -0.5447276 -0.25937116 0.164797 0.034686808 0.29215118
-0.45579934 0.9033183 -0.43148476 -0.23127054 0.00013516494 -0.14387816 0.14782634 -0.34316468
0.1897768 0.12976946 -0.1195856 -0.054286808 -0.27490264 -0.055555478 -0.040139485 -0.34369135
-0.041853905 -0.11202972 1.4230463e-06 -0.20967983 0.010423036 0.21031903 0.11497504 0.17871672
-0.021447215 0.025158126 0.38403973 -0.12558791 -0.05103562 0.028658703 -0.3759382 0.35788947
-0.027064037 -0.27480984 -0.03087471 -0.08495134 0.121452905 -0.17576261 0.17277332 0.21239091
-0.16712606 -0.037658505 0.083937295 -0.025130408 0.15147232 -0.14924847 0.10504528 0.19724701
-0.20971557 -0.098440625 0.09290841 -0.08695227 0.15910082 0.21404238 0.04763456 0.19059172
0.041964676 0.20755722 -0.07101073 -0.17940883 -0.009765109 -0.32938117 -0.009878517 0.1186232
0.13605677 0.22796354 -0.13823356 0.16290794 0.25401947 -0.09694274 -0.10975901 -0.022594396
-0.14362845 -0.09106197 -0.058914427 -0.10504913 0.09230972 0.059297234 -0.24256825 -0.1897121
0.16008122 -0.2360296 -0.05447764 -0.15103866 0.049469315 -0.3118328 0.1397265 -0.037444398
-0.12327034 -0.099195614 0.065167405 -0.02009748 0.11188895 -0.0558555 -0.15033732 -0.09203618
0.025992136 0.018470356 0.13418686 -0.14826511 -0.15215044 0.0210443 -0.35476094 0.18703847
-0.03040896 -0.33352488 -0.15449111 0.0106660435 -0.028449947 0.32254893 0.017162696 -0.07599309
-0.19830531 -0.093567036 0.017632425 -0.04327868 -0.04076715 0.11981457 -0.18841991 -0.033208415
0.009878438 -0.2138105 -0.022271117 0.045361415 -0.10076052 -0.041488353 0.15492031 -0.041693028
00000000: b0ff ddbc afb9 9ebe fbd8 f4bd 60b5 c8be
00000010: c56e 513d ee3b 0abe 24d8 fa3d b0e0 d33d
00000020: 63d7 dcbd 62f8 32be bb5c 033d 48bd 44bd
00000030: 4af7 eabd 4c4a 51bd 54e5 77be 8f7d e5bd
00000040: beba 843d f757 aebe 5be6 193e 07e9 793e
00000050: 59ba bbbc a393 663e 6d57 073e 25fd 50bd
00000060: f59f 66bc a765 a2bd 70d3 c5bd 0d0c 3cbe
00000070: a355 09be a155 5ebe d9d6 353e 779e 6d3e
00000080: 8afa 2d3e c8fd 903e 0acf 90bd 771b 883e
00000090: f0d5 3c3e a1c9 293e 25f3 2bbe c13e c0bd
000000a0: 8c78 553d 2e23 933c ee90 7cbd a982 db3d
000000b0: 3289 54bc a57c a33d 462d a13d 95ae 5ebd
000000c0: 089a 01bd b8a5 b83c af76 de3d 4c85 6bbe
000000d0: a1e5 45be e8ae 963e 052f 8ebd f011 76bc
000000e0: bcb2 1bbf 4e9e 5a3e 97db 4dbe e5c1 cfbe
000000f0: 6262 8b3d 3fd8 473e 7808 1fbc b566 62bd
00000100: d9d2 ba3e abf0 01be e149 95bd bede 6bbe
00000110: 0f7f 8c3c 2928 dbbe b3f8 6dbe 7781 723e
00000120: 6961 b43c 86c0 063e 4b68 6cbe 6968 8cbd
00000130: f134 e4bc 36d2 90be 0652 7bbc ce24 cfbd
00000140: ca53 563d 48e6 01bf a654 7e3b 02b1 013e
00000150: 980a 3b3d 26f5 9b3e d3e9 02bf 80af 443f
00000160: aa32 f8be 57fe 83bd f168 a5bd 6795 55be
00000170: 4e80 aa3e 3ec3 dcbe 1351 abbe af73 a23e
00000180: 14cc abbd 1903 d0bc e72c 1fbf 4442 e73d
00000190: 23ca c6be 2634 c6be 4b1a 993d 055e 503d
000001a0: 5876 21be f9d3 e3bd 3c54 8b3e de62 2dbe
000001b0: aca9 fe3d c81b 153d 960e 48be 5ee4 0fbc
000001c0: 5cdf 893e 9671 6bbe 4747 cebc 31b3 df3d
000001d0: 5418 01bf e247 bf3e dda6 16bd 03a4 14bf
000001e0: deed 11be bfc1 5fbe 8313 b83e 4573 0bbf
000001f0: 4ccc 84be 8bc0 283e c113 0e3d d794 953e
00000200: 885e e9be de3f 673f 92eb dcbe 2fd2 6cbe
00000210: 10bb 0d39 cc54 13be ca5f 173e 48b3 afbe
00000220: d954 423e 49e2 043e 4ce9 f4bd d85b 5ebd
00000230: 0ac0 8cbe 248e 63bd 4d69 24bd 50f8 afbe
00000240: 006f 2bbd d66f e5bd 80ff be35 4fb6 56be
00000250: 62c5 2a3c df5d 573e 0978 eb3d 8401 373e
00000260: 12b2 afbc 6a18 ce3c dba0 c43e 1e9a 00be
00000270: ba0a 51bd a8c5 ea3c f97a c0be 4a3d b73e
00000280: 66b5 ddbc e0b3 8cbe f6ec fcbc f8fa adbd
00000290: 4dbc f83d 1dfb 33be 7deb 303e 017d 593e
000002a0: 1823 2bbe ce3f 1abd 51e7 ab3d 49de cdbc
000002b0: 8f1b 1b3e 97d4 18be fb21 d73d 1ffb 493e
000002c0: aebf 56be 3d9b c9bd c446 be3d 0814 b2bd
000002d0: 53eb 223e ed2d 5b3e 751c 433d 7a2a 433e
000002e0: 27e3 2b3d e189 543e 136e 91bd f3b6 37be
000002f0: d6fd 1fbc a6a4 a8be 81d9 21bc b8f0 f23d
00000300: 7752 0b3e 466f 693e 198d 0dbe 57d1 263e
00000310: d70e 823e ea89 c6bd 55c9 e0bd e217 b9bc
00000320: 5613 13be b37e babd 4150 71bd 0024 d7bd
00000330: e10c bd3d a8e1 723d d063 78be e443 42be
00000340: 55ec 233e beb1 71be f223 5fbd e1a9 1abe
00000350: 56a0 4a3d 8ca8 9fbe 7714 0f3e 4c5f 19bd
00000360: 2975 fcbd 1227 cbbd 7d76 853d 78a3 a4bc
00000370: 0926 e53d bdc8 64bd 07f2 19be 777d bcbd
00000380: 76ed d43c 254f 973c 4868 093e cfd2 17be
00000390: 53cd 1bbe 1965 ac3c 3aa3 b5be 0387 3f3e
000003a0: 361c f9bc c6c3 aabe eb32 1ebe a1c0 2e3c
000003b0: dd0f e9bc 2225 a53e c898 8c3c 44a2 9bbd
000003c0: 8c10 4bbe 13a0 bfbd e071 903c fc44 31bd
000003d0: 75fb 26bd 5761 f53d 26f1 40be 8c05 08bd
000003e0: 2cd9 213c 24f1 5abe eb71 b6bc e4cc 393d
000003f0: 885b cebd b1ef 29bd 6ea3 1e3e 4fc6 2abd

act_fc1.bias f4 [64]
0.14584374 0.375503 -0.38129234 0.5452652 1.6322178 1.9118855 -0.010072267 0.025093911
-0.16280504 -0.039669357 -0.079072185 0.9654366 0.1326191 1.044026 -0.43011662 -0.08936536
0.6718366 -0.06297066 -0.6059218 -0.86480004 -0.36948934 -0.12492366 -0.7683429 -0.15740912
0.041981146 -0.57124424 2.2278163 -0.011314067 0.09073347 -0.3500327 0.22109567 -0.14728916
-0.25460637 1.7604043 -0.49206185 -0.111028835 0.4296402 -0.3890615 -0.6049628 0.020191085
-0.13219737 0.39450118 -0.4126295 -0.4821285 -0.20842652 -0.40720603 -0.20766346 -0.16004385
0.8735476 -0.3824646 0.14828198 -0.65100825 -0.06749172 -0.7181137 -0.0022995505 1.347176
-0.294267 -0.0029788304 -0.3179674 0.08017775 -0.3088248 -0.18346621 -0.92768097 0.5934833
00000000: 1058 153e ee41 c03e c038 c3be 8096 0b3f
00000010: 83ec d03f aab8 f43f 2606 25bc bf91 cd3c
00000020: 5db6 26be 567c 22bd 99f0 a1bd da26 773f
00000030: 4dcd 073e a5a2 853f 3f38 dcbe 3005 b7bd
00000040: 7cfd 2b3f c3f6 80bd b11d 1bbf 8963 5dbf
00000050: b52d bdbe fad7 ffbd 1fb2 44bf db2f 21be
00000060: 6cf4 2b3d 103d 12bf 8b94 0e40 a35e 39bc
00000070: 78d2 b93d 7c37 b3be e766 623e f8d2 16be
00000080: c45b 82be ee54 e13f 88ef fbbe 1663 e3bd
00000090: cdf9 db3e 1233 c7be d8de 1abf c667 a53c
000000a0: bf5e 07be 0ffc c93e 2c44 d3be 8cd9 f6be
000000b0: c36d 55be 4f7d d0be bba5 54be 89e2 23be
000000c0: d1a0 5f3f 66d2 c3be 3bd7 173e 7aa8 26bf
000000d0: 1939 8abd 4dd6 37bf 0eb4 16bb 4370 ac3f
000000e0: 2aaa 96be 7b38 43bb a0cc a2be 3b34 a43d
000000f0: 491e 9ebe 91de 3bbe 807c 6dbf 86ee 173f

act_fc2.weight f4 [36, 64]
0.5423134 -0.027924368 0.20912854 -0.5860534 -0.8042874 -0.7360953 1.0262004 -0.10101005
0.022444334 -0.19993679 -0.1587622 0.10759701 0.040211793 -0.28364635 -0.40631875 -0.109076075
0.122943066 -0.3250543 0.31831035 0.710193 0.015798878 0.024539424 -0.17332995 -0.21729979
-0.76672554 -0.30213243 0.2613903 -0.21837911 -0.015329022 -0.25333077 -0.17539878 -0.4757778
-0.063248105 0.21620338 -0.15713385 0.35228622 0.07043233 0.1537005 -0.14993216 -0.24312936
0.14328845 -0.43149668 -0.048681114 -0.072625816 -0.04613293 -0.31719196 0.10047049 0.12874277
-0.22148217 0.15283597 -0.10100047 0.074781105 -0.43397155 7.07889e-05 -0.41483068 0.34742758
0.2492969 -2.4148883e-10 0.30265033 1.001753 -0.21649326 -0.1693616 0.17039701 0.42291373
-0.09393973 -0.35692173 0.35219908 -0.16410923 -0.581878 -0.44595638 -0.0680418 0.07311935
0.1981569 0.31816375 0.13145654 0.28474906 -0.069003396 0.01664911 -0.060416643 -0.07358744
-0.4451932 0.064195804 -0.20118684 -0.060326617 -0.044355202 -0.1667166 -0.4888713 0.22025354
-0.44189918 -0.33338884 0.71732527 -0.15427245 -0.5262952 -0.37399095 -0.1730596 -0.29082206
0.09001745 0.22629401 0.081115775 -0.26847795 -0.50377786 0.09228192 0.52984196 0.3524333
0.28429013 0.027878597 -0.38762248 0.2761051 0.35016978 -0.2719793 -0.1550681 -0.113862075
-0.24313022 0.5877876 -0.04594479 0.10416672 -0.22471271 0.025718132 -0.23682559 -0.048476513
0.24997917 1.2640327e-12 0.21269237 0.0252597 0.024793902 -0.00522688 0.6019271 0.18441528
0.06869987 -0.43328807 0.09743485 -0.30537406 -0.4753415 -0.39321715 -0.18059199 -0.22359955
-0.15828721 -0.24511643 1.2790554 0.22631997 0.44738498 -0.19618975 0.29239833 0.68490154
0.07191408 -0.5389425 -0.038141757 -0.1643711 -0.24408513 -0.6769668 0.41463378 -0.18195677
-0.25047374 0.049224686 0.037464414 0.38839033 -0.51778716 0.10931423 -0.64096296 -0.13407384
0.6314607 -0.18126696 -0.21538898 -0.18992732 0.35000837 -0.10322942 -0.037233688 -0.10281956
0.04525594 0.14082338 0.031223511 -0.011388196 -0.21818203 -0.24540986 -0.30510187 -0.02440531
-0.026614593 -0.0474406 0.18273894 -0.30383915 0.0900795 0.49794677 0.32446012 -0.33505285
0.21956432 -4.1057054e-11 0.18142918 -0.015561779 -0.058020834 -0.35262188 0.05174868 -0.53663576
-0.16063567 -0.3617855 0.11471964 -0.15107885 -0.09589647 -0.35846835 -0.03784808 0.118992426
0.3867441 0.43109977 0.26312712 -0.51208913 0.44077447 -0.10853919 -0.3060347 -0.8887005
-0.13097818 0.13178483 -0.22025044 0.16996609 0.23328397 0.12846585 0.070247196 -0.2653978
0.48177588 -0.31461948 0.5025909 -0.52863586 -0.71609133 0.33574733 0.026800698 0.50347257
0.019136135 -0.57480896 -0.40848103 -0.12284847 0.07573469 0.19762452 -0.0007802786 0.7014233
0.016941944 0.0015321012 -0.124776214 0.0024963613 0.5297521 0.31066227 -0.3668802 -0.10735357
0.044627838 0.034216847 -0.13373859 1.0627517 0.47414967 0.028034557 0.09380367 -0.4800155
-0.5877379 -3.7595562e-11 -0.36106858 -0.61521006 -0.033386655 -0.054822993 -0.11448861 -0.028251221
00000000: 0dd5 0a3f a5c1 e4bc cb25 563e 9807 16bf
00000010: c7e5 4dbf be70 3cbf 895a 833f 5bde cebd
00000020: 2edd b73c 3bbc 4cbe 8f92 22be d25b dc3d
00000030: 1fb5 243d 183a 91be 0309 d0be 4763 dfbd
00000040: 93c9 fb3d 846d a6be 93f9 a23e 35cf 353f
00000050: a66c 813c e706 c93c 687d 31be d683 5ebe
00000060: 2048 44bf 1ab1 9abe f3d4 853e c69e 5fbe
00000070: 9426 7bbc 92b4 81be bd9b 33be 2699 f3be
00000080: 3988 81bd 6b64 5d3e b2e7 20be dc5e b43e
00000090: d33e 903d aa63 1d3e d187 19be e7f6 78be
000000a0: 35ba 123e 22ed dcbe d965 47bd d8bc 94bd
000000b0: e2f5 3cbd fc66 a2be 79c3 cd3d 25d5 033e
000000c0: 39cc 62be 0881 1c3e 56d9 cebd d626 993d
000000d0: 8531 debe 8074 9438 b064 d4be 07e2 b13e
000000e0: b047 7f3e 88c2 84af fcf4 9a3e 7139 803f
000000f0: 69b0 5dbe 216d 2dbe 8e7c 2e3e 2688 d83e
00000100: 7963 c0bd 72be b6be 7053 b43e 400c 28be
00000110: f5f5 14bf 6554 e4be 8059 8bbd 99bf 953d
00000120: a4e9 4a3e 5ce6 a23e 8b9c 063e a1ca 913e
00000130: a751 8dbd b763 883c 7177 77bd 03b5 96bd
00000140: 5df0 e3be 1779 833d ec03 4ebe 0b19 77bd
00000150: cdad 35bd c2b7 2abe 574d fabe 258a 613e
00000160: 9c40 e2be f1b1 aabe a1a2 373f 99f9 1dbe
00000170: 48bb 06bf be7b bfbe 8936 31be a1e6 94be
00000180: 125b b83d 9eb9 673e 0720 a63d f175 89be
00000190: 96f7 00bf 4efe bc3d b9a3 073f 2372 b43e
000001a0: 7a8e 913e a861 e43c 7476 c6be a65d 8d3e
000001b0: 7449 b33e df40 8bbe 2cca 1ebe 8530 e9bd
000001c0: 21f7 78be 4079 163f 9b30 3cbd 5c55 d53d
000001d0: 171b 66be d5ae d23c 6882 72be 4f8f 46bd
000001e0: 8afa 7f3e 94e5 b12b 07cc 593e 6eed ce3c
000001f0: 951c cb3c 3f46 abbb e517 1a3f 5cd7 3c3e
00000200: 84b2 8c3d efd7 ddbe ec8b c73d fd59 9cbe
00000210: f65f f3be c253 c9be 1bed 38be 48f7 64be
00000220: 0b16 22be cdff 7abe 16b8 a33f 6cc0 673e
00000230: a50f e53e f7e5 48be 3cb5 953e b555 2f3f
00000240: b047 933d 23f8 09bf 883a 1cbd e650 28be
00000250: 74f1 79be b24d 2dbf e14a d43e e052 3abe
00000260: 183e 80be d39f 493d 4974 193d 19db c63e
00000270: b38d 04bf 24e0 df3d 2616 24bf a74a 09be
00000280: 69a7 213f 0c9e 39be ee8e 5cbe 4f7c 42be
00000290: 4c34 b33e f269 d3bd 5a82 18bd 1093 d2bd
000002a0: 4b5e 393d 0134 103e 73c8 ff3c 8e95 3abc
000002b0: 1c6b 5fbe b94c 7bbe 5036 9cbe a5ed c7bc
000002c0: d906 dabc 1351 42bd eb1f 3b3e ce90 9bbe
000002d0: 9a7b b83d e1f2 fe3e a31f a63e 0c8c abbe
000002e0: 78d5 603e 2292 34ae 92c8 393e d5f6 7ebc
000002f0: 41a7 6dbd db8a b4be 6df6 533d f660 09bf
00000300: ad7d 24be f33b b9be 21f2 ea3d 6ab4 1abe
00000310: 5e65 c4bd 2a89 b7be 9706 1bbd 4db2 f33d
00000320: 5303 c63e 1cb9 dc3e 99b8 863e 4618 03bf
00000330: 31ad e13e cb49 debd 95b0 9cbe e081 63bf
00000340: 251f 06be 9af2 063e 5589 61be 970b 2e3e
00000350: fee1 6e3e 8d8c 033e c3dd 8f3d 38e2 87be
00000360: 54ab f63e ce15 a1be cca9 003f ae54 07bf
00000370: c351 37bf 13e7 ab3e 238d db3c 94e3 003f
00000380: 62c3 9c3c ae26 13bf 6d24 d1be fb97 fbbd
00000390: ca1a 9b3d 155e 4a3e 9c8b 4cba 7a90 333f
000003a0: d5c9 8a3c c9d0 c83a ac8a ffbd fe99 233b
000003b0: d59d 073f 200f 9f3e b9d7 bbbe 30dc dbbd
000003c0: aecb 363d f726 0c3d c5f2 08be 3f08 883f
000003d0: bfc3 f23e baa8 e53c 231c c03d 97c4 f5be
000003e0: fe75 16bf d758 25ae fbdd b8be 687e 1dbf
000003f0: 72c0 08bd 138e 60bd 0179 eabd 1b6f e7bc

act_fc2.bias f4 [36]
-0.40959123 -0.39809835 -0.58047086 -0.48688343 -0.36657223 -0.2574039 -0.44229278 0.0017283505
0.58864814 0.7699306 0.08505788 -0.44010448 -0.42418692 0.43062067 0.49469405 0.50529116
0.33514068 -0.21825194 -0.25739336 0.33978596 0.453781 0.46130386 0.4752952 -0.48377806
-0.58506256 0.059043612 0.73525816 0.5675901 0.02201415 -0.43245557 -0.36421105 -0.41250202
-0.27597737 -0.39080402 -0.33101386 -0.3706794
00000000: f1b5 d1be 8cd3 cbbe bd99 14bf c948 f9be
00000010: 5baf bbbe 72ca 83be 3374 e2be d289 e23a
00000020: a5b1 163f 2c1a 453f d332 ae3d 6055 e1be
00000030: 072f d9be 507a dc3e 8a48 fd3e c35a 013f
00000040: 8f97 ab3e 707d 5fbe 10c9 83be 6df8 ad3e
00000050: fc55 e83e 0530 ec3e e459 f33e c2b1 f7be
00000060: a9c6 15bf b7d7 713d e139 3c3f 964d 113f
00000070: 0557 b43c d16a ddbe df79 babe 7733 d3be
00000080: e84c 8dbe 7717 c8be a67a a9be b1c9 bdbe

val_fc1.weight f4 [64, 216]
0.12577243 -0.04553361 -0.3628279 0.12675709 -0.0036698806 -0.33627844 0.15478797 -0.038825996
0.0030320892 0.15911806 -0.10588905 0.22235802 0.24608885 0.21053869 -0.31791437 0.39114854
-0.45853955 -0.19772854 0.28039262 0.1254543 0.10351799 0.31505606 -0.14125672 0.22217548
0.13834402 0.14165321 -0.14923064 0.45068786 -0.12471443 -0.108115695 0.0968103 0.017071871
-0.26305538 0.265463 -0.0109478785 -0.29877293 0.0567584 -0.23801714 -0.039034214 -0.0931014
0.058830936 -0.08621934 0.1466297 -0.16069642 -0.39666432 -0.01894963 -0.28749043 -0.32378405
-0.10910224 -0.80396235 0.1304427 -0.37023658 0.3276149 0.11416617 0.08079729 -0.06310282
0.30003533 0.08261903 -0.11260484 0.30692872 0.2412375 0.045112062 0.04089885 0.2163556
0.040539525 0.34205148 0.025551045 0.119667195 -0.21870479 0.4253014 -0.08005128 -0.12719613
0.062964804 -0.28110838 -0.33205777 -0.5167546 -0.15982036 -0.40528727 0.17070118 0.019212265
-0.040168844 -0.40878087 0.13150704 -0.118107475 -0.22911878 -0.24731542 0.10228467 -0.59003055
-0.15190549 0.3901453 -0.1561187 -0.5157576 0.2121662 -0.57898337 0.1836984 0.1621613
-0.062181614 -0.3291984 0.21394686 -0.10098726 -0.21040775 0.18291625 0.12366758 0.12412171
-0.07736437 -0.0012833849 -0.1509893 0.06244335 0.29703337 0.33951804 -0.025759108 0.15426189
0.117913514 0.3277719 -0.06825467 -0.091772094 -0.2284769 -0.5278306 -0.5082339 0.47710267
-0.020482926 -0.013410834 -0.1699747 -0.6915841 -0.26568446 0.04245747 -0.24887347 -0.23693278
0.27987665 -0.65757304 -0.15516108 0.5196405 -0.058880888 -0.8277533 0.12376909 -0.44970712
0.09048521 0.087929316 -0.024125967 -0.17574932 -0.2697567 0.24420242 -0.41414666 -0.22246084
-0.08127095 -0.12201934 0.46650672 -0.3250137 -0.011702532 0.83359617 0.3325597 0.42396823
0.09340698 0.17602836 0.101472124 0.12658872 -0.2509396 -0.10856718 -0.05570393 -0.31674606
-0.45007518 0.5262837 0.19721778 0.21655637 0.050707314 -0.28698444 -0.054033265 0.25823617
-0.0654629 -0.30997527 -0.09409305 0.059603397 -0.07184059 -0.22958006 0.3264705 -0.049590357
0.041659184 0.056916755 0.17906433 0.11398895 0.14258762 0.34220314 0.12006693 0.37613747
0.32437932 -0.17845239 -0.088461794 -0.15981565 0.50427747 -0.3044834 0.13163157 0.7611262
0.23375767 0.3474103 0.02791119 0.16844536 0.03837364 0.003891395 -0.1825685 -0.27941737
-0.076416984 -0.16145678 0.15016659 -0.25491828 0.29800025 -0.1435561 0.09058911 0.056881577
0.2666084 0.033750612 0.15338902 -0.1790944 -0.23936506 0.41260785 0.26827565 -0.44896019
0.299853 0.115334466 -0.28485423 -0.08282553 0.040521625 -0.352208 0.16795956 0.4254537
-0.13949348 -0.058403816 -0.026022313 0.12052142 -0.12099372 -0.17010519 0.09474895 -0.31285718
0.2443158 -0.18073781 -0.123184904 -0.06166987 0.39420405 -0.08298476 0.15065596 0.60941976
-0.066773534 -0.26170436 0.40352184 -0.1580526 0.046353333 0.45915487 0.018322324 -0.01621104
0.4248067 -0.05247489 -0.08145875 0.4050874 0.22030447 0.14340867 -0.26938874 -0.25800285
00000000: 7dca 003e 7381 3abd 94c4 b9be 9ccc 013e
00000010: 6182 70bb b02c acbe bd80 1e3e 0208 1fbd
00000020: 04b6 463b d8ef 223e 5cdc d8bd d2b1 633e
00000030: b7fe 7b3e 7497 573e acc5 a2be 9f44 c83e
00000040: b2c5 eabe 5a79 4abe 9f8f 8f3e 1877 003e
00000050: 3d01 d43d 074f a13e 9aa5 10be f881 633e
00000060: 0eaa 0d3e 8a0d 113e ebcf 18be 8fc0 e63e
00000070: 476a ffbd c36b ddbd 7b44 c63d 4fda 8b3c
00000080: 32af 86be c4ea 873e bb5e 33bc c4f8 98be
00000090: 7f7b 683d c4ba 73be 57e2 1fbd f2ab bebd
000000a0: b5f8 703d c493 b0bd 1926 163e 9a8d 24be
000000b0: 9617 cbbe 413c 9bbc f231 93be 06c7 a5be
000000c0: ff70 dfbd 7ad0 4dbf c592 053e a68f bdbe
000000d0: 24bd a73e f4cf e93d 0d79 a53d 0d3c 81bd
000000e0: 3b9e 993e 2a34 a93d 5e9d e6bd c325 9d3e
000000f0: f706 773e 6dc7 383d 8d85 273d 538c 5d3e
00000100: c60c 263d 5f21 af3e 6d50 d13c 1314 f53d
00000110: 26f4 5fbe 1bc1 d93e edf1 a3bd b43f 02be
00000120: b1f3 803d 70ed 8fbe 7a03 aabe 084a 04bf
00000130: f3a7 23be d081 cfbe 4acc 2e3e 0a63 9d3c
00000140: 1688 24bd ba4b d1be c8a9 063e 55e2 f1bd
00000150: 1d9e 6abe 4140 7dbe a07a d13d 3e0c 17bf
00000160: 1d8d 1bbe 20c1 c73e 95dd 1fbe b108 04bf
00000170: 1942 593e 4138 14bf 6f1b 3c3e 9d0d 263e
00000180: 26b2 7ebd b18c a8be e314 5b3e 69d2 cebd
00000190: 2175 57be 664e 3b3e 6e45 fd3d 8633 fe3d
000001a0: 3671 9ebd 4037 a8ba f09c 1abe 99c4 7f3d
000001b0: c214 983e 4fd5 ad3e c404 d3bc d4f6 1d3e
000001c0: a47c f13d b8d1 a73e 1bc9 8bbd 02f3 bbbd
000001d0: d9f5 69be e81f 07bf 9e1b 02bf cd46 f43e
000001e0: cfcb a7bc 1db9 5bbc d90d 2ebe a80b 31bf
000001f0: cb07 88be e2e7 2d3d b0d8 7ebe 829e 72be
00000200: fe4b 8f3e b556 28bf 8ce2 1ebe 2907 053f
00000210: 162d 71bd a4e7 53bf a67a fd3d 0340 e6be
00000220: 4f50 b93d 4914 b43d d2a3 c5bc a1f7 33be
00000230: 8d1d 8abe 3310 7a3e 080b d4be c6cc 63be
00000240: 6271 a6bd 47e5 f9bd f8d9 ee3e 3268 a6be
00000250: fabb 3fbc 8f66 553f 4445 aa3e 5d12 d93e
00000260: 294c bf3d c740 343e 9ed0 cf3d 79a0 013e
00000270: 287b 80be 7858 debd ce29 64bd 8a2c a2be
00000280: 4170 e6be 87ba 063f 75f3 493e f4c0 5d3e
00000290: 79b2 4f3d a0ef 92be fc51 5dbd 8837 843e
000002a0: 6a11 86bd 14b5 9ebe dbb3 c0bd b122 743d
000002b0: 2921 93bd 0917 6bbe 2427 a73e 421f 4bbd
000002c0: d2a2 2a3d 8b21 693d a45c 373e 0a73 e93d
000002d0: 7d02 123e 4035 af3e a7e5 f53d 1795 c03e
000002e0: 0c15 a63e 39bc 36be 752b b5bd b7a6 23be
000002f0: 5418 013f 40e5 9bbe 6dca 063e 2bd9 423f
00000300: 2c5e 6f3e c3df b13e 02a6 e43c f17c 2c3e
00000310: ae2d 1d3d c606 7f3b 3df3 3abe cb0f 8fbe
00000320: 8280 9cbd ed54 25be 45c5 193e a684 82be
00000330: 7d93 983e 5f00 13be c986 b93d a8fc 683d
00000340: e580 883e 153e 0a3d 0312 1d3e 8664 37be
00000350: 1d1c 75be 5641 d33e 6d5b 893e 1cde e5be
00000360: 5586 993e 7a34 ec3d 6ad8 91be 6ea0 a9bd
00000370: 01fa 253d 9b54 b4be 97fd 2b3e 11d5 d93e
00000380: 61d7 0ebe d738 6fbd bf2c d5bc efd3 f63d
00000390: 8ecb f7bd 0e30 2ebe bd0b c23d d12e a0be
000003a0: ec2d 7a3e 5513 39be 5e48 fcbd 8c99 7cbd
000003b0: 1dd5 c93e eaf3 a9bd 8e45 1a3e ef02 1c3f
000003c0: 90c0 88bd 1dfe 85be 6a9a ce3e 8ad8 21be
000003d0: fedc 3d3d 5916 eb3e b318 963c 04cd 84bc
000003e0: 4480 d93e e9ef 56bd d8d3 a6bd 9e67 cf3e
000003f0: 7f97 613e b9d9 123e 52ed 89be f318 84be

val_fc1.bias f4 [64]
-0.6392794 -0.6106686 -0.0098521225 -0.03399757 -0.22074376 -0.35323793 -0.3625179 0.18817668
-0.45013323 -0.34513807 -0.114498846 -0.23115301 -0.09046206 0.27231425 -0.31242004 -0.3300348
-0.18720742 -0.21761903 0.28793553 -0.01553165 -0.00015191601 -0.00037479895 -0.09313872 -0.08214718
-0.0460643 0.014154746 -0.09099796 -0.43655026 -0.29683626 -0.0043070633 -0.4591085 -0.8891095
-0.046101473 -0.41720825 -0.7491643 -0.34899727 -0.32464468 -0.15143362 -0.43206537 -0.033572223
-0.5754733 -0.32526904 0.1948153 0.03190618 -0.09461302 -0.032018673 0.0196669 -0.047719054
-0.29073888 0.027737357 -0.23059535 -0.6409064 -0.29793936 -0.09702008 -0.20983493 -0.021977687
0.035911474 -0.016275335 0.028280986 -0.6564219 -0.47246677 -0.16741377 -0.2947046 0.26212937
00000000: d1a7 23bf c754 1cbf cc6a 21bc 0941 0bbd
00000010: a70a 62be 9adb b4be f29b b9be 63b1 403e
00000020: dd77 e6be f0b5 b0be 5f7e eabd 60b3 6cbe
00000030: 2c44 b9bd c66c 8b3e 85f5 9fbe 52fa a8be
00000040: 4db3 3fbe 86d7 5ebe 496c 933e 7678 7ebc
00000050: a54b 1fb9 aa80 c4b9 83bf bebd c83c a8bd
00000060: ebad 3cbd 4fe9 673c 235d babd 8483 dfbe
00000070: ecfa 97be 4422 8dbb 4510 ebbe ae9c 63bf
00000080: e6d4 3cbd 529c d5be 3bc9 3fbf c5af b2be
00000090: d437 a6be 6a11 1bbe ac37 ddbe 0783 09bd
000000a0: 3852 13bf aa89 a6be a97d 473e 0eb0 023d
000000b0: 79c4 c1bd 0326 03bd 7b1c a13c 0e75 43bd
000000c0: badb 94be 7439 e33c 3021 6cbe 7112 24bf
000000d0: 828b 98be 77b2 c6bd f8de 56be 8d0a b4bc
000000e0: e917 133d da53 85bc 87ad e73c 440b 28bf
000000f0: 2ae7 f1be 846e 2bbe 85e3 96be d235 863e

val_fc2.weight f4 [1, 64]
0.8107064 0.51930904 -0.00028329727 0.051261306 0.3296868 -0.7997771 -0.3278743 0.3705775
-0.4538087 -0.43520063 0.012075802 -0.62748086 0.32711932 0.6238057 -0.35294548 0.52668977
-0.34463853 -0.24953564 0.38041905 -0.14881605 -0.004326563 -0.0956891 -1.1578723 -0.2863092
0.34678057 -0.14317109 0.50042236 0.589143 -0.34003377 -0.37061116 -0.42715573 0.5749286
0.51373494 0.78620815 -0.4722627 -0.40188283 -0.27015778 0.93165267 0.59224504 -0.08778674
0.20111202 0.44471598 0.44216868 0.16561021 0.3314107 -0.2823077 -0.14255513 -0.0108368825
-0.06692701 -0.1539092 -0.38654858 -0.5190713 -0.4278011 0.41986668 -1.0341309 0.32054552
0.7068169 0.28994337 0.27384922 0.7096794 0.2956595 0.6920958 -0.55588245 0.13790277
00000000: 748a 4f3f 70f1 043f 8487 94b9 60f7 513d
00000010: b5cc a83e 31be 4cbf 24df a7be 56bc bd3e
00000020: 9d59 e8be 9ed2 debe 96d9 453c 96a2 20bf
00000030: 2f7c a73e bbb1 1f3f 45b5 b4be 24d5 063f
00000040: 7674 b0be 4586 7fbe 49c6 c23e 3c63 18be
00000050: d7c5 8dbb a6f8 c3bd 2935 94bf 1f97 92be
00000060: 398d b13e 719b 12be ae1b 003f 13d2 163f
00000070: e818 aebe bfc0 bdbe 28b4 dabe 852e 133f
00000080: 2284 033f f044 493f 6bcc f1be 96c3 cdbe
00000090: 1f52 8abe ca80 6e3f 5f9d 173f 89c9 b3bd
000000a0: 4ff0 4d3e d0b1 e33e ef63 e23e b995 293e
000000b0: aaae a93e a38a 90be f9f9 11be 2e8d 31bc
000000c0: 0711 89bd 609a 1dbe b2e9 c5be dbe1 04bf
000000d0: bf08 dbbe c4f8 d63e 675e 84bf 8b1e a43e
000000e0: f4f1 343f 7573 943e f735 8c3e 8dad 353f
000000f0: af60 973e 312d 313f 504e 0ebf 6236 0d3e
