Server/src/ml/models/b41df80e-4f36-4afa-9428-00939882ff1b/best.model (torch, 124420 bytes, 10 tensors)

layers.0.lin.weight f4 [6, 4]
00000000: 5fc2 d83e 86bc 07c0 9173 ebbe 73c9 043f
00000010: 2ff8 22bf ba39 27bf 07ae a1be 1074 353d
00000020: a21f aa3f f0e3 57be efdb dabe 275f 76bd
00000030: 5bee c33f ad63 37bf ae17 b2be 5268 83be
00000040: 1ab3 1f3f ee51 f73f 4c2b 75be 718c 56bf
00000050: fa5a 243e cb13 a53f 1891 723e 6274 593d
0.42335793 -2.1208816 -0.45986608 0.5186989 -0.6365995 -0.6532246 -0.31578085 0.04430014
1.3290904 -0.21083045 -0.4274592 -0.060149338 1.5307115 -0.7163647 -0.3478369 -0.25665528
0.6238266 1.9321878 -0.23942298 -0.83808047 0.1605033 1.2896665 0.23688161 0.053089507

layers.1.lin.weight f4 [6, 6]
00000000: 2c22 91bc a78d 063c c813 93bc 8685 80bd
00000010: f21b 47bd d4d2 2ebd 4d7f 0bc0 eae8 23be
00000020: a506 233f 27ad 663f c451 90be d999 b7bd
00000030: e2b9 b1be d006 9c3e 6692 e63e 40cc ddbe
00000040: 36ad aa3d c3cd 453f dc9c 263e ab70 64be
00000050: b74a 463f feab 7f3f 2aff 35c0 a81a 52be
00000060: 0795 e2be b149 e03d 4064 d1bf 4e9c 5cbe
00000070: 7334 bf3e b372 1fbe 13c6 033f cfad 483d
00000080: a0ef a2bc 5aa8 19bf 2eac 2cbf af12 89bf
-0.01771649 0.0082124835 -0.017953768 -0.062754676 -0.048610635 -0.04268153 -2.1796448 -0.16006818
0.63682014 0.9010796 -0.28187382 -0.08964891 -0.3471213 0.30473948 0.45033568 -0.43319893
0.083338186 0.7726709 0.16270775 -0.22308604 0.77457756 0.99871814 -2.843699 -0.20517981
-0.44254324 0.109515555 -1.6358719 -0.21544 0.37344703 -0.15571098 0.5147411 0.04899388
-0.019889653 -0.6002251 -0.67450225 -1.0708827

layers.2.lin.weight f4 [6, 6]
00000000: e4ec 80bc 596b 653f 822f 0e3d ba5b 42c0
00000010: bfcf 92be fa9a c1bd 6fea 13b8 963b 6bbf
00000020: ca87 4d3f d594 a53e dbd6 573f 280f bcbf
00000030: bd87 623e 2329 4a3f 47b8 143f 64ca 4c3f
00000040: 9b27 a7be 9f85 44bf 6e9d 1dba 5c4d 2dbe
00000050: eefb c6bd e98e b7bb fc43 1c3e 1851 9cbd
00000060: da76 67bc b1c4 16bf 2f59 64be fb09 023f
00000070: b2a3 29bf 40af 093e 8fbd 4dbb 968b 26bf
00000080: 040d 2b3e b1f7 5bbf 65bf db3e dee2 36bf
-0.015737958 0.89616925 0.034713276 -3.0368485 -0.28674123 -0.094533876 -3.5265864e-05 -0.91887796
0.8028532 0.32340112 0.8431222 -1.4692125 0.22122093 0.7896902 0.58093685 0.79996324
-0.32647404 -0.7676639 -0.00060125336 -0.16924042 -0.097160205 -0.005601753 0.15260309 -0.07632655
-0.0141274575 -0.5889388 -0.22299646 0.5079648 -0.66265404 0.13445759 -0.0031393503 -0.6505674
0.16704184 -0.8592482 0.4291946 -0.7143992

act_fc1.weight f4 [64, 216]
00000000: ccba 0800 d45b 0080 61b2 0280 cc3b 0380
00000010: cb25 0600 a372 0000 d4c1 1080 8a7c 0280
00000020: 137d 0080 961a 0200 5ebd 0600 27bb 0580
00000030: 8ae2 0380 67ab 0280 6c09 0180 dcdf 0000
00000040: ac6b 0400 b4cb 0300 c85d 0100 1a2b 0180
00000050: 601e 0400 f283 0400 708a 0080 53ea 0380
00000060: 9b04 0300 9d98 0480 aa2c 0300 701d 0300
00000070: 81fa 0380 53d1 0380 7555 0000 dd41 0300
00000080: 3571 0200 3e7d 0100 e43c 0200 c89c 0400
00000090: 27e7 0c80 dae7 0480 3483 0100 fcd4 0200
000000a0: 88b6 0380 4d23 0380 847d 0280 bd14 0300
000000b0: d2e5 0280 e79f 0000 8c36 0680 19bc 0180
000000c0: 0e73 1a00 ca9b 0100 9ae0 0180 cee2 0580
000000d0: 9e57 0080 869a 0300 aece 1680 9f61 0400
000000e0: 7e5b 0180 7e66 0380 fd6e 0300 5377 0400
000000f0: 5eb5 1000 c481 0080 9d27 0100 dcab 0180
00000100: 8a35 0400 95b6 0300 b5c0 1400 35a4 0480
00000110: e704 0580 bda0 0300 7079 0380 8ac4 0200
00000120: 3c90 0600 63ad 0400 84ba 0000 9a6e 0300
00000130: 6fc8 0200 2e10 0280 5953 0100 3cef 0000
00000140: fa5d 0400 158b 0500 8c1c 0500 a89c 0200
00000150: 9ad8 2880 57c7 0080 5c8e 0180 8422 0100
00000160: d738 0200 acf1 0380 cb89 0180 93d5 0380
00000170: fa64 0000 07f0 0200 e0ac 0180 cc63 0480
00000180: c35a 0d00 d52e 0180 0dcb 0000 3357 0180
00000190: 7192 0400 aaba 0380 262a 0480 564f 0480
000001a0: 0661 0180 ba94 0500 f225 0580 0bf7 0300
000001b0: 25be 0000 1348 0400 2885 0080 b852 0000
000001c0: a2a8 0380 629e 0400 adf6 0280 6995 0280
000001d0: 2ea3 0000 6f95 0380 cfe4 0580 9af3 0400
000001e0: e4d2 0400 7184 0180 87c3 0400 9b47 0100
000001f0: fa0a 0380 5cd6 0200 5a32 1100 4a5a 0080
00000200: 9ab1 0080 ce4e 0100 15da 0480 3bb6 0000
00000210: 7415 3200 3f4b 0180 4768 0480 5d69 0200
00000220: df95 0280 5f28 0280 7ea7 0400 d3bd 0180
00000230: a742 0400 9dbd 0200 775f 0080 3ad4 0400
00000240: 65d2 0200 0121 0500 51b4 0380 9de4 0080
00000250: fdac 0380 073a 0500 8b61 0180 abce 0480
00000260: a7af 0480 b2b4 0300 1be4 0000 a88e 0280
00000270: 9e4a 0b80 5089 0400 dbbe 0400 8881 0480
00000280: b34e 0200 844d 0480 09b6 0300 db1d 0100
00000290: fe01 0380 428c 0000 1762 0580 b01b 0480
000002a0: fa9a 0900 28c1 0400 a204 0200 7836 0600
000002b0: a27a 0100 3b54 0400 7cf8 0a00 2f80 0000
000002c0: 1bbc 0200 3c30 0180 7ed0 0480 71af 0300
000002d0: 4eff 0400 5dd3 0080 16f0 0380 db29 0180
000002e0: dd22 0000 9028 0480 bdbc 0180 4556 0680
000002f0: 70a1 0280 64b8 0600 c536 0380 6885 0680
00000300: 7015 0500 af55 0300 bd5b 0400 0b98 0280
00000310: 25af 0500 9a75 0580 037b 0400 ad13 0480
00000320: c42d 0100 a919 0280 2647 0380 0f3d 0380
00000330: d2a3 2f00 d606 0180 a186 0400 6b61 0200
00000340: fa29 0480 86d6 0400 170c 0580 1c56 0180
00000350: b81f 0280 3bfb 0200 7baa 0180 7a7f 0080
00000360: cbe8 3280 8811 4200 3b2a 0580 9d6f 5700
00000370: 8356 8695 14f9 3180 4415 2000 6c6f 2580
00000380: 9077 0180 57b3 5c80 21c7 679b d57e 2d00
00000390: 55da 2980 3633 1600 3f6b 0400 cb61 2b80
000003a0: 91b0 c09c 7eb6 0480 91bf 1080 b4f5 2580
000003b0: 24b1 0500 bdf4 0580 23a9 0a9a a1a5 0500
000003c0: 3663 1880 6539 9880 3519 0480 a80a 0600
000003d0: 19e9 0f9e ceef 0300 0e4a 1f80 3099 0300
000003e0: 47f4 0300 8068 3180 31ac 4912 0e0a 1b80
000003f0: 21b1 0900 394d 0b00 597f 0480 cd9b 1c80
8.01694e-40 -3.2942e-41 -2.47661e-40 -2.96958e-40 5.6457e-40 4.1124e-41 -1.5389e-39 -2.28347e-40
-4.4868e-41 1.93208e-40 6.18945e-40 -5.26315e-40 -3.56773e-40 -2.45159e-40 -9.5215e-41 8.0306e-41
4.05967e-40 3.48581e-40 1.25478e-40 -1.07297e-40 3.78238e-40 4.14675e-40 -4.9662e-41 -3.59566e-40
2.77159e-40 -4.2209e-40 2.91529e-40 2.86067e-40 -3.6537e-40 -3.50598e-40 3.0656e-41 2.99134e-40
2.24282e-40 1.36764e-40 2.05514e-40 4.23584e-40 -1.184948e-39 -4.50515e-40 1.38902e-40 2.60075e-40
-3.40986e-40 -2.8817e-40 -2.28698e-40 2.82946e-40 -2.66115e-40 5.7362e-41 -5.70581e-40 -1.59312e-40
2.428997e-39 1.47722e-40 -1.72407e-40 -5.4054e-40 -3.1431e-41 3.30939e-40 -2.094524e-39 4.02362e-40
-1.24657e-40 -3.12274e-40 3.15322e-40 4.10147e-40 1.53443e-39 -4.6551e-41 1.06046e-40 -1.53487e-40
3.86548e-40 3.41005e-40 1.90584e-39 -4.26248e-40 -4.60936e-40 3.33169e-40 -3.1907e-40 2.54176e-40
6.02755e-40 4.29541e-40 6.6909e-41 3.15183e-40 2.55573e-40 -1.89475e-40 1.21735e-40 8.5821e-41
4.01054e-40 5.09071e-40 4.69418e-40 2.39869e-40 -3.751122e-39 -7.151e-41 -1.42904e-40 1.04217e-40
2.04061e-40 -3.62202e-40 -1.41266e-40 -3.52122e-40 3.6224e-41 2.69777e-40 -1.53851e-40 -4.03142e-40
1.22642e-39 -1.08636e-40 7.2841e-41 -1.23117e-40 4.19875e-40 -3.42469e-40 -3.82462e-40 -3.95802e-40
-1.26641e-40 5.1253e-40 -4.7279e-40 3.64129e-40 6.8211e-41 3.93197e-40 -4.7767e-41 2.9674e-41
-3.36e-40 4.24159e-40 -2.72162e-40 -2.37269e-40 5.8538e-41 -3.29113e-40 -5.41259e-40 4.5473e-40
4.42995e-40 -1.39347e-40 4.37484e-40 1.17523e-40 -2.79444e-40 2.60569e-40 1.579266e-39 -3.239e-41
-6.3711e-41 1.20105e-40 -4.45575e-40 6.5372e-41 4.599471e-39 -1.18829e-40 -4.0475e-40 2.21468e-40
-2.37435e-40 -1.98153e-40 4.27427e-40 -1.59932e-40 3.91252e-40 2.51691e-40 -3.4246e-41 4.43475e-40
2.59146e-40 4.71017e-40 -3.40192e-40 -8.2011e-41 -3.37563e-40 4.79994e-40 -1.26827e-40 -4.4148e-40
-4.30354e-40 3.40328e-40 8.1829e-41 -2.34846e-40 -1.036958e-39 4.166e-40 4.35808e-40 -4.13809e-40
2.11903e-40 -3.9515e-40 3.40808e-40 1.02546e-40 -2.76221e-40 5.0315e-41 -4.94365e-40 -3.77274e-40
8.82115e-40 4.36633e-40 1.85333e-40 5.70553e-40 1.35828e-40 3.97558e-40 1.007494e-39 4.5984e-41
2.5115e-40 -1.09139e-40 -4.42135e-40 3.38443e-40 4.58928e-40 -7.5823e-41 -3.61633e-40 -1.0685e-40
1.2507e-41 -3.81893e-40 -1.59542e-40 -5.8196e-40 -2.41584e-40 6.1716e-40 -2.95154e-40 -5.9887e-40
4.66868e-40 3.06244e-40 4.00251e-40 -2.38214e-40 5.22008e-40 -5.01365e-40 4.1147e-40 -3.744e-40
1.08253e-40 -1.92876e-40 -3.0103e-40 -2.9741e-40 4.375036e-39 -9.4288e-41 4.15638e-40 2.18618e-40
-3.824e-40 4.44298e-40 -4.63514e-40 -1.22726e-40 -1.9505e-40 2.73796e-40 -1.52992e-40 -4.573e-41
-4.675285e-39 6.067432e-39 -4.74327e-40 8.029727e-39 -5.425866e-26 -4.589292e-39 2.946365e-39 -3.437884e-39
-1.34726e-40 -8.5132e-39 -1.9172214e-22 4.178096e-39 -3.843578e-39 2.038752e-39 4.05815e-40 -3.984008e-39
-1.2751136e-21 -4.32808e-40 -1.538089e-39 -3.486055e-39 5.22724e-40 -5.46973e-40 -2.867436e-23 5.18594e-40
-2.239642e-39 -1.3979585e-38 -3.76385e-40 5.54836e-40 -7.6185604e-21 3.61532e-40 -2.873466e-39 3.3046e-40
3.63137e-40 -4.537427e-39 6.363666e-28 -2.483165e-39 8.90061e-40 1.037893e-39 -4.13026e-40 -2.627285e-39

act_fc1.bias f4 [64]
00000000: f527 cabb 41a7 b5bb 94ab 9db9 6df9 0db1
00000010: 7dac 33bc 4e11 f3b1 95d9 2f3c af07 ddbc
00000020: bda4 fd3e 09ff 9dbc 48ff e7b5 81f7 48b1
00000030: ca48 9eaf 0e3d 1fbc c6c9 f0b4 a488 9ba7
00000040: 775a 6daa 0d47 2abc e99d cdb1 d62a 06ba
00000050: 0922 54bb 35e1 f3bc 2b11 6cbb 0ff4 d0bc
00000060: 89e9 74a4 824e 81b6 f377 dba5 2458 149f
00000070: 758f 81be 30a9 f4af 3c0d d3b6 b986 22be
00000080: 738a 3e9e c5a3 26bc 86ad 16be 6cc8 14b2
00000090: fef2 83b4 9da2 f99d 7799 c7ae 7caf 0db6
000000a0: a26b 59bd 3811 bdbd 587e f7bb 792a eab8
000000b0: 90fc eea0 b2c8 1bb5 06b4 4fba f6d8 0bb8
000000c0: 1cb7 c5be d234 ffba 4353 30be a08e c8b9
000000d0: 759e dca7 7b0c 26b8 19ae 31bc 1fb9 bfbb
000000e0: c860 1cbd 753e 54bc 9ee0 91bb 2690 69bb
000000f0: 9e6a 4340 49b6 e2b4 8484 acbe 17b2 bbbd
-0.006169314 -0.00554362 -0.0003007321 -2.0659983e-09 -0.010966417 -7.074198e-09 0.010733028 -0.026981203
0.49539748 -0.01928665 -1.7285138e-06 -2.924452e-09 -2.8791752e-10 -0.009719146 -4.4850293e-07 -4.316929e-15
-2.1081215e-13 -0.010392916 -5.9842375e-09 -0.00051180774 -0.003236892 -0.029770473 -0.0036020975 -0.025507001
-5.3106878e-17 -3.853639e-06 -3.8071725e-16 -3.1413127e-20 -0.25304762 -4.4503556e-10 -6.2898307e-06 -0.15871705
-1.0087147e-20 -0.010170882 -0.14714631 -8.6603045e-09 -2.4577452e-07 -6.607789e-21 -9.076733e-11 -2.1112783e-06
-0.053081162 -0.092318 -0.007552903 -0.00011165901 -4.04859e-19 -5.803405e-07 -0.0007923249 -3.3342243e-05
-0.38616264 -0.0019470698 -0.17219262 -0.00038253237 -6.1234066e-15 -3.9589107e-05 -0.010844731 -0.0058509256
-0.038178235 -0.012954344 -0.0044518253 -0.0035638898 3.0533824 -4.222841e-07 -0.3369485 -0.09164827

act_fc2.weight f4 [36, 64]
00000000: b02c 0600 94a6 3e03 deb0 0400 d602 0000
00000010: 201d a89f 9eae 0480 e206 0bbf 6fc6 db01
00000020: 4887 0740 6066 0300 d5ad 0400 668a 0080
00000030: 44b5 0280 70b3 3026 d356 0300 3d8f 0280
00000040: 63cd 0080 397e 2838 0cb2 0000 9de7 0600
00000050: 113d 9710 e79f b88e 2395 ad2d e215 ee8b
00000060: 6d84 0380 883a 2098 26cc 0300 74e5 0100
00000070: 7c5f 103e 30a1 0400 29c4 0300 3ff3 91a2
00000080: d7da 0280 ee5e 9329 b195 0cbc 5e4c 0480
00000090: 113c 0300 cb68 0280 49ee 0500 5197 0400
000000a0: 5b86 7bae 7b73 7bb6 de9e bc95 af55 778a
000000b0: 6c3e 0200 b518 0480 7615 0380 5fde 9d05
000000c0: 462b d83c 2499 0300 479e 453e a81a 0580
000000d0: 037c 0400 a712 0280 0ac5 e21c 75eb 0700
000000e0: fce7 9b03 eff5 2fa1 6644 0000 6011 20a3
000000f0: 50b5 65bf d088 0400 c531 a53d 1938 123e
00000100: 65f3 0200 3aa2 01a8 4d34 1a80 e92f 0200
00000110: 9ea5 1834 eea5 0300 e559 e3be 73f9 f63c
00000120: 9e7e 0ebf 7115 2f39 3985 0400 09a0 0080
00000130: 6044 0300 a8e4 0180 eecb 0180 f1c2 0200
00000140: eda5 0480 1e82 2b89 e05c 0400 44f1 0080
00000150: 39eb d68e 33a9 66a9 fd96 e394 daf9 c707
00000160: ab9c 0100 ac4d 0480 a9db 0300 02d7 0500
00000170: dd61 35ae a60b 0200 f179 0480 9d7a ff37
00000180: 7bc4 0200 2fd1 7821 a3c7 68b9 c628 0400
00000190: 96ef 0300 79c6 0100 24eb 0480 bc5c 0600
000001a0: 51dc dbb3 6a1e eab1 989f 71a3 cef8 e097
000001b0: 98a9 0f00 c426 0580 ff45 7001 d518 db0e
000001c0: 42e4 853d afe7 85a1 bbc6 0a3e 4124 ba2c
000001d0: d5c6 0000 0e86 0380 dbaf 0280 d0b8 4b09
000001e0: 6765 a537 fdbb 06b6 9f2f 3b9b d2d5 b39f
000001f0: def6 86bf 44e7 0180 3fac cb3b 14de be3e
00000200: 077a 8a18 e58e df37 6eff 0300 3b7c 0b00
00000210: 5247 ab33 3f23 0000 25f9 193f 454a a6bd
00000220: 1151 abbe e762 f8bc 18bc 0000 de36 0400
00000230: 930a 0280 947c 8032 207c 0500 3870 0200
00000240: a13e 0580 c621 13b6 91a3 0080 b47d 6b09
00000250: 7a4e 3da4 ed3b 7839 c8d4 7635 ad7e beba
00000260: e82f 0500 ea54 2824 dfc1 0000 39b7 0180
00000270: d1fd b23c ee39 0380 8d38 0500 20fd d336
00000280: 85e3 0580 5201 b1ae e5ac 223d e885 0300
00000290: 6371 0180 779a 0100 a2a7 0300 262c 8701
000002a0: 5e2c c836 77e6 6bba 6a4c 0e2e e38e e6a2
000002b0: cba3 0300 a42e 0000 708f 502f df01 1e9f
000002c0: 65f0 1d3e 87cc a4b3 b48b 81bd 0485 97ac
000002d0: 3aa1 0080 6798 b083 0d54 c728 fbd8 7fad
000002e0: a51a 802f 77c0 bd3b b736 0400 09ba aa34
000002f0: ae82 9cbf 356f 0480 7ce1 2bbc 970a d9bd
00000300: a066 5080 5065 01b6 fae0 0100 968c 0600
00000310: ade9 0f36 bd68 3487 976e 013f 0cb7 22bc
00000320: cb82 4c3e c975 4b3c 2fff 0080 5922 0180
00000330: 6423 0080 221c 10ae da46 0680 cbd4 0480
00000340: b82b 0500 ae25 ab33 d5ce 5f00 cdc9 0100
00000350: b15c cba8 b52f 95bb 17ee adaa 534b 8235
00000360: 02cc 0280 21ec 0480 bc07 0100 6c4c 0280
00000370: acb8 c6ba fc1b bc1e e202 5916 d2e6 42b2
00000380: 4f9b 0380 caca 2cb1 67d0 183c 4001 0180
00000390: 4dd5 0200 0a11 0500 46b4 0080 a6c5 1400
000003a0: c249 f9b7 e848 36b7 bbb4 19b1 20b7 a325
000003b0: 4149 0280 07bb 0200 3104 c085 b363 5826
000003c0: 801b a5bd 24f1 0ca2 f9af d1bd 248f 0580
000003d0: 1d85 0000 eea1 0880 0301 a12c 814f 63b1
000003e0: 8981 3aba c724 c23a 84b5 8c32 770b 9830
000003f0: ce7a abbf b8f2 e580 ee48 fa3e d874 e0bc
5.67044e-40 5.6027204e-37 4.3079e-40 1.017e-42 -7.119895e-20 -4.29983e-40 -0.5430738 8.0732633e-38
2.117632 3.12232e-40 4.29701e-40 -4.9648e-41 -2.48697e-40 6.130545e-16 3.06653e-40 -2.35055e-40
-7.3679e-41 4.0171875e-05 6.3871e-41 6.341e-40 5.9653086e-29 -4.5513482e-30 1.9734053e-11 -9.170719e-32
-3.23012e-40 -2.0709066e-24 3.48741e-40 1.74148e-40 0.14098924 4.25165e-40 3.45875e-40 -3.9559876e-18
-2.62176e-40 6.544579e-14 -0.008580611 -3.94737e-40 2.97054e-40 -2.21264e-40 5.44658e-40 4.21624e-40
-5.7190124e-11 -3.7469133e-06 -7.6183244e-26 -1.1908733e-32 2.06064e-40 -3.76205e-40 -2.83205e-40 1.4845895e-35
0.026387822 3.30443e-40 0.1929866 -4.6874e-40 4.11829e-40 -1.90362e-40 1.5006359e-21 7.27315e-40
9.163342e-37 -5.9617797e-19 2.4537e-41 -8.677297e-18 -0.89729786 4.16421e-40 0.080661334 0.14279212
2.70984e-40 -7.196116e-15 -2.406485e-39 2.00858e-40 1.4216354e-07 3.35031e-40 -0.44404522 0.030148244
-0.5566195 0.00016697288 4.15133e-40 -5.741e-41 3.00035e-40 -1.73862e-40 -1.64992e-40 2.53603e-40
-4.26865e-40 -2.0644557e-33 4.00659e-40 -8.655e-41 -5.2981584e-30 -5.1217016e-14 -2.2980697e-26 3.0089042e-34
1.48037e-40 -3.95205e-40 3.54306e-40 5.36308e-40 -4.1241555e-11 1.8785e-40 -4.11086e-40 3.0455465e-05
2.54155e-40 8.430252e-19 -0.00022199615 3.81969e-40 3.61454e-40 1.63034e-40 -4.51695e-40 5.8428e-40
-1.02380575e-07 -6.813754e-09 -1.30984315e-17 -1.4538468e-24 1.438371e-39 -4.73084e-40 4.4131258e-38 5.401158e-30
0.06537677 -9.073757e-19 0.13552372 5.290463e-12 7.1327e-41 -3.23596e-40 -2.46756e-40 2.4522135e-33
1.9716752e-05 -2.007698e-06 -1.5483665e-22 -7.6163185e-20 -1.0544088 -1.74798e-40 0.0062156017 0.37278807
3.579538e-24 2.6650212e-05 3.67137e-40 1.054756e-39 7.975781e-08 1.2644e-41 0.6014579 -0.081196345
-0.33460286 -0.030320598 6.7475e-41 3.87025e-40 -1.87464e-40 1.4957813e-08 5.03705e-40 2.23927e-40
-4.81644e-40 -2.1924366e-06 -5.8677e-41 2.8346201e-33 -4.1049314e-17 0.00023673447 9.195178e-07 -0.0014533602
4.76363e-40 3.6501118e-17 6.9548e-41 -1.57563e-40 0.021849545 -2.96288e-40 4.79464e-40 6.3177577e-06
-5.40796e-40 -8.0492626e-11 0.039715666 3.23543e-40 -1.32511e-40 1.47247e-40 3.35642e-40 4.965452e-38
5.9656295e-06 -0.00089988805 3.235493e-11 -6.2492912e-18 3.34264e-40 1.6732e-41 1.8968449e-10 -3.345935e-20
0.15423734 -7.6740484e-08 -0.063254744 -4.306446e-12 -5.7837e-41 -1.037934e-36 2.212989e-14 -1.4543251e-11
2.3301996e-10 0.005790766 3.8697e-40 3.1800326e-07 -1.222738 -4.07236e-40 -0.010490771 -0.10597723
-7.383655e-39 -1.928147e-06 1.72542e-40 6.01446e-40 2.1444678e-06 -1.3572475e-34 0.5055937 -0.009931337
0.19971769 0.012418219 -9.1543e-41 -1.04157e-40 -1.2696e-41 -3.2766796e-11 -5.7643e-40 -4.43678e-40
4.74861e-40 7.969662e-08 8.79857e-39 1.64228e-40 -2.2577726e-14 -0.0045528063 -3.089618e-13 9.707677e-07
-2.56855e-40 -4.52049e-40 9.461e-41 -2.11086e-40 -0.0015161238 1.9916848e-20 1.753003e-25 -1.1344769e-08
-3.31221e-40 -2.5144566e-09 0.009327031 -9.2284e-41 2.60189e-40 4.6529e-40 -6.467e-41 1.907613e-39
-2.971746e-05 -1.086502e-05 -2.2367164e-09 2.8400083e-16 -2.0995e-40 2.50764e-40 -1.8057133e-35 7.507517e-16
-0.08061886 -1.9101197e-18 -0.10238642 -5.10527e-40 4.7752e-41 -7.92773e-40 4.5760075e-12 -3.307804e-09
-0.0007114639 0.0014811986 1.6380689e-08 1.1062714e-09 -1.3396852 -2.11174e-38 0.48883766 -0.027399465

act_fc2.bias f4 [36]
00000000: 2aab 9abe a440 a83e 4dc6 9cbd 504e 14be
00000010: 4c83 173d a29f 0a3f 97d3 9e3e 41ad 28bd
00000020: 97ad bf3d 2115 8d3e be23 683e d871 bf3d
00000030: 440f 80bd 3332 3b3e 67bd 113f fcdf abbe
00000040: 8508 9a3e f2b9 7ebd 19c4 e5bd 5cdd 8f3e
00000050: 9a54 85be d988 1d3f ff3b 353e 13dd 8fbd
00000060: 44ff 633d 5be7 613e c399 5b3e 3def 4b3e
00000070: 4235 efbc 856f de3e cc17 f23e 0546 643e
00000080: 6d48 90bd b2ec fdbc 2ff1 e83e 71b5 a1be
-0.30208713 0.32861817 -0.0765501 -0.14482999 0.03699045 0.5414983 0.31020805 -0.041180853
0.093592815 0.27555183 0.22669885 0.09347886 -0.06252912 0.18280868 0.5692963 -0.33569324
0.30084625 -0.06218905 -0.11219043 0.2809857 -0.26041108 0.6153694 0.17698668 -0.070245884
0.055663362 0.22060911 0.21445374 0.19915481 -0.0292002 0.43444458 0.4728378 0.22292335
-0.07045064 -0.030996654 0.45496508 -0.3158374

val_fc1.weight f4 [64, 216]
00000000: 3842 0500 32b6 2ab1 94ea 0100 12e0 4837
00000010: 5767 0680 ba17 9436 32f8 0480 3b3f 5cb3
00000020: 1822 0280 9e44 0b38 1e8e 0580 27f2 8937
00000030: ecf1 0100 678d 6633 64c2 0000 6090 39b7
00000040: d0bb 0100 493f 4437 adba 0280 2f23 a5b0
00000050: c90a 0280 d7e6 09b7 e40b 0200 ad17 02b7
00000060: f7c7 0280 33cf 9c33 75a4 0300 3414 0c38
00000070: a920 0380 e3ca 6d37 c7b8 0180 30cf 30b1
00000080: 721e 0400 c788 5237 dc55 0200 2251 9e36
00000090: e43f 0480 fe2b 3433 3a87 0100 bef3 d637
000000a0: 088d 0200 1b36 a137 f027 0500 3e9b 1cb5
000000b0: d8a3 0580 ba76 9938 c215 0100 e21c 0139
000000c0: 51ca 0480 e71e 1333 a12d 0580 9fdd 0e38
000000d0: f0d0 0080 14a9 0bb7 7221 0300 c72e 88b3
000000e0: e2fc 0080 a972 4eb7 fd02 0480 8729 4bb7
000000f0: 0766 0380 c347 ae31 dfef 0380 0e35 3f37
00000100: 8c47 0000 62c8 fa37 202f 0380 9429 5833
00000110: 8d83 0600 c68d 8437 95e2 0580 500a 8137
00000120: c1ad 0080 78a8 5c33 4127 0600 ac3e 9036
00000130: beed 0280 eecd 3937 6252 0180 91ca 16b4
00000140: 15c5 0100 3a3e 1c38 7a4d 0100 aa88 8237
00000150: 3cfa 0300 e941 4834 41b8 0080 34c4 a5b7
00000160: e12a 0500 e0e4 49b7 422b 0580 b3df e8b3
00000170: 3142 0280 2bfa 0c37 5694 0080 43eb 7637
00000180: 42d8 0180 e4c8 e8b3 9ecb 0580 58a7 fab7
00000190: 39ba 0480 d101 11b7 4fc0 0400 bd06 24b2
000001a0: feae 0380 b66d 65b7 4bbf 0300 efa0 6037
000001b0: e0ed 0100 ae73 5db1 908c 0480 ff10 c436
000001c0: db22 0180 d330 c636 3738 0480 b02c 6b34
000001d0: dea3 0400 c903 ecb7 238e 0480 dbee 4738
000001e0: fe00 0580 4898 fd33 006f 0180 8781 0e38
000001f0: 2ae0 0400 48fe 6237 0a04 0400 cad6 9133
00000200: 9663 0180 d18d 0fb7 fbd9 0400 61e5 0438
00000210: ecee 0100 9d3d 4f34 fea0 0400 73cf 15b8
00000220: 93de 0480 0576 bfb6 2638 0480 c3a6 fd31
00000230: a46b 0500 49c6 3f37 372f 0480 8a24 9437
00000240: 635d 0180 11cc 0d33 eac7 0380 7ce8 a837
00000250: 34d8 0480 5510 9437 9022 0100 bccd 3934
00000260: 4ca2 0680 5964 12b6 9ecb 0180 c276 3438
00000270: ff4d 0280 aafb 8f34 b420 0500 993c 5038
00000280: 7970 0480 27ba 1238 1da5 0500 491d 33b4
00000290: 3856 0580 df30 b338 8126 0180 ad98 5a38
000002a0: 261c 0480 98f0 69b4 f4c7 0280 7bf5 9437
000002b0: dd4e 0500 9d8a f537 3fd9 0180 9ce5 01b0
000002c0: ea18 0480 ba0c bbb6 54bd 0180 ebd6 6cb6
000002d0: 7ca7 0300 8490 61b1 87bd 0180 9412 0737
000002e0: 75e5 0400 1ef1 a634 67b6 0080 0c58 baaf
000002f0: b1ef 0100 c2f9 b536 bdf0 0280 57d0 e237
00000300: 076e 0680 d176 7433 5016 0300 560c 5f36
00000310: 949b 0280 b17a ddb6 dfbf 0000 7b8c 2c33
00000320: 6ac0 0080 0a9b 41b7 64cf 0480 7931 3336
00000330: 21ff 0180 cd02 a3b2 5d7e 0480 5190 a137
00000340: d07a 0480 5393 0037 84c7 0480 dcb1 bb31
00000350: 642d 0380 9ba2 5337 9d55 0380 ea5c 9036
00000360: 6453 0400 ee9f cfa0 d398 0280 10d0 9bae
00000370: e4ea 8480 58e1 82ad a70c 0480 b885 00a4
00000380: 8ea1 0580 3c1d 85b1 f92d 2980 f19b bdaf
00000390: c4a7 0280 2413 e5a5 2ea8 0600 c159 9db0
000003a0: ad54 2500 8a51 67af 2e1b 0280 e153 8fa5
000003b0: 3d2b 0380 6026 52b1 c01e 0500 5bd7 feaf
000003c0: f48a 0300 480a bfa6 eb5f 0200 a6f0 69b0
000003d0: 48f4 8380 bbda b3b0 890d 0500 72cf 1ca1
000003e0: 4f4d 0080 34b7 87ad 760a 3800 4ef0 2fad
000003f0: 79c4 0280 972d 9aa5 e684 0380 48e5 94b0
4.82932e-40 -2.4841822e-09 1.75986e-40 1.1973099e-05 -5.88084e-40 4.413506e-06 -4.56378e-40 -5.128025e-08
-1.95902e-40 3.3204087e-05 -5.1016e-40 1.6444434e-05 1.78621e-40 5.3679653e-08 6.9734e-41 -1.1060474e-05
1.5921e-40 1.1697245e-05 -2.50638e-40 -1.201533e-09 -1.8754e-40 -8.219583e-06 1.87937e-40 -7.754116e-06
-2.55405e-40 7.3020054e-08 3.34503e-40 3.3397417e-05 -2.87223e-40 1.4173539e-05 -1.58121e-40 -2.5729143e-09
3.78264e-40 1.2548821e-05 2.14472e-40 4.718212e-06 -3.90262e-40 4.1949527e-08 1.40346e-40 2.562429e-05
2.34263e-40 1.921789e-05 4.73504e-40 -5.8340436e-07 -5.17954e-40 7.317723e-05 9.9641e-41 0.00012313158
-4.3992e-40 3.425421e-08 -4.75546e-40 3.406184e-05 -7.4953e-41 -8.324412e-06 2.87504e-40 -6.341502e-08
-9.0717e-41 -1.2305253e-05 -3.68414e-40 -1.2109412e-05 -3.12107e-40 5.072225e-09 -3.61556e-40 1.139684e-05
2.5666e-41 2.9895633e-05 -2.92412e-40 5.0329234e-08 5.98205e-40 1.5801645e-05 -5.4046e-40 1.53828e-05
-6.2331e-41 5.1375963e-08 5.65095e-40 4.2988304e-06 -2.68957e-40 1.1074806e-05 -1.21389e-40 -1.4043532e-07
1.62535e-40 3.725125e-05 1.19629e-40 1.5560847e-05 3.65274e-40 1.865043e-07 -6.6098e-41 -1.9760897e-05
4.7456e-40 -1.2033823e-05 -4.74695e-40 -1.08440325e-07 -2.07416e-40 8.402897e-06 -5.3213e-41 1.4717519e-05
-1.69414e-40 -1.0839884e-07 -5.32222e-40 -2.9880248e-05 -4.34146e-40 -8.643096e-06 4.3633e-40 -9.5475885e-09
-3.38282e-40 -1.3675008e-05 3.4413e-40 1.3388911e-05 1.77169e-40 -3.222549e-09 -4.17766e-40 5.843234e-06
-1.04339e-40 5.9065437e-06 -3.87508e-40 2.1902338e-07 4.26126e-40 -2.8135155e-05 -4.18331e-40 4.766775e-05
-4.59533e-40 1.18089304e-07 -1.31655e-40 3.397607e-05 4.47757e-40 1.3529854e-05 3.68791e-40 6.7911586e-08
-1.2756e-40 -8.556483e-06 4.45539e-40 3.168488e-05 1.77545e-40 1.9300792e-07 4.25095e-40 -3.571757e-05
-4.47187e-40 -5.705983e-06 -3.87484e-40 7.3822277e-09 4.97792e-40 1.1430654e-05 -3.8428e-40 1.765999e-05
-1.25336e-40 3.3014718e-08 -3.47222e-40 2.013542e-05 -4.44901e-40 1.765058e-05 1.04234e-40 1.7304313e-07
-6.09234e-40 -2.1814105e-06 -1.6488e-40 4.3025946e-05 -2.11651e-40 2.6818935e-07 4.70909e-40 4.96475e-05
-4.0769e-40 3.498248e-05 5.18409e-40 -1.6681328e-07 -4.90107e-40 8.544488e-05 -1.05648e-40 5.211744e-05
-3.7744e-40 -2.1787343e-07 -2.554e-40 1.7757286e-05 4.87468e-40 2.9270823e-05 -1.69769e-40 -4.725622e-10
-3.7628e-40 -5.574516e-06 -1.59754e-40 -3.529184e-06 3.35589e-40 -3.2823957e-09 -1.59825e-40 8.050953e-06
4.49656e-40 3.1095345e-07 -6.5434e-41 -3.3895764e-10 1.7782e-40 5.423296e-06 -2.70032e-40 2.7038315e-05
-5.90483e-40 5.691874e-08 2.83511e-40 3.323677e-06 -2.39482e-40 -6.6005964e-06 6.883e-41 4.0174637e-08
-6.9025e-41 -1.1539794e-05 -4.4174e-40 2.6701875e-06 -1.83359e-40 -1.8976971e-08 -4.12673e-40 1.9259898e-05
-4.11399e-40 7.663696e-06 -4.38915e-40 5.4626366e-09 -2.9179e-40 1.261444e-05 -3.06219e-40 4.302351e-06
3.97257e-40 -3.5172997e-19 -2.38494e-40 -7.085543e-11 -1.2206548e-38 -1.4879362e-11 -3.71881e-40 -2.786884e-17
-5.17132e-40 -3.874133e-09 -3.781747e-39 -3.4489703e-10 -2.43854e-40 -3.9738138e-16 6.11344e-40 -1.1448763e-09
3.42829e-39 -2.1038296e-10 -1.93421e-40 -2.4863384e-16 -2.91017e-40 -3.0580836e-09 4.70209e-40 -4.635535e-10
3.25353e-40 -1.3256074e-15 2.1808e-40 -8.510689e-10 -1.2118082e-38 -1.3086131e-09 4.64033e-40 -5.312941e-19
-2.7733e-41 -1.5429082e-11 5.14654e-39 -1.0000957e-11 -2.54152e-40 -2.6745634e-16 -3.23181e-40 -1.0833583e-09

val_fc1.bias f4 [64]
00000000: 84e6 05bc e6d7 8cbc 48ff 81bc 0fc6 d7bb
00000010: fe99 6ebc ccb8 883b 643e 22bc a56c 38bd
00000020: 965b d1ba 564b 28ba 1761 63b9 e00e c3bc
00000030: 1e07 fbb3 e203 99bc 4a04 52b6 352d f3bb
00000040: e851 38bc 47e6 bbbc debc 77be d7cf 0fbc
00000050: 15bc cfbc 31c4 b3b9 137e 1ebd 7b74 07bd
00000060: 4845 73bc 3f81 08bf e3e3 16bd 8294 4fbd
00000070: ee6d f3bb 8fce 85ba 5841 6cbc f2be ddbc
00000080: 325a e6bb 1c24 45bd 0342 faaa 4e5a c3bc
00000090: da46 dbbb 5a76 32bc f654 2abd b65f 20be
000000a0: bfe1 1fbc 3b2c 5bbc 3030 b6b5 3877 22bc
000000b0: 8e69 02ba 7d2f 7dbc 4a90 81bc 1b49 16bc
000000c0: f057 a0bd 0fcc 2dbd 10c5 86bc acb1 28bc
000000d0: 73d0 dcbc d467 92bc b61e 17bc 44e3 96bc
000000e0: fbb7 93bb 76a6 fabc 0343 34be 9f90 4cbc
000000f0: 35bf 7a3f 1977 aebb d639 80bc e276 b53d
-0.008172635 -0.017192792 -0.015868798 -0.0065848897 -0.014563082 0.00417242 -0.00990257 -0.045025486
-0.0015972729 -0.00064199173 -0.00021684576 -0.023810804 -1.1689393e-07 -0.01867861 -3.1294935e-06 -0.0074211606
-0.011249997 -0.022936953 -0.24193141 -0.00877758 -0.02535824 -0.00034287715 -0.038694452 -0.03307007
-0.014848061 -0.53322214 -0.036838423 -0.050678737 -0.007428876 -0.0010208654 -0.014419876 -0.027068589
-0.007029795 -0.04813014 -4.4454726e-13 -0.023846772 -0.006691796 -0.010892475 -0.04158493 -0.15661511
-0.009758412 -0.013377245 -1.3574081e-06 -0.009916119 -0.00049748353 -0.015453217 -0.015815873 -0.009172703
-0.07829273 -0.042430934 -0.016451389 -0.0102962665 -0.026954865 -0.017871775 -0.009223631 -0.018418916
-0.004508016 -0.030596953 -0.17603688 -0.012485652 0.9794801 -0.005324256 -0.015652578 0.08860566

val_fc2.weight f4 [1, 64]
00000000: 6e4e 143a 8d12 62bb 3ad3 fdbb de55 a139
00000010: a66f 3ebc 0506 31be 2f29 a4bc b7ad 82bc
00000020: 6667 c43b b789 153d b6b4 a23a a39c efbc
00000030: 4a7e 6b3a a046 6fbc 204b ccb0 e2aa bf36
00000040: b573 99bc 2f91 0ebd a308 3abe ec50 a797
00000050: adda e0bd 4050 a8bc 1561 b03d 8e65 db3b
00000060: 0081 8cbb f8c0 cabe dbc4 5fbb 6a03 17bd
00000070: 960b 0c3b dc5c 5fba 26ed c8ba 4055 c4bd
00000080: 0af9 25bb 1a12 06bd 41c0 e53c a7cd ec3d
00000090: 651a 5a3c de9c 4c3c 72ec c1bb d360 773e
000000a0: 7502 e73a 8df4 17bc a671 eeb5 92b1 0fbc
000000b0: 4989 80a5 d26e 90be cab6 66bc c14c a9ba
000000c0: f3ba 77bc 5965 223d 7d7e 63ba 05ac 37be
000000d0: 17ef 09bd 0f36 0abd b9f2 48bc b34e 0bb9
000000e0: 884f 7f3c 7a39 1ebd 7864 34bd c73d 79bc
000000f0: 91fe d43e d628 293c ccd2 d53a 80fa fcbe
0.0005657439 -0.003449592 -0.0077461274 0.0003077229 -0.011623299 -0.17287453 -0.02003917 -0.015951974
0.0059937714 0.03650829 0.0012413475 -0.029249495 0.0008983357 -0.014604241 -1.4864305e-09 5.712137e-06
-0.018731931 -0.034806427 -0.18167357 -1.081255e-24 -0.10979209 -0.020546079 0.08612267 0.006695456
-0.004287839 -0.39600348 -0.0034144435 -0.03686849 0.002136921 -0.0008520612 -0.0015329465 -0.09586573
-0.002532544 -0.032732107 0.028045775 0.115626626 0.013311957 0.012488572 -0.005918079 0.2415803
0.0017624634 -0.009274614 -1.7765458e-06 -0.008770363 -2.2297489e-16 -0.2820955 -0.014081666 -0.0012916551
-0.015120256 0.039647434 -0.0008678211 -0.17936714 -0.03367528 -0.03374296 -0.012264901 -0.00013285391
0.015582927 -0.038629033 -0.044041127 -0.015212483 0.4160047 0.010324677 0.0016313433 -0.49409866
