Server/src/ml/models/b41df80e-4f36-4afa-9428-00939882ff1b/best.model (torch, 124548 bytes, 10 tensors)

layers.0.lin.weight f4 [6, 4]
000000 1e c9 98 bf ca 01 46 3f c3 ca ad bd 41 16 06 bf
       -1.1936376 0.7734648 -0.08485939 -0.52377707
000010 0f 8a 0f be 54 ff c9 be 28 ce a3 3c e3 91 a0 3e
       -0.14017509 -0.39452612 0.019995764 0.31361303
000020 69 6c 0f bf f2 c7 a9 3e 34 24 2f bf f7 c5 b2 be
       -0.56024796 0.3316036 -0.68414617 -0.3491666
000030 3c 59 a8 3f d6 7f a3 bf c9 3a 18 3f 08 b3 ef bc
       1.3152232 -1.2773387 0.594647 -0.029260173
000040 09 57 38 3f 85 5f ee bd e4 16 0f be 6d e9 85 bc
       0.72007805 -0.11639313 -0.13973576 -0.016346658
000050 7a 96 1a 3f 2e 04 b7 3f d1 72 53 be 0b 25 40 3e
       0.6038586 1.429815 -0.20649268 0.18764131

layers.1.lin.weight f4 [6, 6]
000000 ad 70 bc be c6 a3 41 be c7 46 4b be 81 45 91 bf
       -0.36804715 -0.18910131 -0.19851218 -1.1349336
000010 81 82 de be 3a 76 16 3f e2 2f cf be f9 48 ea ba
       -0.43458942 0.5877415 -0.4046622 -0.0017874531
000020 1c 5b 2f bf b1 a6 6f be 0e 2c 11 3e 93 bc b9 3e
       -0.68498397 -0.23403431 0.14176962 0.36276683
000030 d7 a2 5c 3f 15 62 26 3d 00 1d 4c 3f 14 dd f2 bf
       0.86185974 0.040620882 0.7973175 -1.8973718
000040 c4 fb 2c bf 1b a5 e4 3e 79 79 7d 3f c6 aa 56 bf
       -0.67571664 0.44657215 0.9901348 -0.8385433
000050 e3 c2 d9 3e 82 c4 d2 be 1a 5d 4e 3e e8 67 98 3d
       0.425315 -0.4116555 0.20152703 0.074416935
000060 c7 6f ba be 0b 5d 5d bf 1c 41 2a 3e 29 1e 29 be
       -0.36413404 -0.864701 0.166264 -0.16515411
000070 72 ff 61 3e 2e c8 41 3f b9 eb 1d bf 58 0d fd bd
       0.22070101 0.75696075 -0.6168781 -0.12356061
000080 15 7b 56 bf 72 34 b0 3f ec a3 e2 3e 62 4d a8 3d
       -0.8378156 1.3766005 0.44265687 0.082178846

layers.2.lin.weight f4 [6, 6]
000000 17 f7 fb be db 1d 00 bf 43 66 d8 3e 21 71 7a 3f
       -0.49211952 -0.50045556 0.4226552 0.9782887
000010 43 37 81 bd 1d 99 5c bf cd 2b e0 bd 5e 6a c2 3c
       -0.063093685 -0.8617113 -0.10945854 0.02373236
000020 bf 3f 5b 3f 99 95 c2 3e e2 7f 42 3d b9 4a a2 bf
       0.85644144 0.3800476 0.04748524 -1.2679054
000030 5a ec c0 be fc c9 f1 bc 7e 44 5b bf 08 74 a8 bd
       -0.37680322 -0.029515259 -0.85651386 -0.08225256
000040 de 2f 33 3f 5b 9a 07 3f 1c 81 5c 3f 35 5c da bd
       0.69994915 0.529699 0.86134505 -0.10662118
000050 0d 0f 41 3f 28 59 1b bf f0 68 52 3f 4e 94 48 bf
       0.7541359 -0.60682917 0.8219137 -0.78351295
000060 6e e3 16 be ef e6 d0 3e 4a 29 32 bf df c2 07 be
       -0.14735195 0.40801188 -0.6959425 -0.13257931
000070 b2 ad 1f 3f 53 65 6a be c2 7a 4a bf 37 a9 83 3e
       0.62374413 -0.22890215 -0.79093564 0.25715038
000080 84 be 9a bf 2e b2 ba bf 1d 25 fa 3e b3 fa 19 3f
       -1.2089391 -1.4585626 0.4885644 0.6014816

act_fc1.weight f4 [64, 216]
000000 ed cc 45 3d 88 b1 36 be 44 5f fc 3d 0b af f1 be
       0.048291136 -0.1784116 0.12322858 -0.4720386
000010 4e 78 04 3d 55 ef 98 3d 5d c8 3f be 1e ba b2 be
       0.032341294 0.07467524 -0.18728776 -0.3490762
000020 86 5e 3d bc 4f 73 f9 be 59 b7 9e bd 54 2f 25 bc
       -0.011558181 -0.48720786 -0.077498145 -0.010082085
000030 e9 e9 62 3e 4e 0e 23 3e f6 e4 ed 3c e9 42 71 3d
       0.22159542 0.15923426 0.029039841 0.0589017
000040 f8 13 6d bd ba 8d 8c 3d e6 b5 10 bd 1b c2 1b be
       -0.05788037 0.0686297 -0.035329722 -0.15210764
000050 8b 39 4f be 11 60 8f be f4 6f 0d be 7a 73 50 be
       -0.20236795 -0.2800298 -0.13812238 -0.20356551
000060 94 08 a0 be fe a1 7d be 93 e9 17 3d e6 49 f5 bd
       -0.31256545 -0.24768826 0.037087988 -0.11976986
000070 03 dc 24 be 55 1e 47 3d 38 5b 0b be 2f 79 c6 3e
       -0.16099553 0.04861291 -0.13609016 0.3876433
000080 27 db fd 3d 4b 0a 13 3f 98 ec 2f be 62 58 31 3e
       0.123953156 0.5743758 -0.17180097 0.17318872
000090 0b 11 87 be 61 62 b3 be 1a 6b fc bb 62 9b c1 be
       -0.2638019 -0.35035995 -0.007703197 -0.3781386
0000a0 e6 82 9c bd 08 b2 95 3d 7b a2 4b 3e 54 37 9e 3e
       -0.076421544 0.073093474 0.198862 0.30901587
0000b0 a0 fc 80 3e 6d 1e aa 3e 10 1b f8 3d 88 97 98 3e
       0.25192738 0.33226338 0.12114537 0.2980311
0000c0 25 c9 31 bb 3c 19 84 be e2 03 f1 3d c1 92 c7 be
       -0.0027127948 -0.25800502 0.11768319 -0.38979152
0000d0 22 0a 5f be d3 46 11 3e 3c 53 8e 3d eb 77 31 3e
       -0.21781209 0.14187174 0.069494694 0.17330901
0000e0 42 0c 2c be a6 6a 21 3e ba 24 61 3e 21 eb 65 be
       -0.16801551 0.1576334 0.21986666 -0.22452976
0000f0 f3 87 be 3e 5a 19 85 3e b2 6f eb be 99 09 47 be
       0.37213096 0.25995904 -0.45983654 -0.19437255
000100 e9 24 23 be 14 8c 07 bf 8d a0 b4 be 20 0c 23 be
       -0.15932049 -0.5294812 -0.3527874 -0.15922594
000110 9f 9f 92 3d ad d1 03 3c 5d 4a 91 bd 94 87 6f 3b
       0.071593516 0.008045596 -0.07094262 0.0036549317
000120 d2 8d 6b 3e 71 de 6a 3e 48 e6 f9 3d 62 4c 7d 3e
       0.23003319 0.22936417 0.12202126 0.24736169
000130 95 d6 d9 3d a5 95 1a 3e 7b c1 cf bd 69 d7 cd be
       0.106366314 0.15096147 -0.10144325 -0.40203407
000140 57 e2 3c 3e aa dc 06 bf 1e 9c 7d bd 6f 48 5c 3e
       0.18445717 -0.52680457 -0.061916463 0.21512006
000150 ff a0 8f 3d 99 5f b4 3e 44 e3 32 3e fd 23 14 3f
       0.070131294 0.35229185 0.17469507 0.57867414
000160 87 09 04 3f 12 65 b5 bc e9 f4 fb 3d 5b fe 29 b9
       0.5157704 -0.02214292 0.12302572 -0.00016211851
000170 53 53 00 3f 85 7e d4 be 6b 7c 0c be f8 d1 09 3f
       0.5012714 -0.41502777 -0.13719337 0.5383601
000180 8a 27 8f bc 51 07 ac 3d 5f 21 b0 bd 84 e2 11 3e
       -0.017474908 0.08399833 -0.08600115 0.14246565
000190 ef cc 87 3e 51 97 22 be 36 34 ae 3d 34 1d d7 bb
       0.2652354 -0.15878035 0.08506052 -0.0065647606
0001a0 8b 77 85 be 8e ab c4 bd db 4c 2e bc 55 5f ac be
       -0.26067767 -0.09603034 -0.010638441 -0.33666483
0001b0 0e ca ac bc 6f 43 74 bc e8 b6 c1 be e1 96 32 be
       -0.021092441 -0.014908656 -0.3783486 -0.17440368
0001c0 24 4d 10 be 30 78 d7 be f3 e3 f7 bc 14 1d 71 3d
       -0.14091927 -0.42083883 -0.030260062 0.05886562
0001d0 99 0e 57 be 50 74 89 3e 8d bf b6 3e 2e ff ad be
       -0.21001662 0.26846552 0.35693017 -0.3398375
0001e0 c8 68 18 3b 74 60 46 be f1 17 e8 3e 7d df 10 bf
       0.0023255814 -0.19372731 0.45330766 -0.56591016
0001f0 29 a2 ca 3c 9d 53 ec 3e cf a6 65 3d bd 37 ab 3e
       0.024735527 0.46157542 0.056067284 0.33440962
000200 f5 21 89 3e 7b 6b f3 3e 33 b0 f1 3e 44 30 35 3e
       0.2678372 0.4754294 0.47204742 0.17694193
000210 1e 53 af bd 26 5d b1 be 15 74 5d 3e 92 53 f1 be
       -0.08560775 -0.3464138 0.21626313 -0.47134072
000220 43 24 47 bc 34 36 51 3e 87 d7 8f 3e 8c 8a f2 3d
       -0.012154642 0.20430833 0.28094122 0.11842832
000230 f3 b9 4b 3e 7d ae ed 3c 25 33 6b 3d a9 ba 57 3e
       0.19895153 0.029013867 0.057421822 0.21067299
000240 36 3e 34 bd 17 60 07 bd aa a1 96 3c 77 2f d9 bd
       -0.04400464 -0.033050623 0.018387634 -0.10604756
000250 d9 dd 6a be 8b 0d 8b 3e 58 8c a1 3e 08 97 10 3e
       -0.2293619 0.2715877 0.31552386 0.14120114
000260 7b b8 7e be a3 2c 03 3e f3 9c 60 be 8a 88 5e be
       -0.24875061 0.12809996 -0.21934871 -0.21731773
000270 a5 bb be bc 67 bc 0b bd e4 0e f9 bd a0 0b 16 3e
       -0.023282835 -0.03411522 -0.12161043 0.14652872
000280 dd 24 97 3e 52 c2 99 be 93 f6 c5 bd 86 f7 e7 be
       0.29520312 -0.30031067 -0.09666171 -0.45306033
000290 2f 53 3a 3e 36 df 0d bf 60 b2 c3 bd af bb f8 3d
       0.18195795 -0.5541872 -0.09555507 0.12145173
0002a0 a0 ff af 3e 0d 6a b7 3e 0f 1f b2 3e 87 39 ce 3d
       0.34374714 0.35823098 0.3478932 0.10069566
0002b0 1b 9c 41 bd 85 28 d9 3e d0 4a e1 3d 36 1c f3 bd
       -0.047268014 0.42413726 0.110005975 -0.11870615
0002c0 6f 4e 9f bd 81 0b a4 be 6b ce b8 ba f8 ac 16 be
       -0.07778632 -0.32040027 -0.0014099603 -0.1471442
0002d0 38 9c e0 3e c5 25 20 3f 3b 57 8a 3e 9e cd f9 3e
       0.43869185 0.6255763 0.27019677 0.48789686
0002e0 01 7b ae be b7 9b a5 3e b6 90 ce bd 8b 75 f7 bd
       -0.3407822 0.32345363 -0.10086195 -0.120829664
0002f0 bd 75 79 3c 36 4c 54 be 54 18 89 be 47 c4 5d 3e
       0.015225825 -0.20732197 -0.26776373 0.21656905
000300 6c 2a 28 3e d0 21 3e 3e ee 95 7c be 38 7a 15 3e
       0.16422433 0.18567586 -0.24666569 0.14597404
000310 d3 15 01 be ef 65 8c be d7 97 80 3e 5d 91 85 3e
       -0.12605982 -0.2742152 0.25115845 0.26087466
000320 25 75 89 3d 3f d2 b6 3d 4a e3 d3 bd 91 e9 b6 3d
       0.06711797 0.0892682 -0.10346086 0.08931268
000330 2e 24 6f 3d 60 d7 45 be 9d 0f 5d be b3 37 48 be
       0.058384113 -0.1932044 -0.21587987 -0.19552498
000340 5e 43 98 bd 21 d8 67 be f2 be bf 3e 2b 35 ca 3d
       -0.07434724 -0.2264104 0.37450367 0.09873422
000350 bf ae b1 ba 5c c5 cf be 30 70 e6 bd 73 6a 0a bd
       -0.0013556107 -0.4058026 -0.11251867 -0.033792924
000360 f3 c6 4e 3e 7c ab 56 3e 2c f2 08 3d ff ac 8a 3e
       0.2019308 0.20963854 0.033434078 0.2708511
000370 d2 32 a2 bd 79 c3 09 3e 68 e8 2d bd 83 40 5c bd
       -0.079198495 0.13453473 -0.042457968 -0.05377246
000380 1a 94 22 bc 5b d7 2b bd d2 b2 07 3e 46 b9 a9 bd
       -0.0099230055 -0.041953426 0.13251808 -0.08287291
000390 1f 14 0f bd d3 bf 37 be 37 da b1 be 99 11 5b 3e
       -0.0349313 -0.17944269 -0.34736797 0.21393432
0003a0 21 c3 13 3e 41 ff cb be 3f 91 0b 3e e0 e6 73 3e
       0.14429905 -0.3984318 0.13629626 0.2381854
0003b0 66 72 72 3d d1 17 ba 3e 34 88 e7 3c 87 91 c7 3d
       0.05919113 0.36346295 0.028263189 0.09744554
0003c0 7e 47 08 be 14 ca 04 be b4 d2 ae bd 4b 16 15 be
       -0.13308522 -0.12967712 -0.08536282 -0.14559285
0003d0 f7 40 0c be 6d 27 b4 bc 71 b1 68 bc 3d 47 31 be
       -0.13696657 -0.021991456 -0.014202462 -0.17312331
0003e0 59 ce d8 3e 3f d2 04 bf 66 11 21 be f3 a4 e1 3e
       0.4234493 -0.5188331 -0.15729293 0.4407116
0003f0 c3 ef 36 3d 99 1d ed 3d 83 a0 f3 3d 3a 56 10 3e
       0.04466225 0.11577911 0.118958496 0.14095393

act_fc1.bias f4 [64]
000000 a9 9c c3 bc 0c 17 9b 3e 82 59 e5 bd e4 7f d9 3e
       -0.023878412 0.3029102 -0.11198713 0.42480385
000010 4e 7e 64 3f 1d a6 9f 3f 24 28 23 be 4a ea 22 be
       0.89255226 1.2472569 -0.15933281 -0.15909687
000020 39 77 c7 bc 7a 99 dd bd 44 81 88 be a4 9b 08 3f
       -0.024348842 -0.10820289 -0.26661122 0.5336249
000030 66 88 fc bc 20 0c 25 3f fc 34 91 be 18 97 60 be
       -0.030826759 0.64471626 -0.28360736 -0.21932638
000040 20 41 d8 3e fb 71 79 be 53 09 06 be 7f 69 22 be
       0.42237186 -0.24359886 -0.13089494 -0.15860556
000050 e9 83 35 be a7 23 7f be f2 ab 94 be 31 f5 33 be
       -0.17726101 -0.24915944 -0.29037434 -0.17574002
000060 53 43 10 be 51 0f 72 be 85 2c 9c 3f 3e 93 eb bd
       -0.14088182 -0.23638655 1.2201086 -0.115026936
000070 1d 93 89 bd fc 9b 5f be 35 ec 71 bd 34 c1 7e be
       -0.06717513 -0.21836847 -0.059063155 -0.24878389
000080 b7 30 74 be 61 de 87 3f 7f 32 32 be 20 39 8f be
       -0.23846708 1.061474 -0.17402075 -0.2797327
000090 84 66 86 3e 92 09 14 be 35 cd 3c be 20 f7 c6 be
       0.26250088 -0.14456776 -0.18437655 -0.38860416
0000a0 3b 2c 5e be 80 d2 18 bc fe dd 90 bd bc 6f a9 bd
       -0.2169656 -0.009327531 -0.07073592 -0.08273265
0000b0 e5 9c 87 be ae 29 ce be 74 39 a9 be 87 ba bf be
       -0.2648689 -0.40266174 -0.33051646 -0.37446997
0000c0 ec 39 41 3f 30 96 4c be 7c 6f f4 bc 0e 52 1c be
       0.75479007 -0.19979167 -0.029838316 -0.15265676
0000d0 b3 56 20 be dd ee 28 be d9 ae dc bd 91 41 3f 3f
       -0.15658073 -0.16497369 -0.10775537 0.7470942
0000e0 c7 f6 5f be c9 00 75 be d3 18 d2 bd 7c 80 cb 3c
       -0.21871482 -0.23926081 -0.10258641 0.02484154
0000f0 5b db a8 be 9a 44 8f be b7 e8 cf be 7e a8 85 3d
       -0.32979855 -0.27982026 -0.40607235 0.06526278

act_fc2.weight f4 [36, 64]
000000 bf 7d 9d 3e 36 ae 5b 3e 10 6a e6 bd 7e 14 49 bc
       0.3076 0.21453175 -0.112506986 -0.012272952
000010 5b 57 90 bf 4f 12 62 bf 2e dd 4e 3f 22 9e 19 bd
       -1.1276659 -0.88309187 0.80806243 -0.037504323
000020 93 f5 e1 bc 49 a0 87 be c9 8f 39 be c2 fc b6 be
       -0.02758292 -0.26489475 -0.18121256 -0.35739714
000030 dd 76 36 3a fe 8e 0b bc 0d 31 03 be bf 01 42 3d
       0.0006960461 -0.008517979 -0.1281168 0.047364946
000040 6c c3 89 3e d9 d5 f6 bc 95 fc 07 be 8f 8c 11 3f
       0.26906908 -0.030131267 -0.13279946 0.568551
000050 15 59 78 be 4b d8 b2 be 09 de 31 3c 32 6f a0 3d
       -0.24252732 -0.34930643 0.01085616 0.07833709
000060 76 33 41 bf 78 d1 65 be a0 70 02 3e 96 bd 85 3c
       -0.7546915 -0.22443187 0.12738276 0.016325753
000070 4b 92 7f 3e a6 46 91 3e bc ca 35 be 22 e8 ba be
       0.2495815 0.28374213 -0.17753118 -0.36505228
000080 b9 d5 90 3e df 8b b9 3d 38 f7 4b be a1 89 b2 be
       0.28288057 0.090598814 -0.19918525 -0.34870628
000090 f8 95 62 3e eb 32 42 3e 58 bd 09 bf 80 8e 9a be
       0.22127521 0.18964736 -0.5380454 -0.30186844
0000a0 3b 06 eb 3d e6 62 ee be 3d b1 6c bd 8d 8e a9 be
       0.11475798 -0.4655983 -0.057786215 -0.3311657
0000b0 54 2e 45 3e 22 8f 7d be d7 3d 89 3e 62 28 86 bd
       0.19255954 -0.24761632 0.26804993 -0.06550671
0000c0 6b ac be be 01 ae 74 bd 13 dd 6b be 0e f1 61 be
       -0.3724092 -0.059736256 -0.23033552 -0.22064611
0000d0 b3 64 84 3e a3 6b f1 bd 8f ee a5 bd 6b ac 43 be
       0.25858077 -0.11788108 -0.08102142 -0.19108741
0000e0 93 9a ca 3e 65 a0 43 bd 63 4a ab 3e ba e6 87 3f
       0.39571056 -0.047760386 0.3345519 1.0617287
0000f0 84 38 8b be ef bf 50 3e bb f8 c6 3d db aa df bc
       -0.27191556 0.20385717 0.0971541 -0.02730315
000100 1e 83 19 bf 2d 5e 94 3e 78 05 b8 be 07 97 00 bf
       -0.59965694 0.289781 -0.35941672 -0.5023045
000110 e2 25 c0 be 72 23 59 bf b8 d5 c5 3d 33 e8 37 be
       -0.37528902 -0.8481971 0.09659904 -0.1795967
000120 cc f3 d8 bd a3 46 bc 3d 1f 0f 05 bf a3 35 00 3e
       -0.105933756 0.091931604 -0.519762 0.12520461
000130 fb 35 01 bf fd fa d0 bd 0d bf 36 bd b7 07 d4 be
       -0.5047299 -0.10204122 -0.044615794 -0.41412136
000140 31 73 f1 be 97 c0 18 3d f1 56 0e 3e 07 61 81 be
       -0.47158197 0.037293043 0.13900353 -0.25269338
000150 3a 40 35 be 9d 48 0e 3e b3 bb 3e be b4 e8 85 3e
       -0.17700282 0.13894887 -0.18626289 0.261541
000160 ce 27 f6 3d 35 de bc be c3 a4 bb 3e 83 bc ff 3d
       0.12019311 -0.3688828 0.3664914 0.12487128
000170 f6 88 8e bd 7e b1 60 be 02 e6 b2 be ba 77 53 be
       -0.06959717 -0.21942708 -0.34941107 -0.20651141
000180 81 c6 05 bf 5e 6d 2b be 63 b6 55 be 95 97 58 3d
       -0.5225602 -0.16740939 -0.20870356 0.052878935
000190 b3 cb 81 bd d1 45 7b be 3c 22 63 3d a5 eb ac be
       -0.06337681 -0.24538352 0.05545257 -0.33773533
0001a0 cb e4 1c 3f 97 38 07 bf 16 a6 0b be ad 14 eb 3d
       0.6128661 -0.52820724 -0.13637576 0.11478553
0001b0 69 4d dc be d3 45 eb 3d 99 09 62 be 3f ec cc be
       -0.4302781 0.11487927 -0.22073974 -0.4002399
0001c0 1a 25 90 be 47 ba 6d 3e a1 6f bd 3d 54 85 ac be
       -0.28153306 0.2321559 0.09249807 -0.3369547
0001d0 e0 3b c4 be 44 5e 3c be 1f 26 85 bf 9b 13 0e bf
       -0.3832693 -0.18395334 -1.0402259 -0.55498666
0001e0 d2 f6 e3 be 96 b3 4f be 16 84 12 be f9 06 f5 3c
       -0.44524246 -0.2028335 -0.143082 0.029910551
0001f0 07 80 bf be 60 db ec 3d 0f 43 f1 3e 97 23 4e 3e
       -0.37402365 0.1156528 0.47121474 0.20130764
000200 b6 7a 41 3d 85 b3 a2 be 11 d2 48 ba 4e f4 3d be
       0.047236167 -0.31777588 -0.0007660697 -0.18550226
000210 22 e4 7d bf 9d 71 39 bf cf 72 df be 10 e4 03 3e
       -0.9917623 -0.72438985 -0.4364228 0.12879968
000220 2b 33 90 bc c9 de b2 be 7f 82 b7 3e 13 f2 27 3e
       -0.017602524 -0.34935597 0.35841748 0.16400938
000230 e6 e2 da 3d 3c 4a 72 bd 0a a0 1a 3e 80 6b ba bd
       0.10687809 -0.059152827 0.15100113 -0.09102535
000240 6c 68 b8 be ef b0 7c be 6c 22 fa bc 05 15 f5 be
       -0.36017168 -0.2467687 -0.030533992 -0.478676
000250 b3 1d 63 bd 96 3b 6a bc 63 33 e3 bc 2c 72 b7 be
       -0.055448245 -0.014296433 -0.027734464 -0.35829294
000260 6e 49 cc 3d 2f 9b d7 3d 5b a7 af 3e 09 eb f2 3d
       0.09974943 0.10527646 0.3430737 0.11861236
000270 c5 c1 88 be b2 af cc 3d 1a 64 94 bd 5a 13 7f be
       -0.26710334 0.09994449 -0.07245655 -0.24909726
000280 91 ce e6 bd f6 e8 72 be 4e a6 3c bd 1a 77 30 be
       -0.11269868 -0.2372168 -0.046057038 -0.17232934
000290 7f 6a 07 3f 87 9c 83 3e 26 4f 5f 3e 97 e0 c5 bd
       0.52896875 0.25705358 0.21807536 -0.09661978
0002a0 44 14 69 3d 3b 88 17 bc 4e 0b f5 3b 69 c5 b1 3d
       0.056904092 -0.0092487885 0.0074781543 0.08680231
0002b0 00 00 bf bc 2e e5 8a bd 52 4e 67 be 20 25 04 bd
       -0.02331543 -0.06781994 -0.2258847 -0.032261968
0002c0 84 37 97 bd 19 4b 4d 3e 33 c9 3f be 8c 6d 8f be
       -0.07383636 0.20048179 -0.18729095 -0.28013265
0002d0 43 17 41 be ae f4 94 3e 27 d6 8c 3e b8 92 a4 3d
       -0.1885653 0.29092926 0.27507135 0.08035797
0002e0 42 a5 d3 bd c6 00 45 3e 1d 7c 08 3e f6 78 03 bf
       -0.10334255 0.19238576 0.13328595 -0.51356447
0002f0 9f b0 6c be dd 18 a1 3c 54 ba c3 3e 58 37 a1 be
       -0.2311425 0.019665176 0.38228095 -0.31487536
000300 30 91 7b bd b3 e1 04 bf fe f9 a1 3e cd c9 07 bf
       -0.06141776 -0.5190689 0.3163604 -0.530423
000310 62 ec ed be 59 25 03 bf ab 2b d1 3d fb 7b 44 bd
       -0.46469408 -0.51228863 0.10213407 -0.0479698
000320 48 94 8a 3c 87 d4 de bd 47 2c 85 3e 00 c5 1f bf
       0.01691641 -0.1088038 0.26010343 -0.62409973
000330 18 2d 2c be f7 1b 9f 3e a2 23 f0 be 5a 98 0b be
       -0.16814077 0.31076023 -0.46902186 -0.13632336
000340 fc 64 a6 3d 96 7e ad 3c c9 47 45 3d 54 41 cb bd
       0.0812473 0.021178525 0.048164163 -0.0992457
000350 b2 05 55 3d 6a 85 34 3e c0 91 20 bf b7 26 d3 3d
       0.052007385 0.17629018 -0.62722397 0.10310119
000360 d6 ee c9 3e 00 62 04 bd 70 26 84 3e 84 42 4c be
       0.3944003 -0.032320023 0.25810575 -0.19947249
000370 fa 62 e9 be 63 e0 58 3e e2 46 8c 3e 77 16 dd bd
       -0.45583326 0.21179347 0.2739783 -0.107953005
000380 ba 14 45 3d 11 ed 2f bf 79 78 a5 3e b6 95 dc be
       0.04811547 -0.6872111 0.32318476 -0.4308297
000390 ba 8f 39 be c8 b2 ab 3e 95 93 48 3c 25 92 a2 3d
       -0.18121234 0.33534837 0.012242218 0.07938031
0003a0 8b 25 4e 3e df f2 7b be 9e 86 2d 3e 14 c8 ab bd
       0.20131509 -0.24604367 0.16945884 -0.08387771
0003b0 e5 ba de 3d f5 e4 16 3f 85 7e f8 bd b7 4e a1 3d
       0.10875491 0.5894311 -0.12133507 0.07876342
0003c0 35 62 8c be 24 ea 97 3e 15 02 88 be 42 c9 ee 3c
       -0.27418676 0.29670823 -0.26564088 0.029148702
0003d0 6a 1a 3f 3f 3f fc d7 bd e0 56 6e 3e d4 6b a9 be
       0.7464968 -0.10546159 0.23275328 -0.3309008
0003e0 90 fd a1 be 55 07 ee bd c8 06 1d 3e 83 17 9e be
       -0.31638765 -0.11622492 0.15334618 -0.30877313
0003f0 3d f8 c1 3d c5 c7 9b 3d 16 6f ec bd 68 1d 8a 3c
       0.09471176 0.076064624 -0.115446255 0.016859725

act_fc2.bias f4 [36]
000000 ea 31 f3 be c6 69 e9 be bf 3d a7 be 01 81 73 be
       -0.4749902 -0.4558851 -0.32664296 -0.2377968
000010 67 81 da be 9e 1f dd be 97 e1 e8 be da cb 72 be
       -0.4267685 -0.43188184 -0.4548461 -0.23710576
000020 31 1f e9 3e 47 3e e9 3e 91 18 f5 3c a0 9f cd be
       0.4553161 0.45555326 0.02991894 -0.40160847
000030 c3 8d a9 be b6 ae c8 3e 6e ef 1f 3f 11 59 d8 3e
       -0.33115968 0.39195794 0.62474716 0.42255452
000040 75 87 b4 3e 16 79 d6 bd ff 77 7c be 61 3b 7f 3e
       0.35259596 -0.10472314 -0.2465515 0.24924995
000050 0b c1 f6 3e 1e 99 1b 3f 47 0b fa 3e 9c 5b b5 be
       0.48194155 0.60780513 0.4883673 -0.35421455
000060 ef 59 fa be 1b a2 cc 3d fe a0 8e 3e 9f 23 fa 3e
       -0.4889674 0.09991857 0.27857202 0.48855302
000070 43 80 6a be 50 b0 d6 be 9a d8 9e be 3a 54 f9 be
       -0.2290049 -0.4193139 -0.3102463 -0.48697072
000080 ea 3b 52 be 6f ec 31 be 67 08 e7 be a0 a0 fd be
       -0.20530668 -0.17375349 -0.45123598 -0.4953661

val_fc1.weight f4 [64, 216]
000000 d0 77 47 3e 09 a7 fc 3d 52 da b0 3d e9 c7 14 be
       0.19479299 0.12336547 0.08635391 -0.14529385
000010 f0 57 62 be aa e5 f9 3d de 51 70 bd 40 30 14 be
       -0.22103858 0.12202008 -0.058671825 -0.14471531
000020 af c7 d7 bc 4b 5a ac be 42 f7 b3 be be a4 eb bc
       -0.026340334 -0.33662638 -0.3514958 -0.028765079
000030 b0 fd 61 3d f7 ff e6 bc 25 dd 20 3d 5a 88 eb bc
       0.055173576 -0.028198225 0.0392734 -0.02875154
000040 54 74 09 be 90 cf 93 bd ee f5 03 3e 04 b6 66 3d
       -0.13423282 -0.07217324 0.12886783 0.056325927
000050 f8 2a 05 3e 2e 2b f4 bd fc 04 3a be 30 cf 1c 3d
       0.13004673 -0.11922298 -0.18165964 0.038283527
000060 6b bf 8c 3c ef ed 0f be f2 6e 40 3e 9e 66 d3 be
       0.017181119 -0.14055608 0.18792322 -0.41289228
000070 be f7 9c be 41 c9 d2 3d 35 8f 8a 3e e9 08 20 3e
       -0.30657762 0.102922924 0.27062383 0.15628399
000080 98 e5 58 3e 58 db 74 be fa 15 85 be f4 e6 53 3e
       0.21181333 -0.23911798 -0.2599333 0.2069357
000090 2f 09 e7 bd c7 bf 1d be 88 ca 5d 3c dc 40 b9 be
       -0.112810485 -0.15405189 0.013537057 -0.36182296
0000a0 92 e0 ba be ef df 81 bc c7 12 33 bd 46 16 fe bd
       -0.3649946 -0.01585385 -0.04371908 -0.12406592
0000b0 ef 40 90 bb 8c 02 19 bd b5 f3 35 3d 0a b0 2f be
       -0.004402272 -0.037355945 0.04442187 -0.17156997
0000c0 15 61 9f 3d f9 bd e1 bc c6 ac a2 bd e0 c0 35 be
       0.07782189 -0.027556406 -0.0794311 -0.17749357
0000d0 3a 7d 85 3a 17 57 93 bd 1b 98 16 3e d8 23 c0 3d
       0.0010184415 -0.071943454 0.14706461 0.09381837
0000e0 6a 91 42 3e 25 c4 a9 bd c9 31 ec 3d 29 67 63 3e
       0.19000784 -0.08289365 0.11532933 0.22207321
0000f0 a1 79 60 3d f4 2c 32 3d f1 2d a6 3d c2 31 e6 bd
       0.054803494 0.043499902 0.081142314 -0.11239959
000100 cc f0 4d 3d 4e 51 07 bd 07 a4 91 bd 13 32 63 be
       0.05027847 -0.033036523 -0.07111364 -0.2218707
000110 6e 22 41 3e 51 38 c2 be 81 8f ad be f3 60 3f 3e
       0.1886079 -0.3793359 -0.33898547 0.18689327
000120 fe 49 9c 3d 04 12 e4 3d 26 07 ec bd 6f 27 75 3e
       0.076313004 0.11136249 -0.11524801 0.23940824
000130 0c a7 3a bc 5d 04 85 be c5 b4 73 3d 58 1c e9 3c
       -0.011392366 -0.2597989 0.059498567 0.028455898
000140 49 b1 53 bd e1 3d e8 3a 69 9a 8a bd 1e f3 d9 bc
       -0.051682744 0.0017718637 -0.06767733 -0.026605185
000150 c8 8a 38 3d 4c 67 a8 3d ba ba 0a bd fc 11 80 3e
       0.045054227 0.08222827 -0.033869483 0.2501372
000160 56 c0 80 3e 60 5b f1 bd d7 9a 9c 3d 7c 71 0e 3e
       0.2514674 -0.117850065 0.07646721 0.13910478
000170 5d 75 ba bd 06 77 56 3d 71 da df 3d 3e 34 ce bd
       -0.091044165 0.052359603 0.10930336 -0.10068558
000180 4a e2 d1 3d 5c 11 a0 3d cb 90 56 3e 63 bb 3e 3d
       0.10248239 0.07815811 0.20953672 0.046565425
000190 ee ad 20 bb a4 16 67 3e 88 a6 d8 3d 3f 29 c1 3d
       -0.0024517733 0.2256723 0.10578638 0.09431695
0001a0 70 0b 87 3d 78 b2 9b 3d d2 bf 97 bd 17 6b 93 bd
       0.065939784 0.076023996 -0.07409634 -0.0719816
0001b0 07 85 ad 3d 65 9e 29 3c 86 0b d9 3d 7d d3 97 bd
       0.084726386 0.010352706 0.10597901 -0.07413385
0001c0 f9 10 77 be ef 85 47 bc 23 21 e4 3d c8 81 e7 3c
       -0.24127568 -0.012177928 0.11139133 0.028260127
0001d0 0d c0 59 be 61 e5 f0 3d 44 2e 9f 3d f6 2e 94 be
       -0.21264668 0.117625006 0.07772496 -0.28942078
0001e0 32 66 2d 3e e5 16 f7 3d 5c 22 4a be 45 72 bd 3d
       0.16933516 0.12064914 -0.1973967 0.09250311
0001f0 12 5a a3 3d 42 6a 4e be bc 3a 01 3d 6f 04 88 3d
       0.07976164 -0.20157722 0.031550154 0.06641471
000200 d2 27 eb bd 50 ce 59 3e 9f ce 2e 3e 5e 57 11 be
       -0.114822045 0.21270108 0.17071007 -0.14193484
000210 3b c7 1c 3e dc 43 b0 3d 6e 88 f2 bd a5 9e 2a 3d
       0.15310375 0.08606693 -0.11842428 0.0416552
000220 7d 82 06 3c d2 c5 18 be e1 34 50 bd 04 d5 7c bd
       0.008209822 -0.14919212 -0.05083168 -0.061726585
000230 d3 5b 12 3d 3f 70 23 3d a0 f9 7c be 38 87 d0 bd
       0.0357321 0.039901968 -0.247046 -0.10182041
000240 fd 6e 66 3e 41 1f e0 3d af ce f9 bc 92 ff 74 be
       0.22503276 0.10943461 -0.030494062 -0.23925617
000250 b2 df da be 2f 43 13 3b 31 65 5c 3e b4 ff bb 3d
       -0.4274879 0.0022470464 0.21522976 0.09179631
000260 c3 8c 93 3d 9a 9d 2c be a0 9b c1 bd 0e d2 5f 3c
       0.072045825 -0.16856995 -0.09453511 0.013660921
000270 a6 bf 21 3e 38 94 6b 3d b6 03 68 be 37 d0 d6 3d
       0.15795764 0.0575144 -0.22657666 0.104889326
000280 19 06 0f 3d 46 1f 9c be 57 fc 3b 3e 10 fe e0 3d
       0.034917925 -0.3049261 0.18357979 0.109859586
000290 b0 89 04 be e2 55 c0 bc 09 1e 1d 3d 3f d4 fc bd
       -0.12943149 -0.023478452 0.038358722 -0.1234517
0002a0 45 b9 58 bc 2c e2 6f bc c6 2f 75 3d ae 6f 96 bd
       -0.013227765 -0.014641326 0.059860013 -0.0734552
0002b0 be c1 d8 bb 13 0c 54 bd 06 1c 1a bd f7 c0 43 be
       -0.0066148927 -0.051769327 -0.03762438 -0.19116579
0002c0 ae c8 2d bd 55 26 c3 be c3 ca a7 be 55 10 61 bd
       -0.04242771 -0.38115183 -0.32771882 -0.054947216
0002d0 44 35 ca 3e b2 da 71 3e 80 84 89 3e 7a e3 47 be
       0.39493763 0.23618582 0.26858902 -0.19520369
0002e0 4c 9a a0 be 59 07 89 3e 33 78 45 3e 42 63 22 3d
       -0.3136772 0.26763418 0.19284134 0.03964544
0002f0 c3 cc de bd 8d 04 81 be 35 96 e2 be b6 cc 80 bd
       -0.10878899 -0.25198784 -0.44255224 -0.062890455
000300 a6 56 3d 3e 02 8a 1a 3d 49 49 9b bc e0 1e 13 bc
       0.18490085 0.03772927 -0.018955844 -0.008979529
000310 9f f5 5c bd 24 dd 20 be 38 04 1b 3e 23 ba 82 3d
       -0.05394518 -0.15709358 0.15138328 0.06383159
000320 98 c0 1f bd 34 ea 17 3e 8b e5 29 3d 14 d7 37 be
       -0.03900203 0.14835435 0.041478675 -0.1795314
000330 63 52 9c bd 91 f8 65 be f7 03 91 bc f4 68 d3 be
       -0.076329015 -0.22458102 -0.017702086 -0.4129101
000340 a0 84 5b be ef 4f 53 bd 52 70 2f 3e 75 05 1a 3e
       -0.21437311 -0.051589902 0.1713269 0.15041144
000350 29 4d 3d 3e f0 34 b4 bd 6f 30 28 be 92 c8 69 3e
       0.18486466 -0.087991595 -0.16424726 0.22830418
000360 ad 5d 23 3c 7d 16 6c bc 94 82 fe bd 40 40 56 3d
       0.0099710645 -0.0144096585 -0.124272496 0.052307367
000370 2e f3 24 3d da b0 e5 bd 9c 38 7f bc 58 33 51 bd
       0.040270977 -0.112153724 -0.015577462 -0.051074356
000380 78 4f d1 bd ed 45 2e be 75 aa 76 3d b0 dc d7 bd
       -0.102202356 -0.17018862 0.060221154 -0.1054014
000390 86 88 a6 bd 2b 7d 02 bd ac e2 03 3d e1 a8 ae bd
       -0.081315085 -0.03185765 0.032198593 -0.08528305
0003a0 a5 c4 71 3d cb 70 d1 3d 6b b3 fa bd a4 f4 3b bc
       0.059025425 0.10226592 -0.122412525 -0.011471901
0003b0 b1 d3 88 ba a2 4a 5b 3c dd c1 62 3d 96 a9 58 3d
       -0.0010439066 0.013384493 0.055360664 0.052896105
0003c0 43 f5 64 be b2 da 03 be ff 0f fe bd 73 65 b6 3b
       -0.22359185 -0.12876394 -0.12405395 0.005566293
0003d0 f9 ae 8d 3d 2d 6a 20 be 99 26 37 be 2a d0 84 3c
       0.06918139 -0.15665503 -0.17885818 0.016212542
0003e0 17 36 90 bd 9d a7 63 3e 9d be 93 3d ac 67 1c bd
       -0.07041567 0.22231908 0.07214091 -0.038184807
0003f0 2c 90 b4 bd c4 5a 00 be 55 de 3e bd 56 ed 59 be
       -0.08816561 -0.12534624 -0.04659875 -0.21281943

val_fc1.bias f4 [64]
000000 59 a7 35 3e 41 03 29 3e 53 ea 81 be 7a f7 87 bd
       0.1773962 0.16505148 -0.25374088 -0.06638999
000010 9f 6d 8d be f6 bc 84 3d 22 fd 98 bd bd f4 b0 3c
       -0.27622697 0.06481354 -0.07470156 0.021601075
000020 e1 b6 85 bd 13 f8 87 bd 38 e6 cd bc 0f 8b e7 3d
       -0.06529022 -0.06639113 -0.02513419 0.1130582
000030 0f 47 f6 3b 01 f2 3c 3e 4d e2 a6 bc fa 49 a7 3a
       0.007515795 0.18451692 -0.02037158 0.0012763136
000040 38 d0 0e bd c4 75 c1 3b 9a e0 2f be 86 a6 11 be
       -0.03486654 0.0059039313 -0.17175522 -0.1422368
000050 e1 18 45 be f5 71 02 be a1 ac 71 3d f6 ae de 3c
       -0.19247772 -0.12738784 0.059002522 0.027183037
000060 48 f3 ac be 36 5f 6f bc 18 1b c1 3c f1 bd bd bc
       -0.3377936 -0.014610102 0.02357249 -0.02316186
000070 8e d9 1a be 8c 31 d9 3d cf 00 07 be 81 86 26 be
       -0.15122053 0.106051534 -0.13183902 -0.16262247
000080 ab 79 0f 3d a8 91 95 bd 53 15 70 be f7 cb 4c be
       0.03502814 -0.07303172 -0.23445635 -0.19999681
000090 52 21 10 bd 27 63 8d be 50 0b b3 bd 16 12 fb bd
       -0.035188027 -0.2761471 -0.08742392 -0.12259309
0000a0 ca d4 8b be 22 98 d7 bc 3d fa 2b 3e 0b 06 c6 ba
       -0.27310783 -0.02631766 0.16794677 -0.0015108002
0000b0 e6 91 28 3c a8 4b cf bc 4e aa bd bd 9e db c6 bc
       0.010288691 -0.02530463 -0.09260999 -0.024274644
0000c0 42 a6 5d be f7 26 2b bd 7c 5c 45 3d bb dd c4 bd
       -0.21645454 -0.041785207 0.048183903 -0.09612604
0000d0 18 7b ac bd bd ab 7d bd a3 e1 9b bd 06 a0 01 be
       -0.08421916 -0.06193136 -0.07611396 -0.126587
0000e0 20 3d 0a be 2e 58 26 be 0c b7 03 3e 4d 4e 63 be
       -0.1349988 -0.16244575 0.12862796 -0.22197838
0000f0 fd 4e 83 be e2 16 07 3e a8 30 a6 bd 3d f4 08 3e
       -0.256462 0.13192323 -0.08114749 0.1337442

val_fc2.weight f4 [1, 64]
000000 fe 52 cc 3d 6e ae 4b bd ab 48 1e bf 77 d2 b6 be
       0.09976767 -0.049726896 -0.6182963 -0.35707447
000010 7b 39 d3 be c9 1d c5 be 8c 58 e5 3c 86 6d 81 3e
       -0.41254792 -0.38499287 0.027996324 0.25278872
000020 c3 f1 85 be 57 6d a8 be 0d 21 85 bc 80 d1 07 be
       -0.26161012 -0.3289592 -0.016251111 -0.13263512
000030 0e e8 34 3e 01 34 b2 3e 5a 4b 9f 3e 34 99 2e 3e
       0.17666647 0.348053 0.31112176 0.1705063
000040 43 cc 79 3e a1 5a 1a bf 30 f9 e8 3e 0c ea df bd
       0.24394326 -0.6029454 0.45502615 -0.10933313
000050 ec 58 15 bf 16 6e f9 be 5f b5 f7 be c5 28 d3 be
       -0.5833881 -0.487168 -0.48380563 -0.41242042
000060 82 73 10 3e 45 cc 26 bf 6b 4c 84 3e 14 53 8a 3e
       0.14106563 -0.6515544 0.25839552 0.2701651
000070 bd 71 03 bf 00 84 97 bd e5 eb aa be 1f 3b b7 3e
       -0.51345426 -0.07398224 -0.33383098 0.35787293
000080 fc f7 8d 3e 6e 34 c3 3e 0e 2f ba be 1d 89 f0 be
       0.2772826 0.38125938 -0.36364025 -0.4697961
000090 83 9b 1d be 34 91 1b 3f c4 a3 ab 3e 5f 1b c9 be
       -0.15391354 0.6076844 0.3352338 -0.39278695
0000a0 b9 02 cb 3e 7f ce 24 3d e5 d1 cf 3e 5b 9b 78 ba
       0.39650515 0.040235993 0.40589824 -0.0009483599
0000b0 32 d1 16 bb 61 99 12 bf 7f f5 42 bd 08 be f3 be
       -0.0023012874 -0.5726529 -0.047597405 -0.4760592
0000c0 22 54 1a bf c3 2f d2 be f6 6f 5c be 66 d9 da bd
       -0.60284626 -0.41052064 -0.21527085 -0.10685997
0000d0 70 9c ee bd 73 4c 9c bb 8d 1c cf be 20 fa 05 3e
       -0.11650932 -0.0047698556 -0.4045147 0.13083696
0000e0 49 6f f4 3e 70 6c d6 3d b9 a9 55 bb 9a 41 03 3f
       0.47741154 0.104699016 -0.0032602383 0.51271975
0000f0 44 ca 89 3e c3 13 44 3d 27 75 af be 55 5f aa 3e
       0.2691213 0.04787041 -0.34269068 0.33275858
