Server/src/ml/models/b41df80e-4f36-4afa-9428-00939882ff1b/curr.model (torch, 124420 bytes, 10 tensors)

layers.0.lin.weight f4 [6, 4]
0	0xbf99fde2	-1.2030604
1	0x3f6d5eea	0.9272295
2	0x3e0defb4	0.1386097
3	0xbed03b63	-0.40670308
4	0xbf12ff3d	-0.5742071
5	0xbe2e6077	-0.17028986
6	0xbedf0143	-0.4355565
7	0x3ec736d0	0.38909006
8	0xbe04e7ca	-0.12979046
9	0x3f178906	0.59193456
10	0xbfa89edc	-1.317348
11	0xbee00fc4	-0.43762028
12	0x3fe9100e	1.8208025
13	0xbfadefb3	-1.3588775
14	0x3e38a736	0.18032536
15	0xbb62521e	-0.003453381
16	0x3f9e4fa0	1.236805
17	0xbdfa59fe	-0.12224196
18	0x3e437c52	0.19090393
19	0xbcdd295b	-0.026997259
20	0x3f51509f	0.81763643
21	0x3fe514cf	1.7896975
22	0xbe32dc98	-0.17466962
23	0x3e577305	0.2103997

layers.1.lin.weight f4 [6, 6]
0	0xbe078fb3	-0.1323841
1	0xbe96a910	-0.2942586
2	0xbf720ad5	-0.9454778
3	0xbf982c46	-1.1888511
4	0xbef48577	-0.47758076
5	0x3f54d395	0.8313535
6	0xbf0c2716	-0.5474714
7	0x3ef34b7c	0.47518528
8	0xbe819c6e	-0.2531466
9	0xbf35efd3	-0.7106907
10	0x3ed7cb2a	0.4214719
11	0x3ee35c85	0.44406524
12	0x3f6d93ce	0.9280366
13	0x3e6ccb6e	0.23124477
14	0x3eca5ed5	0.39525476
15	0xc00e8899	-2.2270873
16	0xbf9ae338	-1.2100592
17	0x3f20f726	0.6287712
18	0x3f64e583	0.8941271
19	0xbfa7fc0b	-1.3123792
20	0x3fae1105	1.3598944
21	0xbf29bb14	-0.66301084
22	0x3e688c85	0.22709854
23	0x3e0038e5	0.12521704
24	0xbf895836	-1.0730045
25	0xbf4fae7e	-0.8112563
26	0xbd5d7e55	-0.054075558
27	0xbf1dc70f	-0.61631864
28	0x3f444a7d	0.7667616
29	0x3f7077a4	0.9393256
30	0xbea3cf83	-0.31994256
31	0x3e5fdef6	0.21862397
32	0xbf47f6f2	-0.78111184
33	0x3fe186ad	1.7619225
34	0x3f0dcbc2	0.55389035
35	0x3d8c90f4	0.06863585

layers.2.lin.weight f4 [6, 6]
0	0xbf4c56ca	-0.7981993
1	0xbf67b7c5	-0.90514785
2	0x3ebdab94	0.37044966
3	0x3f944308	1.1582956
4	0xbe09fbc9	-0.13474955
5	0xbe9285ec	-0.286178
6	0x3da5b218	0.08090609
7	0x3e584484	0.21119887
8	0x3f0d844b	0.5527999
9	0x3f0bbed9	0.54588085
10	0x3f125e16	0.57174814
11	0xbfd9009c	-1.6953311
12	0xbf01fa56	-0.5077261
13	0xbe197ed5	-0.14989789
14	0xbf910179	-1.1328574
15	0xbe5a6d6d	-0.21330805
16	0x3f94967c	1.1608424
17	0x3eddcbd7	0.4331958
18	0x3f67442d	0.90338403
19	0xbe920867	-0.28522035
20	0x3f348077	0.7050852
21	0xbf38480a	-0.7198492
22	0x3f7aa2b0	0.9790449
23	0xbf3018c9	-0.6878782
24	0xbebe2ae9	-0.37142113
25	0x3f4c6605	0.7984317
26	0xbfb1849d	-1.3868595
27	0x3ee5a70d	0.44854012
28	0x3f7d3a10	0.9891672
29	0xbf19118d	-0.59792405
30	0xbff32353	-1.8995155
31	0x3e21ae86	0.15789232
32	0xc05af3b4	-3.4211245
33	0xbfbd92f6	-1.4810474
34	0x3f06fb42	0.5272714
35	0x3f65c913	0.8975994

act_fc1.weight f4 [64, 216]
0	0xbd5085ba	-0.05090878
1	0xbd9610dd	-0.07327435
2	0xbda478e0	-0.080308676
3	0xbe5399c2	-0.20664123
4	0x3c775445	0.015095775
5	0xbde272ff	-0.1105709
6	0x3dd024bc	0.101632565
7	0x3dc354b7	0.095376424
8	0xbe223f95	-0.15844567
9	0xbe8aa2ce	-0.27077335
10	0xbe29eea4	-0.1659494
11	0x3c3de938	0.011591248
12	0x3d6554e2	0.055989154
13	0x3cf5866d	0.029971326
14	0xbe4c5c49	-0.19957079
15	0xbd6b7b5b	-0.057490688
16	0xbe1a6b3c	-0.15079969
17	0xbe20f788	-0.15719426
18	0x3e8f8d19	0.28037336
19	0x3e9471bf	0.2899303
20	0xbdff44c8	-0.12464291
21	0x3e0515e8	0.12996638
22	0xbe77eece	-0.2421219
23	0x3d1da847	0.03849056
24	0x3dbb227d	0.091374375
25	0xbc35a7a8	-0.011087336
26	0x3d802008	0.062561095
27	0xbd7aa9fb	-0.061197262
28	0x3cd14ed5	0.025550285
29	0x3e12af86	0.1432477
30	0x3e79c375	0.24390967
31	0x3eb09412	0.3448797
32	0x3e3ba122	0.18323186
33	0x3ebadc64	0.3649627
34	0xbdf22155	-0.11822764
35	0x3e9b500e	0.30334514
36	0x3ddd5b0b	0.10808381
37	0x3e0f153c	0.13972944
38	0xbe4c3137	-0.19940649
39	0xbe20b346	-0.15693387
40	0xbdf647ab	-0.12025388
41	0x3d939a7d	0.07207201
42	0x3d907565	0.07053641
43	0x3de48861	0.11158825
44	0xbde663e9	-0.11249525
45	0x3dba6409	0.091011114
46	0xbcfc45ea	-0.030795056
47	0xbe24cf34	-0.16094667
48	0xbd73adff	-0.059492107
49	0xbde6cd7d	-0.112696625
50	0x3d43dbe7	0.047817137
51	0xbede46ae	-0.434133
52	0xbee90850	-0.45514154
53	0x3e880622	0.2656718
54	0xbd5357f9	-0.05159757
55	0xbe0f5ed9	-0.14001025
56	0xbf0e3ab8	-0.5555835
57	0x3e366e48	0.17815506
58	0xbe3eb02d	-0.18621893
59	0xbf1a4ba0	-0.60271645
60	0x3de5eaf2	0.11226453
61	0x3e466fc3	0.19378571
62	0xbe3cdb52	-0.18443039
63	0xbc86b1e1	-0.016442241
64	0xbe29c08d	-0.16577359
65	0xbe230928	-0.15921462
66	0x3c1a3b67	0.009413577
67	0xbe093768	-0.13400042
68	0x3e8ca980	0.27473068
69	0xbe5f2ba9	-0.21793999
70	0x3e244c6f	0.16044782
71	0x3eab02c5	0.3340055
72	0x3d2884c6	0.041142248
73	0x3e13c2fb	0.14429848
74	0xbe2d6d2e	-0.1693618
75	0x3cdffc24	0.02734191
76	0x3de8baa9	0.113637276
77	0xbe7891c2	-0.24274352
78	0xbd85adfe	-0.06527327
79	0xbe802b73	-0.2503315
80	0x3db76d98	0.0895645
81	0xbf192861	-0.5982724
82	0xbe589966	-0.21152267
83	0x3e90fcb7	0.28317806
84	0xbc36cfee	-0.011157973
85	0xbd1430e0	-0.036179423
86	0xbec89954	-0.3917948
87	0x3f10ff0a	0.5663916
88	0xbeb45191	-0.3521848
89	0xbe406bec	-0.18791169
90	0xbe8a4057	-0.27002212
91	0xbf125911	-0.57167155
92	0x3eaf19eb	0.3419946
93	0xbf142f61	-0.57884794
94	0xbef98e3f	-0.48741338
95	0x3ea48d68	0.32139134
96	0xbd171ced	-0.03689282
97	0xbd9e12ec	-0.07718453
98	0xbeb3e44e	-0.3513512
99	0x3e155c6f	0.14586042
100	0xbdb274da	-0.08713694
101	0xbefbd555	-0.49186197
102	0x3e31bb91	0.17356707
103	0x3de14a96	0.11000554
104	0xbe6c3dff	-0.23070525
105	0xbdbc84fe	-0.09205054
106	0xbe067a24	-0.1313253
107	0xbe09a0ba	-0.13440219
108	0x3e554def	0.2083051
109	0x3dfeb838	0.12437481
110	0xbe717a7a	-0.23581877
111	0xbd28c53b	-0.04120372
112	0xbdecc0c3	-0.11560204
113	0xbe1f6131	-0.1556442
114	0xbb8d5f90	-0.0043143705
115	0xbe0d0bdd	-0.13774057
116	0xbeb3ba63	-0.3510314
117	0x3e8a562a	0.27018863
118	0x3dc6b07c	0.097016305
119	0xbf215656	-0.63022363
120	0xbe961137	-0.2931001
121	0xbf1b5f7d	-0.6069258
122	0x3ed65baa	0.4186681
123	0xbf37e651	-0.7183581
124	0xbecbbc89	-0.39792278
125	0x3e97b7d9	0.29632452
126	0xbc8bcd96	-0.017065804
127	0x3c23e131	0.01000242
128	0xbec40f32	-0.38292843
129	0x3f356092	0.7085048
130	0xbec4ad18	-0.3841331
131	0xbc04d3a9	-0.008107104
132	0xbd873bd2	-0.06603207
133	0xbe5b5101	-0.2141762
134	0x3dfcdb93	0.12346568
135	0xbf0389b0	-0.5138197
136	0xbdfa482d	-0.12220798
137	0x3e45915a	0.19293728
138	0x3cc99a74	0.024609782
139	0x3da23d3d	0.079218365
140	0xbe38aa3e	-0.18033692
141	0x3d971254	0.07376543
142	0x3e0db9c1	0.1384039
143	0xbe74d049	-0.2390758
144	0x3e02e1da	0.12781468
145	0x3d98dbc6	0.074637935
146	0x3dc8444d	0.09778652
147	0xbd5e3e2f	-0.05425852
148	0x3e66c4a0	0.22535944
149	0x3e34aa1a	0.17643014
150	0x3e2437f9	0.16036977
151	0x3e5a539b	0.21320955
152	0xbcfc86cf	-0.030826
153	0xbdc04287	-0.09387689
154	0xbdb5b858	-0.088730514
155	0xbc966d4a	-0.01836266
156	0xbd649614	-0.05580719
157	0xbe504a5b	-0.20340864
158	0xbe9dc86d	-0.30816975
159	0x3e4fac6e	0.2028062
160	0x3d55f16d	0.052232195
161	0xbeba570f	-0.36394545
162	0xbd334e82	-0.043776043
163	0xbdead4f1	-0.114663966
164	0x3e214120	0.157475
165	0xbebd9e51	-0.37034848
166	0xbe97d9ed	-0.29658452
167	0x3ed53fbb	0.41650185
168	0xbcf469fe	-0.029835697
169	0xbcda8da1	-0.026678862
170	0xbe038e10	-0.12847161
171	0x3c889ceb	0.016676387
172	0xbc8a3fec	-0.016876183
173	0xbe935fef	-0.2878413
174	0x3e0596c4	0.13045794
175	0x3e80870a	0.25103027
176	0xbea7ab8f	-0.32748076
177	0xbe55bb52	-0.20872238
178	0xbe6379b7	-0.222144
179	0xbd81c001	-0.0633545
180	0x3e54be2d	0.20775671
181	0x3eb16cde	0.34653372
182	0x3d936014	0.0719606
183	0x3e7c3703	0.2463036
184	0xbdb90952	-0.09034981
185	0x3e732fae	0.23748657
186	0x3d4cc763	0.049994837
187	0xbd72b414	-0.059253767
188	0x3d815592	0.06315149
189	0xbe75c442	-0.24000648
190	0x3e0d327f	0.13788794
191	0x3dac68d2	0.084184304
192	0x3e47c2f7	0.19507967
193	0x3e966798	0.2937591
194	0xbdc713c5	-0.097205676
195	0x3d194b68	0.03742543
196	0xbe1d5dcb	-0.1536781
197	0x3d2ff8f7	0.04296204
198	0xbcd54180	-0.02603221
199	0xbc99d3fb	-0.018777838
200	0xbe3529d5	-0.17691739
201	0xbe028c7a	-0.127489
202	0xbce93c9d	-0.028471285
203	0xbe093e26	-0.13402614
204	0x3d9a2306	0.075262114
205	0x3e0a4187	0.13501559
206	0xbea9f6c3	-0.33196077
207	0xbe94d77f	-0.2907066
208	0xbe392ba8	-0.1808306
209	0xbdfeb479	-0.12436766
210	0x3c8b5087	0.017006172
211	0x3dc6760b	0.09690484
212	0xbd5c27a6	-0.05374875
213	0xbe4ee7a2	-0.20205548
214	0x3d3420e1	0.04397667
215	0xbdef7438	-0.11692089
216	0xbdbe6a22	-0.09297587
217	0xbbd37c2c	-0.0064540114
218	0x3e52eaae	0.20597336
219	0x3e127c45	0.14305218
220	0x3ed759f1	0.42060807
221	0xbe00b4bc	-0.12568945
222	0xbc950272	-0.018189643
223	0x3d84aacc	0.064778894
224	0x3e034415	0.1281894
225	0x3d23e2e7	0.040011313
226	0x3e9f51e4	0.31117165
227	0xbaef2df3	-0.0018247947
228	0xbde6aeb1	-0.112637885
229	0x3d6e85c1	0.058233026
230	0xbe9aa6ca	-0.30205375
231	0x3e92390d	0.2855915
232	0x3e064bcc	0.13114852
233	0xbeaaa4f3	-0.3332897
234	0xbbe5f76b	-0.00701802
235	0x3db15d6c	0.08660397
236	0x3c84dd67	0.016218854
237	0x3e8c8869	0.27447823
238	0x3cae7957	0.021298094
239	0x3ddd01b3	0.1079134
240	0xbe07e6be	-0.13271615
241	0xbdee3d46	-0.11632781
242	0xbd869abc	-0.06572482
243	0xbe1c27b6	-0.15249524
244	0xbe111082	-0.14166453
245	0x3cf3f9b4	0.029782154
246	0xbe0df0cb	-0.13861386
247	0xbe1d8e43	-0.153863
248	0xbabf9338	-0.0014616018
249	0xbea311e3	-0.31849584
250	0xbe01860c	-0.12648791
251	0x3ccfb15d	0.025353128
252	0x3d305096	0.043045603
253	0x3e21d956	0.15805563
254	0x3e8af21e	0.27137846
255	0xbd0d2ba9	-0.034465466

act_fc1.bias f4 [64]
0	0x3c34a8e0	0.011026591
1	0x3eb795a5	0.35856357
2	0xbf11c2f9	-0.5693813
3	0x3f0899c3	0.5335962
4	0x3fcb3886	1.5876625
5	0x3ff3fbe2	1.9061244
6	0xbe32e873	-0.17471485
7	0xbe4de3b4	-0.20106393
8	0xbe077bf2	-0.13230875
9	0xbe23e348	-0.1600467
10	0xbdda2381	-0.10651303
11	0x3f690f3e	0.9103888
12	0x3d391385	0.04518463
13	0x3f864c67	1.0492066
14	0xbed297f4	-0.41131556
15	0xbe5ef674	-0.21773702
16	0x3f212de4	0.6296065
17	0xbd8080b9	-0.06274552
18	0xbf091097	-0.5354094
19	0xbf66d37f	-0.9016647
20	0xbebec32a	-0.37258273
21	0xbe13917d	-0.14410968
22	0xbf3ee475	-0.7456735
23	0xbe26e549	-0.16298403
24	0x3d9b2deb	0.075771175
25	0xbf08b814	-0.5340588
26	0x4005c982	2.090424
27	0xbe000f3e	-0.12505814
28	0x3dac2890	0.08406174
29	0xbebe92b4	-0.372213
30	0x3e06e4c4	0.13173205
31	0xbda44e32	-0.08022727
32	0xbe709434	-0.23494035
33	0x3fddf26e	1.7339609
34	0xbeed8fdf	-0.46398827
35	0xbe451388	-0.19245732
36	0x3ec5242b	0.38504156
37	0xbee5c6c1	-0.448782
38	0xbf16e935	-0.58949596
39	0xbdb49ee8	-0.088193715
40	0xbe2cb17d	-0.16864581
41	0x3e9a766f	0.30168483
42	0xbee49dd7	-0.44651672
43	0xbf1044d1	-0.56355006
44	0xbe7e2906	-0.24820337
45	0xbf12fc56	-0.57416284
46	0xbd5a375d	-0.053275455
47	0xbdf40a35	-0.11916009
48	0x3f6e4ee5	0.93089134
49	0xbefde460	-0.495883
50	0x3e3e0dc6	0.18559942
51	0xbf24257b	-0.6411969
52	0x3cc58af9	0.024114119
53	0xbf074c80	-0.52851105
54	0x3d7be232	0.061495014
55	0x3fa59e34	1.2938905
56	0xbe8e48f1	-0.27790025
57	0xbee30d1f	-0.44345948
58	0xbea517cd	-0.3224472
59	0xbd3c919c	-0.0460373
60	0xbe8cc8a2	-0.2749682
61	0xbe8ebca9	-0.2787831
62	0xbf624d6a	-0.88399374
63	0x3f07a81b	0.52990884

act_fc2.weight f4 [36, 64]
0	0x3f028566	0.509848
1	0x3e6d8d95	0.2319854
2	0x3e85bf99	0.2612274
3	0xbf4d0827	-0.80090564
4	0xbf3436d3	-0.70396155
5	0xbf572009	-0.84033257
6	0x3f84dfa7	1.0380753
7	0xbb8a9c29	-0.0042300415
8	0xbdaad813	-0.08341994
9	0xbe8cf5fa	-0.27531415
10	0xbe949d27	-0.29026148
11	0x3e1c9e24	0.15294701
12	0x3e03a0e3	0.12854342
13	0xbe38dbe6	-0.18052635
14	0xbea4d783	-0.32195672
15	0xbdfbd725	-0.12296895
16	0xbd056e96	-0.032576166
17	0xbe44dc88	-0.19224751
18	0x3ea0693f	0.31330296
19	0x3f3f6be2	0.7477399
20	0x3d2e13fd	0.04249953
21	0xbeaec88a	-0.34137374
22	0xbe9e4117	-0.30909035
23	0xbeb79cc7	-0.358618
24	0xbf7a34e5	-0.9773696
25	0xbe0998eb	-0.1343724
26	0x3df2cf51	0.11855949
27	0xbeaa5df3	-0.33274803
28	0xbe75ffa6	-0.24023303
29	0xbea3c9fc	-0.3199004
30	0xbe832b29	-0.25618866
31	0xbebb0059	-0.36523703
32	0x3c14d8c4	0.009084884
33	0x3e92725f	0.28602883
34	0xbeaa32e0	-0.3324194
35	0x3f00c237	0.5029635
36	0x3e05bab1	0.13059498
37	0x3e01a364	0.12659985
38	0xbe33b10d	-0.17548008
39	0xbdaa87f8	-0.08326715
40	0x3d8a4576	0.0675153
41	0xbefddf91	-0.4958463
42	0xbd7243f1	-0.059146825
43	0x3e177d8b	0.14793985
44	0xbdc1a30e	-0.09454928
45	0xbd34315b	-0.04399238
46	0x3d6855bf	0.0567224
47	0xb24afaf3	-1.1815007e-08
48	0xbec5db4b	-0.3864387
49	0x3cd32416	0.025774043
50	0xbdc3391e	-0.095323786
51	0xbddb58d3	-0.10710301
52	0xbea8a54d	-0.32938614
53	0xbec876a6	-0.39153022
54	0xbf148342	-0.58012784
55	0x3ee29b8f	0.44259307
56	0x3ebccc54	0.3687464
57	0xbe683bf8	-0.22679126
58	0x3e98a5cc	0.29813993
59	0x3f841743	1.0319599
60	0xbec09163	-0.3761092
61	0xbe753aa4	-0.23948151
62	0xbe0603cd	-0.13087387
63	0x3ea60243	0.324236
64	0xbd96d739	-0.07365269
65	0xbe6cbda8	-0.23119223
66	0x3e81c832	0.2534805
67	0xbef34525	-0.4751369
68	0xbf0fc3e6	-0.5615829
69	0xbf04297d	-0.51625806
70	0xbe29d69a	-0.1658577
71	0xbc2b5810	-0.010458007
72	0xbd8d0d2b	-0.06887277
73	0x3e858306	0.26076525
74	0x3e609e67	0.21935426
75	0x3eb22619	0.3479469
76	0x3d876572	0.06611146
77	0x3be194c6	0.0068841903
78	0xbcd43ea7	-0.025908781
79	0xbe8152d3	-0.25258502
80	0xbeb1f502	-0.3475724
81	0x3dc4cb47	0.096090846
82	0x3cad63c7	0.021165742
83	0xbe01bb20	-0.12669039
84	0x3d95f9a1	0.073230036
85	0xbd8b3eb4	-0.06799069
86	0xbe88be59	-0.26707724
87	0x3ea5ef39	0.32409075
88	0xbf193ba4	-0.5985663
89	0xbe35a6f6	-0.17739472
90	0x3f1fe5dd	0.6246012
91	0xbe47f7a8	-0.19528067
92	0xbf1bdef2	-0.6088706
93	0xbeb8c1e4	-0.36085427
94	0xbdf6320e	-0.12021266
95	0xbe89f5d7	-0.26945373
96	0xbd026ee3	-0.03184403
97	0xbce1ee48	-0.027579442
98	0x3e0c1804	0.13681036
99	0xbe89a94a	-0.2688697
100	0xbf112a0d	-0.5670479
101	0x3e1dd541	0.15413381
102	0x3f0dae78	0.55344343
103	0x3ea8e028	0.32983518
104	0x3e6f3115	0.23358567
105	0xbe09ea97	-0.13468395
106	0xbd134e3e	-0.03596329
107	0xbdd1d138	-0.102449834
108	0x3ed74303	0.42043313
109	0xbdce38ed	-0.100694515
110	0xbda4460a	-0.080211714
111	0xb54931ea	-7.495097e-07
112	0xbdcee894	-0.101029545
113	0x3f077c04	0.5292361
114	0xbd70a25e	-0.058748595
115	0x3ed3f78c	0.413998
116	0xbd1374bc	-0.036
117	0x3e60de13	0.21959715
118	0xbea71e98	-0.3264053
119	0xbe656364	-0.22401196
120	0x3e5d0283	0.2158299
121	0x3d8317ea	0.064010456
122	0x3d565802	0.052330025
123	0xbe15fc23	-0.14646964
124	0xbe0a81cf	-0.1352608
125	0xbdce74ed	-0.100808956
126	0x3f1fda5f	0.6244258
127	0x3ea35c02	0.31906134
128	0x3e08bf29	0.13354172
129	0xbf1ee5c5	-0.6206935
130	0x3de43f5c	0.11144897
131	0xbec3cf3f	-0.38244054
132	0xbf0191a2	-0.50612843
133	0xbeb59acd	-0.35469666
134	0xbe3c913c	-0.18414778
135	0x3c3cbe8e	0.011520041
136	0x3dbdb537	0.092630796
137	0xbe766d58	-0.24065149
138	0x3f9aabb5	1.2083651
139	0x3edc46be	0.43022722
140	0x3f5406dc	0.82822967
141	0xbe808718	-0.25103068
142	0x3edade44	0.427477
143	0x3f2b5fcd	0.66943055
144	0xbd051914	-0.03249462
145	0xbdf1cccd	-0.11806641
146	0xbdc45865	-0.095871724
147	0xbcb64a53	-0.022252237
148	0xbdccc680	-0.09998798
149	0xbebc33ba	-0.36758214
150	0x3ef6c475	0.4819676
151	0xbea7f2d0	-0.3280244
152	0xbe4e45d9	-0.20143832
153	0x3bb2f780	0.005461633
154	0x3f2afa58	0.66788244
155	0x3ebc2fe7	0.36755297
156	0xbef4d037	-0.47815105
157	0x3dd7223d	0.10504577
158	0xbf21eaa8	-0.6324868
159	0xbdef83d2	-0.116950646
160	0x3eed6bd6	0.46371335
161	0xbefbe88f	-0.49200866
162	0xbe449669	-0.19198002
163	0xbe8ab90a	-0.270943
164	0x3e661dc8	0.22472298
165	0xbe788781	-0.2427044
166	0xbbef5994	-0.0073043797
167	0xbe0032b3	-0.1251934
168	0x3eaab8e4	0.33344185
169	0xbd487013	-0.048935007
170	0xbda8e787	-0.08247285
171	0xbe562726	-0.20913371
172	0xbeb36d3d	-0.3504428
173	0x3e1e119d	0.15436406
174	0x3d365943	0.04451872
175	0xb649ec0a	-3.0088727e-06
176	0x3d89cd3d	0.06728599
177	0xbcc22881	-0.023700954
178	0x3eab0d8c	0.33408773
179	0xbf00a998	-0.5025878
180	0xbe12769b	-0.14303057
181	0x3f1aa6db	0.6041085
182	0x3e33d733	0.1756256
183	0xbf0106ed	-0.5040119
184	0x3d6fa2b6	0.058504783
185	0x3e2ba792	0.16763142
186	0x3eb729e9	0.35774162
187	0xbe5aa8d2	-0.21353462
188	0x3e5a48ff	0.21316908
189	0xbd783074	-0.060593084
190	0xbaae9ca1	-0.0013321826
191	0xbeebc032	-0.4604507
192	0xbd7a9abe	-0.06118273
193	0xbf1568c3	-0.5836298
194	0x3c0a1c82	0.008429648
195	0x3dd5f57e	0.104472145
196	0xbe22ecc5	-0.15910633
197	0xbeb5ea6c	-0.35530412
198	0xbe6f83e3	-0.23390155
199	0x3e50238b	0.20326059
200	0x3f0a5afb	0.54045075
201	0x3ee4a560	0.4465742
202	0x3ebd1cce	0.3693604
203	0xbf37b347	-0.7175793
204	0x3f0d1046	0.55102956
205	0xbe469575	-0.19392951
206	0xbe6efb73	-0.23338108
207	0xbf42d2e8	-0.7610307
208	0xbcccca0a	-0.024998683
209	0x3eeea410	0.46609545
210	0xbea80ee5	-0.32823864
211	0x3e36fb6d	0.17869349
212	0x3e97fba1	0.29684165
213	0x3e72d764	0.23714978
214	0x3ded89c0	0.11598539
215	0xbe6a5377	-0.22883402
216	0x3ef0a736	0.47002572
217	0xbe1a8936	-0.15091404
218	0x3f23a41d	0.6392229
219	0xbf398815	-0.7247327
220	0xbf356274	-0.7085335
221	0x3ec87993	0.39155254
222	0x3e59e84a	0.21280017
223	0x3efb3229	0.49061707
224	0xbe1278a7	-0.14303838
225	0xbf1464bf	-0.57966226
226	0xbea49a06	-0.3214876
227	0xbedbabc7	-0.42904493
228	0x3d33f5a8	0.043935448
229	0x3e8be758	0.2732494
230	0xbd6da354	-0.05801709
231	0x3f1b8494	0.60749173
232	0x3deb1bef	0.11479937
233	0xbe61cba3	-0.22050337
234	0xbd7cd58b	-0.061727088
235	0xbdc11069	-0.09426958
236	0x3f1a7c41	0.60345846
237	0x3e218feb	0.15777557
238	0x3e5a7640	0.21334171
239	0x3b1133af	0.002215605
240	0x3c1a1e8e	0.009406699
241	0x3d8e87d9	0.06959505
242	0xbde8d2b2	-0.11368312
243	0x3f947832	1.1599181
244	0x3f2042fa	0.626022
245	0xbd12724e	-0.03575354
246	0xbc8bfb17	-0.017087502
247	0xbee29c1b	-0.44259724
248	0xbf4fe2ac	-0.8120525
249	0x3e2f7885	0.17135818
250	0xbe794cc2	-0.24345687
251	0xbeb33d0b	-0.3500751
252	0xbce5fa99	-0.028073596
253	0xbe09c3e7	-0.13453637
254	0xbdb91536	-0.09037249
255	0x3df3551d	0.118814684

act_fc2.bias f4 [36]
0	0xbedf3ec8	-0.43602586
1	0xbec62c80	-0.38705826
2	0xbee2a577	-0.44266865
3	0xbefe5efc	-0.49681842
4	0xbec4fa14	-0.38472044
5	0xbed4b3b7	-0.41543362
6	0xbee16365	-0.44021145
7	0x3d6e034e	0.05810862
8	0x3f157491	0.5838099
9	0x3f46e067	0.7768616
10	0x3dbd22bf	0.09235143
11	0xbf000883	-0.5001299
12	0xbed6ab5d	-0.41927615
13	0x3ed6879a	0.4190033
14	0x3f05c9c5	0.52261
15	0x3f058d98	0.5216918
16	0x3ea13ad3	0.31490192
17	0xbe8ce070	-0.27514982
18	0xbe4c918b	-0.19977395
19	0x3ea98226	0.33107108
20	0x3eddb8bf	0.43305013
21	0x3f01fb7a	0.5077435
22	0x3ef2d8ba	0.47430974
23	0xbef59bcd	-0.4797043
24	0xbf18cea5	-0.59690315
25	0x3ca464d6	0.020067614
26	0x3f2e7a74	0.681556
27	0x3f0a2319	0.53959805
28	0x3e0f731b	0.14008753
29	0xbee7cc4f	-0.45273063
30	0xbef47ebd	-0.47752944
31	0xbeeab9bc	-0.4584483
32	0xbea9c82b	-0.3316053
33	0xbebb4a9d	-0.36580363
34	0xbec45890	-0.38348818
35	0xbeb1cdb0	-0.3472724

val_fc1.weight f4 [64, 216]
0	0xbd8fd865	-0.07023696
1	0xbdaa0cad	-0.08303199
2	0xbeb3726d	-0.35048237
3	0x3d157f59	0.0364984
4	0xbcaa7393	-0.020807063
5	0xbeb5c2a8	-0.35500073
6	0xbe1cc2ee	-0.15308735
7	0xbde5391f	-0.111925356
8	0x3d39ec7a	0.045391537
9	0x3db1eb47	0.08687454
10	0xbdbbb6a2	-0.09165694
11	0x3eb905f7	0.36137363
12	0x3d02d6e0	0.031943202
13	0x3e0d45eb	0.13796203
14	0xbe954924	-0.29157364
15	0x3eacddc9	0.3376296
16	0xbeb058c2	-0.34442717
17	0xbe7bbfe5	-0.2458492
18	0x3d9b7e00	0.07592392
19	0x3de54a41	0.111958034
20	0x3e198107	0.14990626
21	0x3e99bc8c	0.30026662
22	0xbe02dee5	-0.1278034
23	0x3e289b33	0.16465454
24	0x3d827937	0.06370776
25	0x3e67eed5	0.22649701
26	0xbdc1e9c2	-0.09468414
27	0x3ef486eb	0.47759184
28	0x3d09abb0	0.033611
29	0xbe9cad7b	-0.30601105
30	0x3e283582	0.16426662
31	0x3e0e8e8f	0.1392157
32	0xbe26dfd0	-0.16296315
33	0x3ea646f7	0.32476017
34	0x3da46e25	0.08028821
35	0xbeb8be73	-0.360828
36	0xbe5aa901	-0.21353532
37	0xbebd8528	-0.37015653
38	0xbdc37960	-0.09544635
39	0xbe940c88	-0.2891581
40	0x3df84947	0.121233515
41	0xbe15da67	-0.14634095
42	0xbcc38e23	-0.023871487
43	0xbe15c7d5	-0.14627011
44	0xbecab235	-0.39589086
45	0xbd9674a0	-0.07346463
46	0xbea58089	-0.32324627
47	0xbecf9158	-0.40540576
48	0xbec16c63	-0.37778005
49	0xbf539839	-0.8265415
50	0x3dea6d5a	0.114466384
51	0xbee5ceca	-0.4488433
52	0x3e4c6c9d	0.19963308
53	0x3e1ff80f	0.1562197
54	0x3d8a5e6f	0.06756293
55	0xbddf3dab	-0.10900434
56	0x3e823f6b	0.2543901
57	0x3d1228a6	0.035683297
58	0xbd314fd8	-0.043289036
59	0x3e75653c	0.23964399
60	0x3e6b6c88	0.2299062
61	0x3dfca655	0.12336413
62	0x3d848375	0.06470386
63	0x3e5f01ee	0.2177808
64	0x3c685486	0.014180308
65	0x3e9f554f	0.31119773
66	0x3d8011ca	0.06253393
67	0x3e81982b	0.25311407
68	0xbde1cc62	-0.11025311
69	0x3eed5925	0.46357074
70	0x3da5360e	0.08066951
71	0xbe8ba195	-0.27271715
72	0xbda4ab29	-0.08040459
73	0xbe5c3212	-0.21503475
74	0xbed86813	-0.42266902
75	0xbf0d4864	-0.55188584
76	0xbe422ba7	-0.18961965
77	0xbec698c8	-0.38788438
78	0x3dc47cf3	0.09594145
79	0xbe1ddc84	-0.15416151
80	0xbdd1c5a9	-0.10242779
81	0xbf25125a	-0.6448113
82	0xbb8deb3d	-0.004331021
83	0xbda27915	-0.07933251
84	0xbe4afe08	-0.19823468
85	0xbe145d58	-0.14488733
86	0x3c218e9d	0.009860662
87	0xbf292f0b	-0.66087407
88	0xbe67a240	-0.22620487
89	0x3eb0fcf7	0.34567997
90	0xbe74df14	-0.23913223
91	0xbeb8079f	-0.35943314
92	0x3e2be6d4	0.16787273
93	0xbf22d396	-0.63604105
94	0x3d831e4d	0.06402264
95	0x3e814043	0.2524434
96	0xbda279cc	-0.07933387
97	0xbebd836b	-0.37014326
98	0x3e40f895	0.18844827
99	0xbe1d32a1	-0.15351345
100	0xbd8397d6	-0.06425445
101	0x3d95ded4	0.07317892
102	0x3dcbb90b	0.099474035
103	0x3e4ae9ea	0.19815794
104	0xbcf4e8d9	-0.029896187
105	0x3bf953a1	0.0076088463
106	0xbdcf35c0	-0.10117674
107	0x3b9b117e	0.00473231
108	0x3ec8dbe3	0.3923026
109	0x3e9e59f6	0.3092801
110	0xbc9bbb84	-0.019010313
111	0x3c35863a	0.011079365
112	0x3d952f72	0.0728444
113	0x3ecd1cea	0.40061122
114	0x3e42c0a6	0.19018802
115	0x3db493dd	0.08817265
116	0xbeab8fc4	-0.33508122
117	0xbf1536b7	-0.58286613
118	0xbf0332da	-0.5124947
119	0x3ed0870f	0.40728042
120	0x3e97107c	0.29504764
121	0xbd97cde5	-0.07412318
122	0xbe85e08e	-0.26147884
123	0xbf5993d8	-0.84991217
124	0xbecc57f8	-0.39910865
125	0xbcf2284d	-0.029560233
126	0xbe6cb4dc	-0.23115867
127	0xbe331809	-0.17489637
128	0x3e44c7be	0.1921682
129	0xbf4c8351	-0.7988787
130	0xbe3ebfbe	-0.18627831
131	0x3ed30f63	0.41222677
132	0xbe53fd59	-0.20702113
133	0xbf30fb64	-0.6913359
134	0x3de2c7b2	0.11073245
135	0xbee835bf	-0.45353505
136	0x3d1dc03c	0.038513407
137	0x3e26083f	0.16214083
138	0xbd81c146	-0.06335692
139	0xbe96e7c5	-0.294737
140	0xbe44b0e7	-0.19208108
141	0x3e41a326	0.18909892
142	0xbe54a5d1	-0.20766379
143	0xbee3a1d1	-0.44459394
144	0x3bc12c24	0.0058951546
145	0x3d9637e8	0.07334882
146	0x3ec29b2a	0.38009006
147	0xbe8fcf41	-0.2808781
148	0xbdac49fd	-0.0841255
149	0x3f510274	0.8164437
150	0x3f1fc8d3	0.6241581
151	0x3ef4a46a	0.47781688
152	0x3c264a94	0.010149617
153	0x3cb90266	0.022584151
154	0xbcd422b3	-0.025895452
155	0x3d24f745	0.040274877
156	0x3deec773	0.11659136
157	0xbd26edf9	-0.040754292
158	0xbe1db3c9	-0.15400614
159	0xbef72951	-0.4827371
160	0xbeefac35	-0.4681107
161	0x3ef485b5	0.4775826
162	0x3ea6e837	0.3259904
163	0xbcfc8473	-0.030824875
164	0xbc385982	-0.011251809
165	0xbef52cf4	-0.4788586
166	0xbdfc3a69	-0.12315828
167	0x3e487bd3	0.19578485
168	0xbe3548f7	-0.17703615
169	0xbef1fb13	-0.47261867
170	0xbdba469c	-0.09095499
171	0xbbb5c210	-0.0055468157
172	0xbe00dc7f	-0.12584113
173	0xbeab8996	-0.33503407
174	0x3cfb28d6	0.03065912
175	0xbdae857a	-0.085215524
176	0x3d80c210	0.062870145
177	0x3d896c67	0.06710129
178	0x3e45235a	0.19251767
179	0x3db0d177	0.08633702
180	0x3e89bb36	0.26900643
181	0x3ed9a2e1	0.4250708
182	0x3d8f3458	0.06992406
183	0x3ea58ee6	0.32335585
184	0x3e5a19b2	0.21298864
185	0xbe2e8da1	-0.17046215
186	0xbceebc2d	-0.029142464
187	0x3c261110	0.010135904
188	0x3ecbafd9	0.397826
189	0xbe8fc1f2	-0.28077656
190	0x3dbdc36a	0.09265788
191	0x3f3a62da	0.72807086
192	0x3ec9d4a5	0.39420047
193	0x3eabd62a	0.33561832
194	0xbbec6e91	-0.007215329
195	0xbcc65bb0	-0.024213642
196	0x3d1d07c9	0.038337503
197	0xbcb27c0e	-0.02178767
198	0xbe2b0896	-0.16702494
199	0xbeb60826	-0.35553092
200	0xbe0c4152	-0.13696793
201	0xbe8260b8	-0.25464416
202	0x3d6179c3	0.05504776
203	0xbe840283	-0.25783166
204	0x3cdb5a15	0.026776353
205	0xbead8b88	-0.33895516
206	0x3d3c1cf7	0.04592606
207	0xbd5f4976	-0.054513417
208	0x3e71e194	0.23621207
209	0xbc9c7395	-0.019098083
210	0xbda90a9d	-0.082539774
211	0xbe20ef16	-0.15716204
212	0xbe321e7e	-0.17394444
213	0x3ed502fc	0.4160384
214	0x3e69bd6b	0.22826163
215	0xbee1da93	-0.4411207
216	0x3e9fb5c3	0.3119336
217	0x3c92941d	0.017892892
218	0xbe3d9515	-0.18513902
219	0xbe4f5482	-0.20247081
220	0x3bd63d4c	0.006538069
221	0xbe91becf	-0.28465888
222	0x3ea23928	0.31684232
223	0x3e992bbe	0.29916185
224	0xbe14af2a	-0.14519945
225	0xbedbc817	-0.42926094
226	0xbe86371d	-0.26213923
227	0x3e09c5cb	0.13454358
228	0x3cd70858	0.026249096
229	0x3cfc8f8f	0.030830173
230	0x3cd43772	0.025905345
231	0xbea0470b	-0.313042
232	0x3dd7aa38	0.105305135
233	0xbe8dc841	-0.27691844
234	0xbd1afede	-0.037840717
235	0xbcca2d83	-0.024679905
236	0x3ea6e9d1	0.32600263
237	0xbe56991a	-0.20956841
238	0xbe374211	-0.17896296
239	0x3f0954ef	0.53645223
240	0xbd819626	-0.06327467
241	0xbdbc251b	-0.09186765
242	0x3ea79208	0.327286
243	0xbdfddce5	-0.12395648
244	0x3d33d605	0.043905277
245	0x3e95ce46	0.29258937
246	0xbce9fee2	-0.02856392
247	0xbd722f59	-0.059127185
248	0x3eab8a4e	0.33503956
249	0xbd92e821	-0.07173181
250	0xbd567d16	-0.052365385
251	0x3e9622ab	0.29323325
252	0x3eacd447	0.33755705
253	0x3dcade08	0.0990563
254	0xbea58beb	-0.3233331
255	0xbedc09ae	-0.42976135

val_fc1.bias f4 [64]
0	0xbf2131b9	-0.62966496
1	0xbf2503af	-0.64458746
2	0xbf095463	-0.5364439
3	0xbd7ff29d	-0.062487233
4	0xbe9fae43	-0.3118764
5	0xbed64889	-0.41852215
6	0xbe740cf9	-0.23833074
7	0x3e77729e	0.24164817
8	0xbf279e11	-0.65475565
9	0xbe7cb0c6	-0.24676809
10	0xbe640e92	-0.22271183
11	0xbe959c28	-0.292207
12	0xbcd57dfd	-0.026061052
13	0x3e4ca769	0.19985737
14	0xbee8e695	-0.4548842
15	0xbe8810a7	-0.26575205
16	0xbbcc4349	-0.006233607
17	0xbe220369	-0.15821613
18	0x3e8e66c1	0.2781277
19	0xba1c0ff7	-0.00059533067
20	0xbeb52f61	-0.3538771
21	0xbec1beb7	-0.37840816
22	0xbda8ef4d	-0.08248768
23	0xbcedfdef	-0.029051749
24	0x3cef5c55	0.029218832
25	0xbe48f0d0	-0.19623113
26	0xbda3d3ee	-0.07999407
27	0xbf0fc055	-0.5615285
28	0xbe7aa893	-0.24478368
29	0x3d49137a	0.04909084
30	0xbef47816	-0.47747868
31	0xbf5fc0cc	-0.8740356
32	0xbdda13fe	-0.106483445
33	0xbf119c9f	-0.5687961
34	0xbf204dd3	-0.6261875
35	0xbeb970fc	-0.36219013
36	0xbe9412e6	-0.28920668
37	0xbe82547f	-0.2545509
38	0xbf19c6c1	-0.600689
39	0xbeca20fd	-0.39478293
40	0xbf0d63ad	-0.5523022
41	0xbeccc6af	-0.39995334
42	0x3e4e78bf	0.20163248
43	0xbc6cd530	-0.014455125
44	0xbe82f099	-0.25574186
45	0xbc5432a2	-0.012951525
46	0xb27c3464	-1.4680243e-08
47	0xbee6885d	-0.45025912
48	0xbea76ebe	-0.32701677
49	0xb9a84872	-0.00032097433
50	0xbe52fc1b	-0.20603983
51	0xbf31f8b7	-0.69520134
52	0xbee76917	-0.45197365
53	0x3ca6e2cf	0.020371823
54	0xbd981c10	-0.074272275
55	0xbcafa380	-0.021440268
56	0x3dd16e1c	0.1022608
57	0xbdc8a227	-0.09796553
58	0xbd37f2c4	-0.044909254
59	0xbf1bd132	-0.6086608
60	0xbeb26112	-0.34839684
61	0xbe8460d5	-0.25855127
62	0xbeb42719	-0.3518608
63	0x3e5f1e2c	0.21788853

val_fc2.weight f4 [1, 64]
0	0x3f4cfbcc	0.8007171
1	0x3ef73b4a	0.4828742
2	0xbebd9219	-0.37025526
3	0xbdb68347	-0.08911758
4	0x3ec58ee7	0.38585588
5	0xbf3d8984	-0.7403796
6	0xbdd1d02c	-0.10244784
7	0x3eac9e57	0.33714554
8	0xbf397a5d	-0.72452337
9	0xbee1a8ef	-0.440742
10	0x3e2283ef	0.15870641
11	0xbeed39cb	-0.46333155
12	0x3ee09668	0.4386475
13	0x3f044e98	0.51682425
14	0xbe384e43	-0.17998604
15	0x3f20f126	0.62867963
16	0xbeb2361d	-0.3480691
17	0xbe5ab9ec	-0.21359986
18	0x3ea7f4d7	0.32803985
19	0xbc2c8789	-0.010530361
20	0xbef669be	-0.4812755
21	0xbf53709d	-0.8259371
22	0xbf78df75	-0.9721597
23	0xbec289d9	-0.37995794
24	0x3ef9428d	0.48683587
25	0x3d1dc1c4	0.038514867
26	0x3e924f49	0.28576115
27	0x3ee7e616	0.4529273
28	0xbec8c063	-0.3920928
29	0xbe8c6cba	-0.27426702
30	0xbed9fe7f	-0.42576978
31	0x3ef7478f	0.48296782
32	0x3efb8a05	0.49128738
33	0x3f337e00	0.70114136
34	0xbf06edcd	-0.52706605
35	0xbefcad47	-0.4935095
36	0xbec50544	-0.3848058
37	0x3f724d79	0.94649464
38	0x3f163800	0.586792
39	0xbef71d16	-0.48264378
40	0x3d48ac10	0.048992217
41	0x3ece1276	0.4024846
42	0x3ed9b4bc	0.42520702
43	0xbbb0939b	-0.0053886897
44	0x3e0ec203	0.13941197
45	0xbebeab48	-0.37240052
46	0x39ff3f3c	0.00048684503
47	0xbf09c10a	-0.5381018
48	0xbf18d8b8	-0.59705687
49	0xbc2d957e	-0.010594724
50	0xbeba6568	-0.36405492
51	0xbf116331	-0.5679198
52	0xbe0afbf9	-0.13572682
53	0x3ed688f3	0.4190136
54	0xbf8171b6	-1.0112827
55	0x3edd6fdc	0.43249404
56	0x3f15a6c9	0.5845762
57	0x3e38e5ad	0.18056364
58	0x3de8e6d8	0.11372155
59	0x3f475a9a	0.7787262
60	0x3e393fbf	0.18090723
61	0x3f178848	0.59192324
62	0xbf202003	-0.62548846
63	0x3db7ba2b	0.089710556
