Server/src/ml/models/f024f95a-84da-49dc-a6db-a24689e93a1f/best.model (torch, 124484 bytes, 10 tensors)

layers.0.lin.weight f4 [6, 4]
0	0x3eb5b559	0.3548992
1	0xbe8102b1	-0.25197366
2	0x3e242f6b	0.16033714
3	0x3e8a110c	0.2696613
4	0xbe55230f	-0.20814155
5	0x3eaaf225	0.33387867
6	0x3ef7ccd0	0.48398447
7	0xbed28e10	-0.4112401
8	0x3eba3d15	0.36374727
9	0x3eae5dc6	0.34055918
10	0xbece7aa5	-0.40327945
11	0x3e89a499	0.2688339
12	0x3e68233a	0.22669688
13	0xbe824b69	-0.25448158
14	0x3ec93daf	0.39304873
15	0xbe882eeb	-0.26598296
16	0xbe05932a	-0.1304442
17	0xbe163d11	-0.14671732
18	0x3dc38ee1	0.09548736
19	0xb9dfb3de	-0.00042667886
20	0x3adc5039	0.0016808576
21	0x3ef10e5d	0.4708127
22	0x3ed25b7b	0.4108542
23	0x3e123ef6	0.1428183

layers.2.lin.weight f4 [6, 6]
0	0x3e545c7f	0.2073841
1	0xbeec2abd	-0.46126357
2	0x3ed3bfa1	0.4135714
3	0xbea40e45	-0.32042137
4	0x3d7c2607	0.061559703
5	0x3df5d1e6	0.120029256
6	0xbd1c79d8	-0.038202137
7	0xbea27b03	-0.31734475
8	0x3e4678ba	0.19381991
9	0xbe9eddea	-0.31028682
10	0xbe2da708	-0.16958249
11	0xbdc7ad88	-0.09749895
12	0x3e002769	0.12515034
13	0x3eb0e727	0.34551355
14	0xbe24fa7e	-0.1611118
15	0x3cf3f526	0.029779982
16	0x3e3c3b93	0.18382101
17	0x3ea03a7f	0.3129463
18	0x3d4e244a	0.050327577
19	0xbe0fe2e1	-0.14051391
20	0xbeab0924	-0.3340541
21	0x3e1ceec1	0.15325452
22	0x3e6a609e	0.22888419
23	0x3eb0465a	0.34428674
24	0x3eac63f3	0.33670005
25	0x3ea814f8	0.32828498
26	0xbea0f031	-0.31433252
27	0xbd2043e5	-0.03912725
28	0xbd26e266	-0.040743254
29	0xbdcf5d82	-0.10125257
30	0xbc1e0d8c	-0.0096467845
31	0x3e3ac948	0.18240845
32	0xbd1c6907	-0.0381861
33	0x3e7d3790	0.24728227
34	0x38039078	3.136738e-05
35	0x3e84d7b9	0.25945833

layers.4.lin.weight f4 [6, 6]
0	0xbe377f65	-0.17919691
1	0xbc81ba1a	-0.01583581
2	0xbe1eecff	-0.15520094
3	0xbe67b77c	-0.22628587
4	0xbdda8072	-0.1066903
5	0x3b26a6cb	0.0025429006
6	0x3dd26c57	0.102745704
7	0x3ed84ac7	0.4224455
8	0xbe004b35	-0.12528689
9	0x3d546122	0.051850446
10	0xbdd1867b	-0.10230728
11	0xbd6ee73c	-0.05832599
12	0xbe589f75	-0.21154578
13	0xb7220256	-9.656496e-06
14	0xb861f8d4	-5.387592e-05
15	0x3d42bfb3	0.0475461
16	0xbdf473ab	-0.119361244
17	0xbcd144d1	-0.02554551
18	0xbe05fc1f	-0.13084458
19	0xbe83eff9	-0.25769022
20	0x3e6ec614	0.23317748
21	0x3ec503c0	0.38479424
22	0xbd09cb74	-0.033641294
23	0x3dbe8ab8	0.09303802
24	0x3ded1222	0.11575724
25	0xbe4fef72	-0.20306185
26	0xbe782ae8	-0.24235117
27	0x3e147f50	0.14501691
28	0x3c2fb156	0.0107234325
29	0xbd7ce954	-0.061745957
30	0x3e8a4500	0.27005768
31	0xbe9bc071	-0.3042026
32	0xbecf857d	-0.4053153
33	0x3dc4e4e0	0.09613967
34	0x3d2017d3	0.03908522
35	0x3e1cccf4	0.15312558

act_fc1.weight f4 [64, 216]
0	0xb6fdff60	-7.569717e-06
1	0xbbfc95ad	-0.0077082724
2	0x38366987	4.349046e-05
3	0x3d41b3c0	0.047290564
4	0x3ccc1c36	0.024915796
5	0xbc37fc5b	-0.0112296
6	0xb5945414	-1.1051329e-06
7	0x3d6e60ec	0.0581979
8	0xb32e15e0	-4.0532427e-08
9	0x3d92bab5	0.07164518
10	0x3d3b38da	0.045708515
11	0x3da797b9	0.08183236
12	0xb8451748	-4.6990142e-05
13	0xb9bc3e7e	-0.00035904715
14	0x362f9777	2.6165196e-06
15	0x3d01a47a	0.031650998
16	0x3d0cb1c6	0.034349225
17	0x3cee973d	0.02912485
18	0xb6148cd1	-2.2135685e-06
19	0x3d5ab8bb	0.05339883
20	0xb60a75c8	-2.063216e-06
21	0x3d1175f0	0.035512865
22	0x3d300776	0.042975865
23	0x3d7f15a1	0.062276486
24	0x371e4776	9.434172e-06
25	0xbaacbe9d	-0.0013179366
26	0x380f91d6	3.4229677e-05
27	0x3caece32	0.021338556
28	0x3ca85ccb	0.02055206
29	0xbd092bb5	-0.033488948
30	0x3842a121	4.6403267e-05
31	0xbcda38ac	-0.026638351
32	0x35e414a2	1.6993329e-06
33	0x3c935325	0.017983982
34	0xbc812d1b	-0.015768578
35	0xbc53fdf5	-0.012938966
36	0x34209ec4	1.495892e-07
37	0x3d561bba	0.052272536
38	0x3845a229	4.7119483e-05
39	0x3d972b97	0.07381361
40	0xbc5b3a16	-0.013380548
41	0x3da49ffd	0.08038328
42	0xb6c93446	-5.9963522e-06
43	0x3d292eb0	0.04130429
44	0x38115c6f	3.465678e-05
45	0x3ced97fd	0.029003138
46	0x3d106803	0.035255443
47	0x3d75b28b	0.059984725
48	0xb844b726	-4.690061e-05
49	0xbd0869e9	-0.03330413
50	0xb5bebbac	-1.4210723e-06
51	0x3d30a073	0.043121766
52	0x3c37cb3b	0.0112178875
53	0x3d8be086	0.06829934
54	0x36941421	4.413087e-06
55	0x3c4a3012	0.012340562
56	0x378dad82	1.6889306e-05
57	0xbc126668	-0.008935548
58	0x3d109422	0.03529752
59	0x3d0a201a	0.03372202
60	0x382a0e66	4.0544568e-05
61	0x3d7ac89f	0.061226483
62	0xb787f4d1	-1.6207256e-05
63	0x3c9a5797	0.018840594
64	0x3d2e3eb6	0.042540275
65	0xbc8c10db	-0.017097881
66	0xb809b377	-3.2830485e-05
67	0x3d80dc2a	0.06291993
68	0xb3f189d0	-1.1247505e-07
69	0x3b60a119	0.003427571
70	0x3d15dc13	0.036586832
71	0x3d97203e	0.073791966
72	0x3863c291	5.430222e-05
73	0x3b9cf30f	0.004789717
74	0xb7016ec0	-7.714785e-06
75	0x3c06a093	0.008216995
76	0xbcfd1f13	-0.030898606
77	0xbd0d4afd	-0.034495343
78	0xb73d6fc4	-1.12913e-05
79	0xbc9712f7	-0.01844166
80	0x3660a5db	3.3475142e-06
81	0x3d2e7faf	0.042602237
82	0xbca7eb07	-0.020497812
83	0x3da7040f	0.08155071
84	0xb78d19ff	-1.6820615e-05
85	0xbca074a9	-0.019586878
86	0x35bb49cc	1.3954063e-06
87	0xbca02929	-0.019550877
88	0xbc379e77	-0.011207215
89	0x3d5c20e6	0.053742312
90	0x3768c1e3	1.387342e-05
91	0xbc132e15	-0.008983155
92	0x381f6d99	3.8010625e-05
93	0x3cccd5f7	0.02500437
94	0x3d07c29b	0.033144575
95	0x3d2f1ddc	0.042753085
96	0x373066bf	1.051434e-05
97	0xbd177b60	-0.036982894
98	0xb659b00b	-3.243799e-06
99	0x3c06a544	0.008218113
100	0xbac4e31e	-0.00150213
101	0x3d750740	0.059821367
102	0xb781c13f	-1.5467986e-05
103	0xbcb57202	-0.02214909
104	0x3705edff	7.9828305e-06
105	0x3d3c0be5	0.04590978
106	0xbcf1ca80	-0.029515505
107	0xbc0ec94c	-0.008714985
108	0x385f7a60	5.3281314e-05
109	0x3d832143	0.064028285
110	0xb8206180	-3.8237777e-05
111	0x3bbea743	0.005818279
112	0xbcc630db	-0.024193218
113	0x3d987f90	0.074462056
114	0x37114c26	8.660403e-06
115	0x3d177132	0.036973186
116	0xb6b505e4	-5.394906e-06
117	0xbd03a9d4	-0.032144383
118	0xbb935d10	-0.004497178
119	0xbd1e1f0f	-0.03860384
120	0x377e2774	1.5148766e-05
121	0x3cf74a11	0.030186685
122	0xb67656fb	-3.6707486e-06
123	0x3c2ef05a	0.010677421
124	0xbc0f782d	-0.0087566795
125	0x3cc22ce8	0.023703054
126	0x37688553	1.385932e-05
127	0x3d625b1a	0.055262662
128	0xb67fcc88	-3.8117014e-06
129	0x386c1aa8	5.629161e-05
130	0x3cc5e6c6	0.024157893
131	0x3d7fa931	0.062417213
132	0x3708ac61	8.146367e-06
133	0xbd190589	-0.037358794
134	0xb42340ce	-1.5204134e-07
135	0x3d82c23d	0.06384704
136	0xbcae299b	-0.021260073
137	0x3c8532fc	0.016259663
138	0xb78b6b88	-1.6620164e-05
139	0x3d77710c	0.060410544
140	0x34ed0f57	4.415585e-07
141	0x3d22cf7b	0.03974865
142	0x3c9aad98	0.018881604
143	0xbcb0c4ed	-0.021578277
144	0xb61312c8	-2.191564e-06
145	0x3b223182	0.0024748747
146	0xb7fd7a6e	-3.0216961e-05
147	0xbd0ab6a1	-0.033865575
148	0x3c0f7818	0.00875666
149	0x3db08eb8	0.086209714
150	0xb776b28b	-1.4704313e-05
151	0x3d8af0a5	0.067841806
152	0xb6a92402	-5.0407843e-06
153	0xbbf0aab0	-0.0073445663
154	0x3d3110e3	0.043228995
155	0x3a8f14c5	0.0010916224
156	0xb68b6536	-4.1543053e-06
157	0x3d089193	0.033341955
158	0x36741c74	3.6375395e-06
159	0xbc1ad0fd	-0.009449241
160	0x3cb27d3f	0.021788238
161	0xbbd953b8	-0.0066322945
162	0x34c0a47c	3.5882465e-07
163	0xbd0605c7	-0.032720353
164	0xb76ca714	-1.4105597e-05
165	0x3d6def31	0.05808944
166	0xbca1afce	-0.01973715
167	0x3cf20169	0.029541688
168	0xb697182c	-4.5029647e-06
169	0x3cbbaf33	0.02291069
170	0xb4c00a4e	-3.5770285e-07
171	0x3d3add49	0.04562119
172	0x39d0dc83	0.00039837146
173	0x3d392d01	0.045208935
174	0xb47ea016	-2.3713832e-07
175	0xbd0874e5	-0.033314604
176	0xb6aac379	-5.089151e-06
177	0x3d916af7	0.0710048
178	0x39a85108	0.0003210383
179	0xbd3a93be	-0.045551054
180	0xb5d485d0	-1.5834175e-06
181	0xbcd6fef6	-0.026244622
182	0x34fcd4c8	4.7093476e-07
183	0xbcb0ea3e	-0.02159607
184	0x3d183320	0.03715813
185	0x3ccaa20f	0.024735479
186	0xb6d0ea7f	-6.226182e-06
187	0x3d3c4379	0.045962784
188	0x350bdf90	5.210686e-07
189	0xbcf94023	-0.03042609
190	0xbc258641	-0.010102809
191	0x3c8cf95c	0.017208748
192	0xb48a2230	-2.5729378e-07
193	0x3d56b2c1	0.052416567
194	0x37068bf3	8.019607e-06
195	0x3cc83878	0.024440989
196	0x3bf9f9c8	0.007628653
197	0x3d579483	0.052631866
198	0xb6957880	-4.454574e-06
199	0xbcad43f4	-0.021150567
200	0xb6548614	-3.1668505e-06
201	0x3d0754ea	0.033039965
202	0xbc49cd98	-0.012317084
203	0x3d87ca71	0.066304095
204	0xb6861575	-3.996009e-06
205	0x3cbdd58c	0.023173116
206	0x38446c06	4.6830646e-05
207	0x3dcb79db	0.099353515
208	0x3bf725d6	0.007542352
209	0xbd3936d0	-0.04521829
210	0xb5b0de46	-1.3177712e-06
211	0xbd05355c	-0.03252159
212	0x313c03ac	2.7359688e-09
213	0x3d75078b	0.059821647
214	0xbba90738	-0.0051583312
215	0x3d9025b1	0.07038439
216	0xb52f0224	-6.5195695e-07
217	0x3a840b67	0.0010074199
218	0x3621b236	2.4094602e-06
219	0x37b99d88	2.2127075e-05
220	0xb6e32731	-6.7696897e-06
221	0x3bc0b560	0.0058809966
222	0xb77f2d90	-1.5209793e-05
223	0x3b936e6e	0.004499248
224	0xb823a9f9	-3.9020528e-05
225	0xb85a5241	-5.2051855e-05
226	0xb70382f6	-7.8387e-06
227	0x3b295642	0.0025838767
228	0x35f571e8	1.8287074e-06
229	0x39cec7a0	0.00039440114
230	0x368fcddf	4.2856987e-06
231	0x374731f0	1.1872951e-05
232	0xb72b5936	-1.0213165e-05
233	0xba158f40	-0.0005705245
234	0x373c1007	1.1209405e-05
235	0x39bc564d	0.00035922453
236	0x37228f78	9.689356e-06
237	0xb7f0c552	-2.8702114e-05
238	0x38740450	5.817815e-05
239	0x3ba4e6d6	0.0050324006
240	0x35f06000	1.7909333e-06
241	0xb7bca35c	-2.2487417e-05
242	0x3792daab	1.7506381e-05
243	0x36cd9c3e	6.127665e-06
244	0xb709578b	-8.186219e-06
245	0xbbbbb079	-0.0057278243
246	0xb45469bc	-1.9782505e-07
247	0xb76210f2	-1.3474595e-05
248	0x36808ab6	3.8308453e-06
249	0xb72a9e93	-1.0169711e-05
250	0x37049ff4	7.905055e-06
251	0x3a4132a1	0.000736991
252	0xb7045187	-7.886795e-06
253	0xbc10e119	-0.00884273
254	0x369f7d45	4.7531526e-06
255	0x351ba35f	5.7979736e-07

act_fc1.bias f4 [64]
0	0x3dd304a1	0.10303617
1	0xbd0cc270	-0.034365118
2	0x3d8d2e5a	0.068936065
3	0x3d99a91f	0.075029604
4	0xbbcb2d11	-0.0062004407
5	0xbb9f398f	-0.0048591564
6	0xbc132cdd	-0.008982864
7	0x3c952889	0.018207805
8	0x3d1019fe	0.035181038
9	0x3db5372e	0.08848415
10	0x3caab98c	0.020840429
11	0x3e017e6e	0.12645885
12	0xb9f3b7c5	-0.0004648549
13	0x3c167b3d	0.009184656
14	0x3d06fe2e	0.03295725
15	0x3de8c2de	0.11365293
16	0xbb3ffcac	-0.0029294891
17	0x3db9a715	0.090650715
18	0xbc15543e	-0.009114323
19	0x3dd7e15d	0.105410315
20	0xbb046df3	-0.0020207136
21	0xbc201fa9	-0.009773173
22	0x3c515d50	0.012778595
23	0x3d4d894b	0.05017976
24	0x3d80d5f0	0.06290805
25	0xbb953193	-0.004553029
26	0xbaecd8d2	-0.0018069989
27	0xbc45acfb	-0.012065168
28	0xbabc1938	-0.0014350777
29	0x3d8f9bfd	0.07012174
30	0xbc8957a6	-0.016765427
31	0xbc2d69d7	-0.010584316
32	0xbc0fe325	-0.008782183
33	0x3df1a21b	0.11798497
34	0x3d1810b2	0.037125297
35	0xbb5f5d4a	-0.0034082704
36	0x3db15fd8	0.08660859
37	0xbcc4b625	-0.024012635
38	0x3d76595c	0.060143813
39	0x3cc85323	0.024453705
40	0x3daf4783	0.08558562
41	0x3db198c0	0.08671713
42	0x3d2b5652	0.04183037
43	0x3d22f981	0.039788727
44	0xbc4731e5	-0.012157892
45	0xbbf87642	-0.007582457
46	0x3dda4f95	0.1065971
47	0x37b19fd0	2.1174463e-05
48	0x3d87d44e	0.06632291
49	0x3d1654db	0.03670202
50	0x3ce67166	0.028130244
51	0x3d23a36b	0.03995077
52	0xbbe5e514	-0.0070158336
53	0x3d420211	0.047365252
54	0x3d970df6	0.0737571
55	0xbcbb8e19	-0.022894906
56	0x399595e7	0.0002853118
57	0x3c61cd56	0.013781866
58	0xbbad0716	-0.0052803857
59	0x3e09181d	0.13388105
60	0x3a9acc6c	0.001181019
61	0x3c55e468	0.013054945
62	0x3da551ac	0.08072218
63	0x3d67d842	0.056602724

act_fc2.weight f4 [36, 64]
0	0xbdc1fde1	-0.09472252
1	0xb73eea5c	-1.1379449e-05
2	0xbdd95e1a	-0.106136516
3	0x3c9ca7bb	0.019122949
4	0x36bfe29e	5.7186253e-06
5	0xb6fda024	-7.5586304e-06
6	0xb69769b9	-4.5124584e-06
7	0x3a53b720	0.0008076299
8	0x3b8ee296	0.0043605072
9	0xbe12435e	-0.14283511
10	0x3cd31523	0.025766915
11	0xbe7575a3	-0.23970656
12	0xb8041e0e	-3.1499243e-05
13	0xbd8bdb97	-0.06828993
14	0xbd1895fe	-0.03725242
15	0xbe0dba4b	-0.13840596
16	0x3b922ce6	0.0044609187
17	0xbd419c46	-0.047268175
18	0xbcaeff26	-0.021361899
19	0xbe242a94	-0.16031867
20	0xb63f2481	-2.8482466e-06
21	0x38ac54e4	8.217411e-05
22	0x3db09fa6	0.086242005
23	0xbdf1d309	-0.1180783
24	0x3d2aa0a9	0.041657124
25	0xbb77c38c	-0.0037805764
26	0xb57a1669	-9.316487e-07
27	0x3651209f	3.1162415e-06
28	0xb863186f	-5.4143773e-05
29	0xbdeeb804	-0.11656192
30	0xbd0e28c1	-0.034706835
31	0xbc2894d5	-0.010289391
32	0xbd80ab26	-0.06282644
33	0xbe5f6476	-0.21815667
34	0xbd293c66	-0.041317366
35	0xb7e78aab	-2.7601918e-05
36	0xbdb7661e	-0.08955024
37	0xbd1eb205	-0.03874399
38	0xbe33cf51	-0.17559554
39	0xbc1fc781	-0.009752155
40	0xbe2caf87	-0.16863833
41	0xbd29942f	-0.041401085
42	0xbd2a1df6	-0.04153248
43	0x3d836af3	0.06416883
44	0xbbebe91f	-0.007199421
45	0x3d60b9a9	0.05486456
46	0xbe012d42	-0.1261492
47	0xb628fba6	-2.518043e-06
48	0x3bfb23ca	0.0076641785
49	0xbdc01e39	-0.093807645
50	0x3c6991c3	0.014255944
51	0xbd12a715	-0.035803873
52	0xbdd294e2	-0.102823034
53	0x3cdffe12	0.02734283
54	0xbc34133a	-0.010990912
55	0xbd36cffc	-0.044631943
56	0xbd3dacd1	-0.04630739
57	0xbbe488a8	-0.0069742985
58	0xbc2bbefd	-0.010482547
59	0xbd12e059	-0.035858486
60	0x3d757d09	0.059933696
61	0xbc50bbc2	-0.012740077
62	0xbd490068	-0.049072653
63	0xbd5d85b1	-0.054082576
64	0xbd2faea3	-0.042891156
65	0xbac1fe1e	-0.0014800464
66	0xbbfc2f1b	-0.007696045
67	0xbd30c56e	-0.043157034
68	0x36a0195c	4.771324e-06
69	0x377b7728	1.4988509e-05
70	0xb82cf862	-4.123932e-05
71	0xbe14598d	-0.14487286
72	0xbcd59bbc	-0.026075236
73	0xbd9d10d5	-0.07669226
74	0xbe0b5c1b	-0.13609354
75	0x3cc7dbe8	0.024396852
76	0x369c9a6e	4.6671403e-06
77	0xbdee3a67	-0.11632233
78	0xbc88b781	-0.016689064
79	0xbdfe4ca7	-0.12416964
80	0xbc31abc9	-0.010844179
81	0x3cb720c3	0.02235449
82	0x3c8c9e02	0.017165188
83	0x3cbae526	0.022814345
84	0x3b8b988a	0.0042601274
85	0xb83052ed	-4.20389e-05
86	0x3dbc2eb7	0.09188598
87	0x3cc80b34	0.024419405
88	0xbe095cc9	-0.13414301
89	0xbb13ca63	-0.0022551052
90	0xb829f8a3	-4.05243e-05
91	0x3c3122c6	0.010811513
92	0x3a4a887b	0.00077260257
93	0x3d2a6d50	0.041608155
94	0xbc68ff96	-0.014221093
95	0x3c46c2ff	0.012131452
96	0xbbb0d113	-0.0053960173
97	0x3a8dc7c6	0.0010816983
98	0xbd96c2d4	-0.07361379
99	0xbc5f539b	-0.013630773
100	0x3c903150	0.017601639
101	0xbd289f08	-0.04116729
102	0x3d895d6c	0.06707272
103	0xbce10bb3	-0.027471399
104	0xbd052501	-0.032505993
105	0x3d8957d4	0.06706205
106	0xbd8b498e	-0.06801139
107	0x3d689ba3	0.05678905
108	0xb7946ac8	-1.7692699e-05
109	0x3dc5f308	0.09665495
110	0x3d3d4947	0.04621246
111	0xbb21e12d	-0.0024700866
112	0xbe05b54c	-0.1305744
113	0x3caae26d	0.020859921
114	0xbdc49028	-0.09597808
115	0x3d2ced66	0.04221859
116	0xbd505454	-0.05086167
117	0x3cdf0534	0.02722416
118	0xbd5a6448	-0.053318292
119	0xbc10321b	-0.008801009
120	0x3d88fd2b	0.06688913
121	0xbcac9f90	-0.02107218
122	0xbae5cfec	-0.0017533279
123	0xbd762736	-0.06009599
124	0x3cd33b63	0.025785154
125	0x3d46779f	0.048453923
126	0x3c2cfc4b	0.010558198
127	0xbd774ccf	-0.060375985
128	0xbcd5b8e9	-0.026089149
129	0x37c0a350	2.2964232e-05
130	0xbd31fed5	-0.043455917
131	0xbcfd1a0e	-0.030896213
132	0x3c11b1ac	0.008892458
133	0xbbdae839	-0.006680515
134	0xb922e8e2	-0.0001553628
135	0xbe03c41e	-0.12867782
136	0x3d8a3009	0.06747443
137	0x3c5b291a	0.013376499
138	0x3d220e9a	0.039564706
139	0xbe6771bb	-0.22601978
140	0x346f6c98	2.2298116e-07
141	0x3ca5c7ff	0.020236967
142	0xbd421916	-0.047387205
143	0xbe28aa0f	-0.16471122
144	0xb7aa4e76	-2.0302115e-05
145	0xbdf6568f	-0.120282285
146	0xbcdf73a5	-0.027276823
147	0xbd689294	-0.056780413
148	0xba88978e	-0.0010421143
149	0x38b7e89e	8.769448e-05
150	0x3da62311	0.08112157
151	0xbdaf1f0b	-0.08550843
152	0xbd0cc523	-0.03436769
153	0x3a5d048c	0.00084311585
154	0x3ba064ec	0.0048948433
155	0x3834ef40	4.3138163e-05
156	0xb55c056d	-8.196428e-07
157	0xbca8ce8b	-0.0206063
158	0x3b2d7bbb	0.0026471454
159	0xb792f825	-1.7520108e-05
160	0xbce25536	-0.027628522
161	0xbd89667a	-0.06708999
162	0x3d790654	0.06079705
163	0x3b9ae191	0.0047265966
164	0xbe00492b	-0.12527911
165	0x3cb1843d	0.021669501
166	0xbd1d108f	-0.03834587
167	0xbcc53a30	-0.024075598
168	0x3d68c99b	0.05683289
169	0xbbc704b8	-0.0060735606
170	0xbd76fe24	-0.06030096
171	0xbbb9a63a	-0.0056655677
172	0x35a38005	1.2181705e-06
173	0xbdf60a2d	-0.120136596
174	0xbe1cd80e	-0.15316793
175	0x39cc5fc0	0.0003898125
176	0x3d3a28c2	0.045449026
177	0xbe0a6b37	-0.13517462
178	0x3b99c228	0.0046923347
179	0xbdeac041	-0.11462451
180	0x3c08849f	0.008332401
181	0xbd978c45	-0.07399801
182	0xbce71aec	-0.02821108
183	0x3cbbc6f1	0.022922011
184	0xbd6d463c	-0.05792831
185	0x3d699969	0.05703107
186	0x36448602	2.9284279e-06
187	0xbdad0acf	-0.08449327
188	0x3d99815c	0.074953765
189	0xbd5f2ef8	-0.054488152
190	0xbd0e6b7e	-0.03477048
191	0xbe1e504a	-0.15460315
192	0x3a68c8e8	0.0008880035
193	0xbab443b7	-0.0013753091
194	0xbd9278e1	-0.07151962
195	0xbe147dd9	-0.14501132
196	0xb696cb79	-4.4940357e-06
197	0x3650a6f2	3.109159e-06
198	0xb71f068d	-9.478664e-06
199	0xbce83857	-0.028347177
200	0xbd0b70d0	-0.034043133
201	0xbd9bdcca	-0.076104715
202	0x3db6f136	0.08932726
203	0xbdc8b22c	-0.097996086
204	0xbbab234b	-0.005222713
205	0x3cb05c8d	0.021528507
206	0xbd5e5f9a	-0.05429039
207	0xbceee0ec	-0.029159985
208	0x3bed62fa	0.007244465
209	0x3bb57c41	0.005538494
210	0x3cc54114	0.024078883
211	0xba0cd12c	-0.0005371745
212	0xb6845b9d	-3.9445717e-06
213	0xb725e86d	-9.888882e-06
214	0xbdcbacef	-0.09945094
215	0x3d4700fe	0.04858493
216	0x3d49c54b	0.04926042
217	0xbbac82c4	-0.005264612
218	0x37927bf2	1.7462273e-05
219	0xb44e7041	-1.9226083e-07
220	0x39122871	0.0001393871
221	0x3d57d60a	0.052694358
222	0x3b8925c4	0.00418541
223	0xb8563d86	-5.1078874e-05
224	0xbb2b23b8	-0.002611382
225	0xbd8c51c9	-0.06851537
226	0x3d8d00ca	0.06884916
227	0x3b5358e1	0.003224902
228	0xbd92e58d	-0.071726896
229	0xbd9430f8	-0.072359025
230	0xbdf5c86e	-0.120011196
231	0xbde0aba5	-0.109702386
232	0x3ca5bc6b	0.020231446
233	0xbd977bc2	-0.07396652
234	0xbd0dc669	-0.034613047
235	0xbe24bf6d	-0.16088648
236	0xb7a7efa9	-2.0019552e-05
237	0x3de40f06	0.11135678
238	0xbc032a90	-0.008005753
239	0x3bb47b87	0.0055078897
240	0xbd9fed93	-0.078089856
241	0xbc1ba2ac	-0.009499233
242	0xbdd99d84	-0.10625747
243	0xbd558b11	-0.052134577
244	0xbdcc596d	-0.09977994
245	0x3d6d00d0	0.057862103
246	0xbc1c3b3d	-0.009535608
247	0xbdbbaf85	-0.09164337
248	0x3db72bdb	0.08943912
249	0x3d5cf28e	0.053942256
250	0x36c376af	5.8252695e-06
251	0xbdb14cce	-0.086572275
252	0xbd89a5a3	-0.06721046
253	0xbd88c2aa	-0.06677754
254	0x3d35083a	0.0441973
255	0xbd701e25	-0.058622498

act_fc2.bias f4 [36]
0	0x3ca66069	0.020309644
1	0xbe0165c2	-0.12636474
2	0xbcd22515	-0.025652448
3	0xbd706ebd	-0.05869936
4	0xbdba29ba	-0.0908999
5	0xbdcf71ab	-0.10129102
6	0xbd32242e	-0.043491535
7	0xbc891b42	-0.01673663
8	0x3cdd27cf	0.026996521
9	0x3db873f2	0.0900649
10	0x3c8dfe2b	0.01733311
11	0xbdf03c56	-0.11730258
12	0xbc92ad21	-0.01790482
13	0xbc571d0c	-0.013129484
14	0x3c876862	0.016529266
15	0x3dc083a3	0.09400108
16	0xbd379ac8	-0.044825345
17	0xbc51413e	-0.012771903
18	0x3d94980d	0.07255564
19	0xbb0f7c76	-0.0021894253
20	0x3e08f505	0.13374718
21	0x3d4dbc00	0.05022812
22	0x3cbb0805	0.022830972
23	0xbcca2113	-0.024673974
24	0xbda6ef38	-0.08151096
25	0xbdc69827	-0.096969895
26	0xbcbd6af4	-0.023122288
27	0x3c30f393	0.01080026
28	0xbc4c4b58	-0.012469135
29	0xbd70ce21	-0.05879033
30	0x3d1b1e9e	0.037870996
31	0x3d1d941b	0.038471323
32	0xbddae0b2	-0.106873885
33	0x3d944208	0.07239157
34	0x3d7b5797	0.06136283
35	0x3ce9a0f9	0.02851914

val_fc1.weight f4 [64, 216]
0	0x37871f9e	1.6107977e-05
1	0xbdb3a997	-0.08772581
2	0xb6396870	-2.7627939e-06
3	0xbca8afc0	-0.020591617
4	0xbd18c5f0	-0.037298143
5	0xbd1be06a	-0.038055815
6	0x372b676c	1.0216474e-05
7	0xbd7bf668	-0.06151429
8	0x32754f60	1.4278925e-08
9	0x3ba4ea8c	0.005032843
10	0x3c2e4376	0.010636201
11	0xbd98c3a4	-0.074591905
12	0xb5bed5aa	-1.4218288e-06
13	0xbc4c9004	-0.012485508
14	0xb8279d07	-3.9962146e-05
15	0xbb5305dc	-0.0032199537
16	0xbd4b6c86	-0.049664043
17	0xbcbde794	-0.023181714
18	0xb6a8790b	-5.0208814e-06
19	0xbdbd24f9	-0.092355676
20	0x36fa7c45	7.4650475e-06
21	0x3d2da867	0.04239693
22	0xbdac1fd6	-0.0840451
23	0xbd8df194	-0.06930843
24	0x37ce82c4	2.4618006e-05
25	0x3c07f9eb	0.008299331
26	0xb397d160	-7.0695705e-08
27	0xbd6db7e5	-0.058036704
28	0xbccb516d	-0.0248191
29	0xb93cd624	-0.00018008851
30	0xb4fad9d0	-4.6724608e-07
31	0x3c247fd8	0.010040246
32	0xb4bcae54	-3.514457e-07
33	0xbd8c012a	-0.068361595
34	0xbda8834c	-0.08228168
35	0xbd747486	-0.059681438
36	0x371da33e	9.395937e-06
37	0xbdd066b6	-0.101758406
38	0x358de752	1.0572642e-06
39	0x3cae75cd	0.021296406
40	0xbceb72de	-0.028741296
41	0xbc435b88	-0.011923678
42	0xb6ad9ffc	-5.1744264e-06
43	0xbd658a5a	-0.056040145
44	0x35936dca	1.0984306e-06
45	0xbd4379c7	-0.047723558
46	0x3c913287	0.017724289
47	0xb92d7b29	-0.00016544446
48	0x3791fc4d	1.7402834e-05
49	0xbd8131a1	-0.06308294
50	0xb7925e52	-1.7448478e-05
51	0x3c8510ea	0.016243417
52	0x3c1a741a	0.009427095
53	0xbdbcd268	-0.09219819
54	0xb6e24aa9	-6.7440164e-06
55	0xbd87cbc9	-0.06630666
56	0x3854a533	5.0698593e-05
57	0x3daa5575	0.08317081
58	0xb9e9e1d7	-0.00044609487
59	0xbdae1671	-0.08500374
60	0x351ee691	5.9195105e-07
61	0xbb4a5755	-0.0030874808
62	0x3683dc66	3.929762e-06
63	0x398aef8c	0.00026499887
64	0xbc523363	-0.012829634
65	0x3cd0b3e2	0.0254764
66	0xb62f2fce	-2.6104858e-06
67	0xbda86d97	-0.082240276
68	0xb42fc164	-1.63685e-07
69	0x3cfa6869	0.030567365
70	0xbd70465d	-0.058660854
71	0xbd5b4595	-0.053533155
72	0xb6870d31	-4.024849e-06
73	0xbc9e3971	-0.0193145
74	0x37203229	9.548422e-06
75	0x3dcabacd	0.09898911
76	0xbdab4dda	-0.083644584
77	0xbd5fd44d	-0.054645825
78	0x369af21a	4.617742e-06
79	0xbd52dd59	-0.051480625
80	0xb68957fd	-4.0931614e-06
81	0x3bfb9bba	0.007678476
82	0xbd8da570	-0.0691632
83	0xbd900fde	-0.070342764
84	0x33deff62	1.03841344e-07
85	0xbd8cbe10	-0.06872189
86	0x34dbdfe0	4.095482e-07
87	0x3e01cc44	0.12675577
88	0x3b905af8	0.0044053756
89	0xbdcdda5d	-0.10051415
90	0x360269ad	1.943302e-06
91	0xbdee6304	-0.116399795
92	0x36dccb57	6.580183e-06
93	0x3df235af	0.118266456
94	0xbdcf9670	-0.101361156
95	0xbc25ad87	-0.010112173
96	0x34e79278	4.3133673e-07
97	0xbdbd5907	-0.09245496
98	0xb7a62d30	-1.9809784e-05
99	0x3d95e42c	0.07318911
100	0xbd00cd49	-0.031445775
101	0xbd717018	-0.05894479
102	0xb595600e	-1.1129321e-06
103	0xbdd4acb7	-0.10384505
104	0x34f98b43	4.648119e-07
105	0x3d7d10e8	0.0617837
106	0xbd83f825	-0.06443814
107	0xbced256d	-0.02894851
108	0xb6efdcf7	-7.1484787e-06
109	0xbd99eb11	-0.075155385
110	0x36dadf53	6.5229046e-06
111	0x3de5c291	0.11218751
112	0x3c99aea3	0.018760031
113	0xbdb6677c	-0.08906457
114	0x356a12c7	8.719912e-07
115	0xbdcd9af0	-0.100393176
116	0x370a151e	8.230358e-06
117	0x3e23048b	0.15919702
118	0xbc6d2a63	-0.014475438
119	0xbd68f35c	-0.05687271
120	0xb627a94b	-2.498348e-06
121	0xbd21b05e	-0.039474837
122	0x33fceaee	1.1777398e-07
123	0x3defbf98	0.117064655
124	0xbd410caf	-0.047131237
125	0xba5c679c	-0.0008407773
126	0x3613fb47	2.205097e-06
127	0xbcdc4e39	-0.026892768
128	0x375056f2	1.241801e-05
129	0x3dd381c9	0.10327489
130	0xbdb4975b	-0.08817931
131	0xbca69ebe	-0.020339366
132	0xb6fbf5b2	-7.5089856e-06
133	0xbd2bef4f	-0.04197627
134	0xb6ac838d	-5.141314e-06
135	0x3d57d518	0.052693456
136	0xbd0e47b8	-0.034736365
137	0xbd147b50	-0.036250412
138	0x3647e219	2.9784917e-06
139	0xbdbdfc51	-0.09276641
140	0x3716808c	8.970626e-06
141	0xbb204500	-0.002445519
142	0xbd02101f	-0.031753656
143	0x3c89e7e8	0.016834214
144	0x36d3e236	6.3146244e-06
145	0xbd7b5e04	-0.061368957
146	0xb71c4de0	-9.316456e-06
147	0x3d0689f7	0.032846417
148	0xb900226e	-0.00012219857
149	0xbbc3a264	-0.005970286
150	0x35961c66	1.1184136e-06
151	0xbd4601f6	-0.048341714
152	0xb5299039	-6.316728e-07
153	0x3d9f4b0a	0.077779844
154	0xbd98fa19	-0.07469577
155	0x3b1d0803	0.0023961074
156	0xb61535b8	-2.2233999e-06
157	0xbdd9bb94	-0.10631481
158	0x37cd819a	2.4498255e-05
159	0x3d933e8e	0.07189666
160	0xbda32a96	-0.07967107
161	0xbdcdae99	-0.100430675
162	0x36d512a0	6.350063e-06
163	0x3b88aed2	0.004171231
164	0xb7c8949b	-2.3911058e-05
165	0x3c153cd6	0.009108743
166	0xbd15482b	-0.036445778
167	0xbdafc8dd	-0.085832335
168	0x372481f2	9.805417e-06
169	0x3b6c3ff2	0.0036048857
170	0xb5dca3d5	-1.6438959e-06
171	0xbcfaee6c	-0.030631267
172	0xbd0c6f00	-0.034285545
173	0xbd9dea15	-0.07710663
174	0x363bf22a	2.800613e-06
175	0xbb6a4a40	-0.0035749823
176	0x3657898b	3.2117557e-06
177	0xbc48a59d	-0.0122465165
178	0xbd0c5d4b	-0.03426866
179	0xbc05621c	-0.008141067
180	0x36c3b3b8	5.832375e-06
181	0xbd5bda25	-0.053674836
182	0xb584b008	-9.885998e-07
183	0xbcbd8707	-0.023135675
184	0x3cc398ed	0.023876632
185	0x3ceb5ecb	0.028731724
186	0xb8618c22	-5.377469e-05
187	0xbd475697	-0.048666563
188	0xb6d2618d	-6.269844e-06
189	0x3d751b5e	0.059840553
190	0x3c8599d0	0.016308695
191	0xbca19b1d	-0.019727284
192	0x35359f7a	6.7659823e-07
193	0xbd0eaa6c	-0.034830496
194	0x378ad9ce	1.6552305e-05
195	0x3d72af07	0.05924895
196	0x3bea0b02	0.0071424255
197	0x3d1223e1	0.035678748
198	0xb672658c	-3.6119918e-06
199	0xbd82aad1	-0.06380237
200	0xb7763580	-1.4675199e-05
201	0x3d4eb79c	0.050468072
202	0x3cd89b9d	0.02644139
203	0xbd8ecb78	-0.06972402
204	0xb5ae1773	-1.2970835e-06
205	0xbd17bab6	-0.037043296
206	0x38566361	5.111413e-05
207	0xbd87b2c4	-0.06625894
208	0xbd5e65b7	-0.05429622
209	0xbd5b25a0	-0.05350268
210	0xb7497482	-1.200766e-05
211	0xbdb1b286	-0.08676629
212	0x36d911af	6.4691626e-06
213	0xbd8f0af7	-0.06984513
214	0xbd7a3505	-0.06108572
215	0xbd01bb57	-0.0316728
216	0xb7e3951b	-2.7129941e-05
217	0x3de54ca9	0.111962624
218	0xb791d7f6	-1.7385912e-05
219	0xbdffed55	-0.12496439
220	0x3de36c2d	0.11104617
221	0x3de153e9	0.11002333
222	0x37cd8727	2.450084e-05
223	0x3de0ed6a	0.10982783
224	0x3792e386	1.7510505e-05
225	0xbe033643	-0.12813668
226	0x3dee9e6c	0.1165131
227	0x3de33b8b	0.11095341
228	0xb5338b57	-6.688546e-07
229	0x3ddf5088	0.10904032
230	0x35f624c6	1.8339131e-06
231	0xbdff0677	-0.12452405
232	0x3ddd91b5	0.10818807
233	0x3dd9c9cc	0.10634193
234	0x3868a740	5.5468874e-05
235	0x3dcc1e0a	0.09966667
236	0xb4776c38	-2.3043037e-07
237	0xbde62c2c	-0.11238894
238	0x3ddccc88	0.10781199
239	0x3dcdba54	0.10045305
240	0xb51b05e3	-5.7750566e-07
241	0x3def6a24	0.116901666
242	0x35dd5684	1.6490962e-06
243	0xbe0bf94c	-0.13669318
244	0x3df45e71	0.11932076
245	0x3ddb55bc	0.10709712
246	0xb58f378a	-1.0670494e-06
247	0x3dedd1e0	0.11612296
248	0x371787df	9.031936e-06
249	0xbdc9de99	-0.0985691
250	0x3de72d45	0.11287931
251	0x3dd62de7	0.10457974
252	0x385da167	5.2840824e-05
253	0x3de272b9	0.11057038
254	0x34fed97c	4.7469427e-07
255	0xbe0121a8	-0.12610495

val_fc1.bias f4 [64]
0	0x3dbeef23	0.093229555
1	0xbcaaa088	-0.0208285
2	0x3da6f506	0.08152203
3	0xbd3274d8	-0.043568462
4	0xbc02a15c	-0.007973041
5	0xbd0bc0f6	-0.03411957
6	0xbc0ce677	-0.008599869
7	0x3d9d9754	0.07694879
8	0x3d811796	0.06303327
9	0xbcb5ddbe	-0.022200461
10	0xbd1c2fa7	-0.038131382
11	0xbc867019	-0.016410874
12	0xbbce5bfe	-0.0062975874
13	0x3d55137d	0.05202054
14	0x3cb4700b	0.022026083
15	0xba8d3550	-0.0010773335
16	0xbd1a4e4d	-0.03767233
17	0xbcec61fe	-0.02885532
18	0xbcbd4af8	-0.023107037
19	0xbc090eab	-0.0083653135
20	0xbcde84c0	-0.02716291
21	0xbcf6918d	-0.0300987
22	0xbc3f752f	-0.011685654
23	0x3cbb68f5	0.022877196
24	0xbc864e0a	-0.016394634
25	0xb98c6048	-0.00026774616
26	0xbcf9c5c5	-0.030489812
27	0x3d8f344a	0.06992395
28	0x3d389b9c	0.045070276
29	0xbd6a1ab8	-0.057154387
30	0x3d49a218	0.04922685
31	0xbbe97502	-0.007124544
32	0x3d65af0c	0.05607514
33	0x3da37d11	0.07982839
34	0x3d8a6211	0.06756986
35	0x3d7fe1ba	0.06247113
36	0x3d8d1208	0.06888205
37	0xbd0169d0	-0.03159505
38	0xbb7aa4ca	-0.0038245195
39	0xbcb36126	-0.02189691
40	0x3d2e9fd2	0.042632885
41	0x3cc51677	0.024058564
42	0xbc147a46	-0.009062355
43	0xbd44773c	-0.047965273
44	0xbc04c91b	-0.008104588
45	0xbcaaa036	-0.020828348
46	0xbbd847d3	-0.006600359
47	0x3d80b3b4	0.06284276
48	0xbb6d4e7a	-0.0036210106
49	0x3ce21db1	0.027602049
50	0xbb990c66	-0.0046706675
51	0x3dbd7714	0.09251228
52	0xbc130666	-0.0089736935
53	0xbaa2490f	-0.0012381392
54	0xbc08488e	-0.00831808
55	0xbd06adaa	-0.032880463
56	0x3d84c8f3	0.064836405
57	0xbce3677d	-0.027759308
58	0x3db3eaa8	0.087849915
59	0x3db2f5df	0.087383024
60	0x3cc73524	0.024317332
61	0xbb880830	-0.0041513667
62	0xbcd62ec4	-0.026145346
63	0xbd0e6b24	-0.034770146

val_fc2.weight f4 [1, 64]
0	0xbd9a61ed	-0.07538209
1	0xbdd08d54	-0.10183206
2	0xbd8d858b	-0.06910237
3	0x3d563310	0.05229479
4	0x3c5cd633	0.013478803
5	0x3c089e78	0.008338563
6	0xbdb95ba3	-0.090506814
7	0xbdaa3c0f	-0.083122365
8	0xbcb13ede	-0.021636423
9	0xbc1c0eba	-0.009524995
10	0x3d8c60be	0.068543896
11	0xbcc4bcb4	-0.024015762
12	0xb78bf336	-1.6683345e-05
13	0xbdf092c9	-0.11746747
14	0xbc5ad67f	-0.013356804
15	0xb80864e6	-3.2518896e-05
16	0x3d2b2d70	0.04179138
17	0x3cfb6fa4	0.030692883
18	0x3dbeefee	0.09323107
19	0x383674a8	4.3500826e-05
20	0xbca9c82d	-0.020725334
21	0x3de32612	0.11091246
22	0x3ceec7d7	0.029148025
23	0x3dc17461	0.09446026
24	0xb6e889bf	-6.9301745e-06
25	0x36e5274d	6.829307e-06
26	0x3da83fb7	0.08215278
27	0xbdd9a480	-0.10627079
28	0xbdd1efe7	-0.10250836
29	0x3c490dd2	0.012271361
30	0xbdc48cf7	-0.095971994
31	0xbb89cfa8	-0.0042056628
32	0xbe0e690d	-0.13907261
33	0xbdb9ff8c	-0.09081945
34	0xbdd0affa	-0.10189815
35	0xbd4327c0	-0.04764533
36	0xbe1597e0	-0.14608717
37	0x3dc0e2e0	0.09418273
38	0x3b47439a	0.0030405284
39	0x3d90aee0	0.07064605
40	0xbe2bf902	-0.16794208
41	0xbd8f45d9	-0.06995744
42	0xb67f09a7	-3.800358e-06
43	0x3c9fcb64	0.019506164
44	0xb9a266b0	-0.00030975556
45	0x3d92f795	0.07176129
46	0xbc33f923	-0.010984692
47	0xbd947493	-0.07248797
48	0x3b93b50f	0.004507668
49	0xbdc81a39	-0.097706266
50	0x3bcd03d8	0.0062565617
51	0xbd4fdb32	-0.05074615
52	0xb6f015ac	-7.1550803e-06
53	0x3a26f6dd	0.0006369183
54	0x3ab29c30	0.001362687
55	0x3e255239	0.16144647
56	0xbe238918	-0.15970266
57	0x3d02c85c	0.03192936
58	0xbd4fd4f6	-0.050740205
59	0xbd38ba46	-0.04509952
60	0x3cda8317	0.026673837
61	0x3d2a4f60	0.041579604
62	0xbb8d7a5b	-0.0043175644
63	0x3dd89804	0.1057587
