Server/src/ml/models/68b42cbc-b179-4d32-b9ca-96b3a1ac1fa1/best.model (torch, 92430 bytes, 8 tensors)

layers.0.weight f4 [1, 4, 1, 1]
000000 20 af 03 be 48 0e c7 3e 8e b1 38 be 88 43 82 3e
       -0.12859774 0.38878083 -0.18036482 0.25442147

act_fc1.weight f4 [64, 144]
000000 0b 98 09 3d e2 b3 1e 3d e9 ba bc bb c2 89 bf bc
       0.033592265 0.03874577 -0.005759586 -0.023381118
000010 5d f6 c1 3b 2d cd 72 3d 78 3d ed 3b 28 08 92 bd
       0.0059192614 0.059277702 0.0072399937 -0.07130462
000020 3a 98 29 3c bc e1 79 3b 96 98 bb bd 32 44 9c 3c
       0.010351235 0.0038128933 -0.09159963 0.019075487
000030 57 f2 34 3d 09 1c aa bc ea 6d a9 bc 93 00 a8 bc
       0.044176426 -0.020765321 -0.020682294 -0.020508086
000040 80 c5 a8 bc cf e5 a8 bc 63 6d a8 bc a2 6c a9 bc
       -0.020601988 -0.020617394 -0.020559972 -0.020681683
000050 46 b7 a8 bc 4b e2 a9 bc 55 3e ac bc d1 5c 5e bd
       -0.020595204 -0.020737788 -0.021025816 -0.054287735
000060 11 a8 03 3d e0 78 a8 bc 62 56 a8 bc a3 23 7e bc
       0.032142702 -0.02056545 -0.020549003 -0.015511426
000070 d4 d3 a9 bc a2 e2 a8 bc 68 be a4 bc 62 0d 8f bc
       -0.02073089 -0.02061588 -0.020110324 -0.017462436
000080 d5 03 a9 bc e7 66 95 bc c2 59 ab bc 35 d7 81 bd
       -0.02063171 -0.018237544 -0.020916823 -0.063398756
000090 81 d3 75 3c 08 79 a4 bc 5c 11 a6 bc e4 17 cc bc
       0.01500404 -0.020077243 -0.02027195 -0.024913736
0000a0 9a e9 46 bd 30 63 50 bd 5a eb 29 3d ce 47 88 bd
       -0.048562624 -0.050875843 0.041484214 -0.06654321
0000b0 89 c8 1f 3d 91 aa a6 bc 2a 03 95 bc be 23 ab bd
       0.039009605 -0.020345004 -0.018189985 -0.08356427
0000c0 c6 dc 2e 3d cc 0a a8 bc 09 e5 ab bc d0 49 a1 bd
       0.042691015 -0.02051296 -0.020983236 -0.07875407
0000d0 c5 65 1d bd 26 63 98 bd ba 6c 2a 3d e8 2f 6c 3d
       -0.038427133 -0.07440786 0.041607596 0.057662874
0000e0 30 94 54 bc 18 65 2d bc 91 22 a7 bc 9e fe 8b bd
       -0.012974784 -0.010583185 -0.020402225 -0.06835674
0000f0 0c bc ec 3c b7 99 4d bc ce 06 ab bc a8 67 2b bd
       0.028898261 -0.0125488555 -0.020877268 -0.0418469
000100 8e 7c f7 3c 8f 7e 21 bd b4 73 17 3d aa 0a 20 3d
       0.03021076 -0.039427336 0.036975577 0.03907267
000110 7d 69 28 bd 8c 23 a9 bc 85 d1 fa bc 27 62 84 3d
       -0.041116226 -0.020646833 -0.030617485 0.064640336
000120 91 8a 9b bd 06 1c e4 bc 89 02 72 bc 6b f1 27 3d
       -0.07594789 -0.027845394 -0.014771112 0.04100172
000130 89 ce 36 bd 35 38 9d bb 07 f1 f8 bc df 4f a0 3c
       -0.04463056 -0.00479796 -0.030388368 0.019569336
000140 47 7f a5 bd c8 4b 00 bd e5 be a7 bc 30 76 b7 bd
       -0.08080917 -0.03132227 -0.020476768 -0.08958089
000150 7a e0 8f bd cb 40 d2 bc 91 b1 fa bc a7 6b b6 bd
       -0.070252374 -0.025665661 -0.030602248 -0.08907252
000160 fa 72 8a bc 66 4f 63 3b 7c 6c 65 3c 9d 85 f9 3c
       -0.016900528 0.0034684776 0.0140029155 0.03045922
000170 98 d4 6e 3d a5 78 aa bc 0f 20 a8 bc 1e f9 c6 bb
       0.058308214 -0.02080948 -0.0205231 -0.0060721776
000180 f4 03 2d 3d 49 ca a8 bc 8f e8 4e bc 22 62 bc bc
       0.042240098 -0.02060427 -0.0126286885 -0.022996012
000190 57 69 af bd a6 78 1b bd 44 69 8a 3c 63 89 c3 bc
       -0.08565014 -0.037956856 0.016895898 -0.023869222
0001a0 65 ee 86 3d 9f 5e a9 bc 3f 3a a9 bc 5f ef 1f 3d
       0.06588439 -0.020675002 -0.020657657 0.03904664
0001b0 a4 19 c5 3c 03 d6 a8 bc d4 12 a1 bc f2 d9 dd bc
       0.024060078 -0.020609861 -0.019662298 -0.027081463
0001c0 36 62 d9 bc 57 34 a8 bc c0 53 a7 bc 34 fc 92 bc
       -0.026536088 -0.02053277 -0.020425677 -0.017942525
0001d0 62 cb 9c bc 15 c8 a9 bc 39 b9 d5 bc 28 db 51 3d
       -0.01913995 -0.02072529 -0.026089298 0.051234394
0001e0 5a bb 3d 3d a3 55 a8 bc fa d5 a9 bc 16 5b a9 bc
       0.04632125 -0.020548647 -0.020731915 -0.020673316
0001f0 c3 78 fe bc 9b f6 a8 bc 7b 68 58 bc 07 99 b0 bc
       -0.031063443 -0.020625403 -0.013208504 -0.021557344
000200 c1 cd 6d bc 99 02 ac bc 02 5e ac bc ff b0 38 3d
       -0.014514388 -0.020997332 -0.02104092 0.04509067
000210 94 03 7b bd 83 1d f1 3b 8a ea 97 bd 01 b0 ac bc
       -0.06128271 0.0073582544 -0.07417782 -0.021080019
000220 a3 07 2c 3c a9 67 34 3d c1 9c e6 bc 02 42 2b 3d
       0.010499868 0.04404417 -0.028150918 0.041810997
000230 cc 5f 7d 3d 75 d2 8c bd 67 e3 a9 bd 17 20 77 bd
       0.061858937 -0.06876079 -0.08295327 -0.060333338
000240 94 62 8f 3d 42 56 37 bd 99 ef 4f bd cc 33 40 bb
       0.07001224 -0.044759996 -0.050765608 -0.0029327748
000250 8a 2d 8f 3d 25 f3 62 3d 87 65 93 3d 8d d6 d1 3c
       0.06991108 0.055407662 0.07197099 0.025615001
000260 93 c2 0f 3d 62 11 f4 3b 95 67 a2 bd cd dd 22 bc
       0.03509767 0.0074483613 -0.07929913 -0.009940577
000270 66 c7 52 bc 8e 6d ba bc a7 ce 8e bc a9 0d b9 bc
       -0.012864923 -0.022757318 -0.017432524 -0.022589521
000280 fc 3a b7 bc 53 ca b8 bc 94 0f bc bc fb b9 b6 bc
       -0.022366993 -0.022557413 -0.022956647 -0.02230548
000290 3d 32 b9 bc dd 9b b6 bc 77 18 bb bc 27 b2 8f 3d
       -0.022606963 -0.022291118 -0.022838814 0.07016402
0002a0 2a f5 06 bd c6 e4 b8 bc 08 69 81 bc 67 74 b9 bc
       -0.03294865 -0.022570025 -0.015797153 -0.022638513
0002b0 44 61 b7 bc 89 bf b7 bc 01 64 b9 bc fa 0f b9 bc
       -0.022385247 -0.022430198 -0.022630693 -0.022590626
0002c0 ce 05 bb bc 1c 64 ba bc 51 f5 b9 bc 8a 64 5a 3d
       -0.022829916 -0.022752814 -0.022699984 0.053318538
0002d0 06 20 70 3d 56 66 b8 bc 59 f2 b5 bc f1 b4 35 3d
       0.05862429 -0.022509735 -0.022210287 0.044362012
0002e0 83 e4 7b bc 75 3a 54 bd df 37 96 bc 7b 37 de bc
       -0.015374306 -0.05181356 -0.018337188 -0.027126065
0002f0 40 4d 2c bd a5 3f a2 bc c2 72 b7 bc 07 91 43 bd
       -0.04206586 -0.019805739 -0.022393588 -0.04774573
000300 f7 43 97 3d 90 43 cf bc 0a 11 b9 bc 24 f0 ba bc
       0.0738601 -0.025300771 -0.022591133 -0.022819586
000310 74 e2 3d 3d 5d b3 81 bb 30 78 64 bd c9 66 32 3c
       0.04635854 -0.0039581493 -0.055778682 0.010888764
000320 77 01 a0 bc a5 52 b7 bc 4a ce b8 bc 24 60 29 bd
       -0.019531948 -0.022378275 -0.022559304 -0.041351452
000330 44 12 32 bd d2 a3 b7 bc c4 22 b7 bc 4f 4b 1b 39
       -0.04347445 -0.022416983 -0.022355445 0.00014810007
000340 04 10 7d bd 50 6c cc bd 3f da b0 bd b4 84 13 bd
       -0.06178285 -0.099815965 -0.08635377 -0.036015227
000350 36 f5 00 bd 44 d0 b8 bc 49 f2 b8 bc 99 d6 46 3c
       -0.03148385 -0.022560246 -0.022576468 0.012136125
000360 94 df a2 3d 6c 48 87 bc de 78 bb bc 95 21 32 3c
       0.079528004 -0.016514026 -0.022884782 0.010872264
000370 da 3e e6 bd 8e 16 d6 bd 23 cf 0b bd 8d 40 92 bd
       -0.11242457 -0.10453521 -0.034133088 -0.07141218
000380 7d 43 93 bb da cf ed bc 62 8a bb bc a7 db c5 bc
       -0.004494129 -0.029029775 -0.022893135 -0.02415259
000390 02 74 ad bc bf 74 8e bc 6b 0b b9 bc 96 b5 e5 bd
       -0.02117348 -0.017389653 -0.022588452 -0.112162754
0003a0 1c a5 a8 bb 23 ef 2b 3d 39 95 5b bd 78 d9 b6 bc
       -0.0051466357 0.041976105 -0.053609107 -0.022320494
0003b0 a6 a3 1d bd 2d c6 b9 bc aa 85 b9 bc 55 1c 3e 3c
       -0.038486145 -0.022677505 -0.022646744 0.011603435
0003c0 33 c7 60 3d ee aa e0 bc 08 27 bb bc 32 13 43 3d
       0.05487747 -0.027425256 -0.02284576 0.047625728
0003d0 48 2d 5b 3d 2e 42 2c 3d 6d a5 f7 bb 50 73 62 bc
       0.05350998 0.0420553 -0.007557562 -0.013821438
0003e0 6b f3 98 bc 58 98 6f bc b9 a8 bc bc 49 43 c3 3c
       -0.018670758 -0.014623724 -0.023029672 0.023835795
0003f0 ed bb 90 3d 24 7c b9 bc 2b 7c cd bc 94 c7 b7 bc
       0.07067094 -0.022642203 -0.025083622 -0.022434033

act_fc1.bias f4 [64]
000000 13 20 d9 3c 00 1f 66 3d 91 3c 76 bd 75 02 00 bd
       0.026504552 0.056181908 -0.060116354 -0.031252343
000010 28 a3 58 3d 11 3b be 3c 0d 97 f1 bb 00 05 03 3d
       0.052889973 0.023221524 -0.007372743 0.03198719
000020 52 ba 3e 3c c5 52 7d 3d af b6 bc bc 79 46 ca ba
       0.011641102 0.061846513 -0.02303633 -0.001543238
000030 54 da 9b bd c9 0f 09 bd 33 72 8d 3d 1f 48 42 bd
       -0.07610002 -0.03346232 0.069065474 -0.04743206
000040 34 90 32 3d df 8d f7 bc 5d ba 24 bc 39 58 8e bc
       0.043594554 -0.030219017 -0.010054198 -0.017376052
000050 cf 6d 18 3d 2d 87 55 3d 88 d6 86 bd 94 86 82 b9
       0.037214097 0.052130867 -0.06583887 -0.000248958
000060 60 91 03 3d e3 78 8b 3d 46 2b bf 3c 91 4d d4 bc
       0.032121062 0.06810167 0.023336064 -0.025915893
000070 01 f5 76 bd ce 37 64 3d 23 69 92 ba e0 8d 1a bd
       -0.060292248 0.055717282 -0.0011170249 -0.03773296
000080 1d d5 32 3d c3 7e 66 3c a7 d6 a8 3c 26 ab 26 bc
       0.043660272 0.014068308 0.020610167 -0.010172641
000090 38 08 9c bc 8e ee e2 bc 71 92 2a 3d 70 52 a2 bc
       -0.019046888 -0.027701642 0.041643564 -0.0198147
0000a0 1a 27 c2 3a 44 03 49 3d f8 8c ac 3b b7 a8 9f bd
       0.0014812679 0.04907538 0.005265828 -0.07795852
0000b0 ba d9 2e 3d 99 80 df 3c 96 a3 64 3d 84 55 8f bc
       0.04268811 0.027283 0.05582007 -0.017496832
0000c0 ed e0 f1 bc aa 84 5e 3d c6 41 30 3d 38 d5 4f 3d
       -0.029526198 0.054325737 0.043031476 0.05074045
0000d0 4f 6d c4 3c a9 ea 07 bd 68 ed e9 3c 92 f6 96 bd
       0.023977904 -0.033182774 0.028555587 -0.07371248
0000e0 e9 5d 18 3d d9 b9 91 3d 51 f8 24 bc 17 9b 1c 3d
       0.037198935 0.07115526 -0.010068969 0.038233843
0000f0 ce 73 40 3d 31 65 c0 bc 8a 9d c0 3b 86 4f e3 3c
       0.04698544 -0.023485752 0.005878155 0.02774788

act_fc2.weight f4 [36, 64]
000000 62 87 a3 bc 4b 2a 80 bd 10 dc 90 30 30 40 5d bc
       -0.019962016 -0.06258067 1.0539924e-09 -0.013504073
000010 4a 33 e0 bd 2f 7e dd 3c 3b 2d f6 bc 3c bf 08 be
       -0.109472826 0.027037708 -0.030050864 -0.133542
000020 22 9f 08 bc 41 5c be bc bf e5 e2 bd 54 1e 8a bd
       -0.0083387215 -0.02323735 -0.11078977 -0.06744066
000030 5e b1 64 bb cf 3a c4 bd 1b 89 a6 bd 7b 7e dc 3c
       -0.0034895758 -0.09581529 -0.081316195 0.02691578
000040 e0 4a 79 bd ba 78 e1 bd 83 67 b0 b6 00 40 8c bc
       -0.060862422 -0.11009355 -5.257259e-06 -0.017120361
000050 30 e1 97 bd 44 b1 e2 3a 57 a3 02 bc af 6a 35 37
       -0.07415998 0.0017295261 -0.007973514 1.081328e-05
000060 94 4c ce bd aa 6e 85 bd 9d ce 48 3c 28 3c 85 3b
       -0.100732 -0.06515248 0.012256292 0.004066009
000070 3c 07 94 3d 40 f8 18 bc b0 f0 58 b9 7f 2e a3 bc
       0.07227942 -0.009336531 -0.00020689028 -0.019919632
000080 df 98 8d bd 91 e5 87 3a a8 7f 0b 3e 5e 27 b5 3c
       -0.069139235 0.0010368099 0.13622916 0.022113498
000090 be f7 df 36 83 95 72 bd 09 33 b9 3a 8f da 2c bd
       6.674759e-06 -0.059224617 0.001412959 -0.04220062
0000a0 9d f3 d2 3a ad 07 a3 bd d7 3c 4e bc dd d7 28 3d
       0.0016094331 -0.079604484 -0.012587748 0.04122149
0000b0 9d 34 c1 3d 0e 63 e0 3c 6b 5b bc 3a 2e 65 9e 3d
       0.09433863 0.027390983 0.0014370506 0.07734142
0000c0 d0 a3 c9 3d 63 1d d9 bd 52 fa 7b 3c 86 24 aa bd
       0.09845698 -0.10601308 0.015379505 -0.083077475
0000d0 a7 57 42 3d 16 d2 9f 3d 85 a3 17 3d 21 67 ba bb
       0.047446873 0.078037426 0.03702118 -0.0056885635
0000e0 80 66 d9 bd ee 11 68 bd 68 34 9e bd 96 7d b5 3d
       -0.106152534 -0.056657724 -0.077248394 0.08861844
0000f0 29 bc 85 3d 72 a7 01 bd b3 38 9d bc 19 0a 1c 3d
       0.06530029 -0.03165383 -0.019192075 0.038095567
000100 f5 1b 51 bd d6 85 ed bd ae 6a 8e 30 4b f2 04 3d
       -0.051052053 -0.11597793 1.036218e-09 0.03245763
000110 d6 4f ab bd ea b6 dd bb ef 61 7f bd 90 f4 b5 3b
       -0.08364837 -0.00676619 -0.062349256 0.0055528358
000120 c1 32 97 3d 93 a1 76 3d 7b 5a f0 bd 15 fd 1d bd
       0.073827274 0.060212683 -0.11736008 -0.038571436
000130 6d e4 cb bc e3 90 88 bd b1 24 52 3d 29 ae a1 3d
       -0.024889195 -0.0666826 0.051304523 0.078945465
000140 b2 a2 9d 3d 60 cf dc 3d c9 ed 02 b9 a5 e4 98 bb
       0.07697047 0.10781741 -0.00012486348 -0.0046659284
000150 ac 12 48 bc 58 57 a0 bc 67 8e 40 bc 3e 80 b6 34
       -0.012211483 -0.019572899 -0.011752701 3.399345e-07
000160 05 ff 80 bd bd a2 f1 bd 10 7e 93 3d 9f 71 03 bd
       -0.06298641 -0.11798618 0.07201779 -0.03209078
000170 59 e0 e1 bd a9 46 3b bd 5f f7 af bd ad 47 20 3d
       -0.11029119 -0.045721684 -0.08592104 0.039130855
000180 64 66 38 3d ba 24 08 39 ac 16 4f bc 8a 35 84 bd
       0.045019522 0.00012983652 -0.012639683 -0.06455524
000190 d8 aa eb 36 23 3d af bc 03 e1 cf 3c fe 40 56 3d
       7.0234346e-06 -0.021391457 0.025375849 0.052308075
0001a0 85 cd 90 30 c4 fc 05 be 73 0e 11 3d 89 70 e9 3d
       1.0535791e-09 -0.13084704 0.03541417 0.113984175
0001b0 01 83 4f bd 1a 4b 0a 3d db 15 42 3c 3e 9c b6 3d
       -0.050662044 0.03376303 0.011846031 0.089165196
0001c0 33 9b 07 bd 27 60 95 bd a5 15 89 3d be 44 05 be
       -0.033106994 -0.0729373 0.066935815 -0.13014504
0001d0 58 0c 5c bc c6 b2 c7 3d 9a 17 b8 bd 42 24 a2 ba
       -0.013430677 0.09750895 -0.08988877 -0.0012370425
0001e0 ff 83 74 bd d6 9a 6a bc e8 6d 1b bc 08 40 5a 3c
       -0.059696194 -0.014319142 -0.009486653 0.01332093
0001f0 d0 25 b9 3d 0e cc 95 bb c8 11 d0 3d 2b c1 c6 bd
       0.09040415 -0.0045714444 0.101596415 -0.097048126
000200 69 7d 0a 3d 96 1f c6 bd c2 0b c7 38 7e 13 1b bc
       0.033811007 -0.09673993 9.4912495e-05 -0.0094650965
000210 2f a6 65 bc b5 e6 de bc c9 0f bb 3d 50 91 8e bd
       -0.014016672 -0.027209619 0.0913387 -0.0696131
000220 5b f9 95 bd c6 52 88 bc d2 c1 cb bc 6f fe 75 3c
       -0.073229514 -0.016641032 -0.024872694 0.015014275
000230 e0 5b cc bd f9 9c c8 3c 73 ec 00 3d c2 33 2d bd
       -0.09978461 0.024488913 0.031475496 -0.04228569
000240 5d 66 06 bd ac e5 e8 bc 6e fe 12 3b 84 77 4a bd
       -0.032812465 -0.028429829 0.0022429484 -0.049430385
000250 c3 e0 84 3d 68 c1 a9 bd 28 ee a8 3c b8 c8 c1 2e
       0.064881824 -0.082888424 0.020621374 8.812279e-11
000260 8c 5b b9 3d ed 64 72 3d dd 47 7a bc 24 00 07 be
       0.09050664 0.05917828 -0.015275923 -0.13183647
000270 15 c4 78 bc a8 cf 98 b4 24 75 df 3c c1 90 8c 3d
       -0.015183468 -2.8463296e-07 0.027277537 0.06863547
000280 1b a0 80 3d ff bb 58 3c a4 c4 2d 3d a7 be e2 bc
       0.06280538 0.0132284155 0.04242386 -0.0276788
000290 9f 8b dd 30 50 f1 d6 3c 9c 9b 99 bd 9c 90 13 39
       1.6119549e-09 0.026238114 -0.07500383 0.00014072884
0002a0 58 7f 1b 38 7b af 80 3d 36 c3 19 bd a4 0e c2 3d
       3.7073478e-05 0.0628347 -0.037539683 0.09475449
0002b0 15 eb 6b 3d e1 7e 98 3c 12 9a 18 3d a0 10 2b 3d
       0.05759724 0.018615188 0.037256308 0.0417639
0002c0 f0 72 9a bc 4c 87 ca 3d 4e bb 18 bd bd 6a 14 bd
       -0.018853635 0.09889087 -0.037288003 -0.036234606
0002d0 ac 98 b5 3c 03 ae ae 3d ec 53 7c 3d 37 3c 86 bc
       0.022167526 0.08529284 0.06160347 -0.016386135
0002e0 8f 7b 9a bd 29 48 0a 3d ae 8d b1 bd 7c de 54 bd
       -0.07543098 0.033760224 -0.086696014 -0.05196999
0002f0 3d 3e 8f 3d 69 bf 9b bb ab c7 89 bd fa e2 df 3b
       0.06994293 -0.0047530425 -0.06727537 0.0068324776
000300 b9 a2 6b bc e0 7f 86 bd f6 de 51 37 f7 62 e1 3c
       -0.014382058 -0.06567359 1.2509283e-05 0.02751301
000310 c5 40 f6 3c fd fb 4d 3b 1b 76 8d 3d 5c c2 d3 bd
       0.030060181 0.0031430714 0.069072925 -0.103398055
000320 e6 61 09 bd b0 95 9f bd 4b a3 60 bd 3d a2 fe 3c
       -0.03354063 -0.077922225 -0.05484323 0.03108322
000330 6b 6a f9 bd 40 1b f9 3d 63 39 6d bc 52 1b f4 3c
       -0.12178501 0.12163401 -0.014479014 0.029798184
000340 9a 47 b8 3c a9 01 e9 bb 52 42 91 37 2a 74 56 3c
       0.02249508 -0.0071107936 1.731623e-05 0.013089219
000350 d0 6c a3 3d a8 0f 41 bd 1a 6c 3b 3d 13 d0 cc 30
       0.07979739 -0.04713407 0.04575739 1.4902092e-09
000360 82 b8 a3 3b 3c 56 0a be 0c b9 e1 3c 42 eb f3 bc
       0.0049963603 -0.13509458 0.027554058 -0.029775266
000370 8b be 54 bc 87 48 e0 b9 97 dc 95 bd ee 6f 1d 3d
       -0.012984882 -0.00042778646 -0.07317465 0.038436823
000380 a3 93 10 3d fc ac 77 3a c9 1f 06 be b7 2a bc bd
       0.035297047 0.0009448079 -0.13098063 -0.09187835
000390 95 8e 87 34 c9 17 14 be dd 8b a0 bc f1 f0 24 3d
       2.5249452e-07 -0.14462198 -0.019597942 0.040268842
0003a0 8b 5e bd b8 93 a1 25 bb 00 f8 84 3c da 4b 3a 3d
       -9.029832e-05 -0.0025273308 0.016231537 0.045482494
0003b0 9e da e8 3b fa 3d 49 bd e7 76 f8 bb cc 4d c0 bd
       0.0071061393 -0.04913137 -0.0075825336 -0.093898386
0003c0 eb bf 0f be cf 57 89 bd 9f 3d 67 bd aa 32 34 3d
       -0.14038055 -0.06706201 -0.05645525 0.04399363
0003d0 ac a1 22 3d 90 05 3d 3d 09 0e 1e bd a0 ff 5e 3c
       0.039704964 0.046147883 -0.038587604 0.01361075
0003e0 f9 35 97 3d 5c b5 16 3d 8a 28 a4 3d ee a6 2a 3d
       0.07383341 0.03679405 0.08015545 0.041663103
0003f0 8c 1b db 3d d2 3a 78 3d 5f 62 31 bd ef 5a 77 3d
       0.106986135 0.06060297 -0.043306705 0.060389455

act_fc2.bias f4 [36]
000000 a8 9b 84 3d c7 c6 f3 bd 04 8b a0 bd 2b 95 0c 3d
       0.064750016 -0.11903148 -0.07839015 0.034321945
000010 ef d0 31 bd a5 95 ed b9 e3 3e 52 bd 24 fb 23 3b
       -0.043412145 -0.00045315656 -0.051329505 0.0025021518
000020 b9 b0 15 3e 47 b8 3d 3b 46 75 71 3b 58 df b3 bd
       0.14618196 0.002894895 0.0036843582 -0.08782834
000030 38 62 b4 3c 14 62 2f 3c 25 0f c6 bc fe b1 fa bb
       0.02201949 0.010704536 -0.024177143 -0.007650613
000040 c6 8f 94 3d 4b 92 3b 3d 08 12 82 3c c0 04 f2 3c
       0.07253985 0.045793813 0.015877739 0.02954328
000050 7c 33 ef 3c 15 b3 fc 3c 5f 07 03 bd ee 0a 9b bd
       0.029199354 0.030847112 -0.03198945 -0.07570444
000060 7c 88 96 bd 03 a4 cb 3d 0c 5a fc 3d e7 84 d6 3d
       -0.07350251 0.09943392 0.123218626 0.10474568
000070 6a 43 78 bc c7 5f 51 bc 47 6f 9f ba 89 a0 e7 3c
       -0.0151527915 -0.012779183 -0.00121639 0.028274791
000080 95 ae ba 3b 16 7d a1 3c d1 40 7d 3b fa 44 d1 3d
       0.0056970813 0.019712966 0.003864337 0.10218234

val_fc1.weight f4 [64, 144]
000000 62 ab f7 bc 9c 42 f7 bc 1d a3 f6 bc 62 50 f6 bc
       -0.030233089 -0.030183129 -0.030107075 -0.030067626
000010 49 ee f5 bc 6c f6 f5 bc dd 81 f5 bc 75 72 f4 bc
       -0.03002085 -0.03002473 -0.02996915 -0.029839734
000020 60 ea f5 bc 85 5f f6 bc db c3 f5 bc ea d5 f6 bc
       -0.030018985 -0.030074844 -0.030000618 -0.030131299
000030 14 97 f5 bc db d2 f3 bc e0 64 f6 bc e6 82 f5 bc
       -0.029979266 -0.02976363 -0.030077398 -0.029969644
000040 e6 82 f5 bc fd 3c f6 bc e5 90 f5 bc 1a 84 f5 bc
       -0.029969644 -0.030058378 -0.029976318 -0.029970217
000050 f7 a4 f5 bc 5a 98 f5 bc 4a 2f f7 bc cc b2 fd bc
       -0.029985888 -0.029979873 -0.030173916 -0.030969046
000060 7e 61 f6 bc 97 a0 f5 bc 5c fa f5 bc 6d b3 f5 bc
       -0.030075785 -0.029983802 -0.030026607 -0.029992783
000070 06 f6 f5 bc a6 bf f5 bc 4a 08 f7 bc 13 53 fe bc
       -0.03002454 -0.029998612 -0.03015532 -0.031045472
000080 09 f6 f5 bc 64 bf f5 bc 92 82 f5 bc 0e a0 f7 bc
       -0.030024545 -0.029998489 -0.029969487 -0.030227687
000090 37 79 ff bc eb 44 f7 bc 0d be f5 bc 4c 07 a5 3c
       -0.03118573 -0.03018423 -0.02999785 0.020145081
0000a0 94 67 86 3d 0c 51 bf 3d 3c 7b 8b 3d 3b 4e 2a 3d
       0.06562725 0.0934163 0.068106145 0.041578513
0000b0 9c 9b 01 3d b1 8c fc bc 31 a1 f5 bc 89 1c f7 bc
       0.03164254 -0.030828806 -0.029984089 -0.030164974
0000c0 8b 84 f5 bc b3 47 f6 bc 35 8a f5 bc f1 4e e6 3d
       -0.029970428 -0.030063486 -0.029973129 0.11245526
0000d0 51 92 ed 3b 14 ce 01 3e df 1f 06 3e 53 35 21 3d
       0.0072501083 0.12676269 0.13098095 0.039357495
0000e0 a9 04 8c 3d 2f f5 f5 bc 9e a8 f3 bc 89 ab f5 bc
       0.06836826 -0.03002414 -0.029743489 -0.02998902
0000f0 4f 99 f5 bc 05 c9 f6 bc b0 d0 f7 bc dc 57 14 3d
       -0.02998033 -0.03012515 -0.030250877 0.0362166
000100 4c 26 c1 3d ca 0e 02 3e 8b 78 5c 3d 02 19 f7 3d
       0.09431133 0.12700954 0.053825896 0.12065317
000110 03 be 0d 3d cb 9e f6 bc bf 52 f6 bc 8f d7 f5 bc
       0.034605037 -0.030105015 -0.030068753 -0.030010013
000120 83 58 f6 bc da 40 f6 bc c5 05 f6 bc 64 d7 ca 3d
       -0.030071503 -0.03006022 -0.030032048 0.09904364
000130 7f 48 09 3e a1 51 83 3d 91 75 f9 3d 6d 79 03 3e
       0.13406561 0.06412054 0.12180627 0.12839289
000140 b0 94 a3 3d bb 82 f5 bc 08 2f f7 bc ed 82 f5 bc
       0.07987344 -0.029969564 -0.030173793 -0.029969657
000150 23 f6 f5 bc f6 9f f5 bc 3a 89 f5 bc 56 01 b2 3d
       -0.030024594 -0.029983502 -0.029972661 0.08691661
000160 b2 1a 92 3c a0 d7 d2 3d 74 f6 ef 3d db 84 1a 3c
       0.017834995 0.102950335 0.11716929 0.009431089
000170 f2 85 9f 3d 85 9d f6 bc 65 e2 f6 bc 4d 5a f6 bc
       0.0778922 -0.030104408 -0.03013725 -0.030072356
000180 98 e3 f5 bc b2 ac f5 bc 8f 10 f7 bc 50 52 4c 3d
       -0.030015752 -0.029989574 -0.030159263 0.049883187
000190 87 d9 8c 3d cb 62 ae 3d 8c e9 3c 3d e7 8a ae 3d
       0.068774275 0.08514937 0.046121165 0.08522587
0001a0 5a 8c 0b 3d 24 19 f2 bc 0d dd f6 bc fa 81 f5 bc
       0.034069397 -0.029553004 -0.030134702 -0.029969204
0001b0 55 91 f5 bc 1c 55 f6 bc 5b 67 f9 bc 40 db f5 bc
       -0.029976526 -0.03006988 -0.030444792 -0.030011773
0001c0 34 51 f6 bc c9 ee f5 bc b4 2d fa bc 92 54 f6 bc
       -0.030068018 -0.030021088 -0.030539371 -0.030069623
0001d0 18 d2 f6 bc 28 b1 ff bc f9 e7 f6 bc 8c 18 f7 bc
       -0.030129477 -0.031212404 -0.03013991 -0.030163072
0001e0 2b 52 f7 bc 55 66 f6 bc 9c a1 f1 bc 8d 81 f5 bc
       -0.030190548 -0.030078093 -0.029496007 -0.029969001
0001f0 b4 52 ef bc 34 89 f5 bc 24 bf f5 bc a6 61 f6 bc
       -0.02921424 -0.02997265 -0.02999837 -0.03007586
000200 d4 82 f5 bc 8e 44 f3 bc f3 3f f6 bc de f9 f5 bc
       -0.02996961 -0.029695775 -0.03005979 -0.030026373
000210 78 fc f5 bc 5e c5 f5 bc 07 85 f5 bc f8 a3 fb bc
       -0.030027613 -0.030001339 -0.029970659 -0.030717835
000220 32 90 f6 bc 65 52 f7 bc 3c f6 f6 bc 71 96 f5 bc
       -0.030098055 -0.030190656 -0.03014671 -0.029978963
000230 d7 48 f7 bc 66 82 fb bc 1b bd f5 bc c3 28 f6 bc
       -0.0301861 -0.030701827 -0.0299974 -0.030048734
000240 f2 6b 55 3d 2f 83 ae 3c 9e 2d 0e 3d 2d ae bd 3c
       0.052104898 0.021302788 0.034711473 0.023154343
000250 00 3c bd 3c b1 3a 9a 3d d9 fb 08 bd bc 92 87 bb
       0.0230999 0.07530726 -0.033443306 -0.004137365
000260 cd e0 09 bd 7d 5a 83 bd 28 ba 14 3d 26 60 91 bd
       -0.033661652 -0.06413744 0.036310345 -0.07098417
000270 1a 74 b4 3c 14 3c a6 bc d2 74 a7 bc 39 f8 0e bc
       0.022028018 -0.02029232 -0.020441446 -0.008726173
000280 6a e8 82 bc 60 4b 39 bc 7f bf 84 bc 45 da 83 bc
       -0.015979964 -0.011309475 -0.016204594 -0.01609529
000290 1d 92 82 bc d4 69 81 bc c0 7e 16 bc b6 7a 71 bd
       -0.015938813 -0.015797533 -0.009185493 -0.058954917
0002a0 49 86 8b 3d e3 4d c5 bb 43 52 84 bc e1 0e 83 bc
       0.06812722 -0.0060212477 -0.016152507 -0.015998306
0002b0 3b 87 83 bc 26 9a 83 bc f2 92 81 bc a9 43 84 bc
       -0.016055694 -0.016064715 -0.01581714 -0.016145544
0002c0 53 d5 80 bc 1f aa 82 bc 22 e5 d8 bc 32 c2 a6 bd
       -0.01572672 -0.01595026 -0.026476447 -0.081425086
0002d0 cf 37 aa bd 99 bb 82 bc 73 eb 82 bc b0 8e bf bd
       -0.08311426 -0.015958594 -0.015981412 -0.09353387
0002e0 40 c7 11 3d 76 ad 38 3d c1 18 e1 bb 4c 69 c6 bc
       0.03559041 0.0450873 -0.006869406 -0.024220131
0002f0 38 22 04 3d 4e b9 83 bc 69 84 83 bc 51 2e 8c bd
       0.032259196 -0.016079571 -0.016054349 -0.06844772
000300 97 26 ab bc 3d d3 82 bc a1 98 83 bc 31 a5 98 3d
       -0.020892425 -0.015969867 -0.01606399 0.07453383
000310 2a 4b 21 bd bb d0 00 bd 33 ff 4c bd 48 7a 72 3d
       -0.039378323 -0.03144906 -0.050048064 0.059198648
000320 f1 31 ed bb 35 3c 8e bb 6e 1e 83 bc 75 f8 c3 bc
       -0.0072386195 -0.0043406733 -0.016005721 -0.023922184
000330 91 92 3a bd 77 5d 20 bc a0 44 84 bc de e3 8b 3d
       -0.045549933 -0.009787909 -0.016146004 0.068305716
000340 ac 86 98 3d e7 fe 69 3d ea b1 55 3c 80 ee 4a bd
       0.074475616 0.05712786 0.013042906 -0.049543858
000350 bc 77 44 bd 3a c8 42 bc 96 14 82 bc 30 ee 41 3d
       -0.04796575 -0.011888558 -0.015878957 0.047346294
000360 af e0 3a 3c 04 b8 80 bc 48 f2 c5 bc c2 75 af 3c
       0.011406108 -0.015712745 -0.02416338 0.021418456
000370 47 d5 03 bd 19 c1 59 3c a6 0d 08 bd eb 8d 33 3d
       -0.03218582 0.013290667 -0.03321614 0.043836515
000380 36 b0 1b bc a4 51 82 bc af 48 82 bc 37 2c e9 3c
       -0.009502461 -0.01590807 -0.015903799 0.028463466
000390 31 d0 58 3d b3 a5 10 bc 88 33 ce bb d4 60 8e 3d
       0.05293292 -0.008828568 -0.006292764 0.06952062
0003a0 67 c9 85 3d d0 53 d1 3b b2 42 98 3d 87 89 88 3d
       0.06532555 0.006388165 0.07434596 0.06666856
0003b0 ac 7c a8 3c 91 e7 3d bc 01 8d 81 bc df 96 02 3b
       0.02056726 -0.011590854 -0.015814306 0.0019926352
0003c0 ea f5 65 bd bb bd 84 bc 19 24 83 bc 51 da 21 3d
       -0.056142725 -0.016203752 -0.016008424 0.039514843
0003d0 bb 64 8c bd ec 66 9a 3d bb 0c a0 3b 3f 15 81 bd
       -0.0685515 0.07539162 0.00488433 -0.063028805
0003e0 98 92 c2 bc e0 74 83 bc 5f af 86 bc ad 7c 1a bc
       -0.023751542 -0.016046941 -0.016441045 -0.009429139
0003f0 48 ed c6 3c 24 18 86 bc 78 73 81 bc 9e 48 cc bc
       0.024283066 -0.016368933 -0.01580213 -0.02493697

val_fc1.bias f4 [64]
000000 70 57 d6 bc ef f8 35 bd 1a 49 7f bc d3 b4 b7 bc
       -0.02616474 -0.044426855 -0.015581394 -0.02242509
000010 0e b5 ad 3c 89 6a a3 bd 3b c0 86 3d d2 17 3b bc
       0.021204498 -0.07979304 0.06579634 -0.011419253
000020 ee 58 7d 3c ea 25 34 3b 7a 72 cd bc 1b 96 df bb
       0.015463097 0.002748842 -0.025079 -0.006823314
000030 a0 f1 eb 3a fd 13 30 bc 7e 96 65 bc 2a 94 67 3c
       0.0018001087 -0.010746953 -0.014012931 0.014134446
000040 2c 60 c4 3c 11 e8 db 3c f0 8b 09 3d 17 07 20 bc
       0.02397164 0.026844056 0.03358072 -0.009767315
000050 5a e7 48 bd 67 49 0e bc 6f 0f 06 bd 1b e8 62 ba
       -0.04904876 -0.008684493 -0.032729562 -0.0008655802
000060 d3 9d df bb cd 4b 28 bc 65 26 a9 bd 69 18 fe 3c
       -0.006824234 -0.010271979 -0.08259276 0.031017499
000070 f3 b3 0b 3d 71 08 b9 bd 4c c0 8e 3b c1 d7 8f 3d
       0.03410716 -0.09034813 0.0043564197 0.07023574
000080 54 ea 34 3c 9e 91 a3 bd 96 8f 05 3d a1 13 74 ba
       0.011042196 -0.07986759 0.032607637 -0.0009310786
000090 0e 4c 3c 3d cc 77 0f 3d 5a 9c 87 3d 3f c7 26 3d
       0.04597097 0.035026357 0.066216186 0.04071736
0000a0 8b e9 f0 bc 1a 12 82 bc 80 d8 bb bb 43 05 29 bd
       -0.029408237 -0.015877772 -0.005732596 -0.041264784
0000b0 40 d2 29 3d 0e 42 91 bd 6b 58 57 bb 51 c2 f3 3c
       0.041460276 -0.07092677 -0.0032859098 0.029755743
0000c0 25 f3 3b 3d 68 73 ba bd f2 2d 96 bd 29 f7 d0 b9
       0.045886178 -0.09104043 -0.07332982 -0.00039857
0000d0 88 f5 53 bc 72 e2 7c bd 7a 27 2f 3d cd 7a b4 bd
       -0.012936957 -0.061739393 0.042762257 -0.08812485
0000e0 4c 49 6b bb 4a 41 90 bd 0b dc ad ba 14 cd 8f bd
       -0.0035901843 -0.07043703 -0.001326443 -0.070215374
0000f0 47 9a 51 bd 3b ef 76 bc 59 f6 51 3a 6a c6 2f bd
       -0.05117252 -0.015071685 0.0008009426 -0.04291383

val_fc2.weight f4 [1, 64]
000000 28 ea 06 3d be 6f dc bd 11 86 bf bd e0 c4 a4 bc
       0.032938153 -0.10763501 -0.09351743 -0.020113409
000010 e7 f6 8c 3d 82 38 a6 3d 5a 66 06 bd 30 84 a5 3c
       0.068830304 0.08116247 -0.032812454 0.020204633
000020 06 13 08 bd 4b cf 34 bd 97 81 04 bd 4f 4b d7 bc
       -0.033221267 -0.044143002 -0.03235015 -0.026281027
000030 0d c7 17 3c 07 c3 d7 bc 01 1a e1 b9 93 2c 6a bd
       0.009263766 -0.026338113 -0.0004293472 -0.057171416
000040 14 75 dc 3c 1d c6 87 3b f3 9f d4 bb 9a be c8 bc
       0.026911296 0.00414349 -0.006488794 -0.024504948
000050 38 71 8a b4 b1 c5 f2 bb 37 ad 47 3c f9 ce c0 3a
       -2.578688e-07 -0.0074088206 0.012187294 0.001471012
000060 bd 4f 78 bb 20 ff 2c 3d a7 75 09 bc bc 77 50 bd
       -0.0037889325 0.042235494 -0.008389867 -0.050895438
000070 c4 74 a1 3b 98 37 dd 3d 28 40 22 3b 9b fe b6 3b
       0.0049272496 0.10801619 0.0024757478 0.0055845506
000080 e9 ea 1b 3d 65 9b 08 bc 28 ba bf 3d c9 5f 05 36
       0.038065825 -0.00833783 0.09361678 1.9874299e-06
000090 62 d2 7f 3d 91 e8 9a 3d 66 4d 65 3c 3f ee 82 3d
       0.062456496 0.0756389 0.013995504 0.06393098
0000a0 e3 86 bc bb ef bb a0 bb af 1c 6c bd 44 94 1a bd
       -0.0057533844 -0.004905216 -0.057644542 -0.037739053
0000b0 be d2 ea 3b 95 12 47 bd 15 14 a1 bc e2 a0 a5 bc
       0.0071662357 -0.048601706 -0.019662896 -0.020218316
0000c0 da ab 92 3d 9b 12 5e 3c 06 7e 5b bd 09 bd c4 bb
       0.07161684 0.013554241 -0.053586982 -0.00600398
0000d0 d4 b0 13 bd cd ca c9 3d b3 0d ad bd 8e 87 1b bd
       -0.03605731 0.09853134 -0.084498785 -0.037971072
0000e0 d0 1f 55 bd 99 f6 14 bd 33 3b e0 bc 84 44 28 3d
       -0.052032292 -0.036367986 -0.027371978 0.041080967
0000f0 6c 83 6b 3d 34 80 6e ba d1 7b e9 b6 fb 3b b5 3d
       0.05749838 -0.0009098083 -6.9583552e-06 0.08849331
