AlphaZero_Gomoku/model/cnn/epoch_150.model (torch, 424769 bytes, 11 tensors)

layers.0.weight f4 [32, 4, 3, 3]
00000000: 46b9 e4be e85a 7f3d 3c1a 5bbe 6d16 cbbe
00000010: b330 b0be 35a1 ff3d ebac e3be 1ccd bd3c
00000020: ba8c c8be 026f 66bd 7964 223e 6abb 3cbf
00000030: 8667 633e f69e fbbe 700c d0be dcdb 85be
00000040: 7ce1 02bf 4ca2 8f3d bde4 573e e26c 55be
00000050: 9ed5 8ebd 3406 51bd 5650 9c3e f123 e53c
00000060: ba40 843e 4efc 8dbe ae7b b7be 9a76 043e
00000070: 95c1 c63d 0ca3 6dbe 8a1b 283e 02f6 c33d
00000080: 524e 4cbe 4c5d 8d3c 9b64 2f3e d26a ccbd
00000090: 9400 af3e 4385 a3bd c6f4 60be 3014 e2be
000000a0: 88e3 9dbd 7f68 e63d 9529 c8bd 0c91 d43d
000000b0: e74c 823d 71c9 f9bd bc9d ec3e dd2f 743e
000000c0: fd9a 493d a48a 11bd f789 a4be 469a 63be
000000d0: 238a 1abf 1dfc d4be 6f97 b6bd 8817 8dbe
000000e0: fcbc 05be 7f7a 183d 8ab7 4a3e cd71 763e
000000f0: 5fca 3d3e 2d94 03be 56ab f13c dba0 b3bd
00000100: c65c 27bc a9d2 393e 88cc 18bd c577 793d
00000110: 8696 003e d163 cebe d226 64be bf27 3ebe
00000120: f22f 10be 9a5a 963e b830 6a3e e888 b6be
00000130: fba1 6cbf 007a 803e 3621 7e3e 3bba 043f
00000140: a9d8 963d 649f 353e 881e 563e fa99 85be
00000150: c9ae 8c3c 23cb 423c 8403 aabe ddda fabe
00000160: 958e 85bd 3a87 0abf bf9c acbe 2e53 2b3e
00000170: 837c 2c3e 0863 8c3e 4faf c2bd 055a 093d
00000180: f309 80bd 6664 a4bb 2f4f 0c3e e688 153e
00000190: 61b9 bdbb e4e6 873e baa0 12be 7a51 e73d
000001a0: 929f 503e f2a4 52be d92c 48be 81a2 fc3c
000001b0: 40df b13e 51ea f5be f0a7 15be d60b 2a3e
000001c0: c479 04bf 7317 8ebe ec33 2bbe f094 933e
000001d0: 25f6 b8bd 14bc 203e d491 6e3e 852d 04bd
000001e0: 8a8e 34bf fcc2 703d 4a6e 9fbe 8610 e3be
000001f0: d488 01bf 8088 05bf 9dd8 75bc b0b7 193d
00000200: 8015 c4be 8e00 a3be 87f9 51be 2bac 783e
00000210: ca90 e53c d30e 76be f095 76be 06a5 093e
00000220: 5ec3 4c3e 5cfd 353d f00b 90bd c339 e53d
00000230: 1da6 c5bd 92e9 8a3d 047e 8a3d 9893 85bd
00000240: 16dc 483e 886f 533e bf9e c33e 11a0 8b3e
00000250: ac6d a83d f07e 41be 73c7 3cbf 8b39 58be
00000260: e2c2 053e a88d 1b3e 1108 d7bc dfb1 cb3e
00000270: a655 c9bd 544a 6cbe b143 8d3e ac6c bfbe
00000280: a9df 24bf 2227 12be 0eb9 6abe 6d38 ee3c
00000290: e1b1 d63e 9337 0cbe 90b8 253a 2944 99be
000002a0: cb52 b63d 4476 27be 907b c23d 9373 b63d
000002b0: 37be e93d 6a92 85be 7bfd ca3d e4d6 96bd
000002c0: 8dd3 87be f5b8 21be cf82 c43d fa6d 8ebe
000002d0: 4697 f8bc 6168 ee3b cee2 b0bd 51c2 9bbc
000002e0: e163 463e b3bb 2fbd b616 9ebe 3ff0 453e
000002f0: 816b 41bf 0591 94be c227 75be 92e9 11bd
00000300: 30c1 c5bd f1ee 8fbe e627 053f 7a19 263e
00000310: 4bad 463d 574b eebe 5b40 96bd d104 023c
00000320: 6bc2 7cbe 9482 77bc ef9b 153f 25da 4cbe
00000330: 4570 47be e222 aabd 50d7 43be 22ec 863d
00000340: 2714 7bbe 2619 253e 469f 013e dd2e 4fbe
00000350: 8006 2b3c 6856 db3c 5cc8 453d 1409 653d
00000360: 6479 243d d064 9fbe 22e9 80be 075e 36bf
00000370: 5d86 2abe e93f c33e 7210 123f 6c9f d6bd
00000380: d58e 353d 4849 98be 872d c13c 10c6 69be
00000390: ec6b a5bc a8f8 4c3d 9720 9fbd 4e80 be3e
000003a0: 9cc6 5b3e 0078 1bbd d114 003e c870 1fbe
000003b0: 626d 13bd 3f8f 333c 54bb b5bd ce3e 883d
000003c0: 3a26 203e 9064 23be 763a 263d 501b 07be
000003d0: 88bf 39be c1ce c7bd 386e 28bd ddd2 30bd
000003e0: 7d3b d4bd b57c 6bbd 2ac6 a0bd 868a 0fbd
000003f0: c00a 2abc bdac 09bf e17e 953e afad 94be
-0.44672602 0.062342554 -0.21396726 -0.39665547 -0.34412155 0.1248192 -0.44467863 0.023169093
-0.39169866 -0.05625821 0.1585864 -0.7372347 0.2220746 -0.49144715 -0.4063449 -0.26144302
-0.5112531 0.070133775 0.2108335 -0.20842317 -0.06974338 -0.051031306 0.3053004 0.02797124
0.25830632 -0.27731556 -0.35836548 0.12935868 0.097048916 -0.23206729 0.16416755 0.09568407
-0.19951752 0.017256401 0.17128222 -0.09981312 0.3418013 -0.07984402 -0.21968374 -0.44156027
-0.07709414 0.112504 -0.09773556 0.10379228 0.06362324 -0.12196625 0.46214092 0.23846383
0.049220074 -0.03553261 -0.3213651 -0.2222682 -0.6036703 -0.41598597 -0.089156024 -0.27557015
-0.13060373 0.037226196 0.19796577 0.24066849 0.1853423 -0.12849493 0.029500645 -0.08770915
-0.01021499 0.18146767 -0.03730443 0.060905237 0.1255742 -0.4031053 -0.22280434 -0.1856985
-0.1408079 0.29365999 0.22870147 -0.35651326 -0.9243466 0.2509308 0.24817356 0.51846665
0.073655434 0.17736584 0.20910084 -0.26094037 0.017173188 0.011889252 -0.33205807 -0.48995104
-0.06521336 -0.5411259 -0.33713338 0.1673095 0.16844372 0.27419305 -0.09506094 0.033533115
-0.06251898 -0.0050168512 0.13702081 0.14603004 -0.005789921 0.26543343 -0.14319125 0.11294837
0.20373371 -0.20570734 -0.19548358 0.030839207 0.3474064 -0.48030332 -0.14614844 0.16606078
-0.517483 -0.27752265 -0.16719025 0.28824568 -0.09031323 0.15696746 0.23297817 -0.032269973
-0.7053 0.0587797 -0.3113883 -0.44348544 -0.5059941 -0.5216141 -0.015005258 0.037528694
-0.38297653 -0.3183636 -0.20505343 0.24284427 0.028023142 -0.24029092 -0.24080634 0.13441858
0.19996402 0.044431075 -0.07033527 0.11192658 -0.09650824 0.06782831 0.06762317 -0.06522292
0.19615206 0.20648015 0.3820705 0.27270558 0.08224043 -0.18896079 -0.73741835 -0.21115701
0.13062623 0.15190756 -0.026248964 0.39784142 -0.09830789 -0.23075229 0.27590707 -0.37387598
-0.6440378 -0.1427274 -0.22922155 0.02907964 0.41932586 -0.13693075 0.00063217524 -0.29934815
0.0890251 -0.16353709 0.09496224 0.08908763 0.11413234 -0.26088268 0.09911629 -0.07365206
-0.26528588 -0.15793212 0.09595262 -0.2781828 -0.03034557 0.0072756265 -0.086370096 -0.019013556
0.19374038 -0.042903613 -0.30876702 0.19329928 -0.7555466 -0.2901689 -0.23940948 -0.03562314
-0.09655988 -0.28111985 0.52014005 0.16220656 0.04850511 -0.46541855 -0.073364936 0.007935719
-0.2468354 -0.015106816 0.5844106 -0.2000509 -0.19476421 -0.083074346 -0.19125104 0.065880075
-0.24519406 0.16122875 0.12658414 -0.2023272 0.010438561 0.0267746 0.04828678 0.05591686
0.04015483 -0.311316 -0.25177866 -0.71237224 -0.16652818 0.38134697 0.57056344 -0.10479626
0.04432567 -0.2974341 0.02358128 -0.22829461 -0.020193063 0.050041825 -0.07769888 0.37207264
0.21462482 -0.037956238 0.12507941 -0.15570366 -0.035992987 0.0109594455 -0.08873621 0.06652604
0.15639582 -0.1595633 0.040583096 -0.13194013 -0.1813947 -0.09756232 -0.041120738 -0.043169845
-0.10362909 -0.057491977 -0.07850297 -0.035044216 -0.01037854 -0.537792 0.29198363 -0.2903876

layers.1.weight f4 [64, 32, 3, 3]
00000000: 4549 60be 449b c33d d837 903c 82db cebd
00000010: e0d7 4ebd 0d96 4d3d be29 553b b5af b03e
00000020: 4706 d23d 1020 9d3d 0eac ed3d 03fc 8ebd
00000030: c665 ef3d 11b2 85be aaae 96bd 5b8f e6bc
00000040: 2e5a 12be 4fc5 59be 7d24 783e f504 3bbd
00000050: f3e1 eabe a82f 03bf a37e acbe b140 e1be
00000060: a037 95be 5775 85be 8bd6 ccbe 733f 003d
00000070: fd33 9e3d a6b5 8cbd 2ad2 893d 1dca e03c
00000080: e361 833d 5dcf d4be 9fda 073e 973b c2bd
00000090: d15a 6c3e b1b3 ad3d 0fd8 11be 88f9 afbe
000000a0: ad00 2e3d 2bef 4bbe 588d 08be 65eb 5fbd
000000b0: 6ba5 ef3c 4b5c 4d3e b4e5 66bd 9ca6 f0bd
000000c0: d003 193e fe11 8ebd ea5d 7ebe 94f1 a03e
000000d0: cd2b 3dbd 8597 98bb 27c2 18be ebe7 a7bd
000000e0: b666 02be ceaf f1bd 4907 373d b85d 58bd
000000f0: e9b5 b93d 5a4c f0bd 1fce 0cbd f283 f5bd
00000100: 4a33 f83d 3055 41be 6b73 033d 3033 cabd
00000110: b597 83be 277f 6cbd 49d3 b7bd f4d6 1c3d
00000120: 7a21 2fbd b203 953e 40d0 e83c 0216 043e
00000130: c94c 41be ebad 47be 6709 2abe a85e c3bc
00000140: c38f 03bd a798 6b3e d477 4ebe 6ba5 d2be
00000150: 0f70 2cbd a2d1 07bd e196 e7be dafb 273e
00000160: b48c 933d 8dd0 bfbe e548 0bbe e215 adbe
00000170: 1639 a2bd 49f6 3ebe b1ef 86be 0f56 33be
00000180: 8985 dfbd e3b8 44bd ff1b 3bbe 0b2a b6be
00000190: 5194 9ebd 643d 89bb 6ae4 80be 97a9 85bd
000001a0: d395 4ebe 0a8c 9fbd 0acd a7bd 6267 49bd
000001b0: 9445 a8bd 6cae f8bc 23cb d0bd 0b3f 8cbd
000001c0: 1a03 5ebd a91a d7bd 47ab 3b3e 5bc5 f3bd
000001d0: 0907 4ebd 3d1d 3b3d 8e0c a4be ee64 d2bc
000001e0: 304c e1bc b542 9f3d 8030 0bbe 8d91 b5be
000001f0: 6f28 14be 9658 1cbe 8424 f4bd 2cc2 2b3e
00000200: 0c07 1bbe 169c b0bd a9fd aabd 2978 ccbd
00000210: 6246 42bd ff50 d9bd 540f 0fbd 9cfa 9a3d
00000220: 15e6 d23d a6fa b7bd cb06 35be 3cfd e1bd
00000230: 8f89 f03c 4905 01bf 604f aabd f511 bbbd
00000240: a156 203d c394 a03d c9c7 9dbd 2ff9 083b
00000250: b110 b1bc d774 15be 109c fc3d 4ba7 933e
00000260: e9b6 893d c83d 693c 33e8 81bd 5120 abbd
00000270: 7abc 42be 39bf 88be e2f1 773c ac80 55be
00000280: 54af 93be 699b 78bd 9d4d bcbe fab1 f3be
00000290: cdf2 41be 48f9 38be e111 b1bd abf2 8bbd
000002a0: 303d d4bc 6926 bb3d 325f 613e 9e86 8a3e
000002b0: 2902 11bd 8cae eebd 8e49 92be a658 f0bd
000002c0: 3bf6 85be e101 51be 9219 74be 0810 98be
000002d0: 7773 d03e 96d5 133d 9bed b7be e0ec d63d
000002e0: e4ee 00bf 358a 11be 2d8b 4b3e d957 c63e
000002f0: feef 253d 1190 b33e 488d 193d 4425 3d3d
00000300: 4f08 4cbe 6cde 8fbe 3059 b3be 957a 5bbe
00000310: 9945 2e3e 8735 47be 9d38 96bd f99b 35be
00000320: 00a8 04be 6f12 5fbe b470 92be 4208 25be
00000330: 583d 253d 65f4 24be f03a cebd 8eb7 79bd
00000340: 654c f4bd dd51 c5bd c900 ab3e 7d65 c1be
00000350: 4858 76be 27c3 cbbd 61f2 92be 9baf ce3d
00000360: 7c0d 973d 46b8 02be 8e17 a7be 4d20 15be
00000370: 644c 41be a883 d6be a548 87bd c107 14bd
00000380: 4618 cdbe c855 25be 4210 a13d 7c89 2abe
00000390: 3e2f 023e a732 abbe 5d59 2cbe f3f2 e53e
000003a0: 45b7 703e 9d90 dabe 9c17 a73e ab14 a3bc
000003b0: 06d7 97be 8f87 b4bb ba4d e0be d40b 62be
000003c0: 73ed 48be 9e0d a4be 51e3 183d 80a0 cfb9
000003d0: a48a 8abe 24a1 6ebe 24ca f53d afb2 413c
000003e0: 857a dfbd 74d2 a7be f2e1 5dbe a4af 14bf
000003f0: 5fe7 20bd 8f2b 29be a964 6ebd 287d 223e
-0.2190295 0.09551099 0.017604753 -0.101004615 -0.050498843 0.050191928 0.00325261 0.34509054
0.102551036 0.07672131 0.116050825 -0.06981661 0.116893336 -0.26112416 -0.07357533 -0.02814453
-0.14292213 -0.21266674 0.24232669 -0.045659024 -0.4587551 -0.5124459 -0.33690366 -0.43994668
-0.29144 -0.26066086 -0.40007433 0.03131051 0.0772476 -0.06870584 0.06729539 0.027440125
0.06415155 -0.41564456 0.13266991 -0.09484022 0.23081519 0.08481539 -0.14242576 -0.34370065
0.042481113 -0.19915454 -0.13335168 -0.05466785 0.029253682 0.20054738 -0.056371406 -0.11750528
0.1494286 -0.069370255 -0.24840513 0.3143431 -0.04618435 -0.0046567344 -0.14917813 -0.08198532
-0.12734494 -0.1180111 0.044684682 -0.052823752 0.090679 -0.11733313 -0.03437626 -0.11988057
0.121191576 -0.18880153 0.032092493 -0.098730445 -0.2570168 -0.05773845 -0.08975846 0.038290933
-0.042756535 0.29104382 0.028419614 0.1289902 -0.18876947 -0.19499938 -0.16605149 -0.023848847
-0.032119524 0.23007451 -0.20162898 -0.4114183 -0.042099055 -0.033158906 -0.452323 0.16404667
0.07204571 -0.374638 -0.13602026 -0.33805758 -0.079210445 -0.18648638 -0.26354745 -0.17513297
-0.10914142 -0.048027884 -0.18272398 -0.3557895 -0.07743133 -0.0041882265 -0.25174266 -0.06526487
-0.20174341 -0.07790382 -0.08193405 -0.04917086 -0.08216396 -0.030356608 -0.10194995 -0.06847962
-0.054202177 -0.10503132 0.18327056 -0.11902877 -0.050299678 0.04568218 -0.32040828 -0.025682893
-0.02750215 0.07776395 -0.1359272 -0.3546261 -0.14468549 -0.15268168 -0.11921027 0.1677329
-0.15139407 -0.08623521 -0.08349163 -0.09983856 -0.047430404 -0.10611152 -0.034926727 0.07567331
0.10297791 -0.08983354 -0.17678373 -0.11034629 0.029362468 -0.5039869 -0.08315921 -0.091342844
0.039145116 0.07840874 -0.077041216 0.0020900478 -0.021614404 -0.14595352 0.12334454 0.28838572
0.067243405 0.014235921 -0.063431166 -0.08355773 -0.1901721 -0.2670839 0.015133353 -0.20849866
-0.28844702 -0.060695086 -0.36777964 -0.47596723 -0.18940277 -0.18063843 -0.08645988 -0.068333946
-0.025908083 0.091381855 0.2200897 0.2705583 -0.03540245 -0.11654386 -0.28571743 -0.11735658
-0.2616442 -0.20410873 -0.2383788 -0.2969973 0.40713093 0.036092363 -0.35923466 0.10494399
-0.5036452 -0.14212878 0.1987731 0.38738897 0.040512078 0.3507085 0.037488252 0.046178117
-0.19925044 -0.28099382 -0.35028982 -0.2143348 0.17018737 -0.19454013 -0.07335017 -0.1773528
-0.12954712 -0.21784376 -0.2860161 -0.16116431 0.040341705 -0.16108854 -0.10069835 -0.060966067
-0.119286336 -0.09634755 0.33399037 -0.37772742 -0.24057114 -0.09949332 -0.28700545 0.10092088
0.07375619 -0.12765607 -0.32635158 -0.14563103 -0.18876797 -0.4189732 -0.06605653 -0.036140207
-0.40057582 -0.16146004 0.07864429 -0.16654009 0.12713334 -0.33437082 -0.16830964 0.44911918
0.23507412 -0.42688456 0.326352 -0.019907316 -0.29656237 -0.005509324 -0.438093 -0.22074825
-0.1962183 -0.3204164 0.03732616 -0.00039601699 -0.270589 -0.23303658 0.12001446 0.011822387
-0.109120406 -0.3277775 -0.21668223 -0.58080506 -0.039283153 -0.16520523 -0.058201466 0.15868056

layers.2.weight f4 [128, 64, 3, 3]
00000000: c3f9 e7be 9454 79be f481 8fbb 2b2d 28be
00000010: 6735 28be 58b2 1a3f 02a8 0cbe 4aae 383b
00000020: 5dda 41be 104b 093b ddb9 cabe ad1a 993e
00000030: 8224 7cbe 47cc 86be b0d4 fd3e f4b7 5ebd
00000040: 740d abbe 1071 363e 1f48 0fbe 7d60 013d
00000050: 9573 a03d 9229 d03d 394b 2abd 3b70 46be
00000060: 5073 3cbf 1211 89bd c4b9 263e 04f8 83ad
00000070: 9f26 05af 1c6c c62f 2244 a3b4 2ee2 1fb2
00000080: 5ca9 e9b0 e72c 61ae dafc dfa4 7a0e 80ae
00000090: 9cf8 f43d fd7f aa3e fd9f 52be e2fb 3c3b
000000a0: cf56 2ebe 0e2f 763e 85f2 0a3d 629a 9dbe
000000b0: 583a c0bd 2d27 1f3d c6cf 0bbd ab70 8c3e
000000c0: d15b 0abe 22b0 e23d 0f37 bfbe b93f 703d
000000d0: a719 b8bd 6dd4 83be c7f2 723e 792d 913e
000000e0: 742f 993e b378 27bd ac03 93be fe00 d53b
000000f0: f448 7bbe 5a76 573e f324 be3d 80d0 01bd
00000100: 036d e13e 2429 363e ab27 18be 1561 01bd
00000110: b6c3 96bc ddee 09bf 7a67 91bd 44c2 bcbe
00000120: 6639 11be 0af8 87be da87 8d3c 429c d6bd
00000130: e70c fcbc c1cb c0be 84de 553e 1483 063a
00000140: ca52 82be eec6 b03c 3f8f 593e a751 60be
00000150: 40ce 09be a6cf 2b3d c4b2 133d 3f51 333c
00000160: 7163 0a3e e441 e6bd 6efd 823d 7ebe bdbe
00000170: 209b 253d a028 88be c74f e4bd 9727 1abe
00000180: 8cc4 adbd c91b 513e 9321 373d 3d6d 823e
00000190: e0db af3e 78fd cb3e d0f7 8e3d 856f 483e
000001a0: 26e4 8e3e 8c60 58bd 5453 8fbd 9a99 333b
000001b0: 003d b9bd f344 743e 6c69 233c 9cde 413e
000001c0: 4429 0ebe 995e e1bc 6e53 82bd 4e03 f13d
000001d0: fbcf 343e eab0 5a3d 4f70 3e3e 4676 8b3d
000001e0: 1657 a1be 47e1 a73d b605 253b 204e 3ebe
000001f0: 7504 41be 2693 033d 6e57 083d d083 35bc
00000200: bd61 433e bc61 dd3c ccee 31bd a647 7abd
00000210: 9636 23ba 1884 47bd bc1d 67bd c127 a63d
00000220: 8d65 213e f5c6 333e c396 023e 4858 94be
00000230: bdd6 d93d 5f0a e1be 22b7 dc3c 58cd 16be
00000240: 7f92 c1bd 30fb 83bd 01fd b8be 58f8 9f3d
00000250: 6ae8 ccbd 8d74 70bd 0e53 e6bd ec9f a8bd
00000260: c3b9 28be 1a95 12bf 5bc4 f33d c322 20bf
00000270: 6cd6 fb3d 95b9 93bd 15da d1bd 2e3b 0fbe
00000280: 5f22 e8be b5a7 ba3c 4de1 123e b16e 6dbe
00000290: 847c 253e 21ba 883d c097 4abd 5e59 0b3e
000002a0: 2a80 a73e 58cd 143d 879e 8f3e 86c6 7ebe
000002b0: 47c5 3f3e 863c 873c 9fd5 1a3e f7a6 89be
000002c0: 2de8 f93e 1dd4 24be f9ab a3be 7080 223e
000002d0: fd58 acbd fb96 9fbe 982b fb3d 901f b6be
000002e0: af3d 8d3b f598 b2be a0f6 b8be ce2d 573d
000002f0: 778c b9be b568 42bd 9bae 2dbe e82c cabd
00000300: 4ee2 823e dc06 1bbe a9ca 1ebe ad90 00bf
00000310: 8c7b 9ebd a208 64be 9910 aebe e3af babd
00000320: 560c 88bd 7b3f 63be 81ef 133f 1d9e 09be
00000330: 1632 00be a6a4 02bd 1f41 cebe b4bb 953d
00000340: befc 5abe 2e16 d73c 8ebd a03d 4831 933e
00000350: 4272 2ebd 9b85 86bc 53bc 18be e3a9 8c3d
00000360: 4688 cc3e a722 3e3e 2ccf da3e 25ff 4d3e
00000370: 83f4 213e 1737 ec3e 7034 c0bc 2725 65be
00000380: 4d64 203e a69f b93b c35d 2a3e 0388 cbbd
00000390: 1c5d 973e b080 7d3d af71 ea3d 3ae1 f23d
000003a0: 0838 6bbe be70 a2bd c373 8c3d 6d1e 153e
000003b0: 2b8a 093f 52de 003e 0a5f 4a3e bcc3 343e
000003c0: ee4e be3d 78dd 84be 3d8b 4b3d 0975 463c
000003d0: 90f9 8ebd 1f04 0b3e 2750 7a3e df95 11bf
000003e0: 404d fdbe 0ad8 98be 41f0 f4bb 27c8 32bd
000003f0: 2a9c f93e 9001 2cbc 51d4 5bbe dca6 1abe
-0.4530774 -0.2434867 -0.0043795053 -0.1642348 -0.16426621 0.6042838 -0.13735965 0.0028180056
-0.18930955 0.0020949282 -0.39594927 0.29903165 -0.24623302 -0.26327726 0.4957633 -0.05437465
-0.334087 0.17816567 -0.13992356 0.03158616 0.078345455 0.10164179 -0.041575644 -0.1937875
-0.7361345 -0.06692709 0.16281801 -1.5003117e-11 -1.211e-10 3.6092807e-10 -3.041069e-07 -9.306445e-09
-1.7001116e-09 -5.119896e-11 -9.713918e-17 -5.8233376e-11 0.11961481 0.33300772 -0.20568843 0.0028836657
-0.17025302 0.24041387 0.03392269 -0.30781847 -0.09386128 0.03885572 -0.034133695 0.2742971
-0.13511588 0.11068751 -0.37346694 0.05865452 -0.08989268 -0.25748006 0.23725425 0.28355005
0.29919016 -0.040886592 -0.2871374 0.0065003624 -0.24539548 0.21041241 0.09284391 -0.03169298
0.44028482 0.17789131 -0.14858882 -0.031586725 -0.01840387 -0.538801 -0.07099815 -0.36866963
-0.14182052 -0.26556426 0.017276693 -0.104790226 -0.030767871 -0.37655452 0.20885664 0.00051312265
-0.25453788 0.021579232 0.2124605 -0.21906148 -0.13457584 0.041946076 0.036059156 0.010944664
0.13514496 -0.112430364 0.06395994 -0.37059397 0.04043114 -0.26593494 -0.11148029 -0.15054165
-0.08484754 0.20420755 0.044709753 0.25473967 0.3434744 0.3984182 0.0698086 0.19573791
0.27908438 -0.05282645 -0.069983155 0.0027404786 -0.09044838 0.23854427 0.009973865 0.18932575
-0.13882929 -0.027510928 -0.06363569 0.117682084 0.17657463 0.053391375 0.1859753 0.06809668
-0.31511754 0.08197265 0.0025180406 -0.1858449 -0.18849356 0.032122754 0.033286504 -0.01107879
0.19080253 0.027024142 -0.043440625 -0.061103486 -0.00062260905 -0.04870996 -0.05642484 0.08113051
0.15761395 0.17556365 0.12752824 -0.28973603 0.10636661 -0.43953225 0.026942793 -0.1472677
-0.0945177 -0.064443946 -0.36130527 0.0781104 -0.10005267 -0.0587049 -0.1124631 -0.08233628
-0.16477112 -0.5725876 0.11902686 -0.6255304 0.12296757 -0.07213131 -0.10246674 -0.13987419
-0.45338723 0.022785047 0.14343758 -0.23186757 0.1616078 0.06676126 -0.049461126 0.1360831
0.3271497 0.036328644 0.28050634 -0.24880418 0.18727599 0.016508352 0.15120552 -0.26885197
0.4880995 -0.1609654 -0.31967142 0.15869308 -0.08415411 -0.31169876 0.12264174 -0.35570955
0.004310332 -0.34882322 -0.3612566 0.052533917 -0.3623998 -0.047463138 -0.16961138 -0.098718464
0.25563282 -0.15139335 -0.15506996 -0.5022076 -0.077384084 -0.22268918 -0.33997038 -0.09115579
-0.06642978 -0.22192185 0.5778733 -0.13439222 -0.12519106 -0.031895302 -0.40284058 0.07311192
-0.21385476 0.026255693 0.07848655 0.28748536 -0.042589433 -0.01642113 -0.1491559 0.06868341
0.39947718 0.18567906 0.42736185 0.20116861 0.1581593 0.4613578 -0.023462504 -0.22377454
0.15663262 0.0056647835 0.1663733 -0.099380516 0.29563224 0.061890304 0.11447465 0.11859365
-0.22970593 -0.0793166 0.06858017 0.14562388 0.5372645 0.12584808 0.19762817 0.17652792
0.092923984 -0.25950217 0.049693335 0.012112864 -0.06981194 0.13575791 0.24444638 -0.5686931
-0.49473 -0.29852325 -0.0074749296 -0.04364791 0.48751956 -0.010498419 -0.21467711 -0.15102714

layers.3.weight f4 [2, 128, 1, 1]
00000000: bc31 4ebe 17b9 bfbe 920d febd 8fb5 d63c
00000010: dcfd 1a3e 1603 2b3d b304 d33d 08ce 8a3d
00000020: e033 8abd c743 febe 50ce 313d 6f30 0ebf
00000030: 634d 33be f998 ba3c d01c ecba baaf ecbe
00000040: aa03 9cbd eb85 0a3d 000a a03c 2e29 8b3d
00000050: cf19 e23c c62e b0be cad9 4c3d f8be 133a
00000060: 9ff3 70be 2036 b83c ecaf 27be 2ae9 153e
00000070: 2cee 4b3c e943 4e3d c2e0 a7be 7766 50be
00000080: 8a31 5dbb 3116 dfbc 2cd1 fb3c c4c3 4e3d
00000090: 9277 03bf 25bd bd3c 7b46 16be 50dd 8dbe
000000a0: 3397 843d 06cf 48bd 10b0 40bf a652 ed3c
000000b0: 0695 69bd 510e 7c3d 8979 bfbe 2a2d 86bc
000000c0: 2c9b 6ebd 2aea 29bd 7238 e2bd adbb d6bd
000000d0: 01dd 25bf 7086 a4be a7b4 3bbf eda7 12be
000000e0: 5268 3f3c 38b4 e43d 234c d0bb dfac 73bc
000000f0: 1a46 3ebd 1c91 b5be 8fc6 02be 5475 c3bd
00000100: 41ee ab3d 2ce1 c9bd ca1a 11bd f694 9c3d
00000110: 6536 0c3d f592 a33c f015 663a a1a7 023d
00000120: 0a4d fdbc 083e 763d bdcc a23e 8853 08be
00000130: 70d9 a5be 9841 48be 136d a8be c304 273d
00000140: 87fa 10bf e55f f43c 932e 813a 1c19 a2be
00000150: 1d2f 0abf c992 7c3c 306b a3be 06fa 2bbf
00000160: b012 dc3d 3b0c 613d 054b 6c3d ad67 4abd
00000170: d71a dc3d 192d bc3d 2c00 583c 6e87 7d3c
00000180: 70f3 a3bd f5e1 1d3d c46d 0dbf 3cc3 c0be
00000190: fe28 073c c529 a7be 17c1 a4be d1d7 b03d
000001a0: 569c a23b 1efe ba3d 0c87 e8bc eae1 a2be
000001b0: 6fa3 bebd bfbc 123d c8aa 863e 7968 a8be
000001c0: 7311 463d 12cc 0d3d 3134 40be 8a30 2a3e
000001d0: 04d1 11bc 097a 04be 3124 313d 7445 503c
000001e0: 80f7 82bd 05a5 533d ecd2 adbb bad9 b8bc
000001f0: 73b5 c83d 4d51 bbbd 2e5e fb3c ad2b 073e
00000200: aee0 8bbe 9fc2 9fbd 0fef bd3d 4a91 bf3b
00000210: c1d3 34be e800 283c 445a 01bf 45a4 623d
00000220: 5fbb 8cbe 2f63 e5bb a37b 213d 246f 963d
00000230: a7cb 9cbe 513f c03c 59ab fabe 1788 d03d
00000240: 7f98 493c 8810 493d 07b0 91be 3118 123d
00000250: c964 013c 2897 36be c7e9 81be 73f4 95be
00000260: ba9a 763e 2ce2 f1ba 81dd 06bf 6ac5 8d3d
00000270: 4539 dfba 06fd f0be f4cd 2f3e 46b2 e7be
00000280: 6ab3 80bd 22c0 e0bd e32e ac3d 5141 8cbe
00000290: 7739 2f3e f29d 91bd 6751 21be f851 a8be
000002a0: 1f73 74be 61ac 03bd a509 293c 5db7 7fbe
000002b0: 6661 7e3c 46b1 55be d610 8bbe d2e6 42be
000002c0: 9ade 54bd 2aad 443c a72c 14bd d491 ddbb
000002d0: 0570 d83c af5f 963d 5f9b 29bf 681c 7cbc
000002e0: a63a c2bd db50 8c3d b859 f73b 19e5 59be
000002f0: d25d e1bc 89da abbc a1b8 443d 0a5b 76be
00000300: 1a1c 02bd 1669 b7bc 009b 943d a445 aebe
00000310: d024 8938 6598 a8bc bf9c a53d 36df 073d
00000320: 43a7 dbbd f82f 683a ea5c afbd 643a 7cbe
00000330: ab52 a23d 295c b7be ef89 8dbb 15f9 9abe
00000340: 94c5 7b3d 0855 263d 64ac 01bc 71e4 853e
00000350: f4c1 af3d fe58 093d 20e2 9c3d 2045 e83d
00000360: 3c0a 29be 1261 c03d 3e1b 673d 6f8f a4bd
00000370: 341e aa3d 4d9a 8abe 5925 9bbe 646f 70be
00000380: 128c 9c3d 2872 c7be c8da 013e d1bf d33d
00000390: f404 163a 372f 2f3d 3e74 f43b 2e0f 68bd
000003a0: e32b 963d b07f 633d ae87 733c be83 433d
000003b0: fc22 debd 51a5 18bd a5d2 f5bd 5b98 1fbd
000003c0: d900 0e3e e62c 1c3d 804c 57be 36fc 0d3e
000003d0: d30f 74bd e60f 6bbe 074c 80be 9ca6 3abb
000003e0: fec4 393e a940 b2be fa7a 773c e27f 38bd
000003f0: 62e6 b6be 2335 5b3d ffb8 85be c899 d03b
-0.2013616 -0.374459 -0.12404932 0.02620962 0.15135902 0.04175099 0.10303631 0.067775786
-0.067481756 -0.49661085 0.043409646 -0.55542654 -0.1750999 0.022778021 -0.0018013958 -0.4622782
-0.07617886 0.03381912 0.019536018 0.06794964 0.027600197 -0.34410685 0.050012387 0.00056360615
-0.23530434 0.022486746 -0.16375703 0.14639726 0.012446921 0.050357733 -0.32788664 -0.20351587
-0.0033751451 -0.027232261 0.03073939 0.050479665 -0.51354325 0.02316148 -0.14675324 -0.2770791
0.064741515 -0.049025558 -0.7526865 0.028970074 -0.057026885 0.06153709 -0.3739741 -0.016378958
-0.058253452 -0.041483082 -0.11045922 -0.10485015 -0.6479035 -0.32133818 -0.7332253 -0.14321871
0.011682587 0.111671865 -0.0063567325 -0.014872759 -0.046453573 -0.35462272 -0.12771057 -0.09543863
0.08395053 -0.09857401 -0.03542594 0.076455995 0.034231562 0.019967536 0.00087770727 0.031898145
-0.030920524 0.06011775 0.31796828 -0.13313115 -0.32392454 -0.19556272 -0.32895717 0.040776026
-0.56632274 0.029830882 0.0009855799 -0.31659782 -0.5397814 0.015415856 -0.31917715 -0.6717838
0.10745752 0.054943305 0.05768873 -0.04941528 0.10747307 0.09188289 0.013183635 0.0154741835
-0.080054164 0.038545568 -0.55245614 -0.37648952 0.008249519 -0.32649055 -0.32178566 0.08634914
0.0049624844 0.091305 -0.028384708 -0.31812984 -0.09308516 0.035824534 0.2630217 -0.32892206
0.048356485 0.034618445 -0.1876991 0.16620079 -0.008899931 -0.12937178 0.043247405 0.012711871
-0.06394863 0.051671047 -0.005304685 -0.022564758 0.09800234 -0.09146366 0.030684557 0.13200255
-0.27319854 -0.07800793 0.092741124 0.005846177 -0.17658903 0.010254122 -0.5052836 0.05533244
-0.27486703 -0.007000349 0.03942455 0.07345417 -0.30624124 0.023467692 -0.48958853 0.10182207
0.012304424 0.04908803 -0.2845461 0.035667602 0.007897564 -0.17831099 -0.2537367 -0.29288062
0.24082461 -0.0018454245 -0.5268174 0.06922419 -0.0017030617 -0.47068042 0.17168409 -0.452532
-0.062842205 -0.109741464 0.084073804 -0.27393582 0.17111765 -0.07110204 -0.15753709 -0.32875037
-0.2387204 -0.032146815 0.010317241 -0.24972291 0.015526151 -0.20868406 -0.27161282 -0.19033363
-0.051970102 0.012004176 -0.036175396 -0.006761769 0.026420603 0.07342469 -0.662527 -0.015387632
-0.094838426 0.068513595 0.007548537 -0.212788 -0.027510557 -0.02097823 0.04802764 -0.24058166
-0.03176508 -0.022388976 0.072561264 -0.34037507 6.539526e-05 -0.02058048 0.080865376 0.033171855
-0.10725262 0.00088572456 -0.08562644 -0.2463165 0.07925924 -0.358125 -0.0043194215 -0.3026816
0.061467722 0.040608436 -0.007914636 0.2615085 0.085819155 0.033532135 0.076603174 0.113413095
-0.1650781 0.09393515 0.056422465 -0.0803517 0.08306542 -0.27070847 -0.30301932 -0.23479992
0.07643904 -0.38954282 0.12681115 0.103393205 0.0005722784 0.042769637 0.007460146 -0.0566551
0.073325895 0.055541694 0.0148638915 0.04773306 -0.108465165 -0.037267033 -0.12003068 -0.038963657
0.13867511 0.038128756 -0.21025276 0.13865742 -0.059585404 -0.22955284 -0.25058004 -0.0028480655
0.18141553 -0.34814957 0.0151050035 -0.045043834 -0.35722643 0.053517472 -0.26117703 0.0063659884

act_fc1.weight f4 [64, 72]
00000000: 0324 e0be 70b6 e93d c0de c7bd a4e9 81be
00000010: 3caa e3bc 3e0f 203d d0d5 e0be 2a8c 093d
00000020: cf45 6b3d 833c 47bf 7cb9 85bc e311 123e
00000030: f207 8ebe 3c1b dd3d 110f 59bd b18b 843d
00000040: 714f 073e 6b28 4bbe 4674 06bf 7ee7 84bd
00000050: c6b0 8ebe 8691 1f3e 03f5 313d a8e1 e23d
00000060: 8ca9 a03c b0cc 17bc 4030 7ebe b00a 0e3d
00000070: 34aa 1dbd 03de 523e d318 e13e 8675 f33d
00000080: b1e4 e3bc b803 893a 9bbe 56be 9af3 8b3d
00000090: 7f64 a2be 24da 57bd bdad 8e3e d899 a6be
000000a0: bcea b5be 15b9 b7bd a1ec 2f3e 646e 5d3e
000000b0: 1087 05bc 7a2f c73d 0572 8bbe 2281 75bd
000000c0: 1866 45be 368a cabd bf62 db3d 6fed 8ebd
000000d0: 2795 cf3d f567 45be 0c3c bebe 58bf 123e
000000e0: cb28 5fbd c80a cdbe 6c51 41be 023b abbd
000000f0: 8f84 8ebe 30b6 2bbd 034c 4b3c 183f a9be
00000100: 1cf0 893e 5fbf ad3c fa09 94be cd26 84be
00000110: a1ef 803e 917c 0ebe 1ce4 dbbe 0e8e f03c
00000120: d0ed 7abe 6382 9a3e 5d1a 61be 9a9f 3bbe
00000130: 8468 adbe ff11 88be 906d 21bd 8c62 4ebd
00000140: 6082 d9be f2bc 5c3e 2e7b 40be edbc 92be
00000150: a683 c6bd 821d d3bd 2d4b b0bb de68 2abe
00000160: 33f0 783d fad9 90be 7413 2dbe f2ba cfbd
00000170: a38d f0bd 6db8 ffbd bdf2 93bd d65a b7bc
00000180: cb77 20be f579 82bd e312 9fbe 27b8 67be
00000190: d22a aebd ee9b 18bd 80d3 b5bc b2f6 46be
000001a0: 8de7 a83e 2bfd 9abe 08b3 92be 6443 c83e
000001b0: e386 16bd 7034 a8be b6e6 2abe e37c adbd
000001c0: adf0 cdbd fd17 1f3c 6f21 cdbd 6d4e 83be
000001d0: ede0 91be 025a 87bd 7b7e 693e 681d 29be
000001e0: 7cb9 cebd 2177 a63c 3853 9abe 344b 26bd
000001f0: b628 a9be c256 a73d 499f b13d bff4 a0be
00000200: 2e12 3ebe f89d 02bf 2672 0c3e a518 8f3d
00000210: 1f7c 1fbe 91f9 25be 6bbe cbbe 7a76 cfbe
00000220: ae1f c8be 3568 89be 3ace 5a3d 46a2 aabe
00000230: 0d6e 24be 8335 f83b 40d1 1abe 2f9c 063e
00000240: ffca 15be 23d9 35be 2a8a 943e 42f0 323e
00000250: e98c 093e dafc a7bc 1296 c5bd 43ca 97bd
00000260: e972 9cbd 6168 7e3d 9ac0 95bd c960 483d
00000270: 32b9 203d fc85 c6bd a0ed 2cbe d88e 823e
00000280: ec0b 97bd 8362 63bd c87a cfbd 2efc d5bd
00000290: b6d0 d0bd 5b6f cf3d f120 25bd b12d ac3b
000002a0: 79f4 1abc 7e8b b43d d872 7cbe 6cb2 bdbd
000002b0: c1a5 81bd 3aaa db3d 5529 b0bd 3ef3 5ebd
000002c0: ac69 c5bc 4054 38be 6334 8ebe 6d41 bdbd
000002d0: 0cf9 5e3d dd70 35be 429b 64be 6944 0f3e
000002e0: 4fe3 373e 0e50 cd3c 7941 b1bd 7f46 723c
000002f0: 2e32 e73d c5d9 f83d feab 39bb 326e 80bd
00000300: 4116 4ebe 89d4 1e3e ff25 75bc 7421 95bd
00000310: 0d5f 84be 9209 2dbe 94b4 803c f096 cbbd
00000320: 3463 73be 1827 bebd 5a5f e1bb 46c0 be3c
00000330: f6ba c7bc 30fb debc badb f4bd 6f17 1ebe
00000340: 59dc d6bc 386a b73d 22f3 f93c 1600 92bb
00000350: 0989 46bc 6be6 c5bd c240 a7be 0bea 4b3e
00000360: 1b61 de3e b1a4 853d 17b8 543e e514 84bd
00000370: 6559 a13e ef86 8d3e e8b7 00bc ef4d 8e3d
00000380: 71c6 a23d ebac 643d 4c6b 073e 4df1 94be
00000390: 4abe 913e 11c7 cfbd 8d12 90be 864d 57bd
000003a0: 8495 693e 4f6d 973e 3d0d c63e 810b 203d
000003b0: 54f0 61be d8db 80be b926 9a3e a93f 44be
000003c0: 93e7 46be 27ac 10be 4efd 9cbe c1a0 80be
000003d0: a08b 07bf 3f5c 3abd 4cf6 f23d dffc 8fbe
000003e0: 1013 96be f79c 92be ca17 143f c35c cebd
000003f0: 17ac 68bc 1ed1 953e ac3a 16be d8f3 86be
-0.43777475 0.1141175 -0.09759283 -0.25373566 -0.027791135 0.039077036 -0.43913126 0.033580936
0.05743962 -0.7782671 -0.016323797 0.14264636 -0.27740437 0.1079621 -0.052992884 0.064719565
0.13213898 -0.19839637 -0.5252117 -0.06489466 -0.27869242 0.15582857 0.043446552 0.11078197
0.019612096 -0.00926511 -0.24823093 0.03467816 -0.038492396 0.20592503 0.43964252 0.1188765
-0.02781901 0.0010453379 -0.20971148 0.06833573 -0.31717297 -0.05269827 0.27866927 -0.32539248
-0.3553065 -0.089708485 0.1718011 0.21624142 -0.008149877 0.09725852 -0.27235427 -0.059937604
-0.19277227 -0.09889643 0.10712194 -0.069788806 0.101358704 -0.19277938 -0.37155187 0.14330804
-0.054482263 -0.40047288 -0.18878716 -0.08360864 -0.2783551 -0.041921794 0.012408259 -0.3305595
0.26941 0.021209417 -0.28913862 -0.25810853 0.25182822 -0.13914706 -0.4294747 0.029364612
-0.24504781 0.30177602 -0.21982713 -0.18322602 -0.33868802 -0.2657623 -0.039411128 -0.05038695
-0.4248228 0.21556452 -0.1879699 -0.28659764 -0.09693079 -0.103083625 -0.0053800554 -0.16641566
0.060775947 -0.28291303 -0.16901952 -0.10143079 -0.11745765 -0.12486348 -0.07224033 -0.022382181
-0.15670697 -0.06370918 -0.31069097 -0.22628842 -0.08504261 -0.03725808 -0.022195578 -0.19430044
0.3298916 -0.30271277 -0.28652215 0.39113915 -0.03674973 -0.32852507 -0.16689572 -0.08471086
-0.10055671 0.009710309 -0.100161426 -0.25645772 -0.28491917 -0.066089645 0.22802155 -0.16515124
-0.10093972 0.020320477 -0.30141616 -0.040599063 -0.33038872 0.081708446 0.08672959 -0.31436726
-0.18561623 -0.5102229 0.13715419 0.069871224 -0.15574692 -0.16208483 -0.39793715 -0.40520078
-0.3908667 -0.26837316 0.05341933 -0.3332693 -0.16057606 0.0075747385 -0.15118885 0.13145517
-0.14628218 -0.17758612 0.2901166 0.17474464 0.13432659 -0.020506311 -0.09647764 -0.07411625
-0.07639105 0.062111262 -0.073121265 0.048920427 0.039239116 -0.09693524 -0.16887522 0.25499606
-0.07375321 -0.05551387 -0.101308405 -0.1044849 -0.101960585 0.10128661 -0.04031462 0.0052544703
-0.009457701 0.088156685 -0.24653184 -0.09262547 -0.06330443 0.107258275 -0.086016335 -0.054431193
-0.02409824 -0.18000889 -0.27774343 -0.092409946 0.05443673 -0.17718835 -0.22324851 0.1399094
0.17957805 0.025062587 -0.08655066 0.014787315 0.11288868 0.12150911 -0.0028331275 -0.06271018
-0.20125677 0.15510763 -0.014962672 -0.07281771 -0.25853768 -0.16898182 0.015711106 -0.099408984
-0.23768312 -0.092848 -0.006877822 0.023285042 -0.024381142 -0.027219385 -0.11955972 -0.15438627
-0.026228117 0.089558065 0.030511443 -0.0044555767 -0.012117633 -0.09663089 -0.32666594 0.19913499
0.4343346 0.06525553 0.2077335 -0.06449298 0.31513515 0.2764201 -0.007856347 0.069484584
0.07948006 0.05582897 0.13224524 -0.29090348 0.28465492 -0.10145391 -0.28139153 -0.052564166
0.22810942 0.29575583 0.38681975 0.03907347 -0.22064334 -0.25167727 0.30107668 -0.1916491
-0.19424276 -0.14128171 -0.30662006 -0.25122645 -0.52947426 -0.04549813 0.11863384 -0.28122613
-0.2931142 -0.2863538 0.578488 -0.10076287 -0.014201186 0.29261106 -0.14670819 -0.26357913

act_fc1.bias f4 [64]
00000000: 9661 563f efee fcbe 1aa4 5fbe b4d2 99be
00000010: a82e 14be 2fe7 00bd d509 edbe 55f9 43be
00000020: 62ab 71be 3ae3 91be 40a5 8ebe c509 3abe
00000030: 446f 9bbe dd16 a9bd 57e3 f43d f9b1 a93e
00000040: f4ed c7be c950 f13e f7b8 373e 2692 b63d
00000050: 767e 6cbe c0ed 6cbe 0852 52be 2d6b 403e
00000060: 5a9a 58be 3dec ca3c 44cb 0abf 80a2 bdbe
00000070: 058b b6be d33b f6be 2964 b9be 8359 4e3f
00000080: 7fa4 bfbe 573b 69be a014 21be 659c 37be
00000090: 84d7 a23e aa25 afbe 035a 0c3f 932d 5a3e
000000a0: 7540 ae3e 80a9 07bf 2a7e bcbe b6e2 12be
000000b0: 5b59 36be f601 743d 164e 1ebf 2426 20bf
000000c0: 518b a0be e847 93be 061b f1be 7cea c33e
000000d0: 739e e6be 193c 92be 09dd 81be 0b08 80be
000000e0: c383 4d3f 8356 ffbe 18b8 133f dc96 acbe
000000f0: f11c e93e e1e2 e4bd 652c a1be 8540 83bd
0.83742654 -0.49401042 -0.21839944 -0.30043566 -0.14470923 -0.031470474 -0.46296564 -0.19138081
-0.23600534 -0.28493673 -0.2786045 -0.1816779 -0.30358326 -0.08256314 0.11957424 0.33143595
-0.3904873 0.47131947 0.17941652 0.08914594 -0.23095116 -0.2313757 -0.20539105 0.18790884
-0.2115263 0.02477085 -0.5421641 -0.3703804 -0.35652938 -0.48092517 -0.3620923 0.80605334
-0.37430188 -0.22776543 -0.15730524 -0.17930754 0.3180505 -0.34208423 0.54824847 0.21306448
0.34033552 -0.5299301 -0.36815006 -0.14344296 -0.17807524 0.059572183 -0.618379 -0.625582
-0.3135629 -0.28765798 -0.4709093 0.38264835 -0.45042762 -0.28561476 -0.2536395 -0.25006136
0.8027918 -0.4987069 0.5770278 -0.33708847 0.45529893 -0.11176086 -0.31479183 -0.064087905

act_fc2.weight f4 [36, 64]
00000000: 56b3 debe 4f16 b33e d31b b93c 86c0 babd
00000010: 5fd2 9abd d581 73b9 62a2 c63e ab4b c1bc
00000020: d6da 6fbd cdfa 223c 1234 9dbe 9886 2abe
00000030: 7744 d0bb cf6c 14be d693 a33c 4f7a 43be
00000040: 56ae 803e 6522 0ebe 8a80 17be b478 d83d
00000050: 103f ccbd d387 8abd 91ec 18bd 0c17 d6bc
00000060: 655b 663e dd56 1cbe 5621 88be 094b a3bd
00000070: d2c4 6d3d 473c 60be fac8 7cbe a137 74bd
00000080: 55e4 d0bd 3dd7 b0be e741 39be 876a 6a3e
00000090: 7b61 77be df5e e0bc 8e96 143e e3bb 4cbd
000000a0: e122 b1bc 19d0 903e a8f6 90bd b76b 413e
000000b0: 7805 1fbc aaf0 e9bd 52eb ebbd c140 733d
000000c0: cf60 503e 4cf8 a2bd 293b cbbd 03ff aabe
000000d0: f9b0 f4bc f31a 56bd 6d32 bdbe c414 3d3d
000000e0: cb35 febd a1ec 923e 1596 62be 83db 0cbe
000000f0: 0c75 adbe 7e26 03be 1fc9 173e 610e 0d38
00000100: 37a1 cbbd 1a0d 44be 5bd3 af3d 91e0 343e
00000110: ad3c e5bd 07e8 31be 6423 8dbe 9b00 5c3d
00000120: c25e 19be d31a 85bd 1146 1dbe 681a 44bb
00000130: 7b8b fdbc 516a 0d3d 1d6d 71be 82e7 233e
00000140: 4086 9dbe 2ab2 72be 29b1 9cbe 4e07 91be
00000150: 5d1b 673d 823d 24bc 9bb1 52bd f9c7 7ebe
00000160: c945 503e 01b3 25bc 679a 753e bf8c 683d
00000170: 6821 94bd d52c 85be eecc 93bd 9e7a 1abf
00000180: 3e11 713d 76de 25bd 9ab5 97bd cd55 f1bc
00000190: 38c7 973a 9157 b03d 122d f2be 1488 083d
000001a0: 6056 a4be 665b 13bd 7f57 7f3c 2245 8cbc
000001b0: 6ebf 3cbd ef7d 053e a39c 163e 840d d83c
000001c0: 1773 2cbe 37b0 cc3e 9a31 fc3d d9a3 0cbe
000001d0: 0295 bcbd 09c1 173e e0c0 6fbd da42 52bc
000001e0: f1e8 24bf de42 293e fe62 bebe d8d6 9ebc
000001f0: cec1 47be d8d1 b1bd 17cd a93d 8798 af39
00000200: 8011 69bd 0f6c 6dbe acdb 4bbe 5c12 dc3d
00000210: 0167 093e 8ce0 cd3d 73fc 70be be48 2c3d
00000220: c0a3 97bc 06d4 06bc 646a 3a3c 3c0f 2e3e
00000230: 1d2c ebbd 468a 8ebe 4d11 82bd a8bb 00be
00000240: 0288 adbd 1477 9b3d 3cc3 87bd 22f4 ab3d
00000250: 67df 0abe 0d85 8bbe b120 24bd aa31 e63c
00000260: 0e59 a4bc 7ad3 803c 9847 4cbc b0f6 24bd
00000270: 98b6 69bc 6472 7abe 4fb3 babe e63d 903e
00000280: c88d 4dbd bba6 7ebe 74f1 70bd dbdb 2ebe
00000290: 94ee 19be 4086 c23a 9653 85bc b787 45bd
000002a0: eb38 a13c dad2 683e 06b6 b6bd 2d19 46be
000002b0: 4bc0 8abe 49ff 19be fd1c 0fbe d390 eb3d
000002c0: 1eac e4bd f19b a73d 2335 54bb 2601 8d3c
000002d0: de8f a2bd 71aa 7abe f4fa 40be f1f7 d9be
000002e0: 10ed 483e d82c 443e 3a8d acbd 6ee2 a4bd
000002f0: 9816 493e e4e9 f4bc cbf4 bd3d fcbc a33b
00000300: 6af3 8e3d cc6f 56be c423 a3bd 6925 dcbd
00000310: 452b bfbd edf3 aebd bea3 10be 3511 5e3c
00000320: 3c58 0cbe fa99 0dbc 7148 90be 264c 30be
00000330: c095 10be 201f d7bc 9585 123e 9cb0 25be
00000340: 358a 42be 8412 6a3c 755b 8fbd 7148 57be
00000350: 2a59 193c 9dee 5a3d 18a0 b13d 14dd 493d
00000360: a42c 8f3c c677 11bd bc8c 713d a1e4 35be
00000370: 3f8b 1f3e fc21 823e fb2c 39be 220f 063e
00000380: 7de3 783d ef59 a3be 7a60 fe3d ed24 debd
00000390: 42ed d5bd d035 283d 3c9e 8cbd 0ec0 5ebe
000003a0: 1c7f 5d3e 7aaf 9fbe ac15 d8bc bd60 94be
000003b0: 674a 7bbc c6b4 ffbd 1bd7 01be f8f1 4a3d
000003c0: 91a9 783d b0e9 2fbd 777e 9cbc 2a2a fdbd
000003d0: 9ee6 50be d2ff e5bb 366e 983e 61aa e1bd
000003e0: cdbf 053e 1cca 0abe 8cac 173e b043 1abe
000003f0: d4ff 18bd 3ae1 083c a2ba 69be 4be9 903a
-0.43496197 0.34977958 0.022596275 -0.09118752 -0.07559656 -0.00023222652 0.38795763 -0.023595652
-0.058558308 0.009947491 -0.3070379 -0.16652906 -0.006355818 -0.14494632 0.019967955 -0.19089626
0.25133008 -0.13880308 -0.14795128 0.10569897 -0.09972966 -0.06764188 -0.037334982 -0.026134036
0.22495802 -0.1526751 -0.26587933 -0.07973296 0.05804903 -0.21897994 -0.24686041 -0.059623364
-0.10199801 -0.34539214 -0.18091546 0.228922 -0.2415828 -0.027388988 0.14510557 -0.04998387
-0.021623077 0.28283766 -0.07078296 0.18888746 -0.009705894 -0.11422856 -0.11519493 0.059387926
0.2034943 -0.07957515 -0.09923393 -0.33397684 -0.029869543 -0.052271795 -0.36952534 0.04616238
-0.12412604 0.2869616 -0.22127564 -0.13755612 -0.33878362 -0.12807652 0.14822815 3.363041e-05
-0.09942859 -0.19145623 0.08585235 0.1766379 -0.111932136 -0.17373668 -0.27566063 0.053711515
-0.14977553 -0.06499257 -0.1535876 -0.0029922966 -0.030950299 0.03452522 -0.2357678 0.16006282
-0.30766487 -0.23700777 -0.30603912 -0.28325886 0.05642258 -0.01002443 -0.05143891 -0.24880971
0.20339121 -0.010113479 0.23984681 0.05677485 -0.07232934 -0.26010767 -0.072168216 -0.6034335
0.058854334 -0.04049536 -0.074076846 -0.029459858 0.0011579758 0.08610452 -0.4730001 0.0333329
-0.3209715 -0.035975836 0.015584826 -0.017122809 -0.046081 0.13036321 0.1470819 0.026373632
-0.16840778 0.3997819 0.12314148 -0.13734378 -0.092081085 0.14819731 -0.05853355 -0.0128333215
-0.6441794 0.16529414 -0.371849 -0.019389555 -0.19507524 -0.08682603 0.08291071 0.00033492243
-0.056901455 -0.23185752 -0.19908017 0.10745689 0.13418199 0.100525945 -0.23533802 0.04206156
-0.0185107 -0.008229261 0.011377905 0.16997999 -0.11483023 -0.2783987 -0.06350956 -0.12571585
-0.08473207 0.07591072 -0.06629035 0.08396174 -0.13561784 -0.27249947 -0.04007024 0.028099854
-0.020061996 0.01572584 -0.012468241 -0.040274322 -0.014264725 -0.24457699 -0.36464927 0.28172225
-0.05018404 -0.2486829 -0.058824018 -0.17076056 -0.15032417 0.0014841035 -0.016275208 -0.04822513
0.01968046 0.22736683 -0.08921437 -0.19345541 -0.27099833 -0.1503879 -0.13975902 0.115022324
-0.11165641 0.0818404 -0.0032380305 0.017212462 -0.07937597 -0.2447908 -0.18845731 -0.42571977
0.19621682 0.19157732 -0.08425374 -0.080510005 0.19637525 -0.029896684 0.09275206 0.004996894
0.06980021 -0.20941085 -0.07965806 -0.10749323 -0.09334425 -0.08542619 -0.14124963 0.013553907
-0.13705534 -0.008642668 -0.28180268 -0.17216548 -0.14119625 -0.026259959 0.1430877 -0.16180652
-0.18998034 0.014286641 -0.06999866 -0.21023728 0.009359637 0.053450216 0.086731136 0.049283102
0.017477341 -0.035514615 0.058972105 -0.17762996 0.15580462 0.25416553 -0.18083565 0.1309171
0.060763825 -0.3190455 0.12420745 -0.10846887 -0.10445644 0.041066945 -0.06866118 -0.2175295
0.2163052 -0.31188565 -0.026377521 -0.28980055 -0.015337563 -0.12485652 -0.12679712 0.049547166
0.060708586 -0.04294747 -0.019103272 -0.12361558 -0.20400473 -0.0070190215 0.29771584 -0.11018825
0.13061447 -0.13553661 0.14811915 -0.15064883 -0.03735335 0.008354479 -0.22825101 0.0011055855

act_fc2.bias f4 [36]
00000000: 4651 e9be f51a 2dbf 35a1 73be 5f32 81be
00000010: a136 3cbf e7c0 03bf 645b 18bf a0de 9439
00000020: 8f44 d63e 71ff b33e 6646 b9bd 62f3 19bf
00000030: efad 93be ab4a b83e 8bd3 013f 1e9b 053f
00000040: 8c43 003f cac9 9dbe 2376 a9be 5312 b03e
00000050: a56b 1b3f 89ba 033f 14f8 c13e 85a6 7ebe
00000060: 740d 35bf bcd9 303c afd4 cb3e b817 c13e
00000070: d33c c6bd 80da 19bf 7e6c 15bf 5290 17bf
00000080: 6ee4 84be 115c 84be 432f 1ebf c58f 07bf
-0.4556982 -0.6761926 -0.23791964 -0.25233743 -0.7352086 -0.5146622 -0.5951445 0.00028394628
0.4184918 0.35155824 -0.090466306 -0.60137 -0.28843638 0.35994467 0.50713414 0.52189815
0.5010307 -0.30818015 -0.33097944 0.3438898 0.6071113 0.51456505 0.3788458 -0.2486821
-0.7072365 0.010794099 0.39810702 0.37713408 -0.0967957 -0.6009903 -0.5836867 -0.5920459
-0.25955528 -0.2585149 -0.61790866 -0.5295375

val_fc1.weight f4 [64, 72]
00000000: 0e25 313e abdf cd3d e77f 76be aa05 803c
00000010: 765f 213e 47e6 b83d 2fc2 33be e89f ed3c
00000020: 89f4 8dbd 5998 97bd 9eb7 cd3d 4e93 503c
00000030: 05e1 a8bd c6c1 593d cc77 e2bc 26be febd
00000040: 81b4 4c3e 0c2c 50be 673f a2bd 7949 853d
00000050: 0c9f 8f3b dd3b 433e 2e28 7b3e 094d 2cbc
00000060: 896f d43d 2332 95bd 3f92 393d 28cc b13d
00000070: 38ac 103e 40fc 79be 59ae 0c3c 23a7 48be
00000080: 72e7 4dbe f394 d4bd f13f d7bd 793c 61be
00000090: 299c 153e 0b22 ec3d 6853 8b3d 90b2 a8bd
000000a0: 4ed5 ebbd 7f33 9f3b 8f08 aabc adc2 63bd
000000b0: 1e00 0bbe 440b 4e3d 6bda 92bd 3c5b c23d
000000c0: e3a9 fbbd dcf8 123d a748 d5bc 95e3 393e
000000d0: 5365 853d 61dd b73d ec10 9a3e 258e c7bd
000000e0: f756 77be ca4a ff3d 294c 993d b9fd f53c
000000f0: 0569 ac3d 9353 2c3c fc97 f3bd 90af 9c3d
00000100: 8f49 b8bd 834f a93c f455 57be 1be0 3ebd
00000110: 6cc5 173e d14d 793e 9785 cabd d016 6e3e
00000120: fd34 883e 86bd 1d3e 2507 71be 0069 f7b9
00000130: 94c0 96bd 44b6 2b3e 0fb6 24bc e6fc 623b
00000140: 97a8 e93c b967 cf3b f67c bd3d 2ece b93d
00000150: 0af0 3abe 9d9e 0e3d 9573 c13c 0a85 ac3b
00000160: ed7f 843d 9cf9 78be 478a b3bd eb9a f73c
00000170: 720f 433e 6e78 303e 2124 ea3d 0550 da3d
00000180: 1a40 e2bd ab94 26be 64e3 983d b588 193e
00000190: a2f5 e13d 92cb 0bbe b979 273d 6111 e03d
000001a0: 3dae ecbd d79b 913d 7cce 373e 5d5b 13be
000001b0: 166d 863d 4052 f23c b9c7 673d 8a0d 5fbd
000001c0: 2d01 7a3d 594f 953d ee50 36be c538 493c
000001d0: 4a82 25be b109 37bd 6a47 d63c 2b3b f8bd
000001e0: 2baa 02be 1878 28bc 8551 20be 7b31 003e
000001f0: c1c5 4fbc ff30 153e b3df 8d3e 36bc e5bd
00000200: 7171 82be 91dc b13d 4d2e 1e3c 513d 25be
00000210: febd 8d3e 9ccb debb 2443 18be 2325 4d3c
00000220: da5e f23d b606 95bd 3fa0 2bbe 035e 0fbe
00000230: dfc3 04be bb5c 123c ba83 363d df9b e43d
00000240: 2706 71be a104 25bc 70de 79be 4de1 28be
00000250: c580 cf3c 9aa1 1dbe 4586 eebd 2c16 e0be
00000260: c83f 6cbd 7767 59bd e106 833b c84b 8bbe
00000270: dbb6 f23d dc19 07be 087a 9ebd 1e81 12be
00000280: 37ff c93d 862a ae3e f847 213e b55e acbe
00000290: 20fd 79be 16b0 95be eceb cdbd ec16 983e
000002a0: 848c 47be 05f9 79be 222d 57bd 4838 5ebe
000002b0: d304 4a3d 3559 693c 2dd7 80be f61c 0fbe
000002c0: e787 cd3e 8b10 d3be 58d5 b5be 6067 bf3e
000002d0: 7e71 1bbc 761a 40be bc69 963d d1fd c33d
000002e0: fe9a 1bbe fadb d6be 0ede cb3e 4033 a0be
000002f0: 5570 28be 3927 423c bee6 9dbd f326 cfbd
00000300: ca91 8b3e 8054 98bd ffb9 a6be 6aa9 abbd
00000310: 729c 2bbb d7fa 1bbd 47da bbbc aaa2 993d
00000320: 6f73 06be 4ce4 86be 0c78 86be 1f40 87bd
00000330: bcfa 2dbe f692 173c 990e 94be 10ea 363e
00000340: 8454 723e 3417 693e 3344 ba3e b617 d83c
00000350: 8fa0 3a3e ec7a c3bd 6afd 82bd 5999 9a3e
00000360: 0ddd 73be d538 8f3d 6238 0c3e b687 dbbd
00000370: ef22 a33d 8094 43be 28bf a3bd fcf1 c33b
00000380: 3e13 973e 7d11 063e bfcc b73d acde 0b3e
00000390: 324d 923d b5ed ba3d 874f 8e3e 9581 9abd
000003a0: 3479 6abc bebf 823e c6f8 bd3d 3c40 9cbd
000003b0: 02f0 e1bd f125 f43b 5b18 6cbe 4f02 efbd
000003c0: 85ce 92be 64a8 1dbd 73fe 3a3c d8d3 54be
000003d0: 35d8 d43d a5b4 3e3e 9e7b 8d3d 3a47 253e
000003e0: 41d1 7c3e 6d7c 0bbe 1e62 cc3d b211 e93e
000003f0: aedf 16be 25e9 b13d 0ad3 4fbd f8ba a4bd
0.17299291 0.10052427 -0.24072228 0.0156277 0.15759072 0.09028297 -0.17554544 0.029006913
-0.06931407 -0.07402105 0.10044788 0.012730433 -0.08246044 0.053163312 -0.027645014 -0.12438612
0.19990732 -0.20329303 -0.07922249 0.065081544 0.0043829735 0.19065805 0.24527046 -0.0105164135
0.10372836 -0.072849534 0.045305487 0.08681518 0.14128196 -0.24412632 0.00858649 -0.19595008
-0.2010782 -0.10379972 -0.10510243 -0.21995725 0.14610352 0.11529931 0.06803018 -0.08237183
-0.11515294 0.0048584337 -0.020756034 -0.05560558 -0.13574263 0.050303712 -0.07170566 0.09490058
-0.12288263 0.035881862 -0.02603562 0.18153222 0.06513467 0.089777716 0.30091035 -0.09743909
-0.24154268 0.12465437 0.074852295 0.030028211 0.084184684 0.0105179725 -0.11894223 0.076506734
-0.08998405 0.020667797 -0.21028882 -0.046600442 0.14821404 0.24346091 -0.098887615 0.2325089
0.26602927 0.15404329 -0.23537882 -0.00047189742 -0.0736095 0.16768748 -0.010053172 0.0034635602
0.028522773 0.0063295034 0.0925235 0.09072529 -0.1825563 0.034819234 0.023614684 0.005264883
0.064697124 -0.24313968 -0.08766609 0.030225238 0.1904886 0.1723344 0.11432672 0.10659794
-0.11047383 -0.1626765 0.07465246 0.14993556 0.11033179 -0.13651875 0.04088757 0.10940815
-0.11556671 0.07109802 0.17949861 -0.14390321 0.06563775 0.029580235 0.056586955 -0.05445627
0.061036278 0.07290525 -0.1780431 0.012281601 -0.16162983 -0.044686977 0.0261571 -0.121206604
-0.12760226 -0.010282539 -0.15656097 0.12518875 -0.012681426 0.14569472 0.2770973 -0.11217539
-0.25477174 0.08684648 0.009654594 -0.16136672 0.27684015 -0.0067991745 -0.14869362 0.012521061
0.11834498 -0.07276671 -0.16760348 -0.14000706 -0.12965344 0.0089332415 0.044559218 0.111625426
-0.23537503 -0.010071904 -0.2440126 -0.16492195 0.025329957 -0.15393677 -0.11646704 -0.43766916
-0.057678014 -0.053077187 0.0039986228 -0.27206254 0.11851283 -0.13193458 -0.07738119 -0.14307067
0.098631315 0.34016818 0.1575011 -0.33666006 -0.24412966 -0.29235905 -0.10054764 0.29704988
-0.19487196 -0.244114 -0.052533276 -0.21701157 0.049321007 0.01424246 -0.25164166 -0.13975891
0.40142748 -0.4122356 -0.3551433 0.37383556 -0.009487508 -0.18760094 0.07344386 0.09569896
-0.15195844 -0.41964704 0.39817852 -0.312891 -0.16449101 0.011850172 -0.07710026 -0.10114851
0.27259666 -0.07437992 -0.3256378 -0.083819225 -0.0026185778 -0.038081016 -0.022931231 0.07501729
-0.13129972 -0.26346052 -0.26263463 -0.06604027 -0.16990179 0.009251347 -0.28917387 0.17862725
0.23665053 0.22762758 0.36380157 0.026378494 0.1822531 -0.0954493 -0.06395991 0.3019512
-0.23814793 0.06993262 0.13693383 -0.10719244 0.079656474 -0.19099617 -0.079954445 0.0059797745
0.29506868 0.13092609 0.08974599 0.13659161 0.0714363 0.0912737 0.2779505 -0.07544247
-0.014311124 0.25536913 0.092759654 -0.07629439 -0.11032106 0.007450812 -0.23056166 -0.11670362
-0.28673187 -0.038490668 0.0114132045 -0.20783937 0.10392801 0.18623598 0.06908344 0.16140452
0.24689199 -0.13621683 0.09979652 0.45521313 -0.14733765 0.08687047 -0.050738372 -0.08043474

val_fc1.bias f4 [64]
00000000: eea1 8d3d 8dd6 1b3d 99f3 03be adc5 00be
00000010: 0ab2 9bbd 3605 84bd abaf 69be 9415 30be
00000020: 8419 843d e037 07be e76c e53d 97fd 1d3e
00000030: d288 aabc 420f 7dbd 8fea 07be 6863 0dbe
00000040: 1a38 9dba 5a5b 73be 5237 0f3d a4a2 47be
00000050: 8a8f ebbc da1a 78bd bfae 29be be64 31be
00000060: a274 47be a331 503d f53c e1bd 0ba9 dfbd
00000070: d95a b9bd f08e 76bd de14 6fbe 1f6c d9bd
00000080: c611 9fbe 57bd 39bd e5e9 073e cae9 96bd
00000090: e72a 50be 5731 07be 1e83 11be 1014 b4bd
000000a0: dce6 1bbe f564 033e 3f6b 533d eff4 b6bc
000000b0: 0cfa eb3d dc6f 92bd 0fd3 c9bd 6394 cdbd
000000c0: 6793 40be f703 463c e066 3fbe f61c 1b3e
000000d0: 402e ba3c 18e7 13be ac53 bdbd 9968 0dbe
000000e0: 7ed7 48bd 9801 f23d a8ba bc3d 709b 503d
000000f0: f02a c43d 795f c6bd e5ff 183d a70f 30bd
0.06915651 0.03804641 -0.12885894 -0.12575407 -0.07602318 -0.064463064 -0.22820918 -0.17195731
0.06450179 -0.13204908 0.11202412 0.15428768 -0.020817194 -0.06178213 -0.13273071 -0.13807452
-0.0011994869 -0.23765317 0.034964867 -0.19495636 -0.028754968 -0.060572483 -0.16570567 -0.17323586
-0.19478086 0.050828587 -0.10997955 -0.10920914 -0.09050531 -0.06019491 -0.23347804 -0.106163256
-0.31068248 -0.045346584 0.13272817 -0.073688105 -0.20328866 -0.13202415 -0.14210173 -0.08792889
-0.15224785 0.12831481 0.05161595 -0.02233359 0.11522302 -0.07150242 -0.09854709 -0.10038068
-0.1880623 0.012085906 -0.18691587 0.15147766 0.022727132 -0.14443624 -0.09244475 -0.13809432
-0.049033634 0.1181671 0.09215289 0.050929487 0.09578502 -0.09686179 0.037353415 -0.042983677

val_fc2.weight f4 [1, 64]
00000000: a594 cdbd cb4f ebbd 47e0 093e f672 443e
00000010: f635 6a3d 7205 e3bc a0b8 5d3e 260c 0cbd
00000020: f073 a93e ea7f e33d ab53 f6bd ee0d 6abe
00000030: 4ea0 b63d 82ae 17bb 5f76 323e 9e4a a83e
00000040: 16ea 35bc 1c29 c03d 1ac0 26bd 71b9 603e
00000050: fbd5 07be 4741 85bd 87e1 ff3e 48e8 59be
00000060: 50c1 f43d d445 393e 18f3 ef3e ca68 df3d
00000070: ddc7 4e3d 748d 5dbe e55e 813e 22a5 243e
00000080: 322e 83be 226b 163e 2425 83be 523c 41be
00000090: 864a f03d e2e9 2d3e 0ff2 203e 1ce1 0bbe
000000a0: bc27 613e 580a 4dbe 584b 40be d62a e83b
000000b0: a6d3 d1bd 2219 283d e051 dc3d 8ccb dcbd
000000c0: 05c8 503d 09af 80bd a8a7 25be 53f1 91be
000000d0: b2ff b0bd d34b 95bc c991 2f3e 9f14 0a3e
000000e0: 39ab 803e 9883 95be d9b3 d6bd b177 b8bd
000000f0: 5ba7 21be f8cd 19bd 7b03 a8be 0843 be3c
-0.10038117 -0.11489829 0.13464461 0.19184479 0.057180367 -0.027712557 0.2165246 -0.034191273
0.33096266 0.11108382 -0.12027677 -0.22856876 0.089172944 -0.0023144786 0.17427967 0.32869428
-0.011103174 0.09382841 -0.040710546 0.2194574 -0.13265221 -0.06506591 0.4997675 -0.21280015
0.11950934 0.18093044 0.46865153 0.10908659 0.050483573 -0.21635991 0.2526771 0.16078618
-0.25621182 0.14689305 -0.25614274 -0.18870667 0.11732964 0.1698375 0.15717338 -0.13660091
0.21987814 -0.20023477 -0.18778741 0.0070851846 -0.10245447 0.041039594 0.10757804 -0.10781011
0.050972003 -0.06283385 -0.16177237 -0.28504428 -0.0864252 -0.018224632 0.17145456 0.13484429
0.25130633 -0.2920196 -0.10483522 -0.09007204 -0.15786497 -0.037549943 -0.32815155 0.023225322
