AlphaZero_Gomoku/model/cnn/epoch_250.model (torch, 424769 bytes, 11 tensors)

layers.0.weight f4 [32, 4, 3, 3]
00000000: a536 0bbf ebfc 2bbd 0fb7 d0be a673 ecbe
00000010: 317e debe b2b6 143e 498b e6be ee6b b93d
00000020: c8b0 dfbe 31c9 09be 2639 323e 0137 35bf
00000030: 7039 5f3e acfa 2abf 2385 d7be 86ca 1dbe
00000040: 736c 16bf 7e45 f23d 2f43 023e 9e6d b2bc
00000050: 1f40 03bd 2993 8abd 2e4f 253e 8c22 d23c
00000060: 9597 cf3e 92ef 86be 0a87 d2bd f6cf c03d
00000070: 9916 413d a5bc 8bbe 996b 3a3e aa7c e83d
00000080: 103a 3dbe 76b0 443d ec6e 4e3e 2752 95bd
00000090: 6aa6 a43e cad9 47be 2646 68be e546 fcbe
000000a0: 86c8 c3bd e5d2 9dbb e7fd 3abe 95e3 0b3d
000000b0: 7661 3b3e f138 05be 76c8 e33e dea7 653e
000000c0: 6ec8 b8bd f6ce 10bd f90a eabd 0ef6 92be
000000d0: 2eee 2bbf 24bc e9be 51c9 333c c5c2 48be
000000e0: d4be 19be 7630 d13c c508 2c3e 1812 953e
000000f0: d087 0b3e 1ce7 70bd b40b 58bd be47 7fbd
00000100: 14a9 acbb 6cab 4b3e 0233 4ebc 3a43 863d
00000110: 8fb9 123e e2d2 d7be 6b68 8fbe 533b 72be
00000120: fda9 dcbd 7d30 503e a9da 1a3e f658 b7be
00000130: ca12 83bf d415 be3e 5ce5 e83e 3bf2 143f
00000140: c222 523d 53a5 123e 0e9d 693e 405d 89be
00000150: 76e5 e5bc cdc5 913c e581 a5be 438b a9be
00000160: c2a6 18be a491 b4be 0009 c0be 19b3 883e
00000170: d5a9 9c3d ccc4 3d3e 5691 c5bd 1619 9abc
00000180: 3bbf 7c3d ec71 a23d 64cf 9d3e 41c7 163e
00000190: fd24 56bd 2fef 6d3e 2528 29be c790 763d
000001a0: d280 233e 89a5 4dbe 3538 59be 774b eb3c
000001b0: 3b7a 893e 877f ecbe b2fe b8be b127 463e
000001c0: a9a5 14bf 2ff6 97be 09d8 76be 8aa5 a83e
000001d0: 635b 803c 089c a83d 2cb7 603e 29ee f2bb
000001e0: 43ca 5abf 3487 bb3c 5a4e 5bbe 8135 c1be
000001f0: b688 d4be 68b1 53be 01f1 35bd 490a 973b
00000200: 893a a1be 5485 98be cc3a 9abe 6794 3b3e
00000210: a313 3d3e a615 bcbe 5cbf b63c 4550 fc3d
00000220: e916 573e 9b72 ab3d e7a9 e1bd 8c43 a63d
00000230: def7 bfbd 4749 753d 3d34 703d 6fa5 08bd
00000240: e341 aa3e 8790 6b3e 407f d43e 7a22 eb3e
00000250: 3176 433e 6a7c 7bbe c7d8 0ebf e743 66be
00000260: 1800 4e3d 34e2 f23d a51d 62bc 7fb3 563e
00000270: 82c2 41be fa37 1fbe 92a2 af3e cf91 9bbe
00000280: c694 26bf 6c97 2bbe da67 84be c14c 1dbd
00000290: 0b9b 483e aeb3 0cbe a9bb 5cbb 0308 0dbe
000002a0: 9914 cf3c 3ef1 17be f9ca 67bd ee0e 4b3d
000002b0: 755c 973d 9642 b7be 0d3c 903d 77fe cfbd
000002c0: f8bb babe 5cab 4dbe 6618 273d e8c8 d0be
000002d0: 6243 09bd 6cf7 c8bd b79e 803d e87b a8bd
000002e0: d362 a43e cd90 1f3c 9859 b6be 68c8 653e
000002f0: 2245 69bf 8ff5 72be da18 b4be ca24 03be
00000300: 58b3 5dbe f8a9 a2be 490a e03e 799c 1d3e
00000310: d5f5 b43d 4c3e 01bf 8ec5 003a 5a23 18bd
00000320: e6ee 6abe 27d1 0e3d bf69 073f eda5 43be
00000330: 2c41 3cbe ab4b 5cbd f2b9 61be dc7d 9b3d
00000340: e7e3 7cbe 4214 473e 0ceb 2b3e 90f4 37be
00000350: eb98 553d b829 8f3d acee 893d 863c c03d
00000360: 9c13 4dbc 9bc8 b1be 370d aebe d1a2 39bf
00000370: a934 56be 6c7b c23e ff87 f43e 71f6 07be
00000380: 2c38 3bbe fe8b a8be 5cd3 87bc 215d 9bbe
00000390: 9d29 cdbd 8d03 e53d d2cb adbd b379 853e
000003a0: 766c af3e a58c 96bd 764a b83d a142 53be
000003b0: 1dad 4bbd 2ccf 42bd 6e4a 9dbd e3a6 c1bc
000003c0: c6d7 babc 720a 783d 6f67 acbc c6ea f7bd
000003d0: 1f85 efbd 4ad3 32bd 8dc6 39bd d94d 9ebb
000003e0: 717b bcbd c0fa 74bd 6b73 0abd a512 91bc
000003f0: bd82 debc 4e85 17bf b759 993e 4984 59be
-0.54380256 -0.04198925 -0.40764663 -0.46181983 -0.4345565 0.14522818 -0.4502814 0.09053789
-0.4368956 -0.13455655 0.17404613 -0.70787054 0.21799254 -0.66788745 -0.42093763 -0.15409288
-0.5875923 0.11829661 0.12720941 -0.021780785 -0.032043573 -0.0676635 0.16143486 0.025651239
0.40545335 -0.26354653 -0.10279663 0.094146654 0.04714069 -0.27292362 0.18205108 0.11351903
-0.1847918 0.04801985 0.20159501 -0.0729106 0.32158214 -0.19516674 -0.2268301 -0.49272838
-0.09559731 -0.0048164004 -0.18260919 0.034152586 0.18298897 -0.13010003 0.44488877 0.22427318
-0.09022604 -0.035353623 -0.11427874 -0.2870335 -0.6716031 -0.45651352 0.010973291 -0.19605549
-0.15014201 0.025535803 0.1680022 0.29115367 0.13626027 -0.058814153 -0.052745536 -0.062324278
-0.005269179 0.19889611 -0.012585403 0.06555791 0.14328597 -0.42153078 -0.28009352 -0.23655443
-0.1077461 0.20330997 0.15122475 -0.3581006 -1.0240109 0.3712603 0.45487487 0.58182114
0.05130268 0.14320879 0.22813818 -0.26828957 -0.028063517 0.017794514 -0.32325664 -0.3311406
-0.14907363 -0.35267365 -0.37506866 0.2669914 0.076495804 0.18532103 -0.09646861 -0.01881079
0.06170581 0.07931885 0.3082229 0.14724447 -0.05228137 0.23235773 -0.1651922 0.060196664
0.1596711 -0.20082678 -0.21212848 0.028722508 0.26851067 -0.46191046 -0.36131817 0.19351079
-0.5806528 -0.2968001 -0.24105848 0.32938796 0.015668577 0.082328856 0.21944875 -0.007413645
-0.85464877 0.022891618 -0.21416607 -0.37736133 -0.41510552 -0.20673144 -0.044419292 0.0046093804
-0.3148997 -0.2978922 -0.30122983 0.1831833 0.18464522 -0.36735266 0.022308044 0.12319998
0.21004833 0.08371469 -0.110187344 0.08118352 -0.09373449 0.059884336 0.05864357 -0.033360895
0.33253393 0.23004352 0.41503334 0.4592474 0.19088055 -0.24559179 -0.55799526 -0.2248684
0.05029306 0.11859551 -0.013801013 0.2096691 -0.18921855 -0.15548697 0.3430372 -0.3038468
-0.6507076 -0.16756982 -0.25860482 -0.038403276 0.19590394 -0.13740417 -0.003368119 -0.13772587
0.025278376 -0.1483812 -0.056590054 0.049574785 0.07390682 -0.3579299 0.07042704 -0.10155957
-0.36471534 -0.200849 0.040794753 -0.4077828 -0.033511527 -0.09812817 0.062802725 -0.08226758
0.32106647 0.009739113 -0.3561523 0.2243973 -0.91121113 -0.23726486 -0.3517521 -0.12807003
-0.21650445 -0.317703 0.43757847 0.15391721 0.08835951 -0.5048568 0.00049122504 -0.03714309
-0.22942695 0.034867432 0.5289573 -0.19106264 -0.18384236 -0.0537831 -0.22043589 0.07592365
-0.24696313 0.19441321 0.16788882 -0.17964387 0.052147787 0.06990379 0.06734976 0.09386544
-0.012516882 -0.34723362 -0.33994457 -0.72514063 -0.20918526 0.37984788 0.47760007 -0.13277604
-0.18283147 -0.32919306 -0.016580276 -0.3034449 -0.10017703 0.11182318 -0.08486141 0.26069412
0.34262437 -0.073510446 0.08998577 -0.20630886 -0.04972564 -0.047560856 -0.07680212 -0.023639148
-0.022807967 0.060556836 -0.021045415 -0.12105326 -0.11695313 -0.043658532 -0.04535537 -0.0048310575
-0.09203232 -0.059809446 -0.033801477 -0.017709086 -0.02716195 -0.5918778 0.2995126 -0.21241869

layers.1.weight f4 [64, 32, 3, 3]
00000000: d82c 8fbe bdd9 583d e3f3 c13d 7544 45be
00000010: c678 8cbd 4a4a 723b 322b 37bd e939 af3e
00000020: 3121 f73d 1964 173c a898 083e eccf 783c
00000030: 714d c63d 30e6 78bd a232 d9bd 1851 0d3e
00000040: 914a a9bd d073 56be 1c24 4c3e 0056 6abd
00000050: 9057 d6be e962 09bf fdad 19be 11a0 bbbe
00000060: 6a19 b6be ba5c 90be c04d dbbe 18ce 353c
00000070: bb76 2b3d 0948 63bd 1549 d03d 064e e1bc
00000080: 2d97 02bd 322e b6be 62d4 c73a 0f1f d2bd
00000090: 18d2 5d3e 3a5b 5a3e 05af 1cbe 2717 c8be
000000a0: 5e93 bdbd da13 58be 0965 01bd 6411 7cbe
000000b0: e779 3bbd d49b 8d3e e0ef f0bd 0807 00be
000000c0: 0fad bd3d 96cc b5bc fe1b 50be 8840 f83e
000000d0: dcf7 833d 52ba 123c 6abd 0dbe 7b5d d0bd
000000e0: 109e d6bd ab01 b1bd 01dc a33d 3e50 b7bd
000000f0: 70eb 4c3b 642a 88bd 8bd9 02bd 9f75 c1bd
00000100: 397b b43d c64b 05be d11d 6e3d ae97 9abd
00000110: e660 42be 2932 18bd e9d1 83bc 069c 363b
00000120: fcea a43b 7d29 823e 3efc 9cb8 1cbd db3c
00000130: f870 c2bd 9cee 42be bad6 16bd 2d2a 29bc
00000140: e16a b5bd edc7 a23e fb0c 56be 281a d3be
00000150: 70cc b9bc fef4 c6bc 1e17 d4be a6b1 3e3e
00000160: 796c b43d 2efe 9cbe edd4 42be 40a2 aabe
00000170: 9b36 49bc 87ab 29be 6911 61be 011a 12be
00000180: 4c5b 1bbe 03c6 ff3b f50f 34be 0b77 2dbe
00000190: 25d9 f73c 6958 bcbb 25c2 ddbd 43c2 7abd
000001a0: 4253 0ebe 83b0 d33b 323a 353d 29ba 20bd
000001b0: d78d a03d 2b3e 2cbd 8842 d5bd 6d43 033e
000001c0: 0be6 d03c d736 d9bd 4d70 293e 632d 17be
000001d0: a860 b0bd 2e2d b63d 5ca6 93be b711 c43d
000001e0: 016a 5e3d c799 103e cc31 18be 4c1e 97be
000001f0: 255b 01be 881d ffbd dac9 31bd 5558 a63e
00000200: d883 66bd 64d9 c8bd a4ec 3fbb 9782 ffbc
00000210: 3994 eebc 8abd 14be 0872 ffbd f161 e23d
00000220: e443 0b3d e6c6 99bd 0bef 3abe 8ae5 7cbd
00000230: ea66 b9bb 8087 a4be 617c 1abd 6f53 79bd
00000240: 6354 9e3c 65a2 d23d cedc 5cbd ed8f 803d
00000250: 2d8f a13c d9e0 04be 7120 c33d ba26 9e3e
00000260: ad4f ee3d 405f e7bd ef70 c0bd 2f37 0fbe
00000270: 249a a2bd e192 b8bd 2bf8 a33d d1e7 22be
00000280: 30ab b9be 213a c1bd 48f2 99be f90f bbbe
00000290: ef17 93bd d9d3 cfbd c997 723d 71b1 813d
000002a0: a3f2 afbd 1c19 373c ca59 5c3d 907f 643e
000002b0: 8610 6a3d 75ab 15be 6e6e 35be 0758 8bbe
000002c0: 03f3 19be 2807 65be a5ce 8ebe cccc 76be
000002d0: 22e0 cc3e 0c2f 2f3b 8a2f b4be a88b ec3d
000002e0: afa2 febe 31b8 cebd c95e 453e 6d9d 383e
000002f0: f75f d6bc b4d2 c53e e43b 263e bf4f 213d
00000300: 1bb9 53be c615 e1be 378e b4be d510 44be
00000310: 9e04 1c3e a8d9 45be c620 1bbd 92e8 d2bd
00000320: 71aa 9bbd 47c1 c7bd 1e16 9abe 5f5f 0fbe
00000330: e139 f73d dff4 aebd b131 06be 97c6 6abd
00000340: 0dc2 8d3d 6f1f b5bd ee30 d13e c627 adbe
00000350: 550d 02be f0b7 c4bc ddfb 51be 98cd cd3d
00000360: 569d 533d 34b2 03be 9f2e a1be 6d23 a2bd
00000370: e1d4 61be 482a e7be c33b b7bd 0a6a 8dbd
00000380: 7ebe abbe aaa2 babd 6921 0a3e 9ce5 7bbe
00000390: 2830 483e 47f3 cdbd c0d6 28be f90f 0c3f
000003a0: 7e06 0b3e 5444 a1be ddad b73e 9938 f4bd
000003b0: 5bc5 a3be 1edb abbd f38c d7be 03e5 3bbe
000003c0: 6729 0cbe 8ae6 58be 9041 e03d 53c7 313c
000003d0: 6730 a6be db69 93be 3009 bf3d d69a 133e
000003e0: 997b d8bd 3e27 e9be 4339 80be f953 02bf
000003f0: 4246 39bd 18b5 6dbe e20b d4bd 4a07 b93d
-0.279639 0.052942026 0.09470346 -0.19264396 -0.06858973 0.003697055 -0.04471893 0.3422387
0.12066878 0.009240174 0.13339484 0.015186291 0.096827395 -0.0607664 -0.106053606 0.13800466
-0.082661755 -0.20942616 0.1993565 -0.057210922 -0.4186368 -0.5366655 -0.15007778 -0.36645558
-0.35566264 -0.28195745 -0.42832756 0.0110965 0.041861277 -0.05548862 0.10170189 -0.027503025
-0.031882454 -0.3558212 0.001524579 -0.1025983 0.21662176 0.21323863 -0.1530114 -0.39080164
-0.09256624 -0.21101323 -0.031590495 -0.24616009 -0.045770552 0.2765795 -0.117645025 -0.12502682
0.09261524 -0.02219228 -0.20323178 0.48486733 0.0644376 0.008955555 -0.13841787 -0.1017408
-0.10479367 -0.08642896 0.08000947 -0.08950852 0.0031268261 -0.0664871 -0.031945746 -0.094462626
0.08812565 -0.13017187 0.058133904 -0.07548462 -0.18982276 -0.03715721 -0.016091304 0.0027863993
0.005032895 0.25422278 -7.4856434e-05 0.026823573 -0.09494203 -0.19036335 -0.036825873 -0.010324997
-0.08858276 0.31793156 -0.20903389 -0.41230893 -0.022680491 -0.024286743 -0.41423887 0.18622455
0.08809752 -0.30662674 -0.19026537 -0.33326912 -0.012281085 -0.16569339 -0.21979298 -0.14267732
-0.15171546 0.0078055873 -0.17584212 -0.16939943 0.03025491 -0.005747844 -0.10828046 -0.06122042
-0.13898948 0.006460251 0.044244952 -0.039240036 0.07839554 -0.042051475 -0.104130805 0.1281869
0.025500318 -0.10606163 0.16546746 -0.14763407 -0.08612186 0.08895336 -0.2883786 0.09573691
0.054300312 0.14121161 -0.14862746 -0.29515302 -0.12632425 -0.124568045 -0.04340539 0.32489267
-0.05627808 -0.09807089 -0.0029285336 -0.0311902 -0.029123412 -0.14525428 -0.124729216 0.11053837
0.034000292 -0.0750864 -0.1825525 -0.061742343 -0.0056580203 -0.32134628 -0.037716273 -0.060870584
0.019327348 0.102848805 -0.053921513 0.06277452 0.019721592 -0.12976398 0.09527672 0.3088892
0.11636291 -0.11297464 -0.093965404 -0.13985895 -0.07939556 -0.0901239 0.08006319 -0.15908743
-0.36263418 -0.09434915 -0.30067658 -0.36535624 -0.07182299 -0.101478286 0.059226785 0.063326724
-0.08591201 0.01117542 0.053796567 0.22314286 0.057144664 -0.14616187 -0.17717907 -0.27215597
-0.15034108 -0.22366011 -0.27892032 -0.24101561 0.4001475 0.0026730923 -0.3519252 0.11550075
-0.49733493 -0.100937255 0.19274439 0.18028803 -0.026168806 0.38637316 0.16233784 0.039382692
-0.20676081 -0.43961924 -0.3526475 -0.19147046 0.15236136 -0.1932131 -0.037873052 -0.102982655
-0.076008685 -0.097536616 -0.30095 -0.14001225 0.120715864 -0.08542799 -0.13104893 -0.057318296
0.06921778 -0.08843886 0.40857643 -0.33819407 -0.12700398 -0.02401349 -0.20506234 0.100489795
0.05166372 -0.12860948 -0.31480882 -0.07916913 -0.22053863 -0.45149446 -0.089469455 -0.06904991
-0.33543772 -0.09113057 0.13489307 -0.24599308 0.1954962 -0.10056167 -0.1648817 0.5471187
0.13576695 -0.31497443 0.35874835 -0.11924858 -0.31986508 -0.08391403 -0.42099723 -0.1834908
-0.13687669 -0.21181694 0.10950005 0.010850745 -0.32458803 -0.287917 0.09327924 0.14414534
-0.105704494 -0.45537752 -0.25043687 -0.5090938 -0.04523302 -0.23213613 -0.10353829 0.090345934

layers.2.weight f4 [128, 64, 3, 3]
00000000: 93e9 d6be 1152 eebd 81fb 073d 0884 86bb
00000010: 3e14 99bd 85bc 153f f750 e0bd aca8 263e
00000020: 0736 2d3e 7376 b9bd 7eb9 a0be caca c13e
00000030: f488 22be 8323 48be 65a7 cd3e 914d 32bd
00000040: ec7a 07bf 74af 013f 79e2 dbbd 439b 17be
00000050: 014c 883e fc1e 593e e0f6 03be 814c 15bf
00000060: 0fc1 1fbf 7ebe dc3d f67d 5d3e 38eb 599a
00000070: 5edd 6239 edd4 7f9d b7d9 f73b d115 6920
00000080: 14d7 2833 8c96 959b 4197 2bb9 1972 5699
00000090: 6ad2 893e 39e7 fe3c c19b a8be 78b1 13be
000000a0: 0380 953c fddd 313e 232e 04bd fb13 90be
000000b0: 5ce1 8ebe f057 163e e939 cb3d 4bd4 d03e
000000c0: 38b6 1bbe 931f 6a3d 0966 0abf 3e2f 57be
000000d0: fceb 00bd 38c3 61be 5923 193e f937 503e
000000e0: 5cab aa3d 983d 623d d232 01be 6fba 70be
000000f0: 31c8 43bd c6c6 c73c afa5 4abd 0005 e4bd
00000100: b1e3 aa3e 8196 f73b 26ef a6bd 076c 99bd
00000110: e0fe ea3d dd4f c0be f2c6 97bc 00e0 efbe
00000120: 7e80 bebd bd62 c1be c2c7 2dbe 9a0d 523d
00000130: 02f6 99bd fa93 9fbe ed8b 133e f4ac 1fbe
00000140: 67ae 96be c58b 2fbb 4d8d 93bd 8861 c5be
00000150: d53b 79be 723d 153d f5f7 9cbc b855 863e
00000160: bab0 cf3d 66ec 0dbe e75c 6c3d 2a7a 44be
00000170: 7c0b 5e3e 24e1 9bbe 2471 debd 64ef d3bc
00000180: 3207 6fbe f413 2b3e 881d 71bd 89c6 40bd
00000190: 1a74 793e 6864 dc3e 2c8f 80be 1ccd ed3b
000001a0: 051f b63c b9f9 98be b0be c93a 3e50 573c
000001b0: 15ea 243e 2b93 363e 9cbd a43d cff6 2f3d
000001c0: 5373 9bbe 0581 3f3d e85d 173e ea32 ef3e
000001d0: 8eeb 413e ab23 4bbd a2a1 443e 88b0 383d
000001e0: e12e 523c 0aec 543e 5088 133e 77b8 54be
000001f0: 7a4a 093d d7ac 953e b39a 523e 6b5f 32be
00000200: 54c0 fe3d 9d14 bc3e 0261 173e eb58 803c
00000210: 3e5b 1a3d e66a 58be 6df6 54be e49f 15be
00000220: 10e7 863e 70dc b13e 4d28 153e 9662 98be
00000230: a2da 863d eafe eebe 9386 503e f786 553e
00000240: 2c81 6abe c114 d4bd d9e0 c5be 7a58 cabd
00000250: 3395 1fbe 8e1d 80be fc7b 7bbe 98c1 23be
00000260: eb18 9d3d 606d 12bf 3b79 b0bb 5e2d f4be
00000270: 4469 bb3d 3af6 d73d 9c4f 153d 0770 8fbe
00000280: 2f61 32bf a9da 5d3e 2621 dd3e 71cd 29be
00000290: 8a06 123e 178a ef3c 9a17 6dbe b3e9 03bc
000002a0: 1e0e 6c3e a474 eebd 59d8 083e 65f1 fdbd
000002b0: 7055 7f3e 61a5 2cbd 64c4 eb3e 9f51 8fbc
000002c0: b672 0d3f d528 e9be 4545 febe f041 f5bc
000002d0: 26ef 33bd fe69 8b3c 6936 e43d 1816 76be
000002e0: 376a 41be ae68 b0be e9e2 84be 5101 e03d
000002f0: 220e a0be 7d4f ad3e f630 c7bd 1110 0fbe
00000300: ed0d 853e 7941 18bd 1035 65bd 0da2 07bf
00000310: 221e 6cbe 7181 c5be a339 ffbe 9996 acbd
00000320: 6666 cdbd d6ef 3abd c340 443f 60a2 c0bd
00000330: 5365 a23d e7dd 29bd ef43 12bf 90e9 e03d
00000340: 308e 32bd 2e83 e93d 90bd 4f3e 24ad 0c3f
00000350: 374a 43be 83aa 16be eef0 34bc a243 993e
00000360: 28c9 003f d715 583e 2cdc f13e 6ecf 363e
00000370: f99c bf3d a284 f13e 3149 1fbe 00f6 e63c
00000380: 6e50 fc3b 4731 b6bd e712 0d3e 125f b1be
00000390: 8fa7 933e 882e 41be c1ca 853e cab9 bb3a
000003a0: 0fed 89be 8991 b6be 1714 31bd 9f29 1f3e
000003b0: ed81 e83e 5cd4 263e cc3f f83d ec53 7b3e
000003c0: 9c86 403e 8425 f2be 9a00 1cbc 4590 a7bc
000003d0: a229 0ebe 0d43 023e dc01 943e 1e17 c6be
000003e0: 6d30 59bf cc9a d9be 7da6 4fbe fd44 32bd
000003f0: 534a e03e b675 c93d 1179 85be 4e4f 08be
-0.41975078 -0.11636747 0.033198837 -0.004105095 -0.07474564 0.5849078 -0.10952943 0.1627528
0.16915141 -0.090557955 -0.3139152 0.37850028 -0.15872556 -0.19544797 0.40166774 -0.043531004
-0.5292194 0.50658345 -0.107365556 -0.14805321 0.26620486 0.21203226 -0.12887144 -0.5831986
-0.6240396 0.10778521 0.21630082 -4.5064556e-23 0.00021635505 -3.385905e-21 0.0075637954 1.9743086e-19
3.931116e-08 -2.474727e-22 -0.00016364177 -1.10865825e-23 0.26918346 0.031116115 -0.3293133 -0.14423168
0.018249517 0.17369838 -0.032270562 -0.28140244 -0.2790631 0.14681983 0.09923155 0.40786967
-0.1520623 0.057159018 -0.54061943 -0.21014115 -0.031475052 -0.22047126 0.1495489 0.20333852
0.083334655 0.05523452 -0.12617043 -0.23508619 -0.04779834 0.024386775 -0.049474414 -0.11133766
0.3337684 0.0075557833 -0.08151083 -0.07491308 0.11474395 -0.3756093 -0.018527482 -0.46850586
-0.09301852 -0.37770644 -0.16970733 0.051282503 -0.075176254 -0.31167585 0.14408846 -0.1559332
-0.29429933 -0.002678619 -0.07204685 -0.38550973 -0.2433923 0.036435552 -0.019161204 0.26237273
0.1014113 -0.1385971 0.057705786 -0.19187227 0.21684068 -0.30445206 -0.108614236 -0.025870986
-0.23342589 0.1670683 -0.058866054 -0.047064338 0.24360695 0.43045354 -0.2510923 0.007257117
0.022231588 -0.29878023 0.0015391912 0.01314169 0.1610492 0.17829578 0.080439776 0.042959984
-0.30361423 0.046753902 0.14781916 0.46718532 0.18937513 -0.049594563 0.19202283 0.04509023
0.01282856 0.20793167 0.14407468 -0.20773493 0.033518292 0.2923343 0.20566826 -0.17419212
0.124390274 0.36734477 0.147831 0.0156674 0.03768467 -0.21134529 -0.20797129 -0.14611775
0.26348162 0.34738493 0.14566155 -0.29762715 0.0658467 -0.4667886 0.20363836 0.20852266
-0.22900838 -0.10355521 -0.38648108 -0.09880157 -0.15584259 -0.25022548 -0.24559015 -0.15991819
0.07670768 -0.57198143 -0.0053855455 -0.47690862 0.09150937 0.10545011 0.036452875 -0.28015158
-0.6967954 0.21665443 0.43189353 -0.16582276 0.14260307 0.029240651 -0.23153535 -0.008051324
0.2305226 -0.11643341 0.1336378 -0.12399558 0.24934936 -0.042149905 0.46048272 -0.017494975
0.5525316 -0.45538965 -0.49662223 -0.029938668 -0.04392924 0.017018314 0.111431904 -0.24031866
-0.18888174 -0.34454864 -0.2595437 0.10937751 -0.31260782 0.33849707 -0.097261354 -0.13970973
0.25987187 -0.037171815 -0.055958807 -0.52981645 -0.2305837 -0.38575318 -0.4984866 -0.08427162
-0.100292966 -0.04563888 0.7666132 -0.094059706 0.07929482 -0.04147139 -0.5713491 0.109820485
-0.04359263 0.11401974 0.20287156 0.5495169 -0.1907128 -0.14713483 -0.01104377 0.29934412
0.5030694 0.21102081 0.4723829 0.17852566 0.09356112 0.47171503 -0.15555264 0.028193474
0.0077000177 -0.08896118 0.13776742 -0.34642845 0.28838775 -0.18865407 0.2613125 0.0014322337
-0.26938674 -0.3565791 -0.04323205 0.15543221 0.45411626 0.16291946 0.12121543 0.24543732
0.1880135 -0.47294247 -0.009521628 -0.020454535 -0.13883069 0.1272089 0.2890767 -0.38689512
-0.84839517 -0.42500913 -0.20278354 -0.043522824 0.43806705 0.09836905 -0.2606893 -0.13311502

layers.3.weight f4 [2, 128, 1, 1]
00000000: 7739 87be 718d cbbe 99c4 dcbd c2f7 28bd
00000010: a0c6 113e ad0d 7c3d 2a84 293d cf9c 0f3d
00000020: 72cd e0bd 49b2 f2be 1adb 3e3c 2ba7 14bf
00000030: dd26 75be 078f 94bb e96c c73c ecb8 c1be
00000040: c410 84bd 5c2c c73c 0891 133d 80d0 893d
00000050: 3815 a8bc 9423 94be 0fd6 cd3d 9a92 53bd
00000060: 09b7 7dbe 1ab8 da3c e5e2 69be 54f8 703e
00000070: a26b 193c 4354 e63d aca0 c3be 5a14 0fbe
00000080: ad65 a23d ef22 b8bc f190 033d 2e5c d33d
00000090: c47e ecbe 5273 bf3d 6134 29be ca5b 9cbe
000000a0: 951c 9b3d 6781 4ebe bba0 3dbf 9093 f939
000000b0: f850 5bbe 3727 343d c4c8 cbbe 943f b53c
000000c0: 9059 51be 79e6 7fbd 121b 2abe 74c8 82bd
000000d0: e5b0 f9be 622c aabe 96ca 32bf 2349 16be
000000e0: 94e6 c23d 6f66 3b3d 5870 ccbc c3b3 8c3d
000000f0: b479 ebbd c986 92be 6a8e a8bd 9ffc 92be
00000100: f8d6 843c 3b9f 5cbe ec67 0abe e493 7e3d
00000110: 8f4e b23b 4b4d 3fbd b4ec 173d be93 81bc
00000120: 5cc2 99bd d1b1 89bd 7806 bd3e 10fa d4bc
00000130: 8662 c0be 3db4 8ebe 563b cfbe b0a6 573d
00000140: 9bb3 b6be 1159 883c ba5f 48bb 7211 83be
00000150: d1ee 0bbf d969 853c aaf1 a0be a51d 1bbf
00000160: b02e fe3d 4eba 453e 6ae4 c03c 3445 2bbd
00000170: 6b2f af3d c53a 093d ca4b 543b 7e7a 9bbd
00000180: 634b 0ebe f20b 9abd f418 e4be 2493 b0be
00000190: c0c8 6bbd 31f4 b4be f7f8 a1be 85e7 c93d
000001a0: 6936 98bd 6d3e 353e 3189 cfbd 8194 babe
000001b0: d511 18bd 5c55 823d 4380 733e 7fdb b7be
000001c0: 4fb0 f73d 9607 8aba af93 53be ab23 123e
000001d0: 0efc acbd 34be 0bbe bccd bd3c 6378 db3b
000001e0: 6f84 0abe fe2b 1bbc af50 263d 8162 07be
000001f0: 3d00 883d 7989 71be 6f38 573d 6d24 673e
00000200: ea06 9ebe 7270 13be 0714 c23d 2ed5 bf3b
00000210: e4a6 49be fa29 54ba 6424 02bf 5b13 233d
00000220: dd5c 16be 98a0 74bd 7536 833c f898 20bd
00000230: aa64 14bf 01f2 e23b 6a62 0cbf 8a6f 733b
00000240: 0d3f 053e 6e04 123d 11ca 53be 3d61 85bc
00000250: 9447 7d3d b1f9 5bbe b79f 99be c960 a6be
00000260: 8ded 3b3e bdc8 afbc ba0c 07bf 16c3 0c3e
00000270: 2fd5 b23c 959b 08bf b65e 093e c0ce e9be
00000280: 8c50 e5bd 3d30 10be ca55 883d 1b63 a6bd
00000290: 2765 a13d 813a 1bbe 143f 61be 325c b2be
000002a0: 99ab aabe c6c2 27bd eabd d53d 7534 36be
000002b0: 59d9 02bd 0821 51be 1dfc 77be 92f5 4dbe
000002c0: 59f2 d53c bfba d2bd 9f2e 3b3d 1a8c 57bd
000002d0: 3cd7 fc3d 5b67 bb3d ae0a 1ebf 373d c5bd
000002e0: 8e2a 5cbe c1d7 1f3d 40bc 73bc 96a3 2ebe
000002f0: 35db 323d 4898 493d 31bb 3dbc 671c cebe
00000300: 5812 83bd ade7 f4bd be5e 1abd 2668 92be
00000310: e1cd a03d 0ed9 99bd 1d74 473e f0fc d1bb
00000320: 7e3c 2abe 5c6e b13d 0d25 3ebe 3404 abbe
00000330: 8a21 033e a699 c4be e1ef a0bd 21fa 4bbe
00000340: 6837 2d3d 3a04 d03c a98d b43c 1660 633e
00000350: 5233 683d 3f54 773c 21a7 143d bbd0 ddbc
00000360: 0d56 67be df76 bd3d d251 123d d9a0 7abe
00000370: 1602 d83d 8b37 7abe f84d a9be 4871 bbbd
00000380: e1ae 3f3d 410a efbe 642c 1e3e 196c ed3d
00000390: cdc9 0cbd 1172 813c c0f2 193c b9d6 123d
000003a0: 10d3 503e 1de1 b83d 43b0 86bd f4a0 a43d
000003b0: 4363 23be 65e8 34be b48a d93c 3eb8 12be
000003c0: 68c9 103e 18d2 f73b 7474 9dbe dedd a93d
000003d0: 9f24 43bd c3e7 92be 82f3 9dbe 4ff5 cabb
000003e0: b2d8 4d3e 3ca1 b0be 2534 293d 8258 49bd
000003f0: 9ae8 91be 2114 c53d 8555 a8be 4999 dabc
-0.2641103 -0.3975635 -0.107796855 -0.041251905 0.14235926 0.06153648 0.041385807 0.035061654
-0.109766856 -0.47401646 0.011648918 -0.5806758 -0.23940606 -0.0045336518 0.024343925 -0.37836397
-0.0644851 0.024313144 0.036026984 0.06729221 -0.02051793 -0.28933394 0.10050594 -0.051653482
-0.24776854 0.026699115 -0.2284046 0.2353223 0.009364041 0.112465404 -0.3820852 -0.13972607
0.07929549 -0.022477595 0.03212065 0.10320316 -0.46190464 0.093481675 -0.16523887 -0.3053878
0.07573811 -0.2016655 -0.7407338 0.00047602924 -0.21417606 0.04398271 -0.3980161 0.022125043
-0.20444322 -0.062475655 -0.16611889 -0.0638589 -0.48767772 -0.33236986 -0.6984037 -0.14676337
0.095166355 0.045751985 -0.024955913 0.06870224 -0.114978224 -0.28618458 -0.08230288 -0.2870836
0.016215786 -0.21545117 -0.13516206 0.06215276 0.005441494 -0.04670457 0.037090972 -0.01581752
-0.07507774 -0.06723369 0.36918998 -0.025998145 -0.37575167 -0.27871886 -0.40474957 0.0526492
-0.35683903 0.016644033 -0.0030574636 -0.25599247 -0.5466128 0.016285824 -0.31434375 -0.6059211
0.12411249 0.19309351 0.023546416 -0.041814044 0.08553966 0.033503313 0.0032393807 -0.07591723
-0.13895945 -0.0752181 -0.44550288 -0.3448726 -0.057564497 -0.35342553 -0.31635258 0.09858612
-0.07432253 0.17699595 -0.10133589 -0.36441424 -0.03712638 0.06363937 0.23779397 -0.3590965
0.12094175 -0.0010530825 -0.20661806 0.14271419 -0.08446513 -0.13646775 0.02316939 0.006697701
-0.13527082 -0.009470938 0.04060429 -0.1322117 0.066406704 -0.23587598 0.052544054 0.22572489
-0.3086465 -0.14398363 0.09476476 0.0058542704 -0.1969257 -0.0008093413 -0.5083678 0.03981338
-0.14683862 -0.059723467 0.016017178 -0.039208382 -0.579661 0.006925822 -0.5483767 0.003714534
0.13012333 0.035648756 -0.20682551 -0.016281718 0.06183584 -0.21481968 -0.30004665 -0.32495716
0.18352337 -0.021458024 -0.52753794 0.13746294 0.02183017 -0.533624 0.13415036 -0.4566555
-0.11197004 -0.14080901 0.06656988 -0.081243716 0.078806214 -0.15159036 -0.21996719 -0.34835964
-0.33334044 -0.040957235 0.10436614 -0.17793448 -0.03194556 -0.20422757 -0.24217267 -0.20113209
0.026116537 -0.10289525 0.04569876 -0.052623846 0.1234574 0.09150573 -0.61735046 -0.096308164
-0.21500608 0.03902412 -0.014876425 -0.1705459 0.043666083 0.049217492 -0.011580274 -0.40256044
-0.06399983 -0.11958251 -0.03768801 -0.28595084 0.07851768 -0.07512103 0.19477887 -0.0064083263
-0.16624638 0.086636275 -0.18568821 -0.33401644 0.12805763 -0.38398474 -0.07858253 -0.19919635
0.042289168 0.02539264 0.022040205 0.22204623 0.056689568 0.015095769 0.0362922 -0.02707707
-0.2259142 0.092511885 0.03572256 -0.24475421 0.10547273 -0.2443525 -0.33067298 -0.09152466
0.046797637 -0.4668751 0.15446621 0.115928836 -0.03437214 0.015801461 0.009396255 0.035849307
0.20393014 0.09027312 -0.06576588 0.08038512 -0.15955834 -0.17666776 0.026555397 -0.14328095
0.1413933 0.007562887 -0.3075291 0.08294271 -0.047642346 -0.28692445 -0.30849844 -0.006193794
0.20102194 -0.34498012 0.041309495 -0.049156673 -0.28497773 0.0962298 -0.32877746 -0.02668442

act_fc1.weight f4 [64, 72]
00000000: d9d8 0bbf ba6c d7bd e4a9 f2bd f683 a4be
00000010: 09d2 f4bd f2a8 cebd 42bf 99be c939 31bd
00000020: d623 ad3c b479 90be 7fda bdbc 0b52 a13e
00000030: 8bc4 8fbe ce34 15bd 5f5d 9ebd a164 433e
00000040: a50d 023e 3e0c 08be aca9 02bf 22fd 96bd
00000050: d1d3 98be 0396 c5bd c12c 13bd d0d0 1e39
00000060: 2acc 3ebe 50a0 1fbe 9e0c 85bd 4948 933d
00000070: 79c5 c9bc 3042 89bd 3c94 f13e e88f cb3c
00000080: c266 0ebe 36b6 c1bd 1ca4 41be e72d 2abd
00000090: 5c42 363c 2d0d c33c 9a8c fc3d fa74 7ebe
000000a0: df73 0abf cba8 06bd c753 273e a9c4 9a3e
000000b0: 5f52 a23d 392e 17bd 1e2b e0bd 2a62 87bc
000000c0: 65e0 d8bd d24c 4dbd 151d 073e 3866 1bbe
000000d0: 84e9 b2be 3863 90bd 37c6 b4be 2364 583e
000000e0: 4cb0 9abc b639 babe 603d c5bd 6ba4 15be
000000f0: 6ee6 c1be 20c5 013e c8ed 293d a58c 8dbe
00000100: 2d54 863e 5d12 7a3d bee4 bfbe 0f5b 8ebe
00000110: 0960 163e bfc4 e3be e276 97be d197 4ebe
00000120: b83b 1abe 57f6 6e3e 4626 a8bc 9b99 d9bd
00000130: 147a 9cbe 5de4 cbbd 0cdb b5bd 7918 243d
00000140: 872a 9cbe 3505 8c3e de16 63be f442 8bbe
00000150: aad5 cdbd d23f 12be f5b6 053e 97f9 42be
00000160: 9a1f b03d 5716 87be 70a9 063d d702 0cbe
00000170: 64ec 51be 1aa3 f5bd 1c50 06be 9587 94bc
00000180: bd95 a4bd c9f7 86bd c231 36be d010 5bbe
00000190: 80c1 d7bd 6839 0f3d f56a 803d 0072 1dbe
000001a0: e7f3 af3e 3fcb 77be 7528 6abe be96 c43e
000001b0: 204e 9dbd 18b7 6bbe bb4a b3bd 56b4 b2bd
000001c0: ef7a 86bd f03c 90bd eca7 d7bd 00d9 8abe
000001d0: 2d72 9abe 6a1f b8bd b8ae 753e d468 11be
000001e0: d77b b7bd fccd 7c3d 7304 25be 094a 093e
000001f0: 7962 9cbe 5daa 253d f2a8 be3c e367 49be
00000200: c200 2ebe 387f b4bd c05e fb3d d42e a63d
00000210: a624 8ebd 6e8e 1abe 5068 46be 195d 87be
00000220: 5b47 17be 9f24 8fbe 8430 063e 4e73 c33d
00000230: 9d04 71bd 44b3 86bc 028a 01be d327 053e
00000240: 67cf eb3d 304b 8fbe 273d e63e c745 58bc
00000250: 0a82 d13d 8551 f23d 2096 023f 1f64 3abd
00000260: 0236 1dbe ee2f 253d f4b6 573e 44ef 1a3e
00000270: 9ba0 20bf 5a77 6f3d d689 edbc b891 c83d
00000280: b40e cabd 6a47 c63d 7263 99bd 594d 2b3e
00000290: 4b5e 7abe a317 c13d d44b d5bd f342 79be
000002a0: 783b b63d 6d2d 923e 0aa3 dabd 22bf 0f3e
000002b0: 0c17 1cbe 834a 283e 70ed 9dbb 3d55 87be
000002c0: 30b9 503e e81d 82be 1c6c 0fbe 09e4 33be
000002d0: 1416 98bd 3dbd b33c 86ad 1fbe c137 1d3e
000002e0: 179a 8d3e fe0d 773d 283e e23d a251 383d
000002f0: 2c10 ce3d 93b8 a33e a474 483b 4d7a c23d
00000300: e994 703c c1b0 863c 7ad8 033e 241b 103e
00000310: 1f79 dbbd 9a02 643b 05b9 e83d cd38 65be
00000320: 1a80 b93d 8410 61bd dbfa 0cbd 1f37 c9bc
00000330: dc1f 39be a806 c13e 8bab 12be 9c87 50bd
00000340: 54b8 0ebe 2bac 63be c2bc 123d 14f9 b63c
00000350: 8744 d93d 9fd6 cebd 4e01 32be 082a 873e
00000360: 9207 343e da47 a0be e61c e63d 08a3 6ebe
00000370: c5d8 643e dc8b d83e e682 1dbe 7017 f23d
00000380: 505c 9a3e 5e7d 7f3d 910c 54be ff83 9cbd
00000390: 6a27 853e 9b06 a3be 4f37 05bf ce85 9c3e
000003a0: 832b 5c3d ac61 b53e 5623 0e3e 948c afb9
000003b0: ba3b 19bf cdec 98be e9dd 8d3e 83d3 0fbe
000003c0: ae09 69be 3230 eebd dd2e 56bd d8ce 9dbd
000003d0: b317 2fbe 8057 a3bb a5b8 4d3f 2226 7cbe
000003e0: 9a9b 4c3d a89e 9bbe 9d53 ee3e 7a28 f7bc
000003f0: f870 653e 9f11 b33e bbed 16be 4300 bebd
-0.5462776 -0.10518785 -0.1184881 -0.32131928 -0.119541235 -0.100908175 -0.3002873 -0.043268
0.021135252 -0.28217852 -0.023175476 0.31507906 -0.28079638 -0.03642731 -0.07732653 0.19081356
0.12700517 -0.1328592 -0.5104015 -0.073725 -0.29849103 -0.09647753 -0.035931353 0.00015145843
-0.1863257 -0.15588498 -0.06496547 0.07191522 -0.024630295 -0.067020774 0.47183406 0.024848893
-0.13906386 -0.09458582 -0.18910259 -0.041547682 0.01112422 0.023809994 0.12331505 -0.2484931
-0.54083055 -0.032875817 0.16340552 0.30228165 0.07925867 -0.036909316 -0.10945724 -0.0165263
-0.10589675 -0.05012209 0.13194688 -0.15175712 -0.34943783 -0.070501745 -0.35307476 0.21131949
-0.018882893 -0.36372155 -0.09630847 -0.14613502 -0.37871116 0.12672853 0.04148653 -0.27646366
0.26236096 0.06105267 -0.37479204 -0.27803847 0.14685072 -0.44486043 -0.29582888 -0.20175101
-0.15061843 0.23336159 -0.020526063 -0.10625001 -0.30561888 -0.09955666 -0.088796705 0.0400624
-0.30501196 0.27347723 -0.22176692 -0.2719952 -0.10050519 -0.14282158 0.13058074 -0.19040523
0.085997775 -0.2638423 0.032876432 -0.13672958 -0.20500332 -0.11994 -0.13116497 -0.018131057
-0.08036373 -0.0659023 -0.17792419 -0.21393132 -0.10534954 0.034966856 0.062704004 -0.15375519
0.3436577 -0.24198626 -0.22866996 0.38396257 -0.07680917 -0.23019063 -0.08754488 -0.087258026
-0.065664165 -0.07042873 -0.105300754 -0.27118683 -0.30165234 -0.08990367 0.23992431 -0.14200145
-0.089591675 0.06171988 -0.16114978 0.13407148 -0.3054388 0.040445674 0.023273919 -0.19668536
-0.16992477 -0.088133276 0.122739315 0.081144005 -0.06940584 -0.15093395 -0.1937573 -0.26438215
-0.14773314 -0.27957627 0.13104445 0.09543477 -0.05884229 -0.016442902 -0.12650302 0.13003473
0.11514168 -0.2798705 0.4496853 -0.01320023 0.10229881 0.11831955 0.5101032 -0.04550564
-0.15352634 0.040328912 0.21065885 0.15130335 -0.62745064 0.058463432 -0.02899639 0.09793419
-0.09866086 0.0968159 -0.07489671 0.16728725 -0.24450032 0.094283365 -0.10414854 -0.24341945
0.088980615 0.28550282 -0.106756285 0.14037755 -0.15243167 0.16434674 -0.0048195645 -0.2643222
0.20383143 -0.25413442 -0.14006084 -0.17567457 -0.07426086 0.021940822 -0.15593538 0.153533
0.27656624 0.06031608 0.110470116 0.044999726 0.10061678 0.31976756 0.0030587101 0.09495983
0.01468394 0.016441705 0.12875548 0.14072853 -0.107164614 0.003479159 0.11363415 -0.22384949
0.090576366 -0.05494739 -0.034418922 -0.024562417 -0.1807856 0.3770039 -0.14323251 -0.050910577
-0.13937503 -0.22233646 0.035824545 0.022335567 0.10608774 -0.100995295 -0.1738331 0.26399255
0.17581013 -0.31304818 0.11235981 -0.23304379 0.22348316 0.42294204 -0.15381965 0.118208766
0.30148554 0.06237542 -0.20707919 -0.07642364 0.26006633 -0.31840977 -0.5203752 0.30570835
0.053752434 0.3542608 0.13880667 -0.0003348334 -0.5985676 -0.29868165 0.27708367 -0.14045529
-0.22757599 -0.11630286 -0.052290786 -0.07705468 -0.17098884 -0.004984796 0.8035987 -0.24623922
0.04995308 -0.30394483 0.46548167 -0.030170668 0.22406375 0.3497438 -0.14739124 -0.09277394

act_fc1.bias f4 [64]
00000000: 6bb2 933f 5a44 d0be 8b13 17be 3569 b6be
00000010: 47b7 193e 5774 c53d d498 d2be 3c06 84be
00000020: 79ee 89be a4c2 1dbe 6037 dcbe 8090 67be
00000030: 4ef5 d8be ca51 b43d ec4f 1a3e e450 453e
00000040: 0c39 f9be acd4 233f fa80 8b3e 0742 583e
00000050: af9b 913c 2953 4dbe aea0 5abe a257 e33c
00000060: 1ac1 d9be 6234 1d3e 50a1 39bf fa60 b0be
00000070: c57a b7be c1e3 06bf e38e cbbe d2e8 783f
00000080: 1b15 c7be 8c17 593e c5f4 6bbe 364f c3be
00000090: 6606 073f 072f b7be cc0a 463f abc7 0e3f
000000a0: 7f12 d03e eb45 16bf 2526 aabe ae76 91be
000000b0: 87ed 12be da96 bbbd e03c 3abf 413e 6ebf
000000c0: 954b c7be 8c2d 05bf b532 01bf e09e f23e
000000d0: 7395 d6be 655f bebe 7446 91be 32ef 76be
000000e0: e802 5c3f 920c 00bf 08be 833f 9ef7 9cbe
000000f0: a703 333f cb12 82be 0de7 a2be 2369 f4bc
1.1538824 -0.40677148 -0.14753549 -0.35627142 0.15011321 0.09641331 -0.41132224 -0.25786006
-0.26939753 -0.15406281 -0.43010998 -0.22613716 -0.42374653 0.088046625 0.1506955 0.19269139
-0.48676336 0.63996387 0.2724684 0.21118937 0.017774431 -0.20051254 -0.21350357 0.027751748
-0.42530137 0.15352014 -0.7251177 -0.34448987 -0.35835853 -0.52691275 -0.3975745 0.97230256
-0.3888329 0.21200389 -0.23042591 -0.3814637 0.5274414 -0.35778067 0.77360225 0.5577342
0.4063911 -0.58700436 -0.33232227 -0.28410858 -0.14348422 -0.09159632 -0.7274914 -0.9306374
-0.38924852 -0.52022624 -0.50468 0.47386837 -0.41910896 -0.37182155 -0.28374064 -0.24114683
0.85941935 -0.5001918 1.0292368 -0.30657667 0.6992745 -0.25404963 -0.31816903 -0.02983529

act_fc2.weight f4 [36, 64]
00000000: 1964 36bf f11f 3a3e 756d 76bd 3839 a8be
00000010: a7b7 6fbc 4cd0 613e a232 443e a821 aabd
00000020: 0738 2ebd 9a38 3f3e 070b ffbe 051d f2bd
00000030: 6509 03be 6dda 6cbe 74ce 8dbe d06f 70be
00000040: 63b4 c4bd fb1b a4be ea72 5cbe dce3 903e
00000050: 2263 25be 2519 18bd d7c1 bbbc 711e c0bc
00000060: 51f1 60bd cfd8 9fbe bbf7 9cbe 88a5 d6bd
00000070: b002 233c 9268 e7be b253 20be c6b6 d5bd
00000080: c5c6 c3bd c218 aabe 6fcb 07be 37e2 7c3e
00000090: 710b 87be 13cf 263e 0845 ca3e 96ce d23d
000000a0: 12ea 22be 08d0 de3d a7d0 31bd 0b25 453e
000000b0: 1513 c0bc 07b4 20be 1da0 1ebe 5abf ab3e
000000c0: 43cb 6a3e ac8d 7fbe 1e2c 67be 2d20 e2bd
000000d0: da14 1ebe c23c 0fbe 36a0 dfbe ad54 a13d
000000e0: fe21 1abe 8748 d13e b7e9 08bf db8b b3bd
000000f0: da1f 35be 50f6 d7bd e285 e63d a661 7637
00000100: dd83 87bd 6f7d 2fbe ee16 613e b98a 463e
00000110: 7d43 f03d f757 ccbd 1a01 02be dab8 95bc
00000120: 7dd9 babd c038 943d 64b8 febd b270 633d
00000130: ea15 13be a8b0 4c3c ff1f 983c d9b6 3a3c
00000140: 09ad 7cbe 7868 56be ba71 c0bb f308 e0be
00000150: 3a26 8bbd ea55 c3bb 21cf 3dbd b135 16be
00000160: 9fa8 493e d658 6cbe 3afa 933e 3915 c13d
00000170: 7c0d 33bd 580c 61be 8a5c 62bd e8bb c9be
00000180: 8398 443e 49a3 843d a978 bcbd 84b7 19be
00000190: 8e0f 5cbc d44a 073e 66d0 e8be 06b0 6abd
000001a0: fbfe 6dbe 8f1e 4d3e 7403 e03b 8cb8 07be
000001b0: e643 7bbd f189 97bd 059e 3d3d ec68 b5bd
000001c0: 4fec dfbb d0c6 8d3e b066 943d 4687 7bbe
000001d0: fdbb 90be c11d 753e 9ccf d53e b70c 2d3d
000001e0: 8bde edbe 6da1 633e 68f2 91be a61c 8bbc
000001f0: 1523 adbe bedd 85be 6067 e9bc 421c c238
00000200: e328 56bd b703 57bd d971 fabd e58b 96be
00000210: 048f edbd a2bd e8ba 0f30 c93d 2ca7 36bd
00000220: e2e2 1dbc d550 193d 2c23 613e f4bf a8bd
00000230: d482 323e 12d5 d8bd 84fb a2bc 67c9 5dbe
00000240: 7128 5c3d de60 343b fdda 95be 22d9 b93c
00000250: 24a2 4bbe 58ac 17be 0c3e 00bd c5db a8ba
00000260: 6278 a23d 1b0b 1fbd 9efb a9bc 763e e3bc
00000270: 3327 e83c 283e 97bd 6f8c 30be 771d 593d
00000280: 8281 c9bd c5e7 8ebe f19a 83bd ea7f af3d
00000290: c6ad 33be 8dd0 89ba 527b 06be 8ccd 08be
000002a0: 2fb3 28bd d403 db3e a39a 6abd 56fa f1bd
000002b0: fc3e 43be 57bc adbd 8865 e53d a496 5c3e
000002c0: e7b4 8abd e032 ab3d 5612 273d db04 02bd
000002d0: 3f95 63bd 7281 a5bd c5d2 25be d5b0 3dbe
000002e0: 8065 7d3d 7a1e 013e 731d 9bbe 8e9c 60bd
000002f0: 8069 b4bd 0668 71bd 33c3 c7bb 14bb 5a3a
00000300: fa6d ecbd a559 58be 1908 a5be a8d2 1b3d
00000310: 220f 0ebd f3bc cbbd 6049 cbbd c5a8 d43b
00000320: 4326 ddbd 941f c9bd e07b 04be 521e 2cbe
00000330: fea4 983d 768d 0e3e d045 ff3d 9550 7ebe
00000340: cfed bfbd 0602 59be 08fa c0bd 358d ebbc
00000350: e084 7f3e 3dbc 233d 3fba 983d 9109 c93c
00000360: 66a1 863e 9c46 c4bb f330 bf3d d025 28be
00000370: 64a8 e13d 1fba 7b3e 6637 34be 660a e03c
00000380: e531 e8bc 8498 4fbe 1b8b 003e 5dbc 40be
00000390: c062 1dbe db59 13be c167 96be 9f87 35be
000003a0: 03be 03bd 49ec efbd 99f0 6cbc df1c 03be
000003b0: f285 133d fc2b fdbd 89a0 c6bd 734e dd3d
000003c0: 4fb5 d93c edec 843e 6dbf 61bd 177e 79bd
000003d0: 25ff d8bc 68e8 403d ac40 633d 5b70 b4bd
000003e0: 4bf5 373d 00af 51be 40ee 6cbd f843 e6bd
000003f0: cf00 57be c70b 41bd 339b 2bbe 4161 8b39
-0.71246487 0.18176247 -0.06016298 -0.32856154 -0.0146311885 0.22052115 0.1915994 -0.08307201
-0.0425339 0.18673936 -0.498131 -0.11821941 -0.12796552 -0.23130198 -0.27696574 -0.23480153
-0.096047185 -0.32052597 -0.21528211 0.28298843 -0.16151097 -0.037133355 -0.022919578 -0.023452016
-0.054917637 -0.312201 -0.30657753 -0.10480791 0.009949371 -0.45196968 -0.15656927 -0.10435252
-0.09559397 -0.33222014 -0.13261198 0.24695669 -0.26375917 0.1628993 0.39505792 0.102933094
-0.15909603 0.108795226 -0.043411877 0.19252412 -0.023446599 -0.15693675 -0.15490766 0.33544427
0.229291 -0.24956387 -0.22575423 -0.11041293 -0.15437642 -0.13988021 -0.4367692 0.07877479
-0.1505203 0.40875646 -0.5348162 -0.0876691 -0.17687932 -0.10545027 0.11256005 1.4685478e-05
-0.06616948 -0.17137693 0.21981403 0.19388856 0.11731622 -0.099777155 -0.12695733 -0.01827662
-0.09123514 0.07237387 -0.124375135 0.055527397 -0.14363828 0.01249329 0.018569944 0.011396133
-0.24675383 -0.20938289 -0.0058729323 -0.43756828 -0.067944005 -0.0059611695 -0.04634011 -0.14668919
0.1969323 -0.23080763 0.28901845 0.09427876 -0.04371403 -0.21977365 -0.055264033 -0.39401174
0.19198804 0.06476457 -0.092027016 -0.15011412 -0.013431443 0.13212138 -0.45471495 -0.057296775
-0.23241799 0.20031188 0.006836349 -0.13253993 -0.06134405 -0.07399357 0.046293277 -0.08857903
-0.00683359 0.27690744 0.072461486 -0.24563321 -0.28268424 0.23937131 0.41759956 0.042248454
-0.4645885 0.22229548 -0.28505254 -0.016981434 -0.33815828 -0.26145738 -0.028491676 9.255904e-05
-0.052285086 -0.052493777 -0.12228746 -0.29403606 -0.11599544 -0.001775671 0.098236196 -0.04459302
-0.009636613 0.037430603 0.21986073 -0.08239737 0.1743272 -0.10587515 -0.019895323 -0.2165886
0.053749505 0.0027523558 -0.29268637 0.022686545 -0.1988607 -0.14811838 -0.031309173 -0.0012882879
0.079331174 -0.03882895 -0.020749863 -0.027739745 0.028339004 -0.07384902 -0.17241071 0.053006615
-0.09839155 -0.279112 -0.06426037 0.085693195 -0.17546758 -0.0010514423 -0.1313298 -0.1335966
-0.041186508 0.42776358 -0.05727638 -0.11815326 -0.19066995 -0.084831886 0.11201006 0.2154184
-0.06772786 0.08359313 0.04078897 -0.03174291 -0.055562254 -0.0808133 -0.16193683 -0.18524487
0.061864376 0.12609282 -0.30295905 -0.054836802 -0.08809185 -0.058937095 -0.0060962676 0.0008343917
-0.11544414 -0.21127947 -0.3223274 0.038042694 -0.0346824 -0.099481486 -0.099261045 0.0064898455
-0.107983135 -0.09820476 -0.1293788 -0.16808441 0.07453345 0.1392115 0.124644876 -0.24835427
-0.0937153 -0.21192178 -0.0942269 -0.028753856 0.24953032 0.03997444 0.074573986 0.024540694
0.26295012 -0.0059898626 0.09335508 -0.16420674 0.11018446 0.24582718 -0.17599258 0.027348708
-0.028344104 -0.20273024 0.12553065 -0.18821855 -0.15369701 -0.14389746 -0.29376033 -0.17727517
-0.03216363 -0.1171499 -0.01446166 -0.12803982 0.036016412 -0.12361905 -0.096985884 0.108059786
0.026575712 0.2596201 -0.0551142 -0.060911264 -0.02648885 0.04709664 0.055481598 -0.088104926
0.044911664 -0.20476913 -0.0578444 -0.11243433 -0.20996402 -0.047130372 -0.16758423 0.00026584606

act_fc2.bias f4 [36]
00000000: 0a2b 3abf 594f 28bf 4379 d0be 6f8e c9be
00000010: 12ed 4cbf 3c32 2dbf 6552 21bf 2c24 f33d
00000020: 0f91 063f 7c5d b13e 6ac1 693c 3bd4 3ebf
00000030: 3953 06bf a30d a33e 1673 183f 3b85 223f
00000040: c2b7 f13e 90ef f0be a6e4 d9be 0295 013f
00000050: eaa5 323f b060 1d3f b3d2 d73e d6ff a2be
00000060: baad 51bf 4f2b a33d 7b47 0c3f 1464 b03e
00000070: 945b 533d 9881 21bf 4dea 2fbf 4696 47bf
00000080: 64cd a1be e327 bfbe a1be 3abf 0e43 3ebf
-0.7272192 -0.65746075 -0.40717515 -0.3936648 -0.8004924 -0.67654777 -0.6301635 0.118721336
0.5256509 0.34641635 0.014267305 -0.7454259 -0.5247074 0.31846341 0.5955061 0.63484544
0.4721051 -0.47057772 -0.42557257 0.5061799 0.69784415 0.6147566 0.42152938 -0.31835812
-0.8190571 0.07967245 0.5479657 0.34451354 0.051601008 -0.6308837 -0.6871689 -0.77963674
-0.31602013 -0.3733512 -0.72947127 -0.7432107

val_fc1.weight f4 [64, 72]
00000000: 5ed0 093e 8b90 543e 3da7 68be 880e b03d
00000010: a46e 393e e9d2 bf3d 0f96 5ebe 9ac2 e03d
00000020: 3929 963c 64f3 a3bd 41a1 2abd cd0e 3ebc
00000030: 6bd3 603d f6eb 873d 0bae e4bd 8ef4 56be
00000040: 41db d63d 96ba 32be 790f 5fbd 05ea be3d
00000050: c105 efbd eec8 603e 554b 863e 6339 b23c
00000060: 1f24 3b3d 6b4d cdbd 70fc 7abc a956 1e3e
00000070: 0eb2 d13d fa2c 71be 7279 853c e609 74be
00000080: ba62 4dbe 688e e5bd 85da 0dbe 6b1c 42be
00000090: e8fd f93d f731 903d 4a89 953d 30fd 90bd
000000a0: a666 0abe 767a 8ebc 659c 99bd 983a 33bd
000000b0: 6aba 55be 7c7c 123c 4aa3 6ebd 5d4f e23c
000000c0: fcb6 27be e631 a7bc 302e 8dbc 79f2 1f3e
000000d0: 092e 723d d20c bb3d 3338 4c3e d211 16be
000000e0: 2098 6abe 6e50 123e 20f7 953d 524f d53c
000000f0: 978a db3c 925a 1dbe d9ce 06be 043c 8abb
00000100: 7c27 8fbd 9c38 a63c daf8 8abe 8a11 bfbc
00000110: 341d 8a3d fed7 5f3e c31b 52bd 65ef 533e
00000120: 5455 483e 6646 513e 8118 51be 1624 203e
00000130: 56cb 2cbd 7f5b df3d 8c06 e3bb 4066 eb3c
00000140: b595 773d 151f 93bc bcc5 153d 68df 6f3d
00000150: 8bb4 b6bd f6ba 933c 3e43 4ebc 6bd0 a6bd
00000160: 3bb3 d53b d8fe 84be 6d5e 81bd c831 2c3d
00000170: 075e d43d 8d46 783e 068d c63d 3c10 2b3e
00000180: b6e4 00be d9c0 03be 8652 d73d 08a4 453e
00000190: 6315 493d 224c 4bbe 7528 823d e8bb 973d
000001a0: 1cb1 cfbd 1247 c83d d46f e43d 2066 273b
000001b0: a9d8 a93d efae 5bbd 853c f03c 4e36 a1bd
000001c0: fb62 103d c94b 2c3d e366 40be ff86 8f3d
000001d0: 366a 6ebe fb44 a4bd 66da 2bba 3e32 14be
000001e0: f0c7 08be 9d20 c3bc d3fc 0fbe a261 9e3d
000001f0: 4151 70bc 922e fb3d c28b 583e d49d 0abe
00000200: 1dca 61be d26c a23d 7911 0c3c 7380 11be
00000210: 2f3c 813e 5530 dfbd 379a 32be 1b7e 03bd
00000220: bfeb 153e a1ab b3bd 5cc0 2bbe 4873 17be
00000230: ac25 44be 12a7 8a3b 7072 053d 8a9d bf3d
00000240: b648 6abe 5e58 533d 6f84 c0bd 44d1 1ebe
00000250: 7d73 f63c c05d 14be 3a95 3abe 32cf dabe
00000260: babb 3abe 5c2b 7abc b6c4 b23d 5c85 80be
00000270: 69bf 2d3e 8af4 7fbe 14d5 73bc c89d b0bd
00000280: c23b 453e 4659 be3e 2e4e 8a3e 2e38 b8be
00000290: 4076 2fbe 1534 6dbe 6ee3 58bd f778 973e
000002a0: fc3f 4abe dff5 12bd 6609 473c 910b 8cbd
000002b0: 0d26 803d 227c 503c 8273 4abe 5c96 e5bd
000002c0: cca6 d53e 6632 cbbe e738 acbe 394f c13e
000002d0: cbaa 6fbd e3e0 79be 496f 293e 29c6 0c3e
000002e0: 0b79 0cbe 9e2c d1be 7a06 113f bb29 22be
000002f0: 1944 2b3d 923b a33c 94b1 03bd 4473 a9bc
00000300: 683b 683e 368b 23bd 05ab 8bbe 0519 57bd
00000310: 32a8 993d 1e75 babc be17 e33d d15d a13d
00000320: 923d 17be 8b8d 48be d2e3 40be dccc bdbd
00000330: 4584 e2bd 70b8 4cbd 88cf 72be b2ec 913e
00000340: 5f61 873e a5e5 863e 6aea d83e 16d9 e53d
00000350: bb29 803e 3e75 cdbd 30b0 33bd 4edd b03e
00000360: 1beb 1fbe 8aec e83c 4cea 143e 36e8 70be
00000370: 667b 1f3d 1139 fbbd e502 5bbd a3aa d8bd
00000380: 1946 7fbd e9df 213e 7c74 193e 4870 523e
00000390: bae2 313b 09a2 113d d667 633e 3e99 49bd
000003a0: 7342 143d ac6c 843e 2ba8 8d3d d8a1 e3bd
000003b0: c1bb 86be ff9d 93bd ac75 84be a0f6 45bd
000003c0: 7847 c2be d2f8 74be 642d bbbd 3fc8 85be
000003d0: f9d8 253e ece4 fc3d 91ce c93c 87d8 c33d
000003e0: 62e6 833e 8fbf 1dbe 48ee 3b3e 2d3e 053f
000003f0: bac7 5fbe 3e72 2fba 31a2 353c f452 b6bd
0.13458392 0.20758264 -0.22720046 0.085965216 0.18108612 0.093664 -0.2173693 0.10974617
0.018330203 -0.080054075 -0.04165769 -0.0116002085 0.054889124 0.06636803 -0.111660086 -0.20991728
0.10491038 -0.1745399 -0.054458115 0.093219794 -0.11671019 0.21951649 0.2622935 0.02175588
0.045688745 -0.10024532 -0.015318975 0.15462746 0.10239039 -0.23552313 0.016293261 -0.23831901
-0.20057192 -0.112088025 -0.1385289 -0.18956153 0.12206632 0.0704078 0.073015764 -0.07079542
-0.1351572 -0.017392378 -0.07500533 -0.04375705 -0.20871893 0.008940812 -0.058261193 0.027625734
-0.16378397 -0.020409536 -0.017233938 0.1561984 0.059125934 0.09133305 0.19943313 -0.14655235
-0.22909594 0.14288494 0.07322526 0.0260388 0.026799483 -0.15366581 -0.13164844 -0.00421858
-0.06989953 0.020290665 -0.27142984 -0.023323793 0.06743851 0.21859738 -0.051296007 0.2069679
0.195638 0.20437011 -0.20419504 0.15638766 -0.042186104 0.10906123 -0.0069282707 0.02873528
0.060445506 -0.017959157 0.036565527 0.058562666 -0.089211546 0.018033486 -0.012589274 -0.08145221
0.00652161 -0.2597568 -0.063168384 0.042039663 0.10369497 0.24245663 0.09694867 0.16705412
-0.12587246 -0.12866534 0.10513787 0.19300854 0.04909266 -0.19853261 0.06355373 0.07408887
-0.10141203 0.097791806 0.11154142 0.002554305 0.08293278 -0.053633627 0.029325733 -0.07871686
0.035250645 0.04206446 -0.18789248 0.0700817 -0.23282704 -0.080209695 -0.0006555676 -0.14472291
-0.1335752 -0.023819262 -0.14061289 0.07733466 -0.01466781 0.12264742 0.21147063 -0.13536769
-0.22049756 0.07930912 0.008549088 -0.14209156 0.2524123 -0.108978905 -0.17441641 -0.032102685
0.14640711 -0.0877297 -0.16772598 -0.1479007 -0.19154996 0.004231342 0.03257984 0.0935622
-0.228793 0.051597945 -0.0940026 -0.15509516 0.030084366 -0.14488888 -0.18220988 -0.42736202
-0.18235675 -0.015269127 0.08728926 -0.25101745 0.16967548 -0.24995628 -0.014882345 -0.086238444
0.19261077 0.37177485 0.2701277 -0.35980362 -0.17134953 -0.23164399 -0.05295127 0.29584476
-0.1975097 -0.035879012 0.012148237 -0.068381436 0.062572576 0.012724908 -0.19770625 -0.112103194
0.41728818 -0.39686888 -0.33637163 0.37755755 -0.05851249 -0.24402194 0.16546358 0.13747467
-0.13718049 -0.40854353 0.5665051 -0.15836231 0.04181299 0.019925866 -0.032151774 -0.020684846
0.22678912 -0.039927684 -0.27278915 -0.052514095 0.07502784 -0.022760924 0.11088513 0.07879222
-0.14769581 -0.19585244 -0.18836907 -0.092675894 -0.11060385 -0.04998058 -0.2371198 0.28500897
0.26441476 0.2634708 0.42366344 0.112230465 0.25031838 -0.10032128 -0.043869197 0.34543842
-0.1561703 0.028433103 0.14542502 -0.23526081 0.03893604 -0.12266744 -0.053469557 -0.10579421
-0.06232271 0.15808071 0.14985842 0.20550644 0.0027143196 0.03555492 0.22207579 -0.04921841
0.036196183 0.2586416 0.06916841 -0.111148536 -0.2631512 -0.0720787 -0.25871027 -0.048330903
-0.3794515 -0.23923042 -0.09139517 -0.26129338 0.1619605 0.12348351 0.024634631 0.09562784
0.25761706 -0.15405105 0.18352616 0.52048 -0.21853533 -0.00066927436 0.011086033 -0.08902541

val_fc1.bias f4 [64]
00000000: dabc 673c 706f 88bd 00dc 46bc c3f9 82be
00000010: 73ea 48bd 51f6 0ebe 7749 a0be 07e4 08be
00000020: b331 1d3d 8131 01be 22db 483d a28c 863d
00000030: 86d4 c3bc 5ae3 41bd 9d38 15be b2aa a3bd
00000040: a55d a5b8 7b17 93be a69f 84bd d611 9ebe
00000050: bd6c d2bc f8d3 12bd d467 22be f170 f9bd
00000060: c785 73be 968e 803c 2df7 f7bd 3c51 3ebe
00000070: 47c9 b7bd b1a8 a7bd 920f 9abe e24d 08be
00000080: d353 8dbe 92e5 8a3d f17e b73d b524 e3bd
00000090: c897 98be 2cfd 23be a646 d2bd 3c76 32be
000000a0: 2236 5dbe 44e9 973d 39a6 2a3d b923 94bc
000000b0: dd23 883d 8cda 0cbe 5a37 1cbe 25ae 0dbe
000000c0: 520d d7bd a788 bfbd f1f2 4bbe aa53 e53d
000000d0: ca43 2bbd 2ecd e8bd ccf4 5ebe 4b3a 44be
000000e0: 565e 38bc b77a ee3d 68ac 233d 04c3 28bd
000000f0: d7fa 963d b59b c6bd d200 1d3d c8bd 17bd
0.014144147 -0.0666188 -0.012137413 -0.25581178 -0.049051713 -0.1396115 -0.3130605 -0.13368236
0.038377475 -0.1261654 0.049037106 0.06569792 -0.02390505 -0.04733596 -0.14572378 -0.07991542
-7.885256e-05 -0.28728852 -0.06475763 -0.30872983 -0.025686616 -0.03584668 -0.1585992 -0.12179745
-0.23781501 0.01569299 -0.12107692 -0.18585676 -0.089739375 -0.08186472 -0.30090004 -0.1331096
-0.27603015 0.06782068 0.08959759 -0.11090986 -0.298033 -0.16014546 -0.10267381 -0.17427915
-0.21602681 0.07417539 0.04166243 -0.01808344 0.066474654 -0.13755244 -0.1525549 -0.13835962
-0.105005875 -0.09352236 -0.19916894 0.11197598 -0.041812696 -0.1136726 -0.2177307 -0.19162862
-0.01125296 0.116445 0.03995934 -0.041201606 0.07372063 -0.096976675 0.03833086 -0.037046224

val_fc2.weight f4 [1, 64]
00000000: 493e 8abd 1900 96bd 6316 893e f8e2 443e
00000010: 02c7 143d 3a7b 3bbd ab5e f13d bd2d 06bd
00000020: b900 5c3e ab13 bb3d 1878 98bd 1529 28be
00000030: 41d9 a03d e723 b4ba 3886 113e 712b df3e
00000040: 14b6 1cbc a259 9c3d d7ce 1abd c830 3b3e
00000050: ac4c fabd fd34 afbd 09bb fc3e 45cd 2abe
00000060: 7faa c93d 08da 163e 6ea2 013f 5e7c 893d
00000070: 7f71 aa3d 3bcf cebd 5d61 2c3e 377f 2d3e
00000080: 32d2 7fbe caf5 543e f2b2 4cbe 9dc2 3bbe
00000090: c0d9 d93d 972a 1c3e 3ed6 2f3e 2463 9cbe
000000a0: ea11 8d3e 416c 36be f735 27be fc4b bb3b
000000b0: 16f5 2dbd c1d6 e43c c392 143e f5aa f73d
000000c0: f3d4 bf3d a5a6 c0bd ee8f 36be 4fd8 74be
000000d0: 4050 a6bd 1c50 97bc a9ff b13d 8967 b63d
000000e0: c67c 423e a9e7 b3be acf1 50bd 0fdd 5fbd
000000f0: abe0 e1bd 64bb 2abd d8a5 88be dff9 213d
-0.06750161 -0.073242374 0.26774892 0.19227207 0.0363226 -0.045771815 0.117856346 -0.032758463
0.2148465 0.09134611 -0.07444781 -0.16421922 0.07853938 -0.001374361 0.14211357 0.4358783
-0.009564895 0.076342836 -0.037794914 0.18280327 -0.12221655 -0.085550286 0.49361446 -0.16679867
0.09846973 0.1473161 0.50638473 0.06713174 0.08322429 -0.1009812 0.16834016 0.1694306
-0.24982527 0.20796886 -0.19990137 -0.18335958 0.10637236 0.15250622 0.1717157 -0.30544388
0.2755273 -0.17814733 -0.1632918 0.005715845 -0.04247006 0.027934434 0.1450911 0.12093154
0.09366789 -0.09406785 -0.17828342 -0.2391064 -0.08120775 -0.018470816 0.086913414 0.089064665
0.1899291 -0.3513768 -0.051011726 -0.054654177 -0.1102918 -0.041682616 -0.2668903 0.039544936
