AlphaZero_Gomoku/model/cnn/epoch_100.model (torch, 424769 bytes, 11 tensors)

layers.0.weight f4 [32, 4, 3, 3]
-0.4455142 0.07709722 -0.16582617 -0.40011615 -0.26250544 0.20854719 -0.33867058 0.07105322
-0.21939911 -0.009125326 0.12033726 -0.6971006 0.22580317 -0.5708803 -0.2403259 -0.16107011
-0.43078893 0.10105349 0.27385917 -0.32656342 -0.04955486 -0.0984916 -0.19182433 0.114769064
0.1277021 -0.17159879 -0.30084485 0.110945046 0.056012485 -0.15918821 0.19659312 0.08745775
-0.110183075 0.053963106 0.16469035 -0.016672721 0.17053524 -0.12521674 -0.29705736 -0.34405163
-0.12097791 0.12362637 -0.043491974 0.12797025 -0.025193777 -0.15099807 0.38389912 0.28959313
0.12236618 -0.04404114 -0.42979977 -0.15978146 -0.5187522 -0.46752125 0.037972342 -0.25365055
-0.17546368 0.22536638 0.11860807 -0.03842219 0.21430854 -0.119204156 -0.13567156 -0.19718039
-0.061141353 0.13712797 -0.14468303 0.049392253 0.11987918 -0.24793081 -0.061453287 -0.03371825
-0.050794926 0.005563539 0.21442194 -0.5104686 -0.73183924 0.18982673 0.16708982 0.40500268
0.007284088 0.19293888 0.24642855 -0.3073101 0.04474828 -0.03152155 -0.111238934 -0.40981382
-0.06597323 -0.3989922 -0.24716991 0.06208623 0.039589643 0.4152338 -0.006479644 -0.15750329
-0.07517165 0.06550968 0.112415336 0.12713598 -0.057939995 0.16595587 -0.115217924 0.110426374
0.15379106 -0.06865088 -0.09472148 0.08107431 0.09741483 -0.5342976 -0.16200934 -0.063021086
-0.47682887 -0.41996133 -0.14515647 0.17664191 -0.09153824 0.122210324 0.2687328 0.048160817
-0.62143636 0.006409415 -0.32414427 -0.39463335 -0.5056632 -0.4527771 -0.014561012 0.15888765
-0.28199822 -0.29775575 -0.088636026 -0.1649581 -0.041435976 -0.27428633 -0.15103458 0.1022391
0.172052 0.0031758426 -0.039828952 0.1380678 -0.08025474 0.107888244 0.09553705 -0.02423812
0.19299325 0.058416888 0.38150096 0.12869321 0.023237647 -0.14369003 -0.4987524 -0.120311916
0.25095907 0.150341 -0.05419339 0.1573156 0.010777648 -0.12045823 0.26143014 -0.39271414
-0.5233264 -0.38853917 -0.08750251 -0.030636622 -0.48878342 0.013191913 0.06798567 -0.2328005
0.13039678 -0.09286778 -0.16298467 0.057390828 0.061315693 -0.28739217 0.05609316 -0.13676794
-0.26329723 -0.23988612 -0.020915372 -0.27005634 0.005993829 -0.0089970585 0.087377585 0.100386254
0.28537107 -0.060133923 -0.4294545 0.14494342 -0.49052477 -0.21263812 -0.19602664 -0.02387443
-0.08043662 -0.38317227 0.45120275 0.2324344 0.15007636 -0.47658744 -0.040728915 -0.11056096
-0.14183877 -0.044739835 0.36611137 -0.28281853 -0.06851224 -0.08975582 -0.0005374085 -0.045198575
-0.24598376 0.14403221 0.047013484 -0.17030413 0.013350831 -0.095184565 0.024031272 -0.0062809084
0.111830905 -0.31718743 -0.17387998 -0.56816804 -0.28313988 0.23252371 0.4264895 -0.09308319
-0.089459315 -0.23154292 0.09136313 -0.16588663 0.07137964 0.016023079 -0.0038407617 0.34878695
0.15637538 0.029073164 0.17649026 -0.030366745 -0.20895228 0.018388629 -0.13190036 0.106642894
0.15552408 -0.16129233 -0.10466761 -0.10170138 -0.109667495 -0.04372447 -0.033394907 0.0102144005
-0.046613477 -0.053019993 -0.026494667 0.01977195 0.052717086 -0.55288166 0.29364008 -0.29698768
00000000: 701a e4be 26e5 9d3d 56ce 29be 06dc ccbe
00000010: 1d67 86be 658d 553e 3b66 adbe 5a84 913d
00000020: 29aa 60be 6482 15bc 6273 f63d 2f75 32bf
00000030: f238 673e 3625 12bf fe17 76be 90ef 24be
00000040: 5e90 dcbe 22f5 ce3d 4537 8c3e 5233 a7be
00000050: 09fa 4abd f7b5 c9bd 996d 44be 0b0c eb3d
00000060: 57c4 023e 98b7 2fbe 5608 9abe 2837 e33d
00000070: 596d 653d 3c02 23be b54f 493e 0d1d b33d
00000080: aaa7 e1bd 6b08 5d3d 96a4 283e 3b95 88bc
00000090: caa0 2e3e d138 00be e717 98be 8927 b0be
000000a0: 44c3 f7bd d32f fd3d a424 32bd a20a 033e
000000b0: 2e63 cebc 3d9f 1abe 6d8e c43e 8d45 943e
000000c0: 1f9b fa3d 7b64 34bd b70e dcbe c09d 23be
000000d0: f2cc 04bf f25e efbe e388 1b3d 7cde 81be
000000e0: c0ac 33be 72c6 663e cae8 f23d 9660 1dbd
000000f0: b373 5b3e 4f21 f4bd 7ced 0abe a8e9 49be
00000100: 5b6f 7abd 466b 0c3e ca27 14be 884f 4a3d
00000110: 3783 f53d 93e1 7dbe 71b6 7bbd 261c 0abd
00000120: 570e 50bd 594e b63b 6d91 5b3e 12ae 02bf
00000130: d159 3bbf f061 423e 9819 2b3e 835c cf3e
00000140: 5caf ee3b c591 453e c457 7c3e c057 9dbe
00000150: f949 373d be1c 01bd 3dd1 e3bd 1ed3 d1be
00000160: f91c 87bd b548 ccbe 1c1a 7dbe 214e 7e3d
00000170: c028 223d 8699 d43e 3253 d4bb 8b48 21be
00000180: 98f3 99bd f029 863d 033a e63d ef2f 023e
00000190: 7d52 6dbd 56f0 293e 60f7 ebbd 3927 e23d
000001a0: 677b 1d3e d598 8cbd 56fd c1bd 4a0a a63d
000001b0: 6d81 c73d bac7 08bf c7e5 25be 3311 81bd
000001c0: ea22 f4be 2c05 d7be e6a3 14be 9ee1 343e
000001d0: 6778 bbbd 6849 fa3d 5897 893e 4744 453d
000001e0: 7416 1fbf 1206 d23b 3df6 a5be 620d cabe
000001f0: 2573 01bf 66d2 e7be 5091 6ebc 72b3 223e
00000200: 1262 90be 7173 98be ce86 b5bd c7ea 28be
00000210: c5b8 29bd 426f 8cbe cfa8 1abe bc62 d13d
00000220: 662e 303e cc21 503b af23 23bd a561 0d3e
00000230: 995c a4bd 83f4 dc3d eea8 c33d 068f c6bc
00000240: 06a0 453e 8c46 6f3d 1854 c33e 27c8 033e
00000250: e15c be3c 7b23 13be 795c ffbe 1866 f6bd
00000260: b57d 803e fef2 193e e3f9 5dbd 5717 213e
00000270: bb94 303c ceb2 f6bd 2cda 853e d411 c9be
00000280: b8f8 05bf 9bee c6be 8434 b3bd a7f9 fabc
00000290: d241 fabe e522 583c 123c 8b3d 4163 6ebe
000002a0: bc86 053e 7631 bebd 74e5 26be a512 6b3d
000002b0: 2a26 7b3d 1125 93be f1c1 653d e50c 0cbe
000002c0: e5ce 86be b5a4 75be b756 abbc d344 8abe
000002d0: e267 c43b 6668 13bc 05f3 b23d 4f97 cd3d
000002e0: 281c 923e fd4e 76bd 76e1 dbbe 0c6c 143e
000002f0: 1026 fbbe cfbd 59be 35bb 48be 4f94 c3bc
00000300: f4bb a4bd 282f c4be 0c04 e73e 4903 6e3e
00000310: 9ead 193e 4503 f4be 5dd3 26bd c96d e2bd
00000320: 2f3e 11be 1e41 37bd f372 bb3e 97cd 90be
00000330: 2550 8cbd e6d1 b7bd e0e0 0cba 2422 39bd
00000340: 2be3 7bbe 2e7d 133e 3691 403d 3564 2ebe
00000350: 72bd 5a3c 20f0 c2bd 3bdd c43c 14d0 cdbb
00000360: 9a07 e53d 6466 a2be 980d 32be 7673 11bf
00000370: b6f7 90be b21a 6e3e d55c da3e 66a2 bebd
00000380: 7236 b7bd 9619 6dbe 981c bb3d 2fde 29be
00000390: 7d2f 923d d542 833c 4ab5 7bbb 3494 b23e
000003a0: de20 203e d82a ee3c ddb9 343e aec3 f8bc
000003b0: 96f7 55be c0a3 963c e310 07be 9767 da3d
000003c0: b441 1f3e d129 25be f95b d6bd d048 d0bd
000003d0: 5a99 e0bd 6e18 33bd 19c9 08bd 4d5a 273c
000003e0: c6ed 3ebd 7e2b 59bd 580b d9bc c9f8 a13c
000003f0: dfed 573d a789 0dbf fe57 963e c50e 98be

layers.1.weight f4 [64, 32, 3, 3]
-0.110263966 0.014736619 0.09494162 -0.15639907 -0.15303428 0.054770067 -0.009572853 0.09053318
0.17071094 0.19109492 -0.013974664 -0.18850484 0.10181307 -0.13856104 -0.07523924 -0.010858864
-0.21355474 -0.26893654 0.007913 0.07972638 -0.39313626 -0.42608887 -0.21187773 -0.374376
-0.16413724 -0.06713982 -0.25627312 0.1072284 0.09676522 0.07410072 0.051031582 0.017381482
0.08838326 -0.34425828 0.11838863 0.023729403 0.10263887 0.030632403 -0.07487008 -0.20163132
-0.078539826 -0.14006926 -0.18533026 -0.14446324 0.0034773727 0.18656354 0.00037222332 -0.14004548
-0.06183313 -0.09288802 -0.17109202 0.24741167 0.09011418 0.14738742 -0.11321065 -0.041646786
-0.10026533 -0.16937685 0.08910139 -0.085676834 0.16070285 -0.114225484 -0.07745922 -0.08533343
0.10766702 -0.24382974 -0.0071604853 -0.06456432 -0.2725022 -0.08230613 -0.12513801 -0.024194045
-0.006004899 0.17565453 0.07170141 0.15650693 -0.25408506 -0.059737027 -0.12350622 -0.036338948
0.13867821 0.21913904 -0.0669369 -0.27192196 -0.041221287 0.0008643137 -0.3068012 0.21772042
0.0495063 -0.18868907 -0.20631322 -0.15471461 -0.21546708 -0.071412995 -0.18151617 -0.15884131
-0.006866309 0.08299641 -0.15184711 -0.29402637 -0.11294051 0.026822092 -0.24381046 -0.108245134
-0.24839702 -0.19678402 -0.11770852 -0.1034872 -0.0045281304 0.020469423 -0.16150026 -0.2647849
-0.012681269 -0.13999648 0.23977102 -0.095407 -0.061355114 0.14060774 -0.1385318 0.011401742
0.11431144 0.11476765 -0.065352574 -0.1465753 -0.17081334 -0.14606315 0.009725201 0.14991745
-0.09374838 -0.09446312 -0.14109008 -0.16032448 -0.071242765 -0.0456078 -0.2373054 0.07346539
0.108345404 -0.08235459 -0.23198625 -0.08196668 0.028389096 -0.550945 -0.09648422 -0.13409877
0.13359249 0.18539031 0.13035363 -0.0778582 -0.053823918 -0.08774214 0.17184214 0.36948133
0.15539813 -0.081441075 -0.01239793 -0.08860668 -0.25628272 -0.27171704 0.0071358075 -0.19883625
-0.31968993 -0.13798618 -0.33078766 -0.38983813 -0.28680447 -0.19242083 -0.019863492 -0.20616218
-0.014688168 0.06771403 0.077530034 0.26786548 0.06948986 0.03888548 -0.20446342 -0.151816
-0.2727561 -0.1004855 -0.20708014 -0.22332227 0.36728656 -0.12191721 -0.24594922 -0.011893742
-0.50926757 -0.022573754 0.1574077 0.31730196 0.18649256 0.38379145 0.08230113 0.15338038
-0.23641911 -0.2789578 -0.33746707 -0.13759282 0.16230248 -0.123740286 0.012244899 -0.1933387
-0.046296462 -0.20104447 -0.28724977 -0.2528431 0.05723134 -0.061888315 -0.061867278 0.03034525
-0.19890772 -0.07008263 0.15263438 -0.28939041 -0.35012117 -0.078930795 -0.20014063 0.053853743
0.13729967 0.04225671 -0.21166849 -0.06330871 -0.06323191 -0.29496667 0.0076116165 0.107864626
-0.23521715 -0.13629654 0.05906995 -0.157773 0.3894955 -0.354853 -0.08551062 0.3531269
0.14524834 -0.38670632 0.26946536 -0.012600951 -0.3524347 -0.16331023 -0.34698808 -0.30314764
-0.18371728 -0.19163129 -0.017699298 0.015243216 -0.0382339 -0.23458633 -0.0787407 0.06461596
-0.054865252 -0.2771061 0.008688109 -0.3653939 -0.042260014 -0.034107238 -0.06424819 0.06922418
00000000: 13d2 e1bd dc71 713c c170 c23d 1427 20be
00000010: 05b5 1cbe 9456 603d 75d7 1cbc 7669 b93d
00000020: d9ce 2e3e 63ae 433e fdf5 64bc 6a07 41be
00000030: 5f83 d03d f2e2 0dbe 0817 9abd 60e9 31bc
00000040: 18ae 5abe 0db2 89be 87a5 013c 9647 a33d
00000050: 2849 c9be 5228 dabe 7af6 58be 36ae bfbe
00000060: 9813 28be 9a80 89bd 3b36 83be 909a db3d
00000070: d82c c63d 1ec2 973d 7e06 513d 9c63 8e3c
00000080: 4802 b53d 9f42 b0be bd75 f23d 2a64 c23c
00000090: 5434 d23d cef0 fa3c 7c55 99bd 7178 4ebe
000000a0: 7dd9 a0bd 516e 0fbe 37c7 3dbe 2cee 13be
000000b0: a2e4 633b 830a 3f3e f826 c339 1568 0fbe
000000c0: bc44 7dbd 133c bebd bf32 2fbe 7c59 7d3e
000000d0: c98d b83d baec 163e fcda e7bd d295 2abd
000000e0: e957 cdbd 2071 2dbe ca7a b63d 5677 afbd
000000f0: 4a8f 243e 0def e9bd f1a2 9ebd 4bc3 aebd
00000100: 8780 dc3d 81ae 79be 81a2 eabb 4c3a 84bd
00000110: 6985 8bbe 1e90 a8bd 2e24 00be 9732 c6bc
00000120: bec4 c4bb c8de 333e 30d8 923d 5a43 203e
00000130: 7017 82be d0ae 74bd d4f0 fcbd 26d8 14bd
00000140: a901 0e3e fc65 603e 3716 89bd 5b39 8bbe
00000150: a7d7 28bd 1c93 623a 0c15 9dbe 1af2 5e3e
00000160: 1ec7 4a3d b537 41be c643 53be 826d 1ebe
00000170: 67a3 5cbe fa40 92bd 60df 39be 4ca7 22be
00000180: c6fe e0bb 06fa a93d cf7d 1bbe a08a 96be
00000190: 5b4d e7bd 01ba db3c 73a9 79be a0af ddbd
000001a0: ca5b 7ebe c081 49be 2a11 f1bd 19f1 d3bd
000001b0: b660 94bb 7eaf a73c 5360 25be e391 87be
000001c0: 19c5 4fbc 3d5b 0fbe 8986 753e bf64 c3bd
000001d0: 804f 7bbd 7afb 0f3e 48db 0dbe 5fce 3a3c
000001e0: 1e1c ea3d 4d0b eb3d 92d7 85bd d617 16be
000001f0: b1e9 2ebe 9491 15be 7356 1f3c f683 193e
00000200: 27ff bfbd e175 c1bd eb79 10be 1a2c 24be
00000210: bae7 91bd 3fcf 3abd 3000 73be 0675 963d
00000220: 32e4 dd3d 86a9 a8bd ce8d 6dbe 26de a7bd
00000230: 4090 e83c bb0a 0dbf 8599 c5bd 3051 09be
00000240: 78cc 083e f5d6 3d3e 6c7b 053e 1f74 9fbd
00000250: 7876 5cbd 27b2 b3bd 63f7 2f3e a82c bd3e
00000260: b020 1f3e 94ca a6bd b020 4bbc 6b77 b5bd
00000270: 7d37 83be 7f1e 8bbe 7ed3 e93b bb9b 4bbe
00000280: 66ae a3be 404c 0dbe 005d a9be dd98 c7be
00000290: 09d8 92be f709 45be c3b8 a2bc 2e1c 53be
000002a0: a4a6 70bc a7ad 8a3d 11c8 9e3d aa25 893e
000002b0: b350 8e3d 6246 1f3d dc5e 51be a775 1bbe
000002c0: b0a6 8bbe 58cb cdbd d10c 54be 98ae 64be
000002d0: fc0c bc3e bbaf f9bd 1dda 7bbe f8dd 42bc
000002e0: 5c5f 02bf 98ec b8bc 7c2f 213e 6775 a23e
000002f0: e8f7 3e3e 5080 c43e 7f8d a83d bf0f 1d3e
00000300: da17 72be 8fd3 8ebe 7cc8 acbe 22e5 0cbe
00000310: 9f32 263e 8c6b fdbd d49e 483c 95fa 45be
00000320: 5ca1 3dbd 9ade 4dbe 6712 93be a774 81be
00000330: 696b 6a3d 9a7e 7dbd 8b68 7dbd 9a96 f83c
00000340: 77ae 4bbe 7b87 8fbd 304c 1c3e fb2a 94be
00000350: 1543 b3be 78a6 a1bd aaf1 4cbe be95 5c3d
00000360: 4998 0c3e 5f15 2d3d a0bf 58be ffa7 81bd
00000370: bb7f 81bd df05 97be de6a f93b 21e8 dc3d
00000380: c4dc 70be 5291 0bbe 55f3 713d 3f8f 21be
00000390: f46b c73e 4baf b5be 3120 afbd 0dcd b43e
000003a0: fbbb 143e 5ffe c5be 5df7 893e 3874 4ebc
000003b0: 5272 b4be cc3a 27be 6ca8 b1be 2b36 9bbe
000003c0: 6220 3cbe fe3a 44be 1efe 90bc afbe 793c
000003d0: 269b 1cbd 6637 70be ce42 a1bd 5f55 843d
000003e0: 63ba 60bd dae0 8dbe 9258 0e3c e914 bbbe
000003f0: d618 2dbd 08b4 0bbd 8e94 83bd 68c5 8d3d

layers.2.weight f4 [128, 64, 3, 3]
-0.28569573 -0.1274463 -0.07060509 -0.22644933 0.09951291 0.4993874 -0.28521007 -0.21312265
-0.13632625 -0.060252473 -0.486136 0.38413438 -0.425293 -0.2533196 0.40406245 0.27945933
-0.25775796 0.29514098 -0.46607462 0.18084261 0.09309586 -0.20515038 -0.036514066 -0.29197007
-0.41981453 -0.10365082 0.32860994 1.035819e-05 -0.0007235519 3.0773568e-05 -1.7641094e-06 -0.0020074195
0.0009042338 -2.3433757e-05 4.9296973e-11 -3.1565007e-06 -0.0064106826 0.2503492 -0.3098342 -0.18985757
-0.29931572 0.087400995 0.08606287 -0.20866065 -0.114372924 0.061608054 0.22093275 0.06686415
0.120343305 0.06617701 -0.13595173 0.10759735 -0.13575345 -0.3062215 0.19281225 0.38589293
0.37303445 -0.07272196 -0.52710366 0.019535871 -0.17679276 0.019005219 0.22386132 0.15343213
0.46652743 0.23685579 -0.20370434 -0.33054382 -0.10340179 -0.12738366 -0.01108036 -0.110380486
0.027053108 -0.05541036 -0.16032407 -0.15693842 0.0011725645 -0.46281257 0.3095608 0.04580309
-0.23856032 -0.03224957 0.14486751 0.28904873 -0.1703301 -0.07414654 -0.19627059 0.0014734808
-0.04207127 -0.16520543 0.15012608 -0.312921 0.03130265 -0.3855952 -0.1759608 -0.06724951
-0.11274984 0.18463132 0.14432096 0.33511487 0.038613725 0.023654347 0.116644196 0.15740976
0.03744333 -0.046472296 0.052387647 -0.17607962 -0.13010012 0.23239389 0.04350741 0.24996413
-0.26428944 -0.056500617 -0.09643922 0.12924793 0.2525366 -0.07967483 0.16479057 0.116314106
-0.27456868 0.08620088 0.012070579 -0.18458357 -0.14789623 0.013153746 -0.04330591 0.033324614
0.4566101 -0.17975989 -0.019451125 -0.054023895 -0.05792812 -0.021404209 -0.25713757 0.18692842
0.102264926 0.029413527 -0.057801705 0.01588811 0.23541993 -0.21217895 0.32795864 -0.27424434
-0.07153452 -0.0808054 -0.4145893 0.15218788 -0.05644796 0.045251954 -0.26354393 -0.12449705
-0.23671357 -0.28376788 0.10853318 -0.41936862 0.16964519 0.09510956 -0.029915806 0.0021307613
-0.29146874 -0.09425344 0.0028816331 -0.052124508 0.106245816 -0.091214195 -0.1478653 0.2909317
0.33982256 0.07002618 -0.0070341164 -0.14151876 -0.026528213 -0.09412508 -0.20562087 -0.4410395
0.1925557 -0.21974422 -0.3687263 -0.05845985 0.09695244 -0.3910463 0.07738204 -0.5078035
0.100142345 -0.41973752 -0.31855148 -0.08151557 -0.2715517 -0.11125165 -0.18819244 0.15890169
0.15186436 -0.19857815 -0.023793671 -0.3178238 -0.2010262 -0.40764436 -0.097969435 0.1023641
-0.16876549 -0.34726653 0.09770352 -0.050042223 -0.36835155 -0.26620695 -0.23652974 -0.13661668
-0.33827892 -0.16727206 0.097125486 0.18670447 -0.09382211 -0.19848725 -0.23476532 0.22974347
0.21141006 0.15682262 0.27275902 0.009164276 0.07600374 0.3389533 0.027775012 -0.3650827
0.13980602 0.03802447 0.20781003 -0.052101087 0.3746527 0.116151914 0.1239782 0.17769028
-0.25678992 -0.08971604 -0.111170866 0.11929353 0.53606856 -0.03126476 0.14018086 0.10020401
-0.06577829 -0.4559689 0.0021544104 -0.0056508686 -0.20546558 -0.073708735 0.41688725 -0.6822201
-0.49366096 -0.3206789 -0.108024396 -0.08118485 0.31366044 0.0027567479 -0.3020451 0.059323877
00000000: b646 92be 4881 02be 6799 90bd 55e2 67be
00000010: 6dcd cb3d b5af ff3e 0e07 92be d33c 5abe
00000020: 1c99 0bbe 4ccb 76bd d1e6 f8be 43ad c43e
00000030: 01c0 d9be 1bb3 81be 46e1 ce3e 4b15 8f3e
00000040: daf8 83be b81c 973e 55a1 eebe ce2e 393e
00000050: 0ba9 be3d f112 52be c68f 15bd 1a7d 95be
00000060: eef1 d6be e246 d4bd 903f a83e 16c8 2d37
00000070: bfac 3dba de12 0138 56c6 ecb5 e98e 03bb
00000080: 1a0a 6d3a 9c93 c4b7 75cf 582e 45d4 53b6
00000090: b410 d2bb c52d 803e 97a2 9ebe 066a 42be
000000a0: e93f 99be 4bff b23d bb41 b03d 23ab 55be
000000b0: 5a3c eabd ba58 7c3d 323c 623e 12f0 883d
000000c0: 8d76 f63d d087 873d ee36 0bbe 005c dc3d
000000d0: f402 0bbe 10c9 9cbe 9370 453e c293 c53e
000000e0: 5ffe be3e 40ef 94bd 44f0 06bf b109 a03c
000000f0: 2909 35be d5b0 9b3c e73b 653e 501d 1d3e
00000100: afdc ee3e 538a 723e df97 50be 0a3d a9be
00000110: 51c4 d3bd dd70 02be 668a 35bc 2a0f e2bd
00000120: 7b9e dd3c f9f5 62bd fe2b 24be 77b4 20be
00000130: bcb0 993a c5f5 ecbe c17e 9e3e 059c 3b3d
00000140: 2849 74be 2018 04bd 2658 143e 32fe 933e
00000150: 046b 2ebe 24da 97bd 28fb 48be d021 c13a
00000160: ed52 2cbd 9d2b 29be a7ba 193e 2e37 a0be
00000170: 3537 003d bc6c c5be 112f 34be 1cba 89bd
00000180: 63e9 e6bd fe0f 3d3e e0c8 133e 2d94 ab3e
00000190: 6d29 1e3d c3c6 c13c 27e3 ee3d 0630 213e
000001a0: 2d5e 193d bc59 3ebd 6e94 563d 374e 34be
000001b0: f738 05be aaf8 6d3e d334 323d 99f6 7f3e
000001c0: f250 87be 316d 67bd ed81 c5bd 9259 043e
000001d0: 7a4c 813e 8f2c a3bd dcbe 283e 1736 ee3d
000001e0: 4494 8cbe 168a b03d aec3 453c 7a03 3dbe
000001f0: 1c72 17be cf82 573c 8a61 31bd 647f 083d
00000200: cdc8 e93e fa12 38be f757 9fbc 2948 5dbd
00000210: 0946 6dbd e157 afbc 89a7 83be 2a6a 3f3e
00000220: 4670 d13d a3f4 f03c 7bc1 6cbd c827 823c
00000230: ec11 713e 7045 59be 32ea a73e c169 8cbe
00000240: b180 92bd 4d7d a5bd 0c45 d4be 24d7 1b3e
00000250: fa35 67bd 1d5a 393d 3bef 86be 4ff8 febd
00000260: 0b65 72be 064a 91be a546 de3d 7cb7 d6be
00000270: 78b7 2d3e cdc8 c23d fe11 f5bc 3ea4 0b3b
00000280: 643b 95be f307 c1bd c8d9 3c3b 8280 55bd
00000290: 6897 d93d 82ce babd 006a 17be 00f5 943e
000002a0: 39fd ad3e e369 8f3d 727e e6bb 4bea 10be
000002b0: b251 d9bc a6c4 c0bd 478e 52be eecf e1be
000002c0: 522d 453e a104 61be b2c9 bcbe 9873 6fbd
000002d0: 008f c63d 3837 c8be 7a7a 9e3d 69ff 01bf
000002e0: 6e17 cd3d d6e7 d6be 2e19 a3be a3f1 a6bd
000002f0: d308 8bbe e8d7 e3bd 85b5 40be 20b7 223e
00000300: 5582 1b3e 1258 4bbe f2ea c2bc cdb9 a2be
00000310: d0d9 4dbe c3b6 d0be 33a4 c8bd 45a4 d13d
00000320: dcd0 2cbe ebcc b1be c818 c83d 13f9 4cbd
00000330: 9398 bcbe 474c 88be da34 72be 3ee5 0bbe
00000340: e532 adbe 5e49 2bbe bae9 c63d 752f 3f3e
00000350: ce25 c0bd 3e40 4bbe 5266 70be df41 6b3e
00000360: e17b 583e 1c96 203e 12a7 8b3e c225 163c
00000370: d9a7 9b3d 498b ad3e 6c88 e33c 1fec babe
00000380: 4f29 0f3e 8cbf 1b3d 27cc 543e f367 55bd
00000390: 7bd2 bf3e 0ee1 ed3d 48e8 fd3d 71f4 353e
000003a0: f879 83be 0bbd b7bd 8dad e3bd 2b50 f43d
000003b0: ca3b 093f 7a0f 00bd 928b 0f3e c337 cd3d
000003c0: c5b6 86bd c174 e9be 0231 0d3b ec2a b9bb
000003d0: 9265 52be 9bf4 96bd 3f72 d53e faa5 2ebf
000003e0: 21c1 fcbe 0630 a4be e53b ddbd 3e44 a6bd
000003f0: 1a98 a03e 8eaa 343b a8a5 9abe 98fd 723d

layers.3.weight f4 [2, 128, 1, 1]
-0.07839331 -0.33641434 -0.22257307 0.008160021 0.21773984 0.030495003 0.03147608 0.027675107
-0.023483988 -0.37603554 0.0239712 -0.50487494 -0.1963208 0.04736637 -0.012675568 -0.07420038
-0.07757589 0.02886805 0.062432863 0.056742657 0.0017958789 -0.09919157 0.00878339 0.028143112
-0.11496531 -0.0050557046 -0.13181984 0.08402787 0.018369153 0.029115066 -0.37604707 -0.25285155
-0.027482627 0.01501958 -0.019487247 0.044724226 -0.36938906 0.018286614 -0.06455682 -0.36860096
0.007504043 -0.017574439 -0.71738565 0.0574866 -0.17789406 0.10937048 -0.35318884 0.098797604
0.0327586 0.02058076 -0.025771493 -0.085222214 -0.583048 -0.20918815 -0.59420776 -0.13621092
0.009732141 0.054154284 0.0025081416 0.010369961 0.017169219 -0.33630335 -0.15920787 0.043122865
0.031543814 -0.101355165 0.043213554 0.053854097 -0.00084656477 -0.018668545 0.1301194 0.01622931
0.050486516 0.02094393 0.09768474 -0.03934226 -0.20859087 -0.24438462 -0.2630535 0.05337212
-0.25226986 0.017316595 0.014606986 -0.24056648 -0.4243024 0.018091548 -0.30889988 -0.4387916
0.07956583 0.09569584 0.011395894 -0.0016924277 0.18016565 0.08091777 0.011310796 0.045206867
-0.11991144 0.06759303 -0.4805621 -0.33365682 0.0023744153 -0.17047568 -0.29106358 0.07001761
0.048126947 0.13501665 0.0023250182 -0.31954566 0.022335421 -0.0016366477 0.084895894 -0.31365174
0.052890033 0.017971966 -0.14597577 0.13459794 0.020101728 0.013843281 0.008688478 -0.011600047
-0.1570469 0.030820454 0.013739088 -0.0022092955 0.052276228 -0.018154278 0.008860257 0.012014144
-0.2113124 0.0054110605 0.021970702 0.031532045 -0.39744028 0.03421174 -0.39211413 0.08175846
-0.09083912 -0.025669385 0.059729576 0.04601372 -0.2106645 0.047309294 -0.2956085 0.060754914
-0.07616853 0.07568993 -0.19021451 0.057333376 0.03790887 -0.11955128 -0.18850774 -0.32069173
0.06751134 0.025276478 -0.35264155 0.017618854 0.024435319 -0.47206807 0.14386575 -0.25745136
-0.02207377 -0.046990283 0.06094399 -0.20314388 -0.02243787 -0.06602105 -0.20106721 -0.24820647
-0.10382938 -0.061090197 0.10311938 -0.16027223 0.045253728 -0.21687506 -0.2343247 -0.19562235
-0.00427984 -0.0041569057 0.023808124 0.051628407 -0.039538436 0.09849429 -0.5445705 0.019093284
-0.011031633 0.075676635 0.011222992 -0.20341636 0.025955744 -0.023566023 0.07410356 -0.16167264
-0.001972326 -0.13835666 0.010669267 -0.31742305 -0.043756288 -0.043824863 0.09284023 0.06147763
-0.019216593 0.03725086 -0.027797263 -0.23912495 0.02069064 -0.31970245 -0.035386514 -0.1564339
0.07902964 0.065579325 0.035960678 0.13849834 0.006978316 0.058378033 0.049827743 -0.012232489
-0.2487476 0.01860254 0.07635508 -0.13158827 0.08798342 -0.23628564 -0.29499522 -0.20059149
0.032858483 -0.33274102 0.07346557 0.005782008 0.024269305 -0.070683815 -0.010563428 -0.20930594
-0.010087983 0.044103026 0.004879062 0.058608267 -0.027979534 -0.049722202 -0.015249221 -0.040072862
0.018395979 0.05870972 -0.32505733 0.004788958 -0.030830272 -0.15708275 -0.19765043 0.026136214
0.1578176 -0.26546344 0.034980547 -0.027363293 -0.26964277 -0.033242643 -0.1158357 0.016647292
00000000: ac8c a0bd 803e acbe 32ea 63be 9cb1 053c
00000010: 31f7 5e3e a8d0 f93c 10ed 003d e8b6 e23c
00000020: 7e61 c0bc bb87 c0be 405f c43c 7c3f 01bf
00000030: 5208 49be 3d03 423d 30ad 4fbc 5ef6 97bd
00000040: 1ce0 9ebd b07c ec3c 9ab9 7f3d fd6a 683d
00000050: b263 eb3a f324 cbbd 35e8 0f3c 628c e63c
00000060: ef72 ebbd 53aa a5bb c8fb 06be ce16 ac3d
00000070: e87a 963c b882 ee3c 3e89 c0be c275 81be
00000080: 3f23 e1bc af14 763c b8a3 9fbc c030 373d
00000090: 9020 bdbe cfcd 953c 5e36 84bd 44b9 bcbe
000000a0: 7ae4 f53b 45f8 8fbc 96a6 37bf 1277 6b3d
000000b0: dc29 36be a1fd df3d 2bd5 b4be 6656 ca3d
000000c0: e22d 063d fb98 a83c bd1e d3bc fc88 aebd
000000d0: a242 15bf 6b35 56be 001e 18bf e07a 0bbe
000000e0: 8f73 1f3c e2d0 5d3d a25f 243b c5e6 293c
000000f0: 76a6 8c3c f42f acbe 6307 23be 9aa1 303d
00000100: 1634 013d 4c93 cfbd b200 313d 1d96 5c3d
00000110: 00ec 5dba c7ee 98bc 053e 053e 54f3 843c
00000120: f3ca 4e3d 9b92 ab3c f00e c83d 5a25 21bd
00000130: d898 55be f63f 7abe f3ae 86be b99c 5a3d
00000140: 8429 81be 88db 8d3c 2452 6f3c 0f57 76be
00000150: 2a3e d9be ba34 943c 2028 9ebe 4ba9 e0be
00000160: 69f3 a23d 2efc c33d d8b5 3a3c 73d4 ddba
00000170: 587d 383e 37b8 a53d eb50 393c d62a 393d
00000180: 2194 f5bd 376e 8a3d 3c0c f6be 11d5 aabe
00000190: 149c 1b3b 2d91 2ebe 4906 95be 6565 8f3d
000001a0: c320 453d ce41 0a3e 555f 183b 7d9b a3be
000001b0: c6f8 b63c c984 d6ba e6dd ad3d f696 a0be
000001c0: 38a3 583d f239 933c ac7a 15be 0bd4 093e
000001d0: 61ac a43c eece 623c 1e5a 0e3c 200e 3ebc
000001e0: e7d0 20be 2d7b fc3c e919 613c d4c9 10bb
000001f0: 991f 563d 48b8 94bc 9d2a 113c f9d6 443c
00000200: 4762 58be 444f b13b e7fb b33c bf27 013d
00000210: 4b7d cbbe 9c21 0c3d 2fc3 c8be fb70 a73d
00000220: dc09 babd 9a48 d2bc 00a7 743d e278 3c3d
00000230: 6fb8 57be 64c7 413d ff59 97be 25da 783d
00000240: 3ffe 9bbd 5203 9b3d 98c7 42be 67d6 6a3d
00000250: 5546 1b3d 4dd7 f4bd 2c08 41be b531 a4be
00000260: 6343 8a3d 9e10 cf3c 6f8d b4be 6a55 903c
00000270: 942c c83c e8b2 f1be 8b51 133e aad0 83be
00000280: 0dd4 b4bc e278 40bd 68a0 793d f304 50be
00000290: a0cf b7bc 0b36 87bd 90e4 4dbe d629 7ebe
000002a0: 7fa4 d4bd b739 7abd 4130 d33d 671e 24be
000002b0: f95b 393d 7f14 5ebe d0f2 6fbe 3a51 48be
000002c0: e63d 8cbb a736 88bb 4109 c33c 4f78 533d
000002d0: 0ef3 21bd 60b7 c93d f968 0bbf 8569 9c3c
000002e0: 06be 34bc 5afc 9a3d a4e0 373c 614c 50be
000002f0: 24a1 d43c 880d c1bc 9bc3 973d 838d 25be
00000300: 2442 01bb 5ead 0dbe 26ce 2e3c 4685 a2be
00000310: cb39 33bd b381 33bd 0523 be3d f8cf 7b3d
00000320: 1e6c 9dbc 5c94 183d 16b7 e3bc 2cdd 74be
00000330: 6b7f a93c 0ab0 a3be 73f1 10bd 3530 20be
00000340: 4bda a13d 744e 863d 814b 133d 82d2 0d3e
00000350: 5caa e43b ce1d 6f3d 2d18 4c3d c76a 48bc
00000360: b1b7 7ebe 5b64 983c 0d60 9c3d 13bf 06be
00000370: a730 b43d ddf4 71be 9d09 97be db67 4dbe
00000380: 9e96 063d 085d aabe 1e75 963d 0077 bd3b
00000390: 6cd0 c63c adc2 90bd 3a12 2dbc 4c54 56be
000003a0: 1148 25bc 60a5 343d 8ae0 9f3b 390f 703d
000003b0: 5635 e5bc 82a9 4bbd ded7 79bc 7123 24bd
000003c0: 2ab3 963c 9a79 703d ea6d a6be b1ec 9c3b
000003d0: c48f fcbc 4dda 20be e064 4abe 9d1b d63c
000003e0: f09a 213e d3ea 87be c347 0f3d fc28 e0bc
000003f0: 9e0e 8abe 7029 08bd 443b edbd e75f 883c

act_fc1.weight f4 [64, 72]
-0.33972868 0.33461857 0.036591817 -0.3552789 -0.25372356 -0.24587066 -0.3268794 0.017797377
0.121635266 -0.2565121 -0.14628908 -0.029596867 -0.19042826 0.38339263 0.13605654 -0.13008036
-0.07020196 0.06790834 -0.23243941 -0.005290446 0.054020904 -0.036072608 0.18644273 -0.019984882
-0.004841449 -0.079081476 -0.19382785 -0.3396759 0.00536599 0.25897974 0.3129877 -0.16743572
0.080375105 -0.25067985 -0.09246398 -0.072328255 -0.3087908 0.14101894 0.06830087 -0.23902276
-0.12396906 -0.13217275 -0.13456704 0.17803408 -0.1198588 -0.07101679 -0.047599684 -0.1573569
-0.035826247 -0.11613256 0.007986387 -0.15396097 -0.14181429 -0.059245843 -0.12462607 0.20471981
-0.15751012 -0.3596661 -0.08306772 -0.3514031 -0.1690361 -0.27349454 0.14109519 0.016550297
0.068179786 -0.17847157 -0.12419442 -0.085839786 0.010274283 -0.0016094788 -0.38724846 0.13695018
-0.30399334 0.3030651 -0.2904897 -0.15193354 -0.2893967 -0.4620447 0.2384513 0.07347468
-0.21329263 0.27498016 -0.17467606 -0.1597839 -0.021975854 -0.17990333 -0.06999586 -0.04944436
-0.036821134 -0.21874774 -0.30897808 -0.056176484 -0.070216045 -0.084960505 -0.11345522 0.29660287
-0.29114866 -0.2158984 0.09127528 -0.20792411 -0.09681373 -0.05790929 -0.08072332 -0.00852985
0.37085634 -0.3485477 -0.26001814 0.13580231 -0.10079421 -0.055444162 -0.25851697 -0.24234788
-0.18375778 0.10264764 -0.31183127 -0.06506537 0.12813608 -0.028105132 0.117349215 -0.20614211
-0.17237757 -0.020727266 -0.42250878 -0.19333218 -0.27645898 0.0055711814 0.23357487 -0.3916817
-0.15101992 -0.39389652 0.08549942 -0.07689315 -0.268897 0.047356233 -0.37738252 -0.4514078
-0.19133964 -0.40867135 -0.1380512 -0.35767275 -0.1267326 0.033541873 -0.091149144 -0.033921175
-0.21044877 -0.22889009 0.17781875 0.17837492 0.19233033 -0.26188558 -0.12088561 -0.18716635
0.041046463 0.07161699 -0.062589794 0.05971673 -0.08835041 -0.11096148 -0.1618962 0.13705264
-0.06845924 -0.02304649 -0.15505375 -0.07428205 -0.13387449 -0.111113325 -0.06873554 0.13397618
-0.022375675 0.036996264 -0.25573096 -0.08189458 -0.027937796 0.084261976 -0.0898801 -0.03484107
0.052798443 -0.21979262 -0.35976222 -0.022312317 0.06996589 -0.2038773 -0.25109053 0.12328833
0.1580094 0.045007423 -0.21712802 0.026071422 0.09362507 0.12989987 0.012546994 -0.079023585
-0.26147568 0.12693511 -0.055606477 -0.037000097 -0.27150658 -0.20050217 -0.051602334 -0.14621373
-0.30818975 -0.09026189 0.012101326 0.0096786255 -0.1890293 -0.01672586 -0.12601124 -0.21160635
-0.062921375 0.14701971 -0.08819105 0.044726703 -0.019822918 -0.11138241 -0.401182 0.19783777
-0.0046364055 -0.024334608 -0.034942333 -0.0012928927 -0.019597037 -0.017431192 -0.000804968 -0.011370394
-0.012830005 -0.043316044 0.003173053 -0.03914345 -0.0038046695 -0.04594895 -0.05089511 -0.021661546
-0.048625518 -0.013931815 -0.024724325 -0.01316051 -0.04530214 -0.025529547 -0.013866193 -0.018048922
0.0014374758 -0.024175758 -0.047479752 -0.013852072 -0.05037484 -0.013578258 -0.0026507003 -0.003468442
-0.0031673093 -0.0006290669 -0.0031954641 -0.0031541428 -0.010823855 -0.026708582 -0.016026165 -0.061042473
00000000: ebf0 adbe 2053 ab3e 4de1 153d 1ee7 b5be
00000010: 0ee8 81be 85c5 7bbe bd5c a7be cecb 913c
00000020: e91b f93d 8e55 83be cecc 15be 2175 f2bc
00000030: a0ff 42be 0a4c c43e 6852 0b3e c933 05be
00000040: 0cc6 8fbd 8713 8b3d 9904 6ebe 7a5b adbb
00000050: 0645 5d3d dfc0 13bd d8ea 3e3e 56b7 a3bc
00000060: 05a5 9ebb 78f5 a1bd cf7a 46be 00ea adbe
00000070: 30d5 af3b fe98 843e ec3f a03e 4574 2bbe
00000080: b49b a43d 1c59 80be c15d bdbd d620 94bd
00000090: d419 9ebe 4567 103e 54e1 8b3d 62c2 74be
000000a0: 7ee3 fdbd 4b58 07be f1cb 09be 914e 363e
000000b0: 8878 f5bd 4071 91bd e3f7 42bd 2b22 21be
000000c0: 8bbe 12bd e8d6 edbd 56d9 023c f2a7 1dbe
000000d0: c437 11be c5ab 72bd f43b ffbd 12a2 513e
000000e0: 554a 21be 2826 b8be 691f aabd 1beb b3be
000000f0: cd17 2dbe 7a07 8cbe 427b 103e 7d94 873c
00000100: d8a1 8b3d 40c1 36be a559 febd c5cc afbd
00000110: 7755 283c 26f5 d2ba 6e45 c6be ab3c 0c3e
00000120: 04a5 9bbe 592b 9b3e 11bb 94be 7794 1bbe
00000130: ce2b 94be 1f91 ecbe 942c 743e e579 963d
00000140: 6269 5abe 33ca 8c3e 48de 32be 649e 23be
00000150: b506 b4bc 9438 38be fd59 8fbd 2b86 4abd
00000160: c2d1 16bd 68ff 5fbe 6032 9ebe 5019 66bd
00000170: 6ecd 8fbd c6ff adbd 365b e8bd 55dc 973e
00000180: 7011 95be 7814 5dbe 89ee ba3d 0fea 54be
00000190: 4746 c6bd 4b32 6dbd 4552 a5bd c9c0 0bbc
000001a0: e2e0 bd3e d874 b2be 1921 85be c30f 0b3e
000001b0: 326d cebd 6b19 63bd 565c 84be 0b2a 78be
000001c0: 002b 3cbe ed38 d23d 59a8 9fbe fe40 85bd
000001d0: 1b36 033e bc3c e6bc c954 f03d eb16 53be
000001e0: bf83 30be 3acc a9bc 1253 d8be dff8 45be
000001f0: 088c 8dbe 758e b63b 402e 6f3e 818a c8be
00000200: f7a4 1abe ceac c9be 521a af3d 287a 9dbd
00000210: deac 89be 9cf8 413d 4838 c1be ec1e e7be
00000220: 8aee 43be 5f3d d1be 4b5d 0dbe e220 b7be
00000230: 31c6 01be 3463 093d 67ac babd eef0 0abd
00000240: e27f 57be 2a62 6abe 1e16 363e eaa7 363e
00000250: 3ef2 443e de15 86be e092 f7bd 89a8 3fbe
00000260: 5620 283d eeab 923d 142f 80bd 8899 743d
00000270: 0ff1 b4bd c63f e3bd 1ec8 25be 8757 0c3e
00000280: 5c34 8cbd fecb bcbc 69c6 1ebe 3021 98bd
00000290: 6516 09be 628f e3bd 38c5 8cbd 0d31 093e
000002a0: 314d b7bc 6589 173d 2bef 82be 58b8 a7bd
000002b0: cedd e4bc 8b91 ac3d 0f13 b8bd 83b5 0ebd
000002c0: 2e43 583d 5111 61be c132 b8be 52c8 b6bc
000002d0: 474a 8f3d 36c5 50be f08e 80be 987e fc3d
000002e0: 37cd 213e b459 383d cf56 5ebe bc93 d53c
000002f0: 80be bf3d 7904 053e e891 4d3c 1ed7 a1bd
00000300: 24e0 85be 47fb 013e 9ec3 63bd 6a8d 17bd
00000310: e902 8bbe 7150 4dbe f85c 53bd 0db9 15be
00000320: 0ccb 9dbe 3adb b8bd a444 463c 1993 1e3c
00000330: e690 41be ac04 89bc 1709 01be 56af 58be
00000340: ecdc 80bd 568c 163e 829d b4bd 5933 373d
00000350: ac63 a2bc 761c e4bd ba67 cdbe fc95 4a3e
00000360: fdec 97bb 5f59 c7bc b11f 0fbd 4876 a9ba
00000370: f789 a0bc dccb 8ebc 7d04 53ba e44a 3abc
00000380: f134 52bc 2a6c 31bd fff2 4f3b e254 20bd
00000390: c357 79bb f734 3cbd 6477 50bd 8e73 b1bc
000003a0: 8d2b 47bd 4442 64bc ab8a cabc 2e9f 57bc
000003b0: bd8e 39bd 5723 d1bc 072f 63bc 55db 93bc
000003c0: af69 bc3a 3d0c c6bc 217a 42bd cdf3 62bc
000003d0: d955 4ebd 5877 5ebc 5fb7 2dbb cd4e 63bb
000003e0: a292 4fbb f7e7 24ba fe6a 51bb bcb5 4ebb
000003f0: 8a56 31bc f5cb dabc 4e49 83bc ac07 7abd

act_fc1.bias f4 [64]
0.43679413 -0.33567145 -0.2406059 -0.034702018 -0.292476 -0.070321254 -0.2626546 -0.24606693
-0.1684492 -0.23227641 -0.15718059 -0.072423466 -0.27987087 -0.021330073 0.108447544 0.04319706
-0.23266314 0.33268735 0.2931048 -0.026992187 -0.059344806 -0.12931204 -0.10742481 0.16310361
-0.042208444 -0.0139506515 -0.40010065 -0.2129454 0.01048619 -0.3415852 -0.17942642 0.78855616
-0.10904425 -0.05228873 -0.095059775 -0.17597957 0.21414578 -0.040828656 0.40926936 0.14993504
0.33638462 -0.4066294 -0.3535764 -0.011570504 -0.09359764 0.10538706 -0.44034326 -0.23994316
-0.18256979 -0.3543415 -0.36861292 0.09917996 -0.3520057 -0.18103828 -0.17985353 -0.094422564
0.72733694 -0.30445585 0.45515808 -0.21505795 0.15118678 -0.06081854 -0.2865461 -0.11172519
00000000: 7ba3 df3e 21dd abbe 6561 76be b423 0ebd
00000010: 6abf 95be 9704 90bd aa7a 86be f8f8 7bbe
00000020: f27d 2cbe ded9 6dbe f3f3 20be c152 94bd
00000030: 3c4b 8fbe 68bc aebc bf19 de3d 66ef 303d
00000040: 3f3f 6ebe ff55 aa3e d511 963e b81e ddbc
00000050: 8a13 73bd 606a 04be 8a01 dcbd a204 273e
00000060: c3e2 2cbd 4691 64bc fed9 ccbe 5c0e 5abe
00000070: 45ce 2b3c 41e4 aebe 8fbb 37be d1de 493f
00000080: 9752 dfbd b52c 56bd b3ae c2bd fd33 34be
00000090: 0849 5b3e f33b 27bd c18b d13e 9288 193e
000000a0: 9b3a ac3e bb31 d0be f707 b5be 3692 3dbc
000000b0: 1fb0 bfbd 2cd5 d73d ac74 e1be a9b3 75be
000000c0: 93f3 3abe 406c b5be d5ba bcbe dd1e cb3d
000000d0: 173a b4be 1962 39be 862b 38be 9e60 c1bd
000000e0: c132 3a3f a3e1 9bbe 7b0a e93e 2738 5cbe
000000f0: b5d0 1a3e dd1c 79bd 2cb6 92be 2dd0 e4bd

act_fc2.weight f4 [36, 64]
-0.37995377 0.49977198 0.032214206 0.0009010163 -0.14669962 0.02697276 0.39301747 -0.031860426
-0.17993434 0.0076410826 -0.045113456 -0.013937004 -0.08603912 -0.11686793 -0.069178276 -0.02859401
-0.16345355 -0.06549402 -0.08982421 -0.107608445 0.052461304 -0.133306 -0.065009005 -0.16018933
0.19251865 -0.078938164 0.0071312133 -0.07087266 -0.22544871 -0.19738518 -0.35072824 0.031244844
-0.02447113 -0.004408071 -0.25646952 -0.06523397 -0.116053194 0.0022815734 0.01310945 -0.21403942
0.07451431 0.33625355 -0.0862296 -0.18467192 0.07763775 -0.13717538 -0.20418997 -0.15813626
0.21631956 -0.014926678 -0.21596561 -0.30680326 0.018344594 -0.07662853 -0.21452048 0.012612347
-0.032135155 -0.21561135 -0.061742596 -0.14242126 -0.1706277 -0.31753835 -0.051490292 6.142706e-05
-0.07372439 -0.25610015 0.08892256 -0.024301719 -0.1778086 -0.20463333 -0.15405792 0.08931823
-0.27125946 -0.06916072 -0.20018724 0.008609405 -0.06388355 0.061265722 -0.20307373 0.11395581
-0.14409572 -0.16756608 -0.4107672 -0.2967544 -0.10153455 0.008741221 -0.026588716 0.004542619
0.14276233 -0.05425892 -0.067934975 0.023707598 -0.098300375 -0.19377986 -0.1479487 -0.4205627
0.03132011 0.0009080227 -0.029583868 -0.1232676 -0.21949397 -0.09581676 -0.36927545 -0.13355409
-0.25710317 -0.15591875 0.036040578 0.13438493 0.078329355 -0.011085444 0.17130047 -0.19922802
-0.17583041 0.3411446 0.2278134 0.01918317 -0.25525504 -0.091839924 -0.16898239 0.08167633
-0.49936712 0.09526272 -0.2605316 0.012186584 -0.25835794 -0.20985734 -0.07253319 0.00085622765
-0.01683993 -0.47262397 -0.3128504 -0.0016849178 -0.045940798 0.14143974 -0.3405826 -0.04859019
0.0019795636 -0.05492537 -0.067920566 -0.016060447 -0.20390128 -0.08805623 0.048404664 -0.15099023
0.060881384 0.005448883 0.07283371 0.13994181 -0.17810227 -0.40428594 0.12736665 -0.007840928
-0.097192355 -0.005200285 0.14977261 -0.007333092 0.03093326 -0.20183225 -0.2604579 0.29826272
-0.048715036 -0.00042603211 -0.06298505 -0.20832673 -0.059539717 -0.10972279 -0.0012773864 -0.025026534
0.04649122 -0.105222575 -0.124442175 -0.2924678 -0.12618865 -0.36850473 -0.16439655 0.19768485
-0.05438198 -0.027108312 -0.09002751 -0.15002218 -0.04999284 -0.063507795 -0.081795365 0.037437364
0.22445132 0.36173445 -0.1137496 -0.08066988 -0.06533902 -0.24653153 0.23329197 0.018559908
0.042641234 -0.23148325 -0.110963784 0.0004783895 -0.088654675 -0.08682411 -0.24160852 -0.017987605
-0.22959024 -0.02862253 -0.19348213 0.019791609 -0.09813883 -0.15497163 0.2389076 -0.13331476
0.038452603 -0.11479927 -0.19061823 -0.1129412 -0.17108606 0.059714947 -0.10445109 -0.08186129
-0.057076838 -0.06618219 0.05279831 -0.24718161 -0.05761906 0.11409162 -0.052940097 0.09270212
-0.044329822 0.0042634555 0.19041865 -0.06777306 -0.03523317 0.09454136 0.010706039 -0.20059663
0.19186734 -0.273312 -0.007687392 -0.32949516 0.15254067 -0.14619361 -0.055256944 -0.030176807
0.07248682 0.001737703 0.0053226594 -0.060724713 -0.15898496 -0.09736638 0.27732128 -0.014521415
0.15881962 -0.16858423 0.13989604 -0.20290053 -0.09347401 0.06627667 -0.2283355 0.003132512
00000000: 4d89 c2be 1de2 ff3e 0bf3 033d 2e32 6c3a
00000010: 6d38 16be faf5 dc3c 9639 c93e 1480 02bd
00000020: b540 38be 0c62 fa3b e3c8 38bd 0858 64bc
00000030: 4735 b0bd 7458 efbd 57ad 8dbd fc3d eabc
00000040: 5e60 27be bb21 86bd c1f5 b7bd d161 dcbd
00000050: aae1 563d 5e81 08be 7123 85bd ac08 24be
00000060: 9c23 453e 55aa a1bd f4ac e93b af25 91bd
00000070: 07dc 66be 571f 4abe a792 b3be 30f5 ff3c
00000080: ae77 c8bc 9471 90bb f94f 83be 6399 85bd
00000090: 4cad edbd 7386 153b 05c9 563c 262d 5bbe
000000a0: f59a 983d 6d29 ac3e 2599 b0bd a31a 3dbe
000000b0: 8a00 9f3d b477 0cbe 2d17 51be 79ee 21be
000000c0: e082 5d3e 068f 74bc 1726 5dbe 5115 9dbe
000000d0: 6747 963c 6bef 9cbd 42ab 5bbe 04a4 4e3c
000000e0: 27a0 03bd 39c9 5cbe cee5 7cbd e1d6 11be
000000f0: 07b9 2ebe 6394 a2be 7ce7 52bd 67d2 8038
00000100: d0fc 96bd 8f1f 83be 081d b63d 6614 c7bc
00000110: 7513 36be 668b 51be 5cc1 1dbe 7aec b63d
00000120: 85e2 8abe 23a4 8dbd e2fd 4cbe 760e 0d3c
00000130: 61d5 82bd c4f1 7a3d 8ff2 4fbe aa61 e93d
00000140: d48d 13be 7196 2bbe 1450 d2be 31f0 97be
00000150: 59f1 cfbd 5737 0f3c 94d0 d9bc 40da 943b
00000160: 4a30 123e 9a3e 5ebd 7e21 8bbd 7036 c23c
00000170: b551 c9bd 3a6e 46be dd7f 17be ff53 d7be
00000180: 8449 003d 5f08 6e3a de59 f2bc b973 fcbd
00000190: 07c3 60be 943b c4bd ac11 bdbe 67c2 08be
000001a0: 07a3 83be 2aa9 1fbe 499f 133d 349c 093e
000001b0: 246b a03d b99f 35bc 6469 2f3e 6e02 4cbe
000001c0: e30c 34be 81aa ae3e ea47 693e 0626 9d3c
000001d0: cab0 82be 9216 bcbd b809 2dbe eb45 a73d
000001e0: 0cad ffbe 1a19 c33d 6664 85be 3daa 473c
000001f0: 7e47 84be d8e4 56be 488c 94bd 7774 603a
00000200: e5f3 89bc c5fb f1be ed2d a0be 76d8 dcba
00000210: 6b2c 3cbd 94d5 103e d860 aebe 8206 47bd
00000220: 91bb 013b 6df9 60bd f019 8bbd 3391 83bc
00000230: 7fcb 50be d356 b4bd f843 463d 2f9d 1abe
00000240: c25e 793d 8b8c b23b d729 953d e84c 0f3e
00000250: 7160 36be 91fe cebe 676c 023e 3c77 00bc
00000260: c90c c7bd 2767 aabb fe5d 193e 6f4a f0bb
00000270: c067 fd3c 1dad 4ebe bd5a 85be e4b5 983e
00000280: 6b89 47bd 105d dfb9 4efe 80bd 9a53 55be
00000290: ebdf 73bd 58b6 e0bd fa6d a7ba 7204 cdbc
000002a0: 946d 3e3d ef7e d7bd 8adb febd 57be 95be
000002b0: 9937 01be a7ac bcbe 9257 28be e66d 4a3e
000002c0: a4bf 5ebd 4012 debc 5860 b8bd 6a9f 19be
000002d0: 4bc5 4cbd 6010 82bd 5484 a7bd ec57 193d
000002e0: 91d6 653e 4235 b93e 8df5 e8bd 4036 a5bd
000002f0: 77d0 85bd c372 7cbe 17e4 6e3e f30a 983c
00000300: 93a8 2e3d f209 6dbe fb40 e3bd 5ad0 fa39
00000310: 9590 b5bd d7d0 b1bd 3968 77be be5a 93bc
00000320: b419 6bbe cc79 eabc 2e20 46be 0322 a23c
00000330: 03fd c8bd e2b0 1ebe 32a4 743e aa83 08be
00000340: 7a80 1d3d e11b ebbd 6d31 43be b74d e7bd
00000350: 2f31 2fbe a997 743d 74ea d5bd e4a6 a7bd
00000360: 67c9 69bd 878a 87bd 0a43 583d 2d1d 7dbe
00000370: f701 6cbd dea8 e93d b7d7 58bd 9cda bd3d
00000380: 3093 35bd 75b4 8b3b 1bfd 423e 9acc 8abd
00000390: a850 10bd e79e c13d 6268 2f3c 3469 4dbe
000003a0: df78 443e 8def 8bbe 85e6 fbbb 97b3 a8be
000003b0: 9f33 1c3e c7b3 15be 1b55 62bd 5a35 f7bc
000003c0: f873 943d a3c3 e33a b469 ae3b 7aba 78bd
000003d0: f4cc 22be 0668 c7bd 0efd 8d3e 3beb 6dbc
000003e0: 9ca1 223e 58a1 2cbe e840 0f3e 28c5 4fbe
000003f0: 4d6f bfbd 10bc 873d c8d0 69be d54a 4d3b

act_fc2.bias f4 [36]
-0.24344106 -0.5786561 -0.09722499 -0.16625561 -0.58983296 -0.2544989 -0.5457941 -0.14009972
0.27695912 0.26010984 -0.13569254 -0.49909794 -0.11570643 0.25484905 0.42772552 0.4001914
0.28359815 -0.14669804 -0.12448293 0.30259308 0.524763 0.3447218 0.26759353 -0.24773912
-0.5565344 -0.15748185 0.335054 0.36418542 -0.062532626 -0.52154636 -0.31629753 -0.5290815
-0.11924582 -0.09889237 -0.603435 -0.28887174
00000000: 9d48 79be ce22 14bf e51d c7bd e93e 2abe
00000010: 4bff 16bf ae4d 82be 2ab9 0bbf 4d76 0fbe
00000020: 96cd 8d3e 1e2d 853e fcf2 0abe c489 ffbe
00000030: 7ef7 ecbd 937b 823e d7fe da3e e3e5 cc3e
00000040: c733 913e 0338 16be e8f0 febd 7bed 9a3e
00000050: de56 063f 607f b03e 0502 893e 53af 7dbe
00000060: 0a79 0ebf ec42 21be 338c ab3e 8376 ba3e
00000070: 1b11 80bd 1084 05bf c0f1 a1be e371 07bf
00000080: 2737 f4bd 1588 cabd b77a 1abf ffe6 93be

val_fc1.weight f4 [64, 72]
0.23476988 0.098255225 -0.16876811 0.020382114 0.12333706 0.07857021 -0.20782118 -0.0052613257
-0.05914449 -0.0011527373 0.12191574 -0.021609966 -0.08844424 0.09902339 0.011388729 -0.17382143
0.15920487 -0.09340708 -0.10351383 0.0168552 -0.014149038 0.22891971 0.21378136 0.0487539
0.0977358 -0.07356464 0.08186615 0.07257632 0.14441706 -0.24087918 0.034102984 -0.2153247
-0.24022518 -0.11168758 -0.12529056 -0.14950159 0.12737302 0.1483563 0.05030714 -0.09638532
-0.12147258 -0.028482292 -0.0087099355 -0.061348356 -0.14164834 0.016822234 -0.023963066 0.089319386
-0.1158816 0.035074383 -0.027701342 0.17159078 0.056636583 0.044361573 0.2036711 -0.054915685
-0.22426741 0.15141061 0.08304448 0.027285427 0.07464265 0.066092774 -0.072388545 0.007907082
-0.107331745 0.023758207 -0.16654287 -0.01723106 0.106803395 0.29110786 -0.111713395 0.2045945
0.30258498 0.07925518 -0.16620784 -0.06896898 -0.08034388 0.12996309 -0.009202645 0.051752076
0.04056206 -0.015515772 0.11644827 -0.012705279 -0.19362894 0.11758248 0.052841842 -0.049446955
0.014252753 -0.16355315 -0.053812817 -0.016372839 0.09440785 0.16538848 0.09451935 0.122135706
-0.11843831 -0.06806915 0.077820875 0.16844252 0.16221109 -0.1200292 0.057564903 0.103752226
-0.08470698 0.06327755 0.15000354 -0.045537822 0.040354688 0.06663113 0.038001712 -0.03892974
-0.017471053 0.03506654 -0.19215724 0.08170769 -0.19817026 -0.09473634 -0.035084233 -0.04919468
-0.09384474 -0.0033723877 -0.14475897 0.0693023 -0.05056122 0.1396522 0.14248614 -0.028355442
-0.17000172 0.08883619 -0.030961826 -0.15556517 0.2692387 -0.009131531 -0.065884724 0.017945435
0.089606196 0.011274683 -0.029869037 -0.095214866 -0.11870285 0.062193435 0.07515206 0.077261
-0.25442192 0.0001419166 -0.518108 -0.068735994 0.027285969 -0.23950818 -0.118653595 -0.3957883
-0.025715409 -0.057223625 0.0071417396 -0.18816331 0.13257584 -0.19279121 -0.153178 -0.20956826
0.17499201 0.3831756 0.15331024 -0.27668425 -0.23871633 -0.2638872 -0.11014095 0.13077828
-0.16936804 -0.277227 0.080389254 -0.21804771 0.06043733 0.041221287 -0.30196077 -0.24274199
0.3208143 -0.4930077 -0.30052707 0.33602554 -0.029660981 -0.20328303 0.09139553 0.07365754
-0.187309 -0.36939582 0.39528406 -0.3020233 -0.13774166 -0.072253704 -0.0073368964 0.022053488
0.16335362 -0.11986703 -0.39521527 0.0020926257 0.07229747 -0.029068448 0.014887392 0.09087474
0.041098733 -0.25880614 -0.3474915 -0.081250034 -0.12145733 0.080309734 -0.25397718 0.20114775
0.17936589 0.20240289 0.43519032 0.24832717 0.290105 -0.12449544 -0.026252287 0.32519123
-0.22111204 0.014286909 -0.15279585 -0.04436589 0.044900548 -0.19734102 -0.10900201 0.00073520024
0.18370783 0.025605995 -0.016131457 0.0908223 0.015695164 -0.0785161 0.1242935 -0.01705647
-0.052914586 0.024529705 0.10227858 -0.04967158 0.0057464736 -0.10530906 -0.3048167 -0.21411538
-0.31665966 -0.0044932356 -0.019999377 -0.14192367 0.0292408 0.18292467 -0.060533416 0.09464197
0.056137566 -0.06993134 -0.01491054 0.37275887 -0.18360339 -0.039445702 -0.041057654 -0.12577672
00000000: 8467 703e 093a c93d 8cd1 2cbe 64f8 a63c
00000010: 2498 fc3d 6be9 a03d 13cf 54be 3367 acbb
00000020: 7e41 72bd 7217 97ba f6ae f93d 6207 b1bc
00000030: 4122 b5bd c6cc ca3d cb97 3a3c 3ffe 31be
00000040: 9a06 233e 364c bfbd 0fff d3bd eb13 8a3c
00000050: 5ed1 67bc ee69 6a3e 80e9 5a3e 2bb2 473d
00000060: b529 c83d 0fa9 96bd 71a9 a73d e5a2 943d
00000070: 11e2 133e 08a9 76be 92af 0b3d 147e 5cbe
00000080: 97fd 75be 75bc e4bd 2b4c 00be f216 19be
00000090: 136e 023e b7ea 173e dc0e 4e3d ab65 c5bd
000000a0: 9ec6 f8bd b253 e9bc 1eb4 0ebc 6a48 7bbd
000000b0: 430c 11be c8ce 893c 314e c4bc 15ed b63d
000000c0: 5553 edbd 28aa 0f3d eded e2bc 7eb5 2f3e
000000d0: c3fb 673d 7bb4 353d 288f 503e 45ef 60bd
000000e0: 5ba6 65be 620b 1b3e 3913 aa3d b085 df3c
000000f0: 3fde 983d a65b 873d 7240 94bd b58c 013c
00000100: bfd0 dbbd 92a0 c23c 378a 2abe 2728 8dbc
00000110: bdbb da3d 170c 953e fec9 e4bd 3881 513e
00000120: 6bec 9a3e 8a50 a23d 6332 2abe 9c3f 8dbd
00000130: 558b a4bd 0b15 053e b1c6 16bc fcf9 533d
00000140: 6724 263d dd35 7ebc 6e7c ee3d cd29 50bc
00000150: aa46 46be 15cf f03d b070 583d e488 4abd
00000160: 6184 693c 7a7a 27be d46a 5cbd 5520 86bc
00000170: e758 c13d 995b 293e 5c93 c13d 4922 fa3d
00000180: c98f f2bd d767 8bbd 8d60 9f3d 327c 2c3e
00000190: aa1a 263e dfd1 f5bd 2dc9 6b3d 0c7c d43d
000001a0: da7a adbd a997 813d 879a 193e de85 3abd
000001b0: f54a 253d e775 883d afa7 1b3d cb74 1fbd
000001c0: 741f 8fbc efa1 0f3d dec4 44be 5d56 a73d
000001d0: 25ed 4abe 2005 c2bd 7cb4 0fbd 5c80 49bd
000001e0: ac31 c0bd 4703 5dbb b23b 14be 5dee 8d3d
000001f0: 4819 4fbd fc00 0f3e e3e7 113e ac49 e8bc
00000200: ee14 2ebe c0ef b53d a8a3 fdbc 7a4c 1fbe
00000210: a8d9 893e 6b9c 15bc 92ee 86bd 4e02 933c
00000220: 7483 b73d 73b9 383c e9af f4bc 0300 c3bd
00000230: 7b1a f3bd 8bbe 7e3d 53e9 993d 043b 9e3d
00000240: 9743 82be 72cf 1439 baa2 04bf 75c5 8cbd
00000250: d386 df3c a241 75be a800 f3bd c4a4 cabe
00000260: 1fa9 d2bc 5263 6abd 4105 ea3b e2ad 40be
00000270: f6c1 073e 0f6b 45be b2da 1cbe 1099 56be
00000280: 1b31 333e 982f c43e 5cfd 1c3e 8fa9 8dbe
00000290: 0e72 74be 391c 87be 9491 e1bd beea 053e
000002a0: d16e 2dbe b3f0 8dbe 1fa3 a43d e647 5fbe
000002b0: 228d 773d a7d7 283d 9a9a 9abe 5b91 78be
000002c0: c641 a43e 816b fcbe afde 99be 8a0b ac3e
000002d0: 96fb f2bc 6d29 50be 942d bb3d c4d9 963d
000002e0: eecd 3fbe 7321 bdbe ac62 ca3e cca2 9abe
000002f0: 260c 0dbe c0f9 93bd 596a f0bb 84a9 b43c
00000300: 2c46 273e d87c f5bd a859 cabe 6f24 093b
00000310: b210 943d f420 eebc 3fea 733c 891c ba3d
00000320: 2557 283d 3d82 84be 68ea b1be 6b66 a6bd
00000330: 9fbe f8bd 6e79 a43d 4c09 82be adf9 4d3e
00000340: b1ab 373e b442 4f3e 44d1 de3e 7a49 7e3e
00000350: a488 943e 77f7 febd 090f d7bc 777f a63e
00000360: 326b 62be a413 6a3c 8476 1cbe 02b9 35bd
00000370: a3e9 373d c413 4abe 723c dfbd 74ba 403a
00000380: e81d 3c3e aac3 d13c 1e26 84bc 0b01 ba3d
00000390: 2593 803c 0dcd a0bd 978d fe3d 03ba 8bbc
000003a0: f7bc 58bd 85f2 c83c 6f77 d13d 6d74 4bbd
000003b0: ea4c bc3b 47ac d7bd ef10 9cbe 1041 5bbe
000003c0: 3721 a2be fe3b 93bb bcd5 a3bc 7054 11be
000003d0: 678a ef3c 9b50 3b3e e3f1 77bd a6d3 c13d
000003e0: 81f0 653d 2a38 8fbd 564b 74bc 40da be3e
000003f0: 8702 3cbe d191 21bd 122c 28bd 9dcb 00be

val_fc1.bias f4 [64]
0.055854414 -0.05970101 -0.0368726 -0.03627757 -0.019807253 -0.029146044 -0.20287627 -0.18506713
-0.031401142 -0.067571804 0.11109892 -0.041409146 -0.029236173 -0.07469482 -0.06823559 -0.083600186
-0.008981823 -0.15323006 -0.023669502 -0.121074125 -0.0017973087 0.029170962 -0.10688433 -0.24337545
-0.10063484 -0.028842814 -0.07371154 -0.044413023 -0.023027606 -0.20680042 -0.20730819 -0.05535135
-0.3533317 -0.051700428 0.13434239 -0.16872184 -0.056866728 -0.030364553 -0.002982863 -0.13743915
-0.10271672 0.15461421 -0.0027331868 -0.029179653 0.13720042 -0.07411534 -0.051292416 -0.21992542
-0.28353196 0.0079422975 -0.12657093 0.16562842 0.06986185 -0.08509495 -0.08932856 -0.051988035
-0.051796265 -0.065493286 0.04553779 0.08389422 -0.117932476 -0.08304223 0.00548335 -0.022627583
00000000: 99c7 643d 0c89 74bd b907 17bd ca97 14bd
00000010: d242 a2bc afc3 eebc ccbe 4fbe 3d82 3dbe
00000020: 7c9e 00bd 1663 8abd d587 e33d a39c 29bd
00000030: b380 efbc 99f9 98bd 1abf 8bbd 9336 abbd
00000040: 7f28 13bc 57e8 1cbe 8be6 c1bc b6f5 f7bd
00000050: ac93 ebba f1f7 ee3c 2ce6 dabd 6a37 79be
00000060: a419 cebd c447 ecbc 13f6 96bd 6eea 35bd
00000070: 64a4 bcbc 7dc3 53be 9948 54be 19b8 62bd
00000080: e5e7 b4be d4c3 53bd 0d91 093e 6bc5 2cbe
00000090: 16ed 68bd 15bf f8bc 237c 43bb d9bc 0cbe
000000a0: 255d d2bd 3053 1e3e 441f 33bb 2b0a efbc
000000b0: 447e 0c3e c9c9 97bd ff17 52bd 2134 61be
000000c0: 1a2b 91be 6920 023c cf9b 01be 7f9a 293e
000000d0: bb13 8f3d 4346 aebd e4f1 b6bd 68f1 54bd
000000e0: 5228 54bd 5821 86bd d585 3a3d bcd0 ab3d
000000f0: 9586 f1bd 0b12 aabd acad b33b 7b5d b9bc

val_fc2.weight f4 [1, 64]
-0.054547817 -0.07538385 0.1066746 0.13715574 0.026647117 0.013617462 0.20954949 -0.038580168
0.20965159 0.18353792 -0.08979888 -0.12366352 0.06640053 -0.005329168 0.12994793 0.26963708
-0.012367505 0.06340232 -0.03481527 0.20557602 -0.15554899 -0.08250931 0.4079764 -0.14768074
0.11462154 0.170435 0.4226141 0.09797457 0.06156348 -0.14414953 0.21084084 0.10865451
-0.26509172 0.068289146 -0.20292537 -0.1467122 0.0898251 0.18267119 0.13496079 -0.04367765
0.19279113 -0.16288474 -0.13166535 0.0024770205 -0.0711619 0.015287673 0.10175007 -0.007288076
-0.05336208 -0.029891476 -0.2253528 -0.24233495 -0.053429715 -0.02493638 0.08494516 0.16613847
0.23440163 -0.20536195 -0.06695373 -0.08517985 -0.12533908 -0.06454013 -0.24375835 0.012603757
00000000: 886d 5fbd d962 9abd 3678 da3d 8e72 0c3e
00000010: 0e4b da3c c61b 5f3c 2494 563e 3d06 1ebd
00000020: e8ae 563e 5df1 3b3e 7ae8 b7bd 4d43 fdbd
00000030: 00fd 873d 4da0 aebb 1211 053e df0d 8a3e
00000040: 13a1 4abc 13d9 813d 759a 0ebd 8582 523e
00000050: 3c48 1fbe a4fa a8bd 48e2 d03e 9f39 17be
00000060: b3be ea3d 8386 2e3e e060 d83e e4a6 c83d
00000070: fd29 7c3d ef9b 13be a9e6 573e 4186 de3d
00000080: 1aba 87be 2edb 8b3d abcb 4fbe b93b 16be
00000090: 39f6 b73d 280e 3b3e 2933 0a3e 56e7 32bd
000000a0: 0a6b 453e 42cb 26be 48d3 06be 8255 223b
000000b0: 55bd 91bd 2679 7a3c 5762 d03d d0d0 eebb
000000c0: 3292 5abd f8de f4bc e2c2 66be a726 78be
000000d0: 1ed9 5abd 6147 ccbc baf7 ad3d 3420 2a3e
000000e0: fb06 703e 674a 52be 0a1f 89bd c672 aebd
000000f0: e358 00be 9e2d 84bd ca9b 79be fd7f 4e3c
