AlphaZero_Gomoku/model/cnn/epoch_50.model (torch, 424769 bytes, 11 tensors)

layers.0.weight f4 [32, 4, 3, 3]
0	0xbeb002c0	-0.34377098
1	0x3e1e41dd	0.15454812
2	0xbded265c	-0.11579582
3	0xbe9fb3fc	-0.31192005
4	0xbe67f59a	-0.22652283
5	0x3e3b80ec	0.18310899
6	0xbe9db2e7	-0.30800554
7	0x3dce997e	0.1008787
8	0xbe608ee9	-0.21929516
9	0x3dc43d51	0.09582008
10	0x3e3bfc2c	0.18357915
11	0xbf15eb0c	-0.5856178
12	0x3ea34d18	0.31894755
13	0xbf0b6e86	-0.5446552
14	0xbe1be457	-0.15223823
15	0xbe276fdc	-0.16351265
16	0xbee784a2	-0.45218378
17	0x3bc7eaad	0.0061009736
18	0x3e6bacf9	0.23015203
19	0xbe5ec4dc	-0.21754783
20	0x3c6f98a8	0.014623798
21	0xbe485957	-0.1956533
22	0xbe7ef7a8	-0.24899161
23	0x3e475995	0.19467767
24	0x3e10b82f	0.1413276
25	0xbdb0bbe4	-0.08629587
26	0xbeb4d78b	-0.35320696
27	0x3dabb418	0.083839595
28	0x3dcc221f	0.099674456
29	0xbdc00a2e	-0.093769416
30	0x3e1f3f14	0.15551406
31	0x3db5e988	0.08882433
32	0xbde2b00c	-0.110687345
33	0xba30129c	-0.000671664
34	0x3e1272f1	0.14301659
35	0xbd38e89a	-0.0451437
36	0x3e09789a	0.13424912
37	0xbd7a8f0f	-0.061171588
38	0xbe2aa103	-0.16662984
39	0xbeb94363	-0.36184224
40	0xbdff0a45	-0.12453131
41	0x3de090c1	0.109651096
42	0xbd3db2aa	-0.046312965
43	0x3de026c8	0.10944897
44	0xbd499f7b	-0.049224358
45	0x3d3af1bf	0.045640703
46	0x3ea614a0	0.3243761
47	0x3ea09a5e	0.31367773
48	0x3dfd75d8	0.123759925
49	0x3d10e4b7	0.03537437
50	0xbec6d0e8	-0.38831258
51	0xbe57b458	-0.2106489
52	0xbec50a61	-0.3848448
53	0xbecc0254	-0.39845526
54	0x3e0227f3	0.12710552
55	0xbe860536	-0.2617585
56	0x3db5c237	0.08874934
57	0x3e019926	0.12656078
58	0x3e5e8381	0.21729852
59	0xbcd95577	-0.02653001
60	0x3de852b2	0.11343898
61	0xbe88d9bb	-0.26728615
62	0xbe7330c8	-0.23749077
63	0xbe245e0c	-0.16051501
64	0xbde42e91	-0.11141694
65	0x3daf34c7	0.08554988
66	0xbde4201b	-0.11138936
67	0x3ceafb0e	0.028684165
68	0x3dc6ae4a	0.09701212
69	0xbe229945	-0.1587878
70	0xbd1320c7	-0.03591993
71	0xbbebc63e	-0.007195263
72	0x39589ec0	0.00020658504
73	0xbe33c497	-0.17555462
74	0x3e276c69	0.16349949
75	0xbe7ba09c	-0.24572986
76	0xbed4db5b	-0.41573605
77	0x3e241648	0.16024125
78	0x3e47f8f5	0.19528563
79	0x3ed6bc47	0.4194052
80	0xbe5180f9	-0.20459355
81	0x3e891933	0.26777038
82	0x3de3f0ae	0.111298904
83	0xbddb6352	-0.10712303
84	0xbc4351ca	-0.0119213555
85	0x3bbb01f2	0.005707019
86	0xbdc8cc2c	-0.09804568
87	0xbe9991aa	-0.29993945
88	0xbb2cc61a	-0.0026363195
89	0xbe4dc2b0	-0.20093799
90	0xbe28a516	-0.16469225
91	0x3d854669	0.0650757
92	0x3e402ac5	0.18766315
93	0x3e843b24	0.2582637
94	0x3df21134	0.118196875
95	0xbdab2bd7	-0.08357971
96	0x3bf75c30	0.0075488314
97	0xbe058b84	-0.13041502
98	0x3e14d1d3	0.14533167
99	0x3d5fa0ea	0.05459682
100	0xbdf34b00	-0.118795395
101	0x3dd6ddae	0.10491501
102	0xbddc7659	-0.107647605
103	0x3de38e73	0.111111544
104	0x3e1b4c87	0.15165912
105	0xbe14145c	-0.14460891
106	0xbe233c90	-0.15941072
107	0x3c6a1c3e	0.01428896
108	0xbdd628e0	-0.10457015
109	0xbed35d94	-0.41282332
110	0xbe536f64	-0.20647961
111	0x3d5c8ce9	0.05384532
112	0xbee0cc91	-0.43906072
113	0xbe7be392	-0.2459853
114	0xbdabd49e	-0.08390163
115	0x3e9050ac	0.28186548
116	0xbdf0c4cc	-0.11756286
117	0x3e0a5902	0.13510516
118	0x3e397f6a	0.18115011
119	0x3dd49f2d	0.10381923
120	0xbef75ef0	-0.4831462
121	0x3e1c5ac3	0.15268998
122	0xbe755dac	-0.23961514
123	0xbe5f187b	-0.21786682
124	0xbedc3f9f	-0.4301729
125	0xbea14a4f	-0.31502005
126	0x3d4cb056	0.049972855
127	0x3d4e4274	0.050356343
128	0xbe89ba93	-0.26900157
129	0xbe8ba9f3	-0.27278098
130	0xbe7c7ef5	-0.24657805
131	0xbe07f962	-0.13278726
132	0x3e0945ba	0.13405505
133	0xbe488c47	-0.19584762
134	0xbe25f926	-0.16208324
135	0x3d909bfb	0.07061001
136	0x3e05e90d	0.13077183
137	0xbd555687	-0.052084472
138	0xbd8705c6	-0.06592898
139	0x3e015bc1	0.12632658
140	0xbdbe89e5	-0.09303645
141	0x3e1ffeb4	0.15624505
142	0x3e041232	0.12897566
143	0xbd1b3e43	-0.037901174
144	0x3df9e7d2	0.12202419
145	0x3da0b309	0.07846648
146	0x3eca78e6	0.39545363
147	0x3e5fb24b	0.21845357
148	0x3dac2d00	0.084070206
149	0xbdc3e3a5	-0.09564904
150	0xbeb19a37	-0.3468797
151	0x3d9cdf82	0.07659818
152	0x3e00520b	0.12531297
153	0x3d480c1e	0.04883968
154	0xbdc46bfc	-0.09590909
155	0xbd5683b3	-0.052371692
156	0x3d1593df	0.036517974
157	0xbd61a004	-0.055084243
158	0x3e3bf647	0.18355666
159	0xbe864bad	-0.2622961
160	0xbe8c1b15	-0.27364412
161	0xbe5492e0	-0.20759153
162	0x3d085e1a	0.033292867
163	0x3d7ac0da	0.061219074
164	0xbec2570b	-0.37957034
165	0x3d9ac2a1	0.07556654
166	0x3cf2f97f	0.029659985
167	0xbe5a8641	-0.21340276
168	0xbdb76a9c	-0.08955881
169	0xbd8b66a9	-0.0680669
170	0xbd806343	-0.06268933
171	0x3d072ea1	0.033003453
172	0x3d805cec	0.062677234
173	0xbe167ab4	-0.14695245
174	0x3d17a990	0.03702694
175	0xbe0aa194	-0.135382
176	0xbdfe440b	-0.12415322
177	0xbe74c8aa	-0.23904672
178	0xbc322c33	-0.010874796
179	0xbe662fef	-0.22479223
180	0x3d9877ee	0.0744475
181	0x3db8fdf3	0.09032812
182	0xbb2166db	-0.0024627957
183	0x3da2c9db	0.07948657
184	0x3e760b68	0.24027789
185	0xbdb1aa5c	-0.086750716
186	0xbe71d1df	-0.23615216
187	0x3e16df94	0.14733726
188	0xbea6bb06	-0.32564563
189	0xbcacc0f2	-0.021088097
190	0xbe6e620f	-0.23279594
191	0xbe365d4c	-0.17809027
192	0xbe23c1fd	-0.1599197
193	0xbedbf4df	-0.4296026
194	0x3e9c6f9e	0.30553907
195	0x3e289591	0.16463305
196	0x3e0d622d	0.13806982
197	0xbed4956d	-0.41520253
198	0x3df60afd	0.120138146
199	0xbdb68f57	-0.08914059
200	0xbe1dcf3c	-0.15411085
201	0xbe53aa6a	-0.20670477
202	0x3d0e99a2	0.034814484
203	0xbe650d43	-0.2236834
204	0x3d518f45	0.051162023
205	0xbda8c86f	-0.08241355
206	0x39777c99	0.00023602172
207	0x3d7a43c9	0.0610998
208	0xbe550bc0	-0.20805264
209	0x3e0a04da	0.13478413
210	0x3d6a18de	0.05715262
211	0xbe4d4920	-0.20047426
212	0xbd3c8d64	-0.046033278
213	0xbd2e5b7f	-0.042567726
214	0x3be515e2	0.006991134
215	0xbd18ee14	-0.037336424
216	0xbceeb2ad	-0.029137934
217	0xbe895f17	-0.2683036
218	0xbc3cdc70	-0.011527166
219	0xbebd68c0	-0.3699398
220	0xbea0384a	-0.31292945
221	0x3de01177	0.10940831
222	0x3e871e62	0.26390368
223	0xbe0e3591	-0.13887621
224	0xbddf5956	-0.10905711
225	0xbe582a98	-0.21109998
226	0x3e6a093b	0.22855084
227	0xbe6b0aea	-0.22953382
228	0x3b0d197c	0.0021530082
229	0x3d9a8695	0.07545201
230	0xbda5cc55	-0.08095614
231	0x3e20f213	0.15717344
232	0x3d5ecaac	0.0543925
233	0x3d86a025	0.06573514
234	0x3e6837a0	0.22677469
235	0x3cd15dfd	0.025557512
236	0xbd53e20d	-0.05172925
237	0x3de683e0	0.11255622
238	0x3d66edeb	0.05637924
239	0x3e19e84d	0.15030022
240	0x3dbc378d	0.09190283
241	0xbe2cb1bc	-0.16864675
242	0xbcee5528	-0.02909334
243	0xbdb95790	-0.09049904
244	0xbc1de853	-0.00963791
245	0xbd0e4773	-0.034736108
246	0xbd0a6e0e	-0.033796363
247	0x3d8840ae	0.06652962
248	0xbda01162	-0.078158155
249	0xbda917d2	-0.082564965
250	0xbd15d4d5	-0.036579926
251	0xbd7cb664	-0.06169738
252	0x3e0a7e77	0.13524805
253	0xbf00baa1	-0.50284773
254	0x3eb91909	0.36151913
255	0xbe87ca3d	-0.26521483

layers.1.weight f4 [64, 32, 3, 3]
0	0x3db9d6cc	0.090741724
1	0x3d262f56	0.040572487
2	0xbd20f164	-0.039292708
3	0x3dce5949	0.100756235
4	0xbddccb90	-0.10781014
5	0xbd8075bb	-0.06272455
6	0x3c946f0c	0.018119358
7	0xbcc6372c	-0.02419623
8	0x3e055b7f	0.13023184
9	0x3d89dc9d	0.06731532
10	0xbcb528df	-0.022114215
11	0xbe90563d	-0.28190795
12	0x3dc36eba	0.09542604
13	0xbe2e8658	-0.17043436
14	0xbd02759d	-0.031850446
15	0xb9d2bb95	-0.0004019408
16	0xbe829a67	-0.25508425
17	0xbe843d29	-0.25827911
18	0xbdc996db	-0.098432265
19	0xbbe7da93	-0.0070756166
20	0xbe8994fe	-0.26871485
21	0xbe19f5ff	-0.15035246
22	0xbe083eba	-0.13305178
23	0xbea8fedd	-0.33006945
24	0xbd095136	-0.033524714
25	0xbddf13b9	-0.10892434
26	0xbe03efe4	-0.1288448
27	0x3cb4810f	0.022034196
28	0x3e1f5281	0.15558816
29	0xba7015c0	-0.00091585144
30	0x3c0c98f4	0.008581389
31	0xbd3eb45c	-0.046558723
32	0xbc3369ca	-0.010950515
33	0xbe735894	-0.23764259
34	0x3d587839	0.05284903
35	0xbb804acb	-0.003915166
36	0x38fd9440	0.00012091594
37	0xbd1c5c32	-0.03817386
38	0xbd5eef5d	-0.054427493
39	0xbdced405	-0.10099033
40	0x3c9a0df6	0.018805485
41	0xbdf3c52a	-0.119028404
42	0xbc8af56d	-0.016962731
43	0xbd98fef3	-0.07470503
44	0x3d493cb0	0.04913014
45	0xbc1c0df6	-0.009524813
46	0x3de5b114	0.112154156
47	0xbdf3b23f	-0.11899232
48	0xbd275390	-0.040851176
49	0xbdb1c47f	-0.08680057
50	0xbdacfb9b	-0.084464274
51	0x3e283454	0.16426212
52	0xbd3c8494	-0.046024874
53	0x3e11c033	0.14233474
54	0xbda1eac4	-0.07906106
55	0xbe0cc9d4	-0.13748866
56	0xbd685d1c	-0.05672942
57	0xbe0653f5	-0.13117965
58	0x3d10d557	0.035359707
59	0xbd75c3d1	-0.0600012
60	0xbda4f9a3	-0.08055427
61	0xbdb7223c	-0.089420766
62	0x3d02fe9a	0.03198109
63	0xbd80dc1c	-0.062919825
64	0x3e0a5793	0.1350997
65	0xbe93a0d3	-0.28833637
66	0x3d9579ce	0.07298623
67	0xbd4c6633	-0.049902152
68	0xbe5e9c70	-0.21739364
69	0xbd897751	-0.06712211
70	0xbd7063a9	-0.058688793
71	0xbbb13f42	-0.0054091522
72	0xbad9ffab	-0.0016631981
73	0x3dd98d68	0.10622674
74	0xbd78e700	-0.060767174
75	0x3d9bcc58	0.07607335
76	0xbdf3774a	-0.11887987
77	0x3c57906a	0.01315699
78	0xbe95a755	-0.29229227
79	0xbdd570e7	-0.10421925
80	0xbd40717b	-0.046983223
81	0x3ddfeb32	0.10933532
82	0xbdf26d44	-0.11837247
83	0xbe81f818	-0.25384593
84	0xbc9e21c2	-0.019303206
85	0x3cf389f8	0.029728875
86	0xbe83b490	-0.25723696
87	0x3dd3445c	0.10315773
88	0x3db897cb	0.09013327
89	0xbdb2ab3c	-0.087240666
90	0xbe6a477b	-0.2287883
91	0xbe49c66a	-0.19704595
92	0xbe4b1030	-0.19830394
93	0x3e18ebe6	0.14933738
94	0xbe29245e	-0.16517779
95	0xbd1fc9a1	-0.039010648
96	0xbc0f9a6b	-0.008764843
97	0x3c8906fb	0.016726961
98	0xbde9b413	-0.114112996
99	0xbe97ef64	-0.29674828
100	0x3c446545	0.011987035
101	0x3bdff203	0.00683427
102	0xbdc9778e	-0.09837256
103	0xbd42a27f	-0.04751825
104	0xbe708b6e	-0.23490688
105	0xbe70e735	-0.23525698
106	0xbd9451ef	-0.0724219
107	0xbdd70c1a	-0.10500355
108	0x3d4f22e6	0.05057039
109	0x3dbc4e27	0.09194594
110	0xbdddf058	-0.108368576
111	0xbdcf5afe	-0.10124777
112	0xba0b834c	-0.0005321994
113	0xbe033245	-0.12812145
114	0x3ddc0b3a	0.10744329
115	0x3c49ca94	0.012316365
116	0x3c4d091f	0.012514382
117	0x3d64819e	0.055787675
118	0xbe37f5bf	-0.17964838
119	0x3d0ab017	0.03385934
120	0xbd32c861	-0.043648127
121	0xbc49554a	-0.012288401
122	0xbcb93b48	-0.022611275
123	0x3bb8b9d0	0.005637385
124	0xbd36b2c6	-0.044604085
125	0xbda54881	-0.0807047
126	0x3de490db	0.111604415
127	0x3e640ead	0.22271223
128	0xbde09e44	-0.10967687
129	0xbe563338	-0.20917976
130	0xbd0b0616	-0.03394135
131	0xbe338314	-0.17530471
132	0xbe57190a	-0.21005645
133	0x3d92b822	0.07164027
134	0xbe9a6708	-0.30156732
135	0x3d5b9aaf	0.053614315
136	0x3dffefcf	0.12496912
137	0xbd57853d	-0.0526173
138	0xbe92e823	-0.2869273
139	0xbd97ab38	-0.07405704
140	0xbe2ef85a	-0.17086926
141	0xbeb0fc58	-0.34567523
142	0xbd2b5a16	-0.04183396
143	0xbdbf03a6	-0.09326868
144	0x3d990547	0.0747171
145	0x3e580ae0	0.21097898
146	0x3d896410	0.067085385
147	0xbda770d0	-0.08175814
148	0xbe81815c	-0.25294006
149	0xbe4770b8	-0.19476593
150	0x3d2350d3	0.039872
151	0x3e875782	0.2643395
152	0x3e293efd	0.16527934
153	0x3db7a444	0.08966878
154	0x3bd57800	0.0065145493
155	0xbd127538	-0.03575632
156	0xbd875c57	-0.06609409
157	0xbcaceed5	-0.021109978
158	0x3b291ed6	0.0025805733
159	0xbe59cc3a	-0.21269313
160	0xbe09cfa7	-0.1345812
161	0xbd8966cd	-0.06709061
162	0xbdfc7fe5	-0.123290814
163	0xbe63c7ab	-0.22244136
164	0xbe5ae75b	-0.21377318
165	0xbd3650ff	-0.044510838
166	0x3db401c3	0.087893985
167	0xbe965234	-0.2935959
168	0xbe1148ac	-0.14187878
169	0x3dc5c2a8	0.09656268
170	0x3dd0714c	0.1017786
171	0x3e5aaec4	0.2135573
172	0x3dbcf67b	0.092267
173	0x3de5cdc3	0.112208866
174	0xbe6bacb2	-0.23015097
175	0xbe1ad01d	-0.15118451
176	0xbe7323ef	-0.23744176
177	0xbd87cd56	-0.066309616
178	0xbe0f36b2	-0.13985708
179	0xbdfe846f	-0.124276035
180	0x3e1c7624	0.15279442
181	0xbdf0825e	-0.117436156
182	0xbdbe2d07	-0.09285932
183	0xbcf220f8	-0.029556736
184	0xbeaf50af	-0.34241244
185	0xbebc8909	-0.368233
186	0xbb41900d	-0.0029535324
187	0x3e983697	0.2972915
188	0x3e682ed2	0.2267411
189	0x3c08f21f	0.008358507
190	0x3d55faf5	0.052241284
191	0x3df2be5d	0.11852715
192	0xbd8c9c94	-0.068658024
193	0xbe79c377	-0.2439097
194	0xbe935781	-0.28777698
195	0xbdd389e2	-0.103290334
196	0x3d37d537	0.044881072
197	0xbdd8b122	-0.105806604
198	0xbc9ba20f	-0.018998174
199	0xbe1975c5	-0.14986332
200	0xbdbecdfc	-0.09316632
201	0xbe17cb04	-0.14823538
202	0xbe4b81dd	-0.19873758
203	0xbe856f98	-0.26061702
204	0xbdd22595	-0.102610745
205	0xbd40c346	-0.047061227
206	0xbdbdbec8	-0.09264904
207	0x3cc40ec4	0.023932822
208	0xbdc1d01f	-0.09463524
209	0xbd9cbd6f	-0.07653319
210	0x3ce887dc	0.028385095
211	0xbdc89944	-0.09794858
212	0xbe9b4e88	-0.30333352
213	0xbe39f542	-0.18159965
214	0xbd328d87	-0.043592002
215	0x3acaad64	0.0015463051
216	0x3dd0dc11	0.10198224
217	0x3d10004c	0.035156533
218	0xbddce7cf	-0.107864015
219	0xba9274ba	-0.0011173703
220	0xbd442a81	-0.047892097
221	0xbd8e42d9	-0.06946344
222	0x3d3e6d7c	0.04649113
223	0x3dae3a74	0.08507243
224	0xbdd34bac	-0.10317168
225	0x3d876cb7	0.066125326
226	0x3d9abb8d	0.07555304
227	0xbdc32353	-0.09528222
228	0x3e376859	0.17910899
229	0xbe93b33f	-0.2884769
230	0xbd215552	-0.03938801
231	0x3d4724fe	0.048619263
232	0x3c089e6d	0.008338553
233	0xbe4105ab	-0.18849818
234	0x3e3554ff	0.17708205
235	0xbd276bf9	-0.040874455
236	0xbe9f7428	-0.31143308
237	0xbe5fe998	-0.21866453
238	0xbe99be95	-0.30028215
239	0xbe5dfbc6	-0.21678075
240	0x3c94a619	0.018145608
241	0xbda3c004	-0.079956084
242	0x3e00edcd	0.12590714
243	0x3d5ea1fc	0.0543537
244	0x3ca33013	0.019920385
245	0xbe0d634c	-0.1380741
246	0xbd6341bd	-0.055482615
247	0x3c244466	0.010026073
248	0xbd727687	-0.059195068
249	0xbe06bac1	-0.13157178
250	0xbd7d15e4	-0.061788455
251	0xbe3a5206	-0.18195352
252	0x3c656380	0.014000773
253	0x3ba02e49	0.00488833
254	0xbdb6ab74	-0.08919421
255	0xbcd120c6	-0.025528323

layers.2.weight f4 [128, 64, 3, 3]
0	0xbe6ef5bd	-0.23335929
1	0xbd081740	-0.033225298
2	0xbdec52f1	-0.11539257
3	0xbdfb76f0	-0.12278545
4	0xbc81399c	-0.01577454
5	0x3d74fc89	0.05981115
6	0xbdae507b	-0.08511444
7	0xbe0469ff	-0.1293106
8	0xbdc52ea5	-0.09628037
9	0xbe001025	-0.12506159
10	0x3d5438d8	0.051812023
11	0xbd8698cb	-0.06572112
12	0x3d826703	0.06367304
13	0x3b3203b4	0.0027162852
14	0xbc68a945	-0.014200513
15	0x3d91f2c6	0.071263835
16	0xb9e0b4c8	-0.00042859302
17	0x3e177ee0	0.14794493
18	0x3e0560d9	0.13025226
19	0x3cd5022a	0.026002008
20	0xbdc21053	-0.0947577
21	0xbdb9f1d5	-0.09079329
22	0x3d427268	0.047472388
23	0xbd761cf0	-0.06008619
24	0xbb984df6	-0.0046479655
25	0xbc2ba1b4	-0.010475565
26	0x3ca835ef	0.02053353
27	0xbd06c145	-0.03289916
28	0x3a2f9819	0.00066983845
29	0xbb81d4ad	-0.0039621205
30	0xbb762b40	-0.00375624
31	0x3b313918	0.0027042087
32	0x3bf0484c	0.007332837
33	0x35d0a7ea	1.5546077e-06
34	0xb7163c71	-8.954769e-06
35	0x391c2b3d	0.00014893427
36	0x3d829ee9	0.06377966
37	0x3e17b385	0.14814575
38	0xbd768308	-0.060183555
39	0xbcd55513	-0.026041543
40	0x3bfc4dec	0.0076997187
41	0xbcc54744	-0.024081834
42	0x3dcc587d	0.09977815
43	0x3d9cb003	0.07650759
44	0x3ce6ddfc	0.028182022
45	0x3d235a1b	0.039880853
46	0x3d4e8394	0.05041845
47	0xbd0f176e	-0.034934454
48	0x3db45554	0.088053375
49	0xbc7df24e	-0.0154996645
50	0xbd07c26f	-0.03314441
51	0x3da0d13e	0.0785241
52	0xbca5d718	-0.020244166
53	0xbd4f195f	-0.050561305
54	0xbb7b0b89	-0.0038306436
55	0xbce0a8ea	-0.027424295
56	0xbc0106fe	-0.007875202
57	0xb870567c	-5.7301004e-05
58	0xbb6c386c	-0.0036044372
59	0x3bddc15b	0.0067674345
60	0x36b72360	5.457943e-06
61	0x3b48b657	0.003062626
62	0x3c1b26c3	0.009469691
63	0xbd68fc31	-0.056881133
64	0x3c91ed20	0.017813265
65	0xbe093bd0	-0.13401723
66	0xbe0d5c45	-0.1380473
67	0xbd7348fe	-0.059395783
68	0xbdc8414b	-0.09778079
69	0xbd825b6b	-0.06365093
70	0xbd6b2cfe	-0.057415955
71	0x3d8e47f4	0.06947318
72	0x3aa63480	0.0012680441
73	0xbe1c9f59	-0.15295161
74	0xbd568bde	-0.05237948
75	0x3d1692bc	0.03676103
76	0x3df6748a	0.12033947
77	0xbc070354	-0.00824054
78	0x3e143f70	0.14477324
79	0xbcffb6ce	-0.031215098
80	0xbc7424af	-0.014901324
81	0xbd28e5a0	-0.041234612
82	0xbe247ea4	-0.16063935
83	0x3d21e599	0.039525602
84	0x3d97d5eb	0.074138485
85	0xbc9efa1f	-0.019406376
86	0x3d898734	0.06715241
87	0x3d9d88a6	0.07692079
88	0xbd9d825a	-0.07690878
89	0x3df3ffca	0.11914022
90	0x3da999ca	0.08281286
91	0xbdc2b09f	-0.09506344
92	0x3df8a91d	0.12141631
93	0xbb1fae3c	-0.0024365326
94	0x3c47c3f2	0.012192713
95	0xbcc94bdd	-0.024572307
96	0x3e14eaee	0.14542744
97	0x3d5fbb6d	0.054622103
98	0x3c0eaeca	0.008708665
99	0x3c35e340	0.011101544
100	0xbcda139c	-0.026620679
101	0xbceee572	-0.029162142
102	0xbcfb6d4f	-0.03069177
103	0xbd36d3d5	-0.044635613
104	0x3d20ad28	0.039227635
105	0x3b5df11e	0.003386564
106	0x3ab476c1	0.0013768302
107	0xbc8044b6	-0.015657764
108	0x3c0b50b6	0.00850313
109	0x3e35e449	0.17762865
110	0xbd96168f	-0.073285215
111	0x3ccd4d09	0.025061147
112	0xbd9c3ba4	-0.07628563
113	0x3db28aac	0.08717856
114	0x3e066073	0.1312273
115	0x3b740dc1	0.0037239643
116	0x3dc5cf52	0.09658684
117	0xbd4dc408	-0.050235778
118	0x3d6dfbf9	0.058101628
119	0xbd59cdc4	-0.05317475
120	0x3dd896e9	0.10575659
121	0xbd966c24	-0.07344845
122	0xbd2e99ad	-0.042627025
123	0x3d11b3ff	0.03557205
124	0xbdb94379	-0.090460725
125	0x3dc90c47	0.09816795
126	0xbc83ce40	-0.016089559
127	0xbd075ff2	-0.033050485
128	0x3da45a35	0.08025018
129	0x3c04ba39	0.00810104
130	0xbca9ac6d	-0.020712102
131	0x3b77c207	0.0037804858
132	0xbd244c1f	-0.040111657
133	0xbcadfdb5	-0.021239141
134	0xbb8cf386	-0.004301491
135	0x3e08d980	0.1336422
136	0xbd283a6c	-0.04107134
137	0x3e54fff8	0.2080077
138	0xbe1aad2a	-0.1510512
139	0xbcb400f2	-0.021973107
140	0x3dd3dd93	0.10344996
141	0x3d0b30c0	0.03398204
142	0x3c91e7ab	0.017810663
143	0xbd9f8d9b	-0.07790681
144	0x3c203417	0.009778044
145	0xbd893c88	-0.067009985
146	0x3d36b570	0.044606626
147	0x3d639bbf	0.055568453
148	0xbc8c6a4c	-0.01714053
149	0x3d0d3f79	0.03448436
150	0xbc8095c9	-0.015696423
151	0x3dab291c	0.0835745
152	0xbc70719e	-0.014675526
153	0xbdcfd298	-0.101475894
154	0xbc435e4a	-0.011924336
155	0xbe53e130	-0.20691371
156	0xbd3e87fe	-0.04651641
157	0x3d85acd2	0.065271035
158	0xbd57440d	-0.052555133
159	0x3de2365f	0.11045527
160	0xbc1fb9dc	-0.009748902
161	0xbdc9fd8a	-0.09862812
162	0xbe2fda2b	-0.17173068
163	0x3daf480f	0.08558666
164	0xbd2440d2	-0.04010088
165	0x3e39fa44	0.18161875
166	0xbe02f2ae	-0.12787887
167	0x3e452917	0.19253956
168	0x3e4ccd2e	0.20000145
169	0xbe08b885	-0.13351639
170	0xbda135a0	-0.07871556
171	0xbdcf3abf	-0.10118627
172	0xbd121e13	-0.035673212
173	0xbdc7edfe	-0.0976219
174	0xbda63b35	-0.081167616
175	0xbd364608	-0.04450038
176	0xbcc8d2ee	-0.024514642
177	0x3cdb663d	0.02678215
178	0x3bf873dd	0.0075821714
179	0xbba9dd48	-0.0051838495
180	0x3b47b69a	0.003047383
181	0x3e0023ac	0.12513608
182	0x3d9dc2a1	0.07703138
183	0x3c2c15dc	0.010503259
184	0x3dc88004	0.09790042
185	0x3cc497fc	0.023998253
186	0xbcb89de2	-0.022536222
187	0x3db1e306	0.086858794
188	0xbcb6aba9	-0.02229865
189	0xbccf1b64	-0.025281616
190	0xbdb5602c	-0.08856234
191	0x3d83f2f0	0.06442821
192	0x3c47d939	0.012197786
193	0x3b94752a	0.0045305686
194	0xbe30961c	-0.17244762
195	0xbdd3296f	-0.10310637
196	0xbe303825	-0.17208917
197	0xbd87aab4	-0.06624356
198	0x3da44d41	0.080225475
199	0xbdade9e8	-0.0849188
200	0x3cc476e7	0.023982478
201	0xbd4620c3	-0.048371088
202	0x3c912ab0	0.01772055
203	0xbc6b7b16	-0.014372608
204	0xbd62fdcc	-0.05541782
205	0xbd838a11	-0.064228185
206	0x3c277486	0.010220652
207	0x3aa28fc0	0.001240246
208	0x3d411c79	0.047146294
209	0x3d79c4e3	0.06097878
210	0x3d346341	0.04403997
211	0xbdd00a5f	-0.10158228
212	0xbd93c2ba	-0.072148755
213	0xbe25237f	-0.16126822
214	0xbd08712c	-0.033311054
215	0x3d0d8598	0.034551233
216	0x3c99730c	0.018731616
217	0xbd43a5d2	-0.04776556
218	0xbe3e3ca3	-0.18577819
219	0x3de7556f	0.11295592
220	0x3bbe1ff2	0.005802148
221	0x3dc2f29e	0.09518932
222	0x3cdd1fa4	0.026992626
223	0xbb60bdc8	-0.0034292806
224	0x3ce3e12a	0.027817328
225	0x3c76051c	0.015015867
226	0x3dac3140	0.08407831
227	0x3c1bf21a	0.009518171
228	0xbb80bbfd	-0.00392866
229	0x3cb779e1	0.022396984
230	0x3d246913	0.04013927
231	0x3dd796ff	0.10526847
232	0xbd8154fe	-0.06315039
233	0xbe1e729f	-0.15473412
234	0xbd848bc7	-0.06471973
235	0x3ce45e11	0.027876886
236	0x3d358766	0.04431858
237	0x3d4e0086	0.050293468
238	0x3ceae9f7	0.028676016
239	0xbdea2376	-0.11432545
240	0xbe504a99	-0.20340957
241	0xbe201bb1	-0.15635563
242	0x3c21b3e4	0.009869549
243	0x3cc04f95	0.023475448
244	0xbdf5b310	-0.11997044
245	0x3b66cf2b	0.0035218697
246	0x3e47a59e	0.19496772
247	0xbded688d	-0.11592207
248	0x3dff34cd	0.12461243
249	0x3d59513f	0.053055998
250	0x3ddc8660	0.107678175
251	0xbc9d2af2	-0.019185517
252	0xbdad4bf9	-0.08461756
253	0x3dee3fac	0.11633238
254	0xbe5c99cb	-0.21543042
255	0xbc8d4cf2	-0.017248604

layers.3.weight f4 [2, 128, 1, 1]
0	0xbc0ad08a	-0.008472571
1	0xbe6596d1	-0.22420813
2	0xbe288dfb	-0.16460411
3	0xbd17f53f	-0.03709912
4	0x3da352d7	0.07974785
5	0x3dcb390f	0.099229924
6	0xbbcbe483	-0.006222309
7	0xbd96f075	-0.07370082
8	0xbc0d2aaf	-0.008616134
9	0xbdc3f9e9	-0.09569151
10	0xbd322655	-0.043493588
11	0xbe7c7460	-0.24653769
12	0xbe2a099a	-0.16605225
13	0x3dc92095	0.09820668
14	0xbdc1b254	-0.094578415
15	0xbd7e9f0d	-0.0621634
16	0xbdcadd91	-0.09905542
17	0x3cc28a2f	0.023747532
18	0x3cf83242	0.030297402
19	0x3da85600	0.08219528
20	0x3d159438	0.036518306
21	0xbdf04279	-0.11731429
22	0x3d4e2e24	0.050336972
23	0x3d1fc566	0.039006613
24	0xbd3d7a09	-0.04625896
25	0xbc28be4a	-0.010299275
26	0xbd4dc872	-0.050239988
27	0x3d9aa232	0.075504676
28	0x3d9db8d4	0.07701269
29	0xbce8791f	-0.028378068
30	0xbe906fd9	-0.28210333
31	0xbe35f74e	-0.1777012
32	0x3cf63b26	0.030057501
33	0x3bc36a01	0.0059635644
34	0x3d0d114e	0.03444033
35	0x3d4c7594	0.04991682
36	0xbe76da50	-0.24106717
37	0x3d8d46b0	0.06898248
38	0xbe3a8cf1	-0.18217827
39	0xbe14b1be	-0.14520928
40	0xbdd9e363	-0.10639074
41	0x3d57749d	0.052601445
42	0xbea78abb	-0.3272303
43	0x3e06b6a0	0.13155603
44	0xbdfecb79	-0.12441153
45	0xbdbd30c8	-0.0923782
46	0xbe957c92	-0.29196602
47	0x3d70c8f1	0.058785383
48	0x3dca676b	0.09883007
49	0x3d82f028	0.063934624
50	0xbb11caf6	-0.0022246218
51	0xbd6143c7	-0.054996278
52	0xbea5cad9	-0.32381323
53	0xbe63ceba	-0.22246829
54	0xbed28378	-0.41115928
55	0xbd9e8783	-0.077406906
56	0x3d1a6728	0.037696034
57	0x3de197d6	0.110152885
58	0x3d89bfc6	0.06726031
59	0x3c9ec7a5	0.019382307
60	0x3df02c55	0.11727206
61	0xbe343d6a	-0.17601553
62	0xbe3d15a0	-0.1846528
63	0xbbdf3f93	-0.0068129986
64	0x3cc82ce6	0.024435472
65	0xbdf48627	-0.1193965
66	0x3db3af62	0.08773686
67	0x3ddd07bf	0.10792493
68	0x3c892e2f	0.016745655
69	0x3d57dce7	0.052700903
70	0x3c8681a5	0.016419241
71	0xbd303e74	-0.04302831
72	0x3de3094f	0.1108576
73	0x3dc367ee	0.095413074
74	0x3d319654	0.043356255
75	0xbdd14510	-0.10218251
76	0xbdd6f720	-0.10496354
77	0xbe4d9c54	-0.20079166
78	0xbe7b33a5	-0.2453142
79	0x3cf79242	0.030221108
80	0xbde1f5a5	-0.11033181
81	0x3c635ecc	0.013877582
82	0x3da6a435	0.08136789
83	0xbd6e3bb8	-0.05816242
84	0xbe4dbdb1	-0.20091893
85	0x3d4d094e	0.0500577
86	0xbea46b9a	-0.32113343
87	0xbdc1fa55	-0.09471575
88	0x3b6c4c92	0.0036056382
89	0x3dce9bd6	0.10088317
90	0xbd9c9f7b	-0.07647606
91	0x3d863987	0.06553941
92	0x3e805696	0.2506606
93	0x3e146d01	0.14494707
94	0x3d267d4d	0.04064684
95	0x3dd2cd89	0.10293109
96	0xbdd4d6b0	-0.10392511
97	0x3e0a4f84	0.13506895
98	0xbeb10600	-0.3457489
99	0xbe16d4ab	-0.14729564
100	0x3da67754	0.08128229
101	0xbe4add60	-0.1981101
102	0xbe3a3d8c	-0.18187541
103	0x3e15675a	0.14590207
104	0x3e1f53fc	0.15559381
105	0x3d474090	0.048645556
106	0x3db8547a	0.090004876
107	0xbe317b89	-0.17332281
108	0x3df7dc9d	0.121026255
109	0x3dadcf72	0.08486833
110	0x3d8e52c9	0.06949384
111	0xbe85309e	-0.26013654
112	0x3cc58df2	0.024115536
113	0xbc2624ce	-0.010140611
114	0x3cea188d	0.02857616
115	0x3caaf62a	0.020869333
116	0x3d9099b2	0.07060565
117	0x3d02b61d	0.031911958
118	0x3d6be0e7	0.05758753
119	0x3beb209c	0.007175518
120	0xbdf37014	-0.118866116
121	0x3da46265	0.0802658
122	0x3dcdd2ff	0.1005001
123	0x3d956802	0.072952285
124	0x3db39691	0.08768953
125	0xbc89f376	-0.016839724
126	0x3dfb55e9	0.122722454
127	0x3d58a865	0.05289497
128	0xbe189f7b	-0.14904587
129	0xbdc9e537	-0.098581724
130	0x3d753476	0.059864484
131	0x3d87c82e	0.06629978
132	0xbdd529b8	-0.10408348
133	0x3d9904e0	0.07471633
134	0xbe20c281	-0.15699197
135	0x3dea45bd	0.11439083
136	0xbdb8f2af	-0.09030663
137	0xbd19babc	-0.0375316
138	0x3dbf420d	0.0933877
139	0x3cef041e	0.029176768
140	0xbe142e6c	-0.14470834
141	0x3d87e209	0.0663491
142	0xbe02c87e	-0.12771794
143	0xbc58e883	-0.013239029
144	0xba57c3fc	-0.0008230803
145	0x3de57669	0.112042256
146	0xbe4cec65	-0.20012052
147	0x3d9ab213	0.07553496
148	0x3dc69593	0.09696498
149	0xbd9c2e05	-0.07625965
150	0xbe2db432	-0.1696327
151	0xbe43a7d8	-0.19106996
152	0x3cafbafe	0.02145147
153	0x3daecf43	0.08535626
154	0xbd5de74b	-0.054175656
155	0x3d8b21fe	0.06793593
156	0x3d323e07	0.043516185
157	0xbeadcdad	-0.3394598
158	0x3e16b597	0.14717709
159	0xbe4c8826	-0.19973812
160	0x3cb3d687	0.02195288
161	0xbd7d0775	-0.06177469
162	0x3c7d8d73	0.015475619
163	0xbde7d073	-0.113190554
164	0x3cc067a6	0.023486923
165	0xbe01bb50	-0.1266911
166	0xbd67c1a7	-0.056581166
167	0xbe41e677	-0.18935572
168	0xbdc08274	-0.09399882
169	0xbe0ce0d3	-0.13757639
170	0xbc788896	-0.015169283
171	0xbe2f9ea1	-0.17150356
172	0x3d16b388	0.036792308
173	0xbdd39ebf	-0.10333013
174	0xbe416037	-0.1888436
175	0xbd310074	-0.043213323
176	0x3d0f3965	0.034966845
177	0xbbf5e7d4	-0.0075044427
178	0x3d787605	0.060659427
179	0x3d189fa8	0.037261635
180	0xbd2131e8	-0.039354235
181	0x3d0c8eb2	0.034315772
182	0xbe57c21c	-0.2107014
183	0x3d47d935	0.04879113
184	0x3cca9dce	0.02473345
185	0x3dba09e8	0.09083921
186	0x3d83cc3d	0.0643544
187	0xbe33acc6	-0.17546377
188	0x3ccd6c6b	0.025076112
189	0xbd174b7f	-0.036937233
190	0x3dfadd02	0.12249185
191	0xbe5a3814	-0.21310455
192	0xba159935	-0.00057067286
193	0xbdf2e0b6	-0.118592665
194	0x3d8ac914	0.06776634
195	0xbe24a091	-0.16076876
196	0xbd3a0c21	-0.045421723
197	0xbc99db0a	-0.018781204
198	0x3b07b997	0.0020709985
199	0x3db9116d	0.09036527
200	0x3a66885c	0.0008794123
201	0x3d9c209f	0.076234095
202	0x3c9259d8	0.017865106
203	0xbe232b42	-0.1593447
204	0x3d90a65e	0.07062982
205	0xbe5703c5	-0.20997532
206	0xbd1064a2	-0.03525222
207	0xbded35ab	-0.11582502
208	0x3cf0f910	0.029415637
209	0x3dda0ad7	0.10646599
210	0x3d9ef8e8	0.07762319
211	0x3c4450ac	0.011982124
212	0x3d007959	0.031365726
213	0x3dc775b6	0.097392485
214	0xbc09e1aa	-0.008415619
215	0xbe0f5fed	-0.14001437
216	0xbe10af6f	-0.14129423
217	0x3d1ea7f5	0.038734395
218	0x3dcd1a5c	0.10014793
219	0xbd960e0f	-0.073269
220	0x3d58463d	0.05280136
221	0xbe33ed61	-0.17571022
222	0xbe004350	-0.12525678
223	0xbe208e83	-0.15679364
224	0x3d937c8d	0.072014906
225	0xbe1133d9	-0.14179935
226	0x3dcf96bf	0.101361744
227	0x3cb3f31a	0.021966506
228	0x3d847f28	0.06469566
229	0xbd38456f	-0.044988092
230	0xbd8f2483	-0.06989386
231	0xbe1c5a24	-0.15268761
232	0xbd0f3822	-0.03496564
233	0x3b62f9b5	0.00346337
234	0x3ceab972	0.02865288
235	0xbd79530f	-0.060870226
236	0x3b6dda37	0.0036293396
237	0xbd1d3a47	-0.038385656
238	0xbc37884b	-0.011201928
239	0xbe21f7ad	-0.15817137
240	0x3cfb15fc	0.030650131
241	0x3dbfbdf9	0.09362406
242	0xbdb0f5d6	-0.086406395
243	0x3c9cd018	0.019142196
244	0xbd8755bc	-0.066081494
245	0xbddfbe8b	-0.10925015
246	0xbe219a92	-0.1578162
247	0x3dad5d3c	0.08465049
248	0x3b120d60	0.0022285804
249	0xbe2baf9e	-0.16766211
250	0x3da596b4	0.08085385
251	0xbd4cd3df	-0.050006744
252	0xbda644f1	-0.08118618
253	0x3a83c00d	0.0010051742
254	0xbdbe6ea2	-0.09298445
255	0x3c3b894e	0.01144631

act_fc1.weight f4 [64, 72]
0	0xbe828527	-0.25492212
1	0x3e42f764	0.19039685
2	0x3d522219	0.05130205
3	0xbe5fd531	-0.2185867
4	0xbeadae2d	-0.33921948
5	0xbea6d9e2	-0.32588106
6	0xbebc033a	-0.36721212
7	0x3e11ef07	0.14251338
8	0x3de48e50	0.111599565
9	0xbe4b906e	-0.19879314
10	0xbe74ba47	-0.23899184
11	0x3cae2bd0	0.021261126
12	0xbdd597f4	-0.104293734
13	0xbc832872	-0.016010497
14	0x3e111c5b	0.14170973
15	0xbda4a48b	-0.080391966
16	0xbd1c41b0	-0.038148582
17	0x3dbb2e3d	0.091396786
18	0xbe5c05f5	-0.21486647
19	0xbe659f80	-0.22424126
20	0x3e063a5d	0.13108201
21	0x3e38d55a	0.18050137
22	0x3e2af231	0.16693951
23	0x3cc4a815	0.024005929
24	0xbaf52c96	-0.0018705304
25	0xbe2b9b3e	-0.16758439
26	0xbdb54125	-0.08850316
27	0xbec67d30	-0.38767385
28	0x3c5be3fb	0.013421054
29	0x3ea02d83	0.31284723
30	0x3e52bdd5	0.20580228
31	0xbdffc746	-0.1248918
32	0x3e37940a	0.17927566
33	0xbe320710	-0.17385507
34	0xbdef7a8b	-0.11693295
35	0xbbab9f5a	-0.005237502
36	0xbe31258c	-0.17299479
37	0x3e5c4412	0.21510342
38	0x3d8645ea	0.06556304
39	0xbe8c54db	-0.2740849
40	0xbdc210e4	-0.09475878
41	0xbd109534	-0.03529854
42	0xbd3b6e00	-0.0457592
43	0x3e530b42	0.20609763
44	0x3bd20138	0.0064088367
45	0xbdd60abd	-0.10451267
46	0x3bf66707	0.007519606
47	0x3d7d2160	0.061799407
48	0xbe39a23c	-0.18128294
49	0x3d35934b	0.044329923
50	0x3dd69810	0.10478222
51	0xbe0ac8d2	-0.1355317
52	0xbe054766	-0.13015518
53	0xbbe9404b	-0.00711826
54	0x3de209fc	0.110370606
55	0x3e657d0c	0.22410983
56	0xbe640e6e	-0.2227113
57	0xbec2d254	-0.38051093
58	0x3dfa4478	0.12220091
59	0xbe75dbf8	-0.24009693
60	0x3b35af3d	0.0027722858
61	0xbde38ef3	-0.1111125
62	0x3dddf557	0.108378105
63	0x3e0130ca	0.12616268
64	0x3dea9d8e	0.114558324
65	0xbe0a6486	-0.13514909
66	0x3d78cc05	0.060741443
67	0x3ceb56e0	0.028727949
68	0xbd31b59a	-0.04338608
69	0x3e2fb9ce	0.17160723
70	0xbe71ebd7	-0.23625122
71	0x3ddf39f5	0.10899726
72	0xbd3e23cc	-0.046420857
73	0xbc8a4f0d	-0.016883397
74	0x3c12981e	0.0089474
75	0x3d5d8c87	0.054089095
76	0x3d5241e2	0.051332362
77	0x3d29fb98	0.041499704
78	0xbb6e084e	-0.0036320868
79	0xbd119135	-0.03553887
80	0xbd9d8d1e	-0.076929316
81	0xbd445b51	-0.04793865
82	0xba854522	-0.0010167698
83	0xbcc896b5	-0.024485925
84	0x3b511a8c	0.0031906692
85	0xbc6622c8	-0.014046378
86	0xbcac892a	-0.021061499
87	0xbd36cdce	-0.044629864
88	0xbc29ea3e	-0.010370789
89	0xbc4069bc	-0.011743959
90	0xbde785db	-0.11304828
91	0xbbb95df0	-0.00565695
92	0xbdfee46b	-0.12445911
93	0xbd50d765	-0.050986666
94	0xbde3bc9d	-0.111199595
95	0xbdc2c997	-0.095111065
96	0x3c64014a	0.013916323
97	0xbd7fe4a3	-0.062473904
98	0xbe03e392	-0.1287978
99	0xbd7dcdae	-0.06196373
100	0xbd13bb62	-0.036067374
101	0x3ba7736f	0.0051101963
102	0xbd2df2aa	-0.04246775
103	0xbc1258a4	-0.008932266
104	0xbd851980	-0.06499004
105	0xbd185e38	-0.03719923
106	0xbd7fa91f	-0.062417146
107	0xbc2830fc	-0.010265585
108	0x3d68a38f	0.056796607
109	0xbe1c6a1f	-0.15274857
110	0xbe2d9f62	-0.16955331
111	0x3d032659	0.032018993
112	0xbd150e56	-0.036390625
113	0xbe088cbe	-0.13334939
114	0xbde57012	-0.11203016
115	0xbd83d1da	-0.064365104
116	0xbe12e9fd	-0.14347072
117	0xbbc20d97	-0.00592203
118	0xbcfa1067	-0.0305254
119	0xbdb75f5d	-0.08953736
120	0xbd05a7f2	-0.03263087
121	0xbe31be58	-0.17357767
122	0xbe1fd90e	-0.15610144
123	0xbe49c76d	-0.19704981
124	0xbc8f47ef	-0.017490355
125	0x3d61849c	0.055058107
126	0x3b97d610	0.0046336725
127	0xbe29ca31	-0.16581036
128	0xbdad8aa0	-0.08473706
129	0xbe0c798b	-0.1371824
130	0xbd1df427	-0.03856292
131	0x3d146cfa	0.03623674
132	0xbdade30e	-0.08490573
133	0x3d68067b	0.056646805
134	0xbcccb74d	-0.024989748
135	0xbd77c0c3	-0.060486566
136	0xbe0181ab	-0.1264712
137	0xbddc4565	-0.107554235
138	0xbbf9a7b3	-0.0076188683
139	0xbca96dcf	-0.020682244
140	0xbd29220e	-0.041292243
141	0x3b89a83c	0.0042009633
142	0xbdc3ed29	-0.09566719
143	0xbde402fe	-0.11133383
144	0xbe86ff1c	-0.26366508
145	0xbe2a0bd0	-0.16606069
146	0x3e613124	0.21991402
147	0x3e4a9825	0.19784601
148	0x3dc60c20	0.096702814
149	0xbeaaa09e	-0.33325666
150	0xbddcf9b7	-0.10789817
151	0xbd9e9662	-0.07743527
152	0xbe45ece6	-0.19328651
153	0x3db73284	0.08945182
154	0xbe6d8af3	-0.23197536
155	0xbe30fbfc	-0.17283624
156	0xbd8b27c0	-0.06794691
157	0xbde5b670	-0.11216438
158	0xbdbf9943	-0.09355404
159	0x3dca4c78	0.098778665
160	0x3e295cbd	0.16539283
161	0x3cc3b4e7	0.023889972
162	0xbe58b286	-0.21161851
163	0x3c86e480	0.01646638
164	0xbc93861c	-0.018008284
165	0xbe8437f7	-0.25823948
166	0xbd3445b2	-0.04401178
167	0x3c09eb4d	0.0084179165
168	0xbd08fc87	-0.033443954
169	0xbda2efdb	-0.07955905
170	0xbe34d502	-0.17659381
171	0xbc5f9d85	-0.013648395
172	0xbd178808	-0.036994964
173	0x3e1c9f3a	0.15295115
174	0xbe515ecb	-0.20446317
175	0xbb335c44	-0.0027368227
176	0x3e31bf89	0.17358221
177	0xbd946047	-0.07244926
178	0xbe803830	-0.25042868
179	0xbd76f544	-0.060292497
180	0xbc99ce2e	-0.018775072
181	0xbe6157ab	-0.22006099
182	0xbea91721	-0.33025458
183	0x3e0181a7	0.12647115
184	0x3e8312ba	0.25600225
185	0x3db1d698	0.08683509
186	0xbd995b23	-0.07488086
187	0x3d2f2927	0.042763855
188	0x3d8bc469	0.06824572
189	0x3de1befd	0.11022756
190	0x3d77d5ef	0.060506757
191	0xbde95cdc	-0.11394665
192	0xbe94ebb3	-0.29086074
193	0x3e318af4	0.17338163
194	0xbd114f17	-0.035475817
195	0xbd597f55	-0.05309995
196	0xbe2106f7	-0.15725313
197	0xbe4158a3	-0.18881468
198	0xbd5258c0	-0.05135417
199	0xbd826edb	-0.063688
200	0xbeab317c	-0.3343619
201	0xbd8ba955	-0.06819407
202	0x3d827876	0.06370632
203	0xbc34cfa9	-0.011035838
204	0xbe2290a2	-0.15875486
205	0x3d7b38f1	0.0613336
206	0xbe079fb5	-0.13244517
207	0xbe34f89c	-0.17672962
208	0xbcdfad18	-0.027304217
209	0x3d58b27a	0.052904584
210	0xbda275fd	-0.07932661
211	0x3e27c651	0.16384245
212	0x3dc3e662	0.095654264
213	0xbe0f8e29	-0.14019074
214	0xbeb833b3	-0.35976943
215	0x3e16bffd	0.14721675
216	0xbd546df8	-0.051862687
217	0xbd81c4c8	-0.06336361
218	0xbda0df27	-0.07855063
219	0xbb4ddf4c	-0.0031413613
220	0xbd63dcea	-0.055630602
221	0xbda7fb8b	-0.08202275
222	0xbb65bcd9	-0.003505519
223	0xbcae680d	-0.02128985
224	0xbcc08f2b	-0.023505768
225	0xbdb4ed29	-0.08834297
226	0x3bbc47a6	0.005745846
227	0xbddbd721	-0.10734392
228	0xbc984c1d	-0.018590981
229	0xbdabe3de	-0.083930716
230	0xbdb02c75	-0.086022295
231	0xbd37963e	-0.044821016
232	0xbd9af2e5	-0.0756586
233	0xbd1cd351	-0.038287465
234	0xbdba70c7	-0.09103542
235	0xbcc46012	-0.023971591
236	0xbda16c3c	-0.07881972
237	0xbd86079f	-0.06544422
238	0xbcac0a03	-0.021000868
239	0xbd2336fb	-0.039847355
240	0x3bbc9129	0.005754609
241	0xbd5f8d2f	-0.054578003
242	0xbdcf2089	-0.101136275
243	0xbd8b26c2	-0.06794502
244	0xbdbb82f8	-0.0915584
245	0xbd326a95	-0.043558676
246	0xbd021de9	-0.031766806
247	0xbcfd130a	-0.030892868
248	0xbcbcf166	-0.023064326
249	0xbc9aa457	-0.018877191
250	0xbc4eb5de	-0.012616603
251	0xbd2d6995	-0.04233702
252	0xbcb07c4b	-0.021543643
253	0xbd31e2a5	-0.043429036
254	0xbd03e43e	-0.03220009
255	0xbddcc4f4	-0.10779753

act_fc1.bias f4 [64]
0	0x3d99fd3c	0.07519004
1	0x3cf0c5e3	0.029391235
2	0xbe312bdb	-0.17301886
3	0xbd81c602	-0.06336595
4	0xbe79e0d2	-0.24402168
5	0x3d84ba62	0.06480862
6	0xbb878c3f	-0.0041365917
7	0xbe51aa09	-0.2047502
8	0xbe23cd8b	-0.15996377
9	0xbe51231f	-0.20423554
10	0xbdc3380a	-0.09532173
11	0xbe1b0bbb	-0.15141194
12	0xbe7d1b4d	-0.24717446
13	0xbdc7e6d1	-0.097608216
14	0xbc6b4d27	-0.014361656
15	0xbdf84e2e	-0.121242866
16	0xbe27ed92	-0.1639922
17	0x3e10b196	0.14130244
18	0x3e8a6c24	0.2703563
19	0xbd9870ed	-0.07443414
20	0xbd0963a1	-0.03354228
21	0xbd32d806	-0.043663047
22	0xbc646bc4	-0.013941709
23	0x3d1429cb	0.03617267
24	0xbbd8d04a	-0.006616627
25	0xbaec1732	-0.0018012284
26	0xbdc4466d	-0.09583745
27	0x3ce51bf3	0.027967429
28	0xbd2823e6	-0.04104986
29	0xbe26d54d	-0.16292305
30	0xbd7e74dd	-0.06212317
31	0x3f1d542c	0.6145656
32	0xbddf72eb	-0.10910591
33	0xbdc03418	-0.09384936
34	0xbd580ac2	-0.052744634
35	0xbd53c5ea	-0.051702417
36	0x3cdf03fb	0.027223578
37	0xbe16ad57	-0.14714561
38	0xbac15a72	-0.0014751686
39	0x3e09f0ef	0.13470815
40	0x3e4a34d5	0.19746716
41	0xbe81c995	-0.25349107
42	0xbde98197	-0.114016704
43	0xbd1d964e	-0.03847342
44	0xb9ed80e8	-0.00045300205
45	0x3ccaa612	0.024737392
46	0xbeed19e6	-0.4630882
47	0xbe6ebca2	-0.23314145
48	0xbde50c82	-0.11184026
49	0xbe0c6a3e	-0.13712403
50	0xbe13dab5	-0.14438899
51	0xbdd6dc44	-0.10491231
52	0xbd8940bd	-0.06701801
53	0xbe415991	-0.18881823
54	0xbd6d0217	-0.05786332
55	0xbe0222e8	-0.12708628
56	0x3f2659d8	0.6498084
57	0xbe27ca9f	-0.16385888
58	0x3e931846	0.28729457
59	0xbe032905	-0.12808616
60	0xbcacee32	-0.021109674
61	0xbcb651f6	-0.022255879
62	0xbe226252	-0.15857819
63	0xbe2a24ef	-0.16615652

act_fc2.weight f4 [36, 64]
0	0xbe688904	-0.22708517
1	0x3dcbbe42	0.09948398
2	0x3cce7e8c	0.025206827
3	0x3c2886f1	0.010286079
4	0xbe29ad58	-0.16570032
5	0x3d33e94c	0.04392366
6	0xbcce0774	-0.025150038
7	0xbd3a2524	-0.045445576
8	0xbe843440	-0.25821114
9	0xba8bfca5	-0.0010680152
10	0xbd94d8b3	-0.072678946
11	0xbd63d5d8	-0.05562386
12	0xbd928005	-0.07153324
13	0xbe08c900	-0.13357925
14	0xbd4b247b	-0.049595337
15	0xbcaf78d9	-0.02141993
16	0xbd6194d6	-0.05507358
17	0x3d8166c9	0.06318433
18	0x3e085208	0.13312542
19	0xbda47790	-0.08030617
20	0x3d31855d	0.043340076
21	0xbd03b95c	-0.032159194
22	0x3ab69e4a	0.0013932672
23	0xbb0d4199	-0.0021553992
24	0xbe843e66	-0.25828856
25	0xbcff0f38	-0.031135187
26	0xbcc5ffb5	-0.024169782
27	0xbdffaf0b	-0.12484559
28	0x38413d6c	4.607199e-05
29	0xbe19e487	-0.15028583
30	0xbddae9bd	-0.10689113
31	0x3e822ed3	0.2542635
32	0xbd425817	-0.04744729
33	0xbce448cc	-0.027866744
34	0xbdede9b3	-0.1161684
35	0xbcc1d326	-0.023660254
36	0xbdfb2d99	-0.122645564
37	0xbe23d6ba	-0.1599988
38	0xbbb17351	-0.005415358
39	0xbddf2738	-0.10896152
40	0x3e23cf2c	0.15996999
41	0xbdf090ef	-0.11746394
42	0x3bec6a3c	0.0072148126
43	0xbd9621b0	-0.07330644
44	0xbb90fd61	-0.0044247364
45	0xbdfdfc6b	-0.124016605
46	0xbe34bf8c	-0.17651194
47	0xbe16af0c	-0.14715213
48	0x3e83c4e9	0.25736168
49	0xbe467fc7	-0.1938468
50	0xbe61a135	-0.22034152
51	0xbd3218f0	-0.043480814
52	0xbd1c5e39	-0.038175795
53	0xbe025d59	-0.12730922
54	0xbe79dc83	-0.24400525
55	0x3c9e372a	0.019313414
56	0x3e73f206	0.23822793
57	0xbe2de289	-0.16980948
58	0x3e16861d	0.14699598
59	0xbe2277f4	-0.15866071
60	0x3c4685af	0.012116834
61	0xbeadec7d	-0.3396949
62	0x3cb7b2c0	0.022424102
63	0x38c5f9c7	9.440217e-05
64	0xbc01491b	-0.007890965
65	0xbdc56828	-0.09639007
66	0x3d6f1fc7	0.058379915
67	0xbd2a0eed	-0.04151814
68	0xbe45265f	-0.19252919
69	0xbe11bde8	-0.142326
70	0x3c9d0d17	0.01917128
71	0x3de674fb	0.11252781
72	0xbe87fbd8	-0.2655933
73	0xbd014027	-0.03155532
74	0xbe6a3572	-0.2287195
75	0x3c99e89a	0.01878767
76	0xbd8455a9	-0.06461651
77	0x3d8f0785	0.06983856
78	0xbe3097ac	-0.17245358
79	0x3dab3907	0.083604865
80	0xbcc8c071	-0.024505826
81	0xbe8d1aad	-0.27559415
82	0xbe635360	-0.22199774
83	0xbdb434da	-0.08799143
84	0xbc349849	-0.011022636
85	0x3ceb7a9f	0.028744994
86	0x3982e7c8	0.00024968223
87	0xbc426628	-0.011865176
88	0x3dbc42c0	0.09192419
89	0x3c26e29b	0.010185863
90	0x3ddfcb2c	0.10927424
91	0x3d2b850c	0.04187493
92	0x367299a9	3.6150252e-06
93	0xbdcf98d8	-0.101365745
94	0xbc024825	-0.007951771
95	0xbea5685a	-0.32306176
96	0x3cf7a457	0.03022973
97	0x3cf88269	0.030335622
98	0x3d895211	0.06705106
99	0xbd6f387a	-0.05840347
100	0xbd99fc8b	-0.07518872
101	0xbe03f8a7	-0.12887822
102	0x3ad73573	0.0016419127
103	0xbde30b60	-0.11086154
104	0xbe498394	-0.196791
105	0xbe43993c	-0.19101423
106	0x3d82b327	0.06381827
107	0x3e3a70ae	0.18207046
108	0x3d54401e	0.05181896
109	0xbc1202a6	-0.008911764
110	0x3e39406c	0.18090981
111	0xbe513706	-0.20431146
112	0xbe795120	-0.24347353
113	0x3e68faac	0.22751874
114	0x3eb04d12	0.344338
115	0x3e17f65b	0.14840071
116	0xbe7a6dc6	-0.24455938
117	0xbe0b4d21	-0.13603641
118	0xbe3f76bb	-0.18697636
119	0x3dbfa82e	0.093582496
120	0xbed14558	-0.40873218
121	0x3d520058	0.05126986
122	0xbddf52a4	-0.10904434
123	0x3daeb108	0.0852986
124	0x3d9a887f	0.07545566
125	0xbe2fee64	-0.17180783
126	0x3b388835	0.0028157358
127	0x3adaab4a	0.0016683128
128	0xbe537afa	-0.2065238
129	0xbdaf3229	-0.08554489
130	0xbeb6de8d	-0.35716668
131	0xbcb1f86a	-0.021724898
132	0xbd7f916c	-0.062394544
133	0xbc56f4e6	-0.013119912
134	0x3bd01541	0.00635019
135	0xbd6c35da	-0.057668544
136	0x3db31514	0.08744255
137	0x3cacda7f	0.02110028
138	0xbdfdcae2	-0.123922125
139	0xbc3725b2	-0.011178421
140	0xbe9dfd96	-0.30857533
141	0xbda9d1a5	-0.0829194
142	0xbc97523c	-0.01847183
143	0xbd183031	-0.037155334
144	0xbd037181	-0.032090668
145	0xbbc2b8c2	-0.005942435
146	0x3cfcf55f	0.03087872
147	0xbe000419	-0.12501563
148	0xbd1e1dc4	-0.038602605
149	0x3ae3164e	0.0017325373
150	0xba876a92	-0.0010331443
151	0xbb171a62	-0.0023056497
152	0xbe6b3a12	-0.22971371
153	0xbd39c179	-0.045350526
154	0xbdf10e9d	-0.117703654
155	0xbd5c97b1	-0.0538556
156	0x3ab9dc64	0.0014180061
157	0xbda9e64a	-0.08295877
158	0xbe21cb7a	-0.15800276
159	0x3e175684	0.14779097
160	0xbd8405bb	-0.064464055
161	0xb9245416	-0.00015671583
162	0xbde5296d	-0.11189542
163	0x3d03abe0	0.032146335
164	0xbe39eadc	-0.18155998
165	0x3b1c7ef2	0.0023879376
166	0xba46af19	-0.0007579192
167	0xbd9f7aa6	-0.07787065
168	0xbd07517a	-0.033036686
169	0xbd27a148	-0.040925294
170	0xbcf21121	-0.029549183
171	0xbe922556	-0.2854411
172	0xbe0e2ea6	-0.13884982
173	0x3cdf1646	0.0272323
174	0xbd996b03	-0.07491114
175	0x3e3151c1	0.17316343
176	0xbd878f65	-0.06619147
177	0x3c7b2371	0.015328274
178	0xbe04fd1e	-0.12987182
179	0xbdd35d77	-0.103205614
180	0x3e4a765c	0.19771713
181	0xbdbbbc6e	-0.091667995
182	0xbe3090c0	-0.17242718
183	0x3dd81be3	0.10552194
184	0x3d943ad7	0.07237785
185	0xbe1831c0	-0.14862728
186	0xbd4dbc7c	-0.05022858
187	0xbe926da0	-0.28599262
188	0x3d9a2e24	0.07528332
189	0xbdee8b09	-0.116476126
190	0xbd85feaa	-0.06542714
191	0x3d406517	0.046971407
192	0x3e1a768e	0.15084288
193	0x3cbb5c06	0.022871029
194	0xbe86913d	-0.26282683
195	0x3bb076f9	0.0053852764
196	0xbdac9d69	-0.08428461
197	0xbd95efd2	-0.07321133
198	0xba73316c	-0.0009277079
199	0xbd8859c2	-0.06657745
200	0xbe8004a8	-0.25003552
201	0xbe9ecd1d	-0.31015864
202	0xbd5ad1f5	-0.053422887
203	0x3d8ee940	0.06978083
204	0xbe0357b6	-0.12826428
205	0xbde9d5f9	-0.11417765
206	0x3e40c28d	0.18824215
207	0x3b764f10	0.0037583746
208	0xbddce64f	-0.107861154
209	0x3d4f3bd8	0.05059418
210	0xbdf471f6	-0.11935799
211	0xbda76f91	-0.081755765
212	0x3d2fe6e3	0.0429448
213	0xbbbfb708	-0.0058506764
214	0x3aebed36	0.0017999772
215	0xbb5af024	-0.0033407295
216	0xbdd47f4b	-0.10375842
217	0xbd5448fb	-0.051827412
218	0xbdb06def	-0.08614718
219	0xbe67fbd3	-0.22654657
220	0xb63b7a0f	-2.793622e-06
221	0x3d19a0f1	0.037507
222	0xbd936363	-0.07196691
223	0x3df2f244	0.11862615
224	0xbdc72b98	-0.09725112
225	0x398e4fd5	0.0002714383
226	0x3c2d4c55	0.010577281
227	0xbe2dfdb4	-0.16991311
228	0xbd97e84e	-0.074173555
229	0xbe0b44b3	-0.13600425
230	0xbaf782ac	-0.0018883548
231	0xbd95d8d9	-0.07316751
232	0x3e73f555	0.23824055
233	0xbe422857	-0.18960701
234	0x3ccac9d2	0.024754439
235	0xbe586a23	-0.21134238
236	0x3e95e786	0.292782
237	0xbe6138bb	-0.21994297
238	0xbe052f76	-0.13006386
239	0xbe289d19	-0.16466178
240	0x3d84ddc5	0.06487612
241	0x3d61f2c5	0.055163164
242	0xbd253259	-0.04033122
243	0x3e033933	0.12814789
244	0xbe1b02e6	-0.15137824
245	0xbe092152	-0.13391617
246	0x3e53d022	0.20684865
247	0xbcecfcf6	-0.028929215
248	0x3e42552c	0.18977803
249	0xbdf7b9d9	-0.120959945
250	0x3dcec614	0.10096374
251	0xbe180462	-0.14845422
252	0x3d15fe5f	0.03661954
253	0xbdcaf982	-0.09910871
254	0xbd041387	-0.032245185
255	0x3bd6f950	0.006560482

act_fc2.bias f4 [36]
0	0xbd47b2f1	-0.048754636
1	0xbea410a6	-0.32043952
2	0x3e16a8df	0.14712857
3	0x3d24c8b5	0.04023047
4	0xbeb19b7a	-0.34688932
5	0x3d5185e1	0.051153067
6	0xbe99b533	-0.30021057
7	0xbe1ffb19	-0.1562313
8	0xbd459534	-0.048237994
9	0xbc71cf71	-0.014758931
10	0xbe12e740	-0.14346027
11	0xbe88ac8d	-0.26694146
12	0x3d96c69c	0.073621005
13	0xbe1565ec	-0.14589661
14	0x3e89c18b	0.26905474
15	0x3e80063b	0.25004753
16	0xbd8368fe	-0.0641651
17	0x3dd0a6c8	0.10188061
18	0x3d9c9a8a	0.076466635
19	0xbda9204d	-0.08258114
20	0x3ecc475a	0.39898187
21	0x3e850af2	0.25984913
22	0xbe16cde0	-0.14726973
23	0x3cfdaa05	0.03096486
24	0xbebdbb9a	-0.3705719
25	0xbda9f5a8	-0.08298808
26	0xbd28ab5d	-0.04117905
27	0x3c110287	0.0088507
28	0xbd7db048	-0.061935693
29	0xbec9eefe	-0.3944015
30	0xbd308616	-0.043096624
31	0xbe78da6c	-0.24302071
32	0x3e06fcf9	0.13182439
33	0x3e1a5a10	0.15073419
34	0xbe9bfe3e	-0.3046741
35	0xbd58fe14	-0.052976683
