AlphaZero_Gomoku/model/cnn/epoch_300.model (torch, 424769 bytes, 11 tensors)

layers.0.weight f4 [32, 4, 3, 3]
-0.5247132 -0.038866732 -0.42761624 -0.46072826 -0.37111875 0.1087967 -0.43629077 0.11882648
-0.46921074 -0.1896211 0.19724773 -0.68378174 0.21799318 -0.67898697 -0.42926502 -0.081896044
-0.63161755 0.061069477 0.08100837 0.014940843 -0.004763197 -0.061616436 0.13548674 0.03737913
0.44943646 -0.26701602 -0.094837174 0.11536011 0.058169823 -0.25191838 0.21271086 0.13610403
-0.14564945 0.07818301 0.22349736 -0.03353318 0.29135904 -0.1847794 -0.27673006 -0.4842311
-0.057304934 -0.040781755 -0.1852837 0.06685639 0.16832626 -0.13420612 0.40589866 0.25849178
-0.07907081 -0.11935257 -0.119095884 -0.21928051 -0.6659202 -0.43286502 0.045263354 -0.21229
-0.110361725 0.02289286 0.1276886 0.35648733 0.13594459 -0.07085828 -0.06753805 -0.06548383
0.015997807 0.23072736 -0.015847156 0.08707704 0.17552602 -0.43414053 -0.26207238 -0.21786882
-0.15087913 0.17891322 0.17224579 -0.39090678 -1.0359809 0.43090126 0.501572 0.575097
0.11190524 0.13466461 0.18139172 -0.24144362 0.03626466 0.013184306 -0.37914702 -0.36846596
-0.18140619 -0.2911389 -0.3058133 0.23290716 0.07881141 0.19935998 -0.08969166 -0.1039843
0.01162838 0.04048299 0.35661334 0.16131893 -0.035618942 0.27164552 -0.16936566 0.06932945
0.19020633 -0.2127341 -0.20778504 0.052468423 0.26617017 -0.49131233 -0.38601318 0.21317425
-0.5585229 -0.34334964 -0.21084401 0.344529 0.07534161 0.06393591 0.20304468 -0.053528637
-0.86197656 0.10858657 -0.25443253 -0.355564 -0.49255833 -0.13827048 -0.023322372 0.026253045
-0.35325423 -0.27084398 -0.18098147 0.16599444 0.20934261 -0.36593005 0.062308192 0.121617965
0.1976421 0.08751696 -0.116085365 0.06267261 -0.08904617 0.058267795 0.0437522 -0.028851645
0.31889024 0.15924563 0.4217445 0.4020463 0.18247512 -0.21367744 -0.59055895 -0.21417095
0.02254413 0.07158333 -0.00688972 0.18301015 -0.10811892 -0.19893734 0.31086898 -0.25909677
-0.75010455 -0.17849422 -0.27246356 -0.044686273 0.13497208 -0.10619137 -0.034169503 -0.11259007
0.024026042 -0.1397628 -0.104982466 0.03207768 0.057231534 -0.3941413 0.05632239 -0.11436759
-0.40115097 -0.18976682 0.051196292 -0.42047527 0.05721059 -0.05528785 0.09137582 -0.052567743
0.3411654 0.0477401 -0.32245836 0.27235216 -0.9352014 -0.2554603 -0.33747953 -0.22207327
-0.22393021 -0.30646405 0.40643594 0.13943295 0.11674569 -0.4980689 0.0015840984 -0.0009295224
-0.1966377 0.03140501 0.5276528 -0.23812078 -0.24816443 -0.100121096 -0.14126529 0.07296213
-0.23961349 0.20627604 0.17037754 -0.18485674 0.0514316 0.06056732 0.046108335 0.079363555
-0.02510243 -0.3240743 -0.35006216 -0.7271466 -0.22256614 0.41463858 0.51035947 -0.12790863
-0.16821298 -0.3558258 0.016056782 -0.3730992 -0.08920425 0.08709211 -0.10567514 0.27562863
0.3797968 -0.029430427 0.10007247 -0.17127495 -0.03243956 -0.042088594 -0.17980994 -0.0413101
-0.060807973 0.06127628 0.037835322 -0.0968144 -0.087981224 -0.027513234 -0.035096098 0.0052496027
-0.09595646 -0.04270758 -0.016387435 -0.013598901 -0.05654599 -0.5699033 0.3327088 -0.16143511
00000000: 9b53 06bf b932 1fbd 84f0 dabe 93e4 ebbe
00000010: 4703 bebe ced0 de3d 8161 dfbe 4c5b f33d
00000020: 643c f0be 092c 42be 4ffb 493e 520c 2fbf
00000030: 9b39 5f3e 17d2 2dbf a0c8 dbbe 1db9 a7bd
00000040: b0b1 21bf fd23 7a3d b7e7 a53d 70ca 743c
00000050: 9814 9cbb 8461 7cbd 09bd 0a3e dc1a 193d
00000060: 891c e63e 53b6 88be fe39 c2bd ec41 ec3d
00000070: 7b43 6e3d 72fb 80be e0d0 593e db5e 0b3e
00000080: 2125 15be 6a1e a03d 7edc 643e 165a 09bd
00000090: 032d 953e d036 3dbe 90af 8dbe 24ed f7be
000000a0: 94b8 6abd c50a 27bd 03bb 3dbe 01ec 883d
000000b0: b85d 2c3e 546d 09be f3d1 cf3e 0959 843e
000000c0: e0ef a1bd 1f6f f4bd 8be8 f3bd 128b 60be
000000d0: bf79 2abf 7ca0 ddbe 1166 393d 8d62 59be
000000e0: 5405 e2bd cf89 bb3c cdc0 023e 8285 b63e
000000f0: 0f35 0b3e 251e 91bd 6451 8abd 631c 86bd
00000100: d50d 833c cb43 6c3e e5d1 81bc 7255 b23d
00000110: 18bd 333e ab47 debe 5a2e 86be 0119 5fbe
00000120: 0f80 1abe 0735 373e 3361 303e ef24 c8be
00000130: 069b 84bf 179f dc3e 0667 003f 8f39 133f
00000140: 932e e53d 85e5 093e c0be 393e ff3c 77be
00000150: 418a 143d fd02 583c 8f1f c2be 92a7 bcbe
00000160: 8bc2 39be 2810 95be 9093 9cbe 377f 6e3e
00000170: e067 a13d 0625 4c3e 43b0 b7bd b8f5 d4bd
00000180: f684 3e3c 7ed1 253d 0696 b63e ca30 253e
00000190: 2be5 11bd 1f15 8b3e 316e 2dbe 99fc 8d3d
000001a0: 73c5 423e f8d6 59be 9ac5 54be 21e9 563d
000001b0: 7547 883e 4a8d fbbe 85a3 c5be 5a4a 5a3e
000001c0: 5bfb 0ebf 86cb afbe 7ee7 57be 1b66 b03e
000001d0: b44c 9a3d d5f0 823d f2ea 4f3e d840 5bbd
000001e0: 7faa 5cbf a362 de3d fb44 82be 7c0c b6be
000001f0: 9b30 fcbe c796 0dbe 8f0e bfbc a010 d73c
00000200: bddd b4be 10ac 8abe 3553 39be 72fa 293e
00000210: e95d 563e 2f5b bbbe e036 7f3d d712 f93d
00000220: b162 4a3e 183c b33d 2abe edbd 7f5a 803d
00000230: d75d b6bd 36aa 6e3d 8235 333d 495a ecbc
00000240: 9545 a33e 4911 233e e5ee d73e 03d9 cd3e
00000250: c2da 3a3e 42ce 5abe df2e 17bf a14f 5bbe
00000260: 78ae b83c 489a 923d 29c3 e1bb 0367 3b3e
00000270: 746d ddbd 3bb6 4bbe 382a 9f3e 55a8 84be
00000280: da06 40bf 30c7 36be 5880 8bbe f408 37bd
00000290: 1f36 0a3e dc7a d9bd 52f5 0bbd 9f95 e6bd
000002a0: 43d2 c43c fb1d 0fbe 0c01 d7bd e363 033d
000002b0: 9d6b 6a3d e3cc c9be 4eb2 663d 8e39 eabd
000002c0: a963 cdbe 3c52 42be 34b3 513d 8948 d7be
000002d0: a755 6a3d 8375 62bd 3f23 bb3d 4651 57bd
000002e0: 3bad ae3e 208b 433d 4319 a5be be71 8b3e
000002f0: 5c69 6fbf b1cb 82be 1eca acbe 2d67 63be
00000300: f64d 65be dbe8 9cbe 5f18 d03e 83c7 0e3e
00000310: 5d18 ef3d e302 ffbe 86a1 cf3a 31ab 73ba
00000320: 655b 49be 8aa2 003d 4114 073f efd5 73be
00000330: d11e 7ebe 4a0c cdbd d9a7 10be 2b6d 953d
00000340: 3d5d 75be 073a 533e 7377 2e3e 164b 3dbe
00000350: f1a9 523d 7015 783d 18dc 3c3d 5c89 a23d
00000360: 9ca3 cdbc 11ed a5be 593b b3be 4826 3abf
00000370: 61e8 63be 824b d43e eba6 023f 7bfa 02be
00000380: 0640 2cbe cd2e b6be 8389 833c dc06 bfbe
00000390: b8b0 b6bd 595d b23d 356c d8bd 321f 8d3e
000003a0: ba74 c23e 1418 f1bc ccf2 cc3d b362 2fbe
000003b0: 58df 04bd 1765 2cbd 1920 38be c834 29bd
000003c0: c811 79bd d6fc 7a3d 36f9 1a3d a146 c6bd
000003d0: 802f b4bd 6f63 e1bc edc0 0fbd dc04 ac3b
000003e0: d284 c4bd 25ee 2ebd f13e 86bc edcd 5ebc
000003f0: c59c 67bd 2fe5 11bf cf58 aa3e 3f4f 25be

layers.1.weight f4 [64, 32, 3, 3]
-0.2817141 0.040813323 0.104457244 -0.19688375 -0.082084164 0.063849375 -0.017442014 0.29626217
0.1467675 0.07355161 0.14100334 -0.060314734 0.079772085 -0.06462436 -0.07885288 0.17344922
0.035555344 -0.17975068 0.10879938 -0.038432356 -0.4066661 -0.49827093 -0.11263659 -0.35852346
-0.31215602 -0.3215532 -0.45511797 0.056118276 0.041612115 -0.066059895 0.12837985 -0.026382757
0.008897901 -0.42032772 -0.013124589 -0.092825636 0.23512973 0.22443402 -0.1625056 -0.3858637
-0.08688474 -0.23891357 -0.08357738 -0.22486545 -0.05425841 0.2574722 -0.07710889 -0.13219143
0.122868836 -0.05789655 -0.24336703 0.41874784 0.052685477 -0.024720164 -0.1567962 -0.1234214
-0.09999171 -0.07659923 0.08244727 -0.10048964 0.09309813 -0.046672173 0.01085343 -0.085338265
0.061052695 -0.06673166 0.04676408 -0.037072934 -0.17436469 -0.064806454 -0.03411701 -0.008616348
0.01809033 0.2754423 0.0119838035 0.037754517 -0.108748846 -0.16953173 -0.0023588971 -0.019571198
-0.061689105 0.2959846 -0.17985187 -0.37899372 0.004676046 -0.041561585 -0.363038 0.1783451
0.09606936 -0.2521914 -0.14271954 -0.31348535 -0.047072463 -0.14447412 -0.18894234 -0.1318398
-0.14027964 -0.034089673 -0.19071287 -0.11480342 -0.0019867076 0.035437383 -0.089643784 -0.0055919425
-0.11711791 -0.0054077986 0.04344471 -0.056889135 0.09243534 -0.034631502 -0.11305192 0.15740627
0.0029976598 -0.11757432 0.23062675 -0.06511205 -0.03275573 0.1061335 -0.2654997 0.04662582
0.037925586 0.11838265 -0.11357391 -0.32457653 -0.13529661 -0.10734836 0.034137275 0.28518364
-0.02161522 -0.17139883 -0.034739338 -0.050107665 -0.05921151 -0.13122882 -0.11923696 0.18200335
0.114754386 -0.04255119 -0.1727247 -0.02910678 0.017373998 -0.33592054 -0.06540294 -0.029182184
0.04836969 0.09594258 -0.063211724 0.046002846 -0.007999771 -0.13832252 0.06947626 0.31804404
0.13866812 -0.072748825 -0.14186974 -0.07847442 -0.07704086 -0.12579052 0.07661672 -0.19639653
-0.3154026 -0.14545186 -0.19045739 -0.3869905 -0.061231002 -0.086838566 0.04844612 0.03685622
-0.015101648 0.045724332 0.021195404 0.22846381 0.12913457 -0.15860483 -0.1653451 -0.23808481
-0.16439115 -0.3450026 -0.3477606 -0.25952852 0.40894198 0.04023321 -0.3127296 0.10877052
-0.46166193 -0.12057669 0.24837875 0.22431232 0.027039034 0.4204232 0.17043112 0.014878381
-0.18181427 -0.43826464 -0.34187898 -0.2031028 0.168524 -0.1734578 0.012746701 -0.11242935
-0.10691934 -0.10572293 -0.2997532 -0.11358229 0.079741545 -0.054479532 -0.1324848 -0.07786051
0.048792526 -0.06815203 0.38258523 -0.32511008 -0.08859047 -0.09559513 -0.15670711 0.07251259
0.06117132 -0.09192798 -0.3186826 -0.07527565 -0.21064784 -0.439338 -0.078661196 0.02193094
-0.29836962 -0.08577003 0.1254267 -0.24443 0.15171415 -0.17474122 -0.20097391 0.554064
0.14839083 -0.2547737 0.4030693 -0.056851383 -0.28863978 -0.0966221 -0.415473 -0.2221505
-0.13913564 -0.2078623 0.12288224 0.08160253 -0.25623798 -0.29264534 0.09645001 0.131806
-0.14026721 -0.4491507 -0.20039627 -0.52148044 0.0033455605 -0.22825833 -0.07237219 0.05080315
00000000: d53c 90be df2b 273d aeed d53d e59b 49be
00000010: be1b a8bd 76c3 823d 8ee2 8ebc adaf 973e
00000020: 384a 163e 3aa2 963d 2e63 103e 950c 77bd
00000030: 8c5f a33d c759 84bd 9e7d a1bd ac9c 313e
00000040: 7ba2 113d 9010 38be 36d2 de3d 3f6b 1dbd
00000050: 8a36 d0be 5e1d ffbe 03ae e6bd 6390 b7be
00000060: ead2 9fbe 9fa2 a4be 3905 e9be 47dc 653d
00000070: 7771 2a3d 694a 87bd 0276 033e a720 d8bc
00000080: 80c8 113c 3235 d7be 8408 57bc 5e1b bebd
00000090: d9c5 703e 08d2 653e de67 26be ed8f c5be
000000a0: a0f0 b1bd c2a5 74be 9e2a abbd 2143 66be
000000b0: 113e 5ebd 65d3 833e 44eb 9dbd 315d 07be
000000c0: a8a2 fb3d ef24 6dbd 3535 79be 1e66 d63e
000000d0: bacc 573d f181 cabc 2f8f 20be 5cc4 fcbd
000000e0: 74c8 ccbd 0fe0 9cbd 1dda a83d 83cd cdbd
000000f0: 3baa be3d 522b 3fbd 96d2 313c d4c5 aebd
00000100: 6412 7a3d 9caa 88bd b18b 3f3d cad9 17bd
00000110: a88c 32be 3fb9 84bd 47be 0bbd 952b 0dbc
00000120: 2c32 943c c606 8d3e b757 443c 7ba4 1a3d
00000130: b7b7 debd ba99 2dbe ba97 1abb c753 a0bc
00000140: b7ad 7cbd 4b8b 973e 172b 38be 770b c2be
00000150: 8439 993b 7b3c 2abd 1ee0 b9be 19a0 363e
00000160: 03c0 c43d 3b1f 81be 1225 12be 2781 a0be
00000170: 0ecf 40bd 06f1 13be 1a7a 41be 0301 07be
00000180: 77a5 0fbe 9da1 0bbd 3c4a 43be 0e1e ebbd
00000190: 6c33 02bb ca26 113d 2997 b7bd 9d3c b7bb
000001a0: 84db efbd e733 b1bb 15f3 313d 9504 69bd
000001b0: bd4e bd3d c3d9 0dbd c487 e7bd 1c2f 213e
000001c0: 6374 443b ceca f0bd 6b29 6c3e 7759 85bd
000001d0: df2a 06bd 855c d93d 94ef 87be b7fa 3e3d
000001e0: dc57 1b3d 9a72 f23d 7099 e8bd e52e a6be
000001f0: 328b 0abe 75d9 dbbd 87d3 0b3d 9703 923e
00000200: 6712 b1bc 2d83 2fbe d64a 0ebd b23d 4dbd
00000210: c587 72bd d960 06be 8232 f4bd 165f 3a3e
00000220: 5904 eb3d 284a 2ebd bede 30be 5871 eebc
00000230: ea53 8e3c c7fd abbe faf1 85bd 7a0f efbc
00000240: 4c1f 463d 8b7d c43d 2675 81bd 7b6d 3c3d
00000250: 7911 03bc 6ba4 0dbe 9249 8e3d abd6 a23e
00000260: 04ff 0d3e 56fd 94bd 4d46 11be 32b7 a0bd
00000270: 99c7 9dbd 3bcf 00be 3ae9 9c3d 2c1c 49be
00000280: 737c a1be 55f1 14be 4307 43be 9e23 c6be
00000290: 5ccd 7abd 6bd8 b1bd 706f 463d 8cf6 163d
000002a0: e76c 77bc 7049 3b3d fca1 ad3c 6bf2 693e
000002b0: da3b 043e 4e69 22be 3a50 29be 81cc 73be
000002c0: 2756 28be 2ea4 b0be ad0d b2be ece0 84be
000002d0: d860 d13e 94cb 243d 181e a0be 14c3 de3d
000002e0: f45e ecbe e9f0 f6bd 0057 7e3e 21b2 653e
000002f0: f780 dd3c b641 d73e 7f85 2e3e 74c4 733c
00000300: 852d 3abe 3964 e0be c30a afbe 2efa 4fbe
00000310: 8e91 2c3e ec9e 31be 8ad7 503c 5c41 e6bd
00000320: 87f8 dabd 4385 d8bd 4079 99be d59d e8bd
00000330: 894f a33d ee25 5fbd 18aa 07be 5575 9fbd
00000340: acda 473d 4b93 8bbd 36e2 c33e d474 a6be
00000350: ec6e b5bd 61c7 c3bd d477 20be 7b81 943d
00000360: c78e 7a3d bd44 bcbd 5e2a a3be 1f2a 9abd
00000370: 11b4 57be e9f0 e0be 1f19 a1bd 84a8 b33c
00000380: e7c3 98be 33a8 afbd db6f 003e dc4b 7abe
00000390: f45a 1b3e 5def 32be 1bcc 4dbe 23d7 0d3f
000003a0: c4f3 173e b371 82be 195f ce3e ffdc 68bd
000003b0: 98c8 93be cfe1 c5bd e1b8 d4be 6c7b 63be
000003c0: 9379 0ebe dbd9 54be afa9 fb3d 3a1f a73d
000003d0: a031 83be 9cd5 95be 9587 c53d 27f8 063e
000003e0: 35a2 0fbe 15f7 e5be ae34 4dbe be7f 05bf
000003f0: 3141 5b3b 8dbc 69be df37 94bd f716 503d

layers.2.weight f4 [128, 64, 3, 3]
-0.40459764 -0.030136822 -0.0309687 0.0043928456 -0.036749493 0.4743118 -0.062444538 0.021881115
0.1366109 -0.12866877 -0.2795282 0.38343444 -0.22527513 -0.14714368 0.41123393 0.00063408527
-0.60624605 0.48099035 -0.048684124 -0.12971991 0.22402386 0.18891872 -0.19470952 -0.58711445
-0.6355192 0.097865105 0.2128483 0.0014588223 0.028840108 -0.007974047 -0.015512694 -0.024059132
0.035360727 0.06454508 0.026449474 0.0062576607 0.32167232 -0.00076847617 -0.2902396 -0.10763749
-0.019113448 0.09965766 -0.023814207 -0.32821697 -0.36071035 0.04326379 0.095495544 0.38871875
-0.16943099 0.020941649 -0.5930075 -0.251962 -0.073002785 -0.2744289 0.14968646 0.23911276
0.035892725 0.116215944 -0.04220365 -0.21279226 -0.09374041 -0.006808152 -0.08914051 -0.095220834
0.32805464 -0.116277754 0.027714124 0.0029513545 -0.0356607 -0.4105998 -0.00960172 -0.53691846
-0.1027046 -0.35828948 -0.22398482 0.112323985 -0.10263949 -0.30800053 0.10989942 -0.11526443
-0.37757263 -0.016370296 -0.17816103 -0.3346318 -0.23018855 0.0053474912 0.041286863 0.28741607
0.065301344 -0.107400864 0.013611313 -0.2630469 0.37139782 -0.3594459 -0.10560272 -0.029224666
-0.15799509 0.18821704 -0.08032524 0.017726855 0.23532578 0.41725853 -0.23833232 0.0065492745
0.0112031745 -0.2399742 0.013247377 -0.03714264 0.2007841 0.116619706 0.13375027 0.033867143
-0.28850868 0.06572183 -0.06067452 0.4997247 0.13805807 -0.052240193 0.22250515 0.07722706
-0.009983857 0.12489352 0.0928041 -0.19611517 -0.018434456 0.33197394 0.19551407 -0.14847283
0.10375851 0.31206608 0.11540392 -0.020766834 0.08237837 -0.26308808 -0.18912037 -0.1858744
0.2683627 0.3130752 0.10656243 -0.3347591 0.057100847 -0.43062475 0.2742569 0.20115806
-0.22536714 -0.13336869 -0.37984642 -0.103834525 -0.1578586 -0.26682785 -0.19331287 -0.19597907
0.038907144 -0.5825079 0.05269353 -0.4695149 0.112875566 0.10395253 0.075718105 -0.32808468
-0.69222265 0.1588539 0.34430343 -0.12975594 0.12672366 0.027971527 -0.16860895 -0.001222367
0.18314996 -0.09949903 0.09005585 -0.1398475 0.3530119 -0.11329845 0.46078247 -0.02565428
0.5478803 -0.4317537 -0.4663918 -0.01311101 -0.12652397 -0.0025500658 0.16158156 -0.26523253
-0.16850102 -0.2783944 -0.27103195 0.10694028 -0.287796 0.19148637 -0.046996016 -0.13959788
0.20009828 0.01901607 -0.06348355 -0.6063343 -0.2367379 -0.28900936 -0.47464067 -0.047487233
-0.07088512 -0.036800098 0.679551 -0.07098498 0.03097708 -0.09853449 -0.52504194 0.084962696
-0.089280725 0.07399617 0.25735724 0.58218265 -0.28461233 -0.17493972 0.012186252 0.2142631
0.4744397 0.21229216 0.3614169 0.13978069 0.027576346 0.44738922 -0.19289444 -0.023017727
0.009832902 -0.01598657 0.10734862 -0.39264882 0.16051424 -0.07931653 0.16353966 -0.09145329
-0.29344058 -0.4218881 -0.16280034 0.20329458 0.46475366 0.14707091 0.15667054 0.24007946
0.2395517 -0.46073148 0.025667699 0.0388444 -0.12611459 0.10080123 0.27773777 -0.43751246
-0.7010802 -0.38185668 -0.19821134 -0.09142309 0.40808508 0.14117333 -0.29255137 -0.07593535
00000000: 6c27 cfbe 7fe1 f6bc 12b2 fdbc dcf1 8f3b
00000010: a386 16bd ffd8 f23e d8c5 7fbd 0640 b33c
00000020: bae3 0b3e bfc1 03be 521e 8fbe 8551 c43e
00000030: 86ae 66be d5ac 16be 418d d23e be38 263a
00000040: f132 1bbf 5e44 f63e 0169 47bd 4cd5 04be
00000050: 8366 653e e973 413e ef61 47be 224d 16bf
00000060: 63b1 22bf 806d c83d e8f4 593e f435 bf3a
00000070: 1742 ec3c 94a5 02bc f428 7ebc a817 c5bc
00000080: 69d6 103d 3630 843d 91ac d83c 100d cd3b
00000090: 3cb2 a43e 9073 49ba 499a 94be 0b71 dcbd
000000a0: ce93 9cbc 5119 cc3d 0316 c3bc 0e0c a8be
000000b0: 07af b8be 5f35 313d 2b93 c33d 2506 c73e
000000c0: 517f 2dbe d28d ab3c 57cf 17bf 2a01 81be
000000d0: 7c82 95bd f281 8cbe 6847 193e fad9 743e
000000e0: 4004 133d a002 ee3d bcdd 2cbd 37e6 59be
000000f0: f9fa bfbd eb16 dfbb 4d8f b6bd 2403 c3bd
00000100: c7f6 a73e 0823 eebd bb08 e33c 836b 413b
00000110: f410 12bd 233a d2be 8850 1dbc 7d73 09bf
00000120: ca56 d2bd b871 b7be 475c 65be 1e0a e63d
00000130: a734 d2bd 3fb2 9dbe f212 e13d c20f ecbd
00000140: 3351 c1be 001b 86bc d86f 36be dc54 abbe
00000150: 8cb6 6bbe 023a af3b 6a1c 293d 3328 933e
00000160: b6bc 853d fcf4 dbbd fc01 5f3c 15ae 86be
00000170: db27 be3e 4b09 b8be 3d46 d8bd 9168 efbc
00000180: 77c9 21be f8bb 403e 8f81 a4bd e937 913c
00000190: 3ef9 703e e9a2 d53e 630d 74be 4c9b d63b
000001a0: 858d 373c ccbb 75be 870b 593c e222 18bd
000001b0: 599a 4d3e 50d6 ee3d d5f5 083e 46b8 0a3d
000001c0: 69b7 93be 2b99 863d d885 78bd eadb ff3e
000001d0: 185f 0d3e d0f9 55bd 64d8 633e 3929 9e3d
000001e0: 5593 23bc 2cc8 ff3d 1310 be3d 6ad2 48be
000001f0: db03 97bc 7df8 a93e d734 483e 4309 18be
00000200: 577f d43d 20c7 9f3e e458 ec3d 351f aabc
00000210: feb5 a83d 7bb3 86be c5a8 41be dc55 3ebe
00000220: d666 893e 654b a03e 673d da3d 8b65 abbe
00000230: 94e2 693d d97a dcbe 676b 8c3e 61fc 4d3e
00000240: a5c6 66be cd91 08be 3b7b c2be 32a7 d4bd
00000250: afa5 21be a99d 88be cff3 45be bdae 48be
00000260: 195d 1f3d 3d1f 15bf 2cd5 573d 4264 f0be
00000270: 4e2b e73d 10e5 d43d 1812 9b3d b7fa a7be
00000280: 8135 31bf 99aa 223e 8a48 b03e bede 04be
00000290: d9c3 013e 8b24 e53c d3a7 2cbe d537 a0ba
000002a0: aa8b 3b3e 26c6 cbbd 346f b83d 2f34 0fbe
000002b0: fabd b43e 0509 e8bd aeeb eb3e ed28 d2bc
000002c0: e241 0c3f d20e ddbe e8ca eebe 90cf 56bc
000002d0: 808f 01be 011f 27bb a375 253e 8fcc 87be
000002e0: 888b 2cbe b689 8ebe b3c4 8abe 8103 db3d
000002f0: ff59 93be 0115 443e e57e 40bd bff2 0ebe
00000300: 90e6 4c3e 97c7 9b3c aa03 82bd ba38 1bbf
00000310: 6c6b 72be 09f9 93be 1a04 f3be f981 42bd
00000320: 382c 91bd b3bb 16bd 0ef7 2d3f 9360 91bd
00000330: a5c3 fd3c 73cc c9bd 2669 06bf ec00 ae3d
00000340: d0d8 b6bd 4e8b 973d 54c4 833e ec09 153f
00000350: b5b8 91be 6623 33be d8a8 473c c967 5b3e
00000360: c3e9 f23e 1e63 593e a30b b93e ab22 0f3e
00000370: cae7 e13c 3310 e53e 1f86 45be ac8f bcbc
00000380: 2e1a 213c 44f6 82bc 98d9 db3d 4409 c9be
00000390: d85d 243e b470 a2bd f176 273e dd4b bbbd
000003a0: d83d 96be b801 d8be 22b5 26be 742c 503e
000003b0: 31f4 ed3e c299 163e 3e6e 203e 64d7 753e
000003c0: 0a4d 753e ffe4 ebbe 1145 d23c 4e1b 1f3d
000003d0: 2f24 01be e070 ce3d a533 8e3e a201 e0be
000003e0: fe79 33bf b882 c3be eaf7 4abe 073c bbbd
000003f0: 87f0 d03e be8f 103e 4bc9 95be fe83 9bbd

layers.3.weight f4 [2, 128, 1, 1]
-0.21566875 -0.40978298 -0.109620966 -0.067493245 0.1388443 0.080686726 0.03862888 0.04931303
-0.1307781 -0.45957676 0.020217992 -0.5406504 -0.2847763 0.00019315144 0.054483574 -0.361699
-0.044652298 0.03621784 0.03083581 0.064831145 -0.022791218 -0.3516505 0.09885927 -0.032618657
-0.2247411 0.039090063 -0.23696707 0.23455329 0.015462123 0.12108762 -0.39907384 -0.10103033
0.08633778 0.028085971 0.027612682 0.11606358 -0.41874182 0.09176773 -0.13984165 -0.326167
0.092787005 -0.22680853 -0.75100756 0.005233274 -0.24674942 0.03939346 -0.3745602 0.05265969
-0.20708378 -0.11850834 -0.21521378 -0.06636287 -0.45849037 -0.31205672 -0.7049525 -0.14596434
0.114277676 0.048593603 -0.035749596 0.08492743 -0.124344304 -0.2636716 -0.08273543 -0.2990677
-0.016022792 -0.18478055 -0.15933047 0.047252756 -0.011515207 -0.07177263 0.034753222 -0.013610445
-0.022392027 -0.12180886 0.3640374 -0.021862173 -0.423555 -0.3027562 -0.43915337 0.083860904
-0.3790658 0.02827936 -0.011842908 -0.24831882 -0.4910657 0.021919338 -0.23540655 -0.55289495
0.14908352 0.21085227 0.038980242 -0.07680168 0.08461186 0.017347613 0.013682772 -0.11826043
-0.16426954 -0.07521289 -0.475265 -0.29135445 -0.07208147 -0.37255278 -0.34274232 0.07656455
-0.05124818 0.19596739 -0.092384756 -0.34034657 -0.016964268 0.061610267 0.20943837 -0.450779
0.16679423 -0.0052640303 -0.26879987 0.1479822 -0.09250963 -0.22576879 0.013957832 0.010893249
-0.16772172 0.010090396 0.06327087 -0.17252932 0.07166026 -0.25866917 0.011614415 0.2735586
-0.29425856 -0.13968955 0.11654223 0.0046147034 -0.22969674 0.0043924996 -0.55428845 0.05414139
-0.109342396 -0.069784366 0.023401469 -0.063015945 -0.5991867 0.002326521 -0.57372886 -0.00972428
0.1529235 0.043715414 -0.19032988 -0.018538987 0.10044494 -0.16316162 -0.3434188 -0.34956238
0.17926288 -0.009970534 -0.4716446 0.16866626 0.023436295 -0.51208085 0.15213487 -0.44717494
-0.15873064 -0.24271078 0.06363277 -0.14109886 0.051428873 -0.12702173 -0.21897006 -0.37845093
-0.31462407 -0.030708393 0.08282422 -0.20602576 0.0023172894 -0.2013975 -0.28279027 -0.19717033
0.013463872 -0.109661534 0.09047715 -0.05449887 0.13287158 0.0963638 -0.6218089 -0.0952028
-0.23516056 0.06804586 -0.044974905 -0.22277106 0.00942862 0.023363642 0.047188524 -0.44705984
-0.12328458 -0.051627897 -0.05579341 -0.28617248 0.09207434 -0.11674212 0.19930784 -0.004295376
-0.17856824 0.10216421 -0.1524022 -0.3893066 0.20998025 -0.4401845 -0.06089393 -0.21806324
0.028970221 0.029435365 0.024506837 0.23558511 0.08879637 0.012976731 0.048946757 -0.019752264
-0.24214816 -0.0136530455 0.04876061 -0.37461367 0.12894602 -0.3085914 -0.34155732 -0.12386706
0.06277215 -0.4217352 0.15099786 0.051812977 -0.041670825 0.08588699 0.04114605 0.03488402
0.24497586 0.168988 -0.028792128 0.14227912 -0.15803725 -0.19515625 0.038870465 -0.11149695
0.16934331 0.010201658 -0.2750324 0.13018824 -0.033685 -0.28464514 -0.31783542 -0.008385999
0.16804965 -0.3329833 0.04203467 -0.047703627 -0.2931321 0.13351749 -0.30162755 0.002622993
00000000: 45d8 5cbe 13cf d1be f580 e0bd e639 8abd
00000010: 332d 0e3e 153f a53d 5139 1e3d 76fc 493d
00000020: b2ea 05be a54d ebbe 34a0 a53c 1168 0abf
00000030: 33ce 91be b288 4a39 2b2a 5f3d 9c30 b9be
00000040: 54e5 36bd 2859 143d 619b fc3c 31c6 843d
00000050: a6b4 babc 890b b4be bb76 ca3d 249b 05bd
00000060: 8822 66be e71c 203d 7fa7 72be bd2e 703e
00000070: d854 7d3c c9fc f73d 6853 ccbe fde8 cebd
00000080: ddd1 b03d 8d14 e63c fe33 e23c beb2 ed3d
00000090: 5465 d6be b8f0 bb3d a632 0fbe 5cff a6be
000000a0: 1d07 be3d 7f40 68be 0842 40bf e27b ab3b
000000b0: e1ab 7cbe 095b 213d 5bc6 bfbe b0b1 573d
000000c0: c50d 54be 80b4 f2bd 0061 5cbe 42e9 87bd
000000d0: 40bf eabe e6c5 9fbe c477 34bf ad77 15be
000000e0: 6a0a ea3d 160a 473d 2b6e 12bd 6fee ad3d
000000f0: 3aa8 febd f7ff 86be 3171 a9bd 671f 99be
00000100: 3b42 83bc 1d37 3dbe 8727 23be 1b8c 413d
00000110: 47aa 3cbc 87fd 92bd 6559 0e3d 58fe 5ebc
00000120: 7c6f b7bc ec76 f9bd 1c63 ba3e 4d18 b3bc
00000130: 33dc d8be dc02 9bbe b6d8 e0be 44bf ab3d
00000140: ea14 c2be 1eaa e73c c208 42bc 4a47 7ebe
00000150: f76c fbbe 2f90 b33c 6a0e 71be 868a 0dbf
00000160: 5aa9 183e a8e9 573e bfa9 1f3d 334a 9dbd
00000170: fc48 ad3d 951c 8e3c b52d 603c 8632 f2bd
00000180: 4636 28be 3709 9abd ef55 f3be 692c 95be
00000190: 739f 93bd 3dbf bebe ec7b afbe e0cd 9c3d
000001a0: 9de9 51bd adab 483e 3834 bdbd e841 aebe
000001b0: a6f8 8abc 0c5b 7c3d 0377 563e 81cc e6be
000001c0: 1bcc 2a3e e37d acbb 23a0 89be a588 173e
000001d0: b075 bdbd ef2f 67be 64af 643c 9979 323c
000001e0: 3ebf 2bbe 3052 253c 2894 813d 87ab 30be
000001f0: 9dc2 923d 4970 84be 634a 3e3c df0f 8c3e
00000200: 0fa9 96be c70a 0fbe b1ad ee3d f036 973b
00000210: 9f35 6bbe f5ee 8f3b d9e5 0dbf 5dc3 5d3d
00000220: e8ee dfbd 1beb 8ebd 70b4 bf3c 810e 81bd
00000230: 4d64 19bf 8c78 183b e5df 12bf 9652 1fbc
00000240: fa97 1c3e ef0e 333d d6e5 42be 13df 97bc
00000250: 14b6 cd3d d713 27be 97d4 afbe d7f9 b2be
00000260: b090 373e 735b 23bc 677b f1be d9b6 2c3e
00000270: 79fd bf3c bb17 03bf 3ec9 1b3e 1df4 e4be
00000280: 498a 22be 2d89 78be e651 823d 387c 10be
00000290: 15a7 523d fc11 02be b039 60be 52c4 c1be
000002a0: 6816 a1be 2b90 fbbc bf9f a93d 6bf8 52be
000002b0: aadd 173b 253b 4ebe e3c9 90be 05e7 49be
000002c0: 9297 5c3c 3a96 e0bd 164c b93d 353a 5fbd
000002d0: 7d0f 083e 625a c53d de2e 1fbf b0f9 c2bd
000002e0: eecd 70be a15b 8b3d 9b37 38bd 191e 64be
000002f0: 807a 1a3c 1c65 bf3c c148 413d 07e5 e4be
00000300: a07c fcbd c677 53bd a187 64bd 3385 92be
00000310: 7991 bc3d 7e16 efbd 5b17 4c3e 3ac0 8cbb
00000320: 98da 36be 783b d13d 530f 1cbe 3253 c7be
00000330: 1005 573e dd5f e1be ea6b 79bd f84b 5fbe
00000340: f552 ed3c 6f22 f13c 90c2 c83c 393d 713e
00000350: dfda b53d 5b9c 543c 657c 483d 80cf a1bc
00000360: b0f5 77be 06b1 5fbc 35b9 473d 5dcd bfbe
00000370: 6d0a 043e b1ff 9dbe 9ae0 aebe 03ae fdbd
00000380: af8e 803d aded d7be 2f9f 1a3e d839 543d
00000390: 07af 2abd 85e5 af3d c388 283d 8ce2 0e3d
000003a0: f4da 7a3e 310b 2d3e 78dd ebbc 9eb1 113e
000003b0: 84d4 21be 0ad7 47be a336 1f3d 8358 e4bd
000003c0: 5568 2d3e db24 273c 0cd1 8cbe 1150 053e
000003d0: 48f9 09bd 02bd 91be 53bb a2be 6e65 09bc
000003e0: 3515 2c3e c97c aabe 8c2c 2c3d e164 43bd
000003f0: 6915 96be cfb8 083e ed6e 9abe 85e6 2b3b

act_fc1.weight f4 [64, 72]
-0.5586216 -0.19962853 -0.06367417 -0.36494988 -0.1551217 -0.04666621 -0.2998824 -0.07228958
0.04587271 -0.09738495 -0.026694024 0.29528955 -0.23381656 0.052592345 -0.02868488 0.1943106
0.1983012 -0.07388632 -0.45532215 -0.056656722 -0.16520554 -0.038046233 -0.18587692 0.02579787
-0.281607 -0.21250735 0.043116186 0.13175958 -0.17427488 -0.0415244 0.43876144 0.14708588
-0.14424637 -0.14684565 -0.087046154 -0.037989244 0.014152109 0.092179164 0.15893894 -0.11831588
-0.6536526 -0.04104111 0.24484184 0.31768763 0.089707874 0.012563001 0.026310503 -0.15079239
-0.12670416 -0.039703455 0.21334524 -0.104219265 -0.24712831 -0.11126441 -0.3384371 0.14504848
2.957607e-05 -0.3436717 -0.095753536 -0.19496736 -0.40554613 0.16571414 -0.002827503 -0.07753976
0.30909485 -0.020833122 -0.18076655 -0.27203566 0.10687334 -0.42559007 -0.3673792 -0.21610375
-0.29251745 0.18012685 0.07005475 -0.085958 -0.34014142 -0.078418665 -0.13843703 0.0056028813
-0.29219162 0.27342796 -0.18578011 -0.23756279 -0.16120453 -0.15091108 0.14841588 -0.21528699
0.0035115655 -0.20141424 0.09450888 -0.09378713 -0.20485356 -0.08478099 -0.15108126 -0.012555127
-0.052387875 -0.15404901 -0.051709667 -0.15626773 -0.06500391 0.13364828 -0.045081854 -0.12008463
0.34419093 -0.18620309 -0.1640437 0.39308536 -0.03476258 -0.17513119 -0.028620344 -0.05074851
-0.068117484 -0.17447251 -0.1528282 -0.2689019 -0.2978984 -0.09084713 0.21487544 -0.11990922
-0.058719445 -0.03932908 -0.077694416 0.1399964 -0.28031394 0.02714851 0.044926263 -0.16031383
-0.09878789 -0.091343015 0.04683875 0.056177124 -0.013584334 -0.09697429 -0.234629 -0.33619896
-0.095793754 -0.175312 0.14634216 0.17002244 0.04702002 -0.014108004 -0.089910716 0.103410125
-0.021374237 -0.26556674 0.43203896 -0.12769864 0.024574133 0.0019524489 0.42528862 0.058935374
-0.10758462 0.096028134 0.25897565 0.2133543 -0.4637395 0.08964029 -0.03225182 0.055021554
-0.20178258 0.037052892 -0.14978398 0.09494702 -0.3598708 0.010499565 0.118178144 -0.21833369
0.021544503 0.19054681 0.028647715 0.0647431 -0.09519215 0.22844763 0.15555531 -0.3485239
0.40491843 -0.37166923 -0.16562851 -0.175149 -0.25068173 -0.0063200668 -0.17746937 0.034587976
0.24356697 -0.07540789 0.1422436 0.029707912 0.08825061 0.29495737 -0.063385084 0.07021605
0.01737329 -0.01296267 0.20651878 0.052149642 -0.07184333 0.07275134 0.053337794 -0.0843936
0.17001681 0.019833982 0.013393659 0.11640965 -0.15564023 0.3225396 -0.10927426 -0.19558704
0.026985671 -0.16392036 0.12565108 0.31378642 0.21885002 0.018144125 -0.21449837 0.24234498
0.11242884 -0.18219349 0.08716159 -0.23170874 0.22946031 0.378867 -0.11592653 0.059737865
0.37777033 0.024212882 -0.1449929 -0.054448754 0.23300709 -0.26056316 -0.5859958 0.3668156
0.005930672 0.31517145 0.03972431 0.03643642 -0.4696259 -0.31749466 0.25739744 -0.22000246
-0.20807178 -0.111392565 -0.054971002 -0.06299642 -0.24496068 -0.0499892 0.7492178 -0.20237567
0.014486337 -0.3870837 0.4639585 -0.07678434 0.21596414 0.4046087 -0.1553307 -0.19789937
00000000: d301 0fbf 6c6b 4cbe 9a67 82bd b6da babe
00000010: 39d8 1ebe 1125 3fbd 308a 99be 8f0c 94bd
00000020: 06e5 3b3d c371 c7bd 6dad dabc 3130 973e
00000030: 9c6d 6fbe 126b 573d 8efc eabc 5cf9 463e
00000040: 780f 4b3e b651 97bd fc1f e9be e110 68bd
00000050: a42b 29be 5ed6 1bbd 8556 3ebe 0e56 d33c
00000060: cb2e 90be 879b 59be 999a 303d fceb 063e
00000070: 1d75 32be 7d15 2abd 57a5 e03e ae9d 163e
00000080: 52b5 13be b55e 16be 4145 b2bd 9c9a 1bbd
00000090: 3fde 673c 6ec8 bc3d e4c0 223e 994f f2bd
000000a0: c755 27bf b91a 28bd d2b7 7a3e f4a7 a23e
000000b0: c3b8 b73d 0cd5 4d3c 2089 d73c 5269 1abe
000000c0: bcbe 01be 17a0 22bd 2d77 5a3e e970 d5bd
000000d0: 340f 7dbe 98de e3bd a147 adbe 9787 143e
000000e0: 201a f837 bdf5 afbe 6e1a c4bd 86a5 47be
000000f0: bea3 cfbe f8b0 293e a14d 39bb 2acd 9ebd
00000100: ae41 9e3e 39aa aabc de1a 39be 4248 8bbe
00000110: 69e0 da3d f1e6 d9be 2019 bcbe 4d4a 5dbe
00000120: d9c4 95be 2c73 383e dd78 8f3d bf0a b0bd
00000130: 0427 aebe f799 a0bd 70c2 0dbe 6098 b73b
00000140: 249a 95be c0fe 8b3e 243d 3ebe a943 73be
00000150: cd12 25be 6f88 1abe 55fa 173e 3174 5cbe
00000160: 4b22 663b 893f 4ebe df8d c13d 7813 c0bd
00000170: 22c5 51be a8a1 adbd 0cb5 1abe 05b4 4dbc
00000180: ab94 56bd 06bf 1dbe 84cd 53bd a604 20be
00000190: c520 85bd 18db 083e c0a7 38bd eeee f5bd
000001a0: cb39 b03e 06ac 3ebe 12fb 27be 7c42 c93e
000001b0: 3563 0ebd 9755 33be 3675 eabc abdd 4fbd
000001c0: 2e81 8bbd eca8 32be ff7e 1cbe 83ad 89be
000001d0: 2486 98be 0f0e babd 4f08 5c3e f792 f5bd
000001e0: cd83 70bd 8817 21bd 401e 9fbd 375b 0f3e
000001f0: 4f85 8fbe 8d66 de3c 9a04 383d 4f29 24be
00000200: 4e51 cabd 0c12 bbbd fdd9 3f3d fc19 663d
00000210: d490 5ebc 759a c6bd 9642 70be 4522 acbe
00000220: 842f c4bd fd84 33be b8da 153e 5d1a 2e3e
00000230: 1198 403d 4225 67bc 1c23 b8bd b0c8 d33d
00000240: 0619 afbc 5df8 87be 3634 dd3e 6fc3 02be
00000250: b14f c93c 50e9 ff3a 6ebf d93e 3866 713d
00000260: 5355 dcbd 66aa c43d 7598 843e 8d79 5a3e
00000270: 446f edbe 5495 b73d 7c1a 04bd 485e 613d
00000280: 18a0 4ebe c6c4 173d f960 19be 9573 c23d
00000290: fc40 b8be 5e06 2c3c 6207 f23d de92 5fbe
000002a0: 197e b03c b41e 433e 9dae ea3c 0898 843d
000002b0: 1af4 c2bd 2dee 693e e449 1f3e ba71 b2be
000002c0: 7851 cf3e 6e4b bebe 859a 29be 425a 33be
000002d0: 5b59 80be 9018 cfbb 88ba 35be 1fac 0d3d
000002e0: 9f69 793e 746f 9abd 4ea8 113e 025e f33c
000002f0: bcbc b43d a704 973e 0ad0 81bd 6fcd 8f3d
00000300: 6e52 8e3c 6161 54bc a979 533e dd9a 553d
00000310: 9922 93bd a8fe 943d bb78 5a3d 8dd6 acbd
00000320: e318 2e3e e07a a23c 1471 5b3c 2f68 ee3d
00000330: 2760 1fbe e923 a53e 2fcb dfbd f847 48be
00000340: 0e11 dd3c bdda 27be adaa 003e 9da8 a03e
00000350: 381a 603e fda2 943c 76a5 5bbe 4829 783e
00000360: 1741 e63d ee90 3abe c781 b23d 0e45 6dbe
00000370: a5f7 6a3e dbfa c13e e36a edbd b1af 743d
00000380: 1d6b c13e 185a c63c 0579 14be a805 5fbd
00000390: 6999 6e3e 8968 85be d203 16bf 41cf bb3e
000003a0: 1556 c23b 275e a13e f5b5 223d 5b3e 153d
000003b0: ce72 f0be a98e a2be 99c9 833e 5348 61be
000003c0: c510 55be c921 e4bd 4629 61bd 4404 81bd
000003d0: f9d6 7abe 7ac1 4cbd bdcc 3f3f 913b 4fbe
000003e0: 1a58 6d3c d62f c6be f88b ed3e 1c41 9dbd
000003f0: b425 5d3e df28 cf3e 030f 1fbe 22a6 4abe

act_fc1.bias f4 [64]
1.2541091 -0.40210268 -0.14502433 -0.36932948 0.12225765 0.19316947 -0.38566345 -0.17869388
-0.2613261 -0.06649036 -0.4168236 -0.23326498 -0.37845877 0.14621685 0.16973324 0.21133812
-0.5431893 0.73544055 0.34571552 0.22801314 0.052555062 -0.18621898 -0.17356886 0.010476656
-0.43390876 0.11875819 -0.8518543 -0.22175114 -0.32633287 -0.573858 -0.37070197 1.1067516
-0.41927025 0.32306606 -0.23682399 -0.3801299 0.56298816 -0.37694642 0.7946032 0.5609831
0.60387284 -0.63735175 -0.24345367 -0.2692572 -0.0899732 -0.021080518 -0.6589923 -1.0018609
-0.4074386 -0.5807509 -0.5161658 0.55152243 -0.45848718 -0.3526248 -0.33865458 -0.21543425
0.98442924 -0.59593326 1.110222 -0.3126253 0.74667484 -0.24383004 -0.33832335 -0.021366192
00000000: a686 a03f 67e0 cdbe 4281 14be c118 bdbe
00000010: 3862 fa3d 38ce 453e ae75 c5be 87fb 36be
00000020: 89cc 85be 192c 88bd e769 d5be 04dd 6ebe
00000030: 59c5 c1be dfb9 153e 8dce 2d3e 0569 583e
00000040: 740e 0bbf d545 3c3f a001 b13e 477c 693e
00000050: fa43 573d 30b0 3ebe 09bc 31be 48a6 2b3c
00000060: 4a29 debe 7e37 f33d 2013 5abf bb12 63be
00000070: 1a15 a7be 5ce8 12bf a6cc bdbe 09aa 8d3f
00000080: 97aa d6be ea68 a53e fd81 72be 63a0 c2be
00000090: fe1f 103f 1fff c0be 1e6b 4b3f 979c 0f3f
000000a0: 6997 1a3f 7c29 23bf eb4b 79be 14dc 89be
000000b0: de43 b8bd 0db1 acbc b8b3 28bf fa3c 80bf
000000c0: cb9b d0be 17ac 14bf 7123 04bf 9330 0d3f
000000d0: d5be eabe 3d8b b4be 2264 adbe cc9a 5cbe
000000e0: 8e03 7c3f 158f 18bf c11b 8e3f 6c10 a0be
000000f0: 1526 3f3f 95ae 79be b838 adbe 2708 afbc

act_fc2.weight f4 [36, 64]
-0.65898395 0.112769075 -0.10325194 -0.32583892 -0.050828196 0.11980405 0.15038854 -0.15876247
-0.026796373 0.22099029 -0.4066891 -0.13151602 -0.112959936 -0.29548338 -0.25179198 -0.2516805
-0.13668394 -0.23673643 -0.2195243 0.29091996 -0.17462061 -0.028376484 -0.03185875 -0.014827164
0.036018226 -0.25844318 -0.29496843 -0.14879775 -0.019699045 -0.32306302 -0.13693461 -0.084646314
-0.10743499 -0.14262919 -0.12256808 0.27600354 -0.2182116 0.112719834 0.4689096 0.15496542
-0.08568008 0.08193232 -0.022457605 0.10877864 -0.058841255 -0.16059962 -0.18385053 0.35716176
0.22880062 -0.360687 -0.22860797 -0.16603626 -0.17894706 -0.18263154 -0.45762247 0.116870046
-0.13493887 0.44340834 -0.47776043 -0.07441977 -0.18509014 -0.08144842 0.1282612 1.0227082e-05
-0.12233784 -0.14499405 0.113217846 0.1697617 0.10250622 -0.1008833 -0.0814267 -0.042376414
-0.08307401 0.13321416 -0.04557318 0.16017596 -0.11078042 0.05213495 0.031661566 -0.011427696
-0.10783529 -0.15235724 -0.04896877 -0.375557 -0.15537606 -0.0047610397 -0.046163574 -0.109991156
0.17002104 -0.20256108 0.27483046 0.050368886 -0.09365512 -0.18970181 -0.050914608 -0.35903263
0.10069333 -0.0009117468 -0.08412361 -0.13486487 -0.049180437 0.061631225 -0.4755299 -0.06427127
-0.24497804 0.31739396 0.032008912 -0.12299723 0.013606727 -0.15595563 0.019763818 -0.023981443
-0.007930652 0.24812545 0.070175335 -0.33532554 -0.30053598 0.24994326 0.49711558 0.038370244
-0.4102968 0.37231293 -0.30519548 -0.015870078 -0.27488378 -0.31061962 -0.04155923 5.283479e-05
-0.049369875 -0.077861466 -0.034807943 -0.18210043 -0.15932597 -0.059558738 0.15353632 -0.025135687
-0.008467877 0.01475914 0.20088843 -0.081311435 0.118071035 -0.11630719 -0.08632855 -0.22063671
-0.16609816 -0.08781464 -0.28815383 -0.05672942 -0.28555802 -0.11245532 -0.034336526 -0.0030787156
0.06048387 -0.045800418 -0.017075237 -0.01742684 0.034126703 -0.09580231 -0.15290459 0.032807082
-0.12468528 -0.17066175 -0.065944806 0.06746067 -0.18068436 0.011996484 -0.16574325 -0.13616325
-0.10553379 0.35317916 -0.056488704 -0.14843374 -0.16975655 -0.045978848 0.06308825 0.15600663
-0.059791926 0.11361908 0.029171811 -0.09575615 -0.07341799 -0.027595388 -0.22033788 -0.18171646
0.025720512 0.016596954 -0.35731202 -0.04766717 -0.16109106 -0.013427463 -0.053997055 0.0003829279
-0.22489968 -0.19331159 -0.14425462 0.17757414 -0.04001148 -0.034845058 -0.053457323 -0.1781279
-0.09752704 -0.0010491281 -0.23457658 -0.10163899 0.03501839 0.04305774 0.10205999 -0.24996917
-0.10855303 -0.2442147 -0.23542598 -0.032840118 0.1612014 0.03566658 0.03569453 0.022571819
0.23608924 -0.060887225 0.14461443 -0.16209354 0.18200849 0.16933937 -0.16612124 -0.005698483
-0.107541196 -0.08664196 0.102705464 -0.16245055 -0.23542622 -0.1037506 -0.27579376 -0.22110136
-0.09865439 -0.16583134 -0.032720562 -0.05445826 0.010961324 -0.092405416 -0.13049905 0.089905106
0.02316574 0.2708571 -0.046623 -0.096175805 -0.07658142 0.058798518 0.012925289 0.033440106
0.0028460987 -0.10888686 -0.13397284 -0.099935666 -0.09971081 -0.014258278 -0.17855349 0.0001428632
00000000: 2cb3 28bf 79f3 e63d c175 d3bd 5cd4 a6be
00000010: 3a31 50bd d35b f53d 74ff 193e a192 22be
00000020: 1184 dbbc 474b 623e 8e39 d0be 23ac 06be
00000030: 8a57 e7bd 9949 97be e1ea 80be 44dc 80be
00000040: e0f6 0bbe 096b 72be faca 60be 76f3 943e
00000050: bfcf 32be cd75 e8bc 527e 02bd a2ed 72bc
00000060: d987 133d aa52 84be 1a06 97be 705e 18be
00000070: e45f a1bc 8468 a5be 9638 0cbe 0c5b adbd
00000080: e006 dcbd 630d 12be f904 fbbd 5650 8d3e
00000090: dd72 5fbe a8d9 e63d eb14 f03e 41af 1e3e
000000a0: 0a79 afbd 22cc a73d 03f9 b7bc 56c7 de3d
000000b0: 8703 71bd 3a74 24be 5043 3cbe e8dd b63e
000000c0: b64a 6a3e f7ab b8be 3518 6abe 6905 2abe
000000d0: e63d 37be c303 3bbe 7e4d eabe 9059 ef3d
000000e0: 6a2d 0abe 6b06 e33e 049d f4be 6469 98bd
000000f0: 4588 3dbe 6ece a6bd e756 033e fc94 2b37
00000100: 438c fabd 5279 14be c2de e73d 03d6 2d3e
00000110: c8ee d13d e79b cebd 0bc3 a6bd e492 2dbd
00000120: b522 aabd 4b69 083e f1aa 3abd 2b05 243e
00000130: d8e0 e2bd 758b 553d 8faf 013d 3b3b 3bbc
00000140: c0d8 dcbd 8903 1cbe 7a93 48bd 0249 c0be
00000150: e71a 1fbe 7f02 9cbb 0416 3dbd 0b43 e1bd
00000160: ff19 2e3e 2c6c 4fbe 94b6 8c3e 9b4f 4e3d
00000170: 41ce bfbd 3141 42be d68b 50bd 20d3 b7be
00000180: 4e38 ce3d 4b02 6fba 0049 acbd 041a 0abe
00000190: 6d71 49bd 0671 7c3d a878 f3be a8a0 83bd
000001a0: 86db 7abe 7681 a23e c71b 033d f9e5 fbbd
000001b0: c0ee 5e3c d5b2 1fbe bbe7 a13c bb74 c4bc
000001c0: 91ef 01bc 9914 7e3e 16b8 8f3d caaf abbe
000001d0: dadf 99be 20f1 7f3e ef85 fe3e 1e2a 1d3d
000001e0: 6c12 d2be cd9f be3e 9542 9cbe f701 82bc
000001f0: 91bd 8cbe 8909 9fbe 033a 2abd ec9a 5d38
00000200: 1138 4abd d575 9fbd c692 0ebd 8978 3abe
00000210: 5926 23be ddf3 73bd a038 1d3e 5be9 cdbc
00000220: dabc 0abc 52d0 713c b2b5 4d3e 9c86 a6bd
00000230: 3acf f13d 7732 eebd 06cd b0bd 97ee 61be
00000240: a315 2abe 29d8 b3bd e688 93be 1c5d 68bd
00000250: a934 92be fa4e e6bd 75a4 0cbd 47c4 49bb
00000260: efbd 773d 3899 3bbd 5ee1 8bbc bbc2 8ebc
00000270: 71c8 0b3d 0034 c4bd 0593 1cbe b860 063d
00000280: ff5a ffbd f4c1 2ebe 120e 87bd d228 8a3d
00000290: 5205 39be e78c 443c 99b8 29be 616e 0bbe
000002a0: 1a22 d8bd e6d3 b43e b360 67bd 04ff 17be
000002b0: a9d4 2dbe 5154 3cbd 6a34 813d 34c0 1f3e
000002c0: 61e8 74bd 1fb1 e83d b9f9 ee3c cd1b c4bd
000002d0: 2c5c 96bd b90f e2bc 41a0 61be e113 3abe
000002e0: d3b3 d23c 56f6 873c 9af1 b6be a73e 43bd
000002f0: 0ef5 24be ddfe 5bbc 042c 5dbd b6c3 c839
00000300: 1a4c 66be 79f3 45be 7cb7 13be ffd5 353e
00000310: 14e3 23bd b1b9 0ebd 11f6 5abd 2967 36be
00000320: 42bc c7bd e682 89ba d834 70be 1a28 d0bd
00000330: 716f 0f3d 505d 303d d404 d13d ebf7 7fbe
00000340: 0d51 debd 6b13 7abe 8213 71be 5c83 06bd
00000350: fb11 253e 1f17 123d 6d34 123d 89e8 b83c
00000360: 61c1 713e e264 79bd ce15 143e d9fb 25be
00000370: 6f60 3a3e 4d67 2d3e b01b 2abe 57ba babb
00000380: 8f3e dcbd 5771 b1bd 3e57 d23d 7059 26be
00000390: 9213 71be 327b d4bd d734 8dbe 6568 62be
000003a0: 500b cabd b1cf 29be ff05 06bd a00f 5fbd
000003b0: 2097 333c 0d3f bdbd 8ba1 05be 2b20 b83d
000003c0: 14c6 bd3c c8ad 8a3e c2f7 3ebd d2f7 c4bd
000003d0: b8d6 9cbd b7d6 703d 97c4 533c 7ef8 083d
000003e0: 9d85 3a3b 1300 dfbd 2d30 09be 12ab ccbd
000003f0: 2e35 ccbd 8d9b 69bc bad6 36be 8ccd 1539

act_fc2.bias f4 [36]
-0.7913779 -0.6775028 -0.42340872 -0.3967847 -0.7870267 -0.699702 -0.6581509 0.10142702
0.5245173 0.31877047 0.04285054 -0.754127 -0.47619885 0.33599293 0.6226117 0.639757
0.46359175 -0.4416064 -0.42205894 0.51828414 0.72555304 0.6288252 0.41257042 -0.3824768
-0.8339124 0.11152097 0.59172624 0.31612614 0.097604424 -0.6576176 -0.69378066 -0.7844667
-0.3519572 -0.39691958 -0.7416289 -0.8154751
00000000: be97 4abf d370 2dbf 07c9 d8be 5d27 cbbe
00000010: 957a 49bf ac1f 33bf 947c 28bf f8b8 cf3d
00000020: c446 063f e235 a33e 0c84 2f3d 780e 41bf
00000030: 56d0 f3be 4407 ac3e 7b63 1f3f 1dc7 233f
00000040: e65b ed3e 3c1a e2be 1c18 d8be 45ae 043f
00000050: d8bd 393f b0fa 203f 6e3c d33e 00d4 c3be
00000060: 487b 55bf 1b65 e43d 5f7b 173f 49db a13e
00000070: d4e4 c73d a159 28bf 9c9b 31bf cfd2 48bf
00000080: bc33 b4be 0b39 cbbe 64db 3dbf fac2 50bf

val_fc1.weight f4 [64, 72]
0.10493324 0.23831682 -0.2649122 0.13843313 0.2345655 0.097547084 -0.17636482 0.03473943
0.044862803 -0.05751357 0.012799789 0.015812386 0.027362842 0.05676974 -0.16398093 -0.2327899
0.14235614 -0.19011106 -0.10615879 0.081878215 -0.042954743 0.24327491 0.30695194 -0.05058678
0.037112955 -0.10803102 0.019217152 0.12799014 0.18801384 -0.2359055 0.03309681 -0.18922016
-0.18417297 -0.13022535 -0.1619135 -0.14415154 0.12806596 0.10977424 0.085362606 -0.051680002
-0.14600074 -0.032759093 -0.047154676 -0.06801968 -0.19310503 0.0046340264 -0.03746804 0.1037645
-0.13154037 -0.054512486 0.0014449479 0.14868017 0.08976165 0.08823534 0.20659304 -0.17354201
-0.1723997 0.19276197 0.12669337 0.025552949 0.0038406893 -0.1262353 -0.12751092 0.044522177
-0.0151428785 0.034540974 -0.29238355 -0.015661312 0.10221102 0.22377758 -0.005248079 0.2225124
0.16822052 0.22399479 -0.23550552 0.18923026 -0.035282955 0.11081237 0.05424304 -0.018047223
0.047181856 -0.03403256 0.03851098 0.08215762 -0.08430478 0.014398558 -0.06252441 -0.097090684
0.0051860022 -0.23844576 -0.048415173 0.0140009755 0.095989324 0.30336443 0.09721602 0.09442721
-0.14177307 -0.16336742 0.05632225 0.18134739 0.042304542 -0.19228035 0.063494265 0.0980763
-0.0953057 0.107811056 0.066263415 0.012992246 0.083407626 -0.06249446 0.016221242 -0.06731529
-0.002923266 0.030156055 -0.18729326 0.06554478 -0.21979348 -0.11523857 -0.0046967617 -0.16194524
-0.11041607 -0.041345216 -0.12805846 0.041018914 -0.008656827 0.13401593 0.20622501 -0.14444813
-0.20401755 0.11363189 0.0031342926 -0.12273337 0.24202129 -0.10126099 -0.16169481 -0.030296652
0.15624717 -0.06499402 -0.19256026 -0.13751233 -0.15904263 0.030042738 0.034166694 0.095257476
-0.20309153 -0.0009418515 -0.016314534 -0.09896965 -0.0051636733 -0.14361325 -0.19883755 -0.34186012
-0.24326226 -0.050676774 0.0081750555 -0.2660565 0.13687119 -0.2698434 -0.041526362 -0.14524327
0.17847428 0.31973797 0.20289579 -0.36403662 -0.19040005 -0.2844618 -0.11200287 0.30464768
-0.20296252 -0.10696779 -0.058338758 -0.14924562 -0.0048568463 0.0107104955 -0.18732595 -0.10487053
0.37227356 -0.37192708 -0.33987677 0.37028587 -0.11884756 -0.31023082 0.04346092 0.046521608
-0.039560575 -0.43523943 0.50679326 -0.26538473 0.08367624 -0.053087823 -0.11240104 -0.10155391
0.22373527 -0.011423969 -0.33149657 -0.09649638 0.06356686 -0.071808286 0.057971414 0.051056106
-0.16115448 -0.17331222 -0.35148257 -0.12165489 -0.13514985 -0.03798232 -0.31693453 0.22008306
0.15833367 0.22828105 0.32154635 0.07225205 0.21172245 -0.06911532 -0.06507619 0.33117545
-0.11909154 0.040324915 0.15477854 -0.20502923 0.0016411205 -0.12906057 -0.06816086 -0.12465357
-0.0745915 0.18574631 0.13985123 0.18444939 -0.034699112 0.01408971 0.27251455 -0.049236476
0.041686572 0.305009 0.075551115 -0.060917277 -0.22685665 -0.050465077 -0.31055465 0.0029369367
-0.41014704 -0.2751069 -0.06421911 -0.23626645 0.110608645 0.16961145 0.016746579 0.10698323
0.26596898 -0.11414129 0.21828215 0.5162645 -0.19360505 -0.006955251 0.044586867 -0.12547362
00000000: 3de7 d63d 5309 743e 92a2 87be 6ac1 0d3e
00000010: f031 703e c4c6 c73d fb98 34be ef4a 0e3d
00000020: 0fc2 373d 5993 6bbd 35b6 513c fa88 813c
00000030: 0a28 e03c 6387 683d 9eea 27be 7a60 6ebe
00000040: cfc5 113e 79ac 42be c869 d9bd c4af a73d
00000050: 50f1 2fbd 0f1d 793e ce28 9d3e 1534 4fbd
00000060: c103 183d 5e3f ddbd 4a6d 9d3c d90f 033e
00000070: b386 403e 3691 71be 8590 073d eec2 41be
00000080: d797 3cbe cb59 05be a7cc 25be 769c 13be
00000090: b923 033e 51d1 e03d 97d2 ae3d 69ae 53bd
000000a0: 3881 15be 662e 06bd 4325 41bd e74d 8bbd
000000b0: 53bd 45be 08d9 973b 1678 19bd 7b82 d43d
000000c0: 85b2 06be 7c48 5fbd 6864 bd3a 9d3f 183e
000000d0: f5d4 b73d bbb4 b43d 208d 533e ffb4 31be
000000e0: 8c89 30be 6563 453e e8bb 013e 6b54 d13c
000000f0: 13b4 7b3b d443 01be 3992 02be e35c 363d
00000100: d619 78bc d67a 0d3d 4cb3 95be 274c 80bc
00000110: 0354 d13d f325 653e 14f8 abbb 4ada 633e
00000120: 0042 2c3e e45e 653e 5c28 71be 94c5 413e
00000130: dc84 10bd 99f1 e23d f32d 5e3d c5d7 93bc
00000140: c341 413d ba65 0bbd b0bd 1d3d 4142 a83d
00000150: fca7 acbd eee7 6b3c cc0c 80bd 7bd7 c6bd
00000160: 57ef a93b 202b 74be fd4e 46bd 5964 653c
00000170: 0d96 c43d 9552 9b3e 3119 c73d 0e63 c13d
00000180: f62c 11be ca49 27be 29b2 663d 21b3 393e
00000190: 8747 2d3d 24e5 44be 4809 823d 3adc c83d
000001a0: a32f c3bd 0bcc dc3d 1db5 873d 6edd 543c
000001b0: 9ed1 aa3d 31fa 7fbd 69e2 843c 99dc 89bd
000001c0: 4494 3fbb d509 f73c cec9 3fbe 573c 863d
000001d0: 8b11 61be 3302 ecbd 4be7 99bb f9d4 25be
000001e0: d221 e2bd 9a59 29bd c221 03be 7303 283d
000001f0: 5dd5 0dbc 793b 093e a62c 533e 36ea 13be
00000200: fae9 50be d6b7 e83d b468 4d3b a25b fbbd
00000210: 6ed4 773e ec61 cfbd 5393 25be af30 f8bc
00000220: 42ff 1f3e 961b 85bd 842e 45be 08d0 0cbe
00000230: 12dc 22be 301c f63c 60f2 0b3d 5a16 c33d
00000240: 3af7 4fbe 96e6 76ba 0fa6 85bc 9ab0 cabd
00000250: 0834 a9bb 5a0f 13be 129c 4bbe 4a08 afbe
00000260: be19 79be 7392 4fbd abf0 053c 8f38 88be
00000270: f627 0c3e ea28 8abe 8c17 2abd a7ba 14be
00000280: f6c1 363e b2b4 a33e eac3 4f3e 0263 babe
00000290: 3bf8 42be faa4 91be c361 e5bd c8fa 9b3e
000002a0: 68d5 4fbe ee11 dbbd 9ff4 6ebd d8d3 18be
000002b0: 2e26 9fbb 137b 2f3c 60d2 3fbe 5cc6 d6bd
000002c0: a49a be3e 3a6d bebe 5404 aebe 1c96 bd3e
000002d0: 5966 f3bd 93d6 9ebe 1404 323d 718d 3e3d
000002e0: 450a 22bd b4d7 debe 34bd 013f 82e0 87be
000002f0: 735e ab3d 9e72 59bd 8432 e6bd 7ffb cfbd
00000300: dc1a 653e 992b 3bbc ebb9 a9be e59f c5bd
00000310: 582f 823d 3910 93bd 6f73 6d3d 3520 513d
00000320: ae05 25be c278 31be 86f5 b3be 3326 f9bd
00000330: b964 0abe 5993 1bbd 3e45 a2be 745d 613e
00000340: 3922 223e 82c2 693e b9a1 a43e e2f8 933d
00000350: c5cd 583e 558c 8dbd aa46 85bd d48f a93e
00000360: 44e6 f3bd bd2b 253d 447e 1e3e 2ff3 51be
00000370: de1a d73a 7428 04be ec97 8bbd 5f4a ffbd
00000380: 6ec3 98bd 4834 3e3e 2935 0f3e 4de0 3c3e
00000390: a820 0ebd 87d8 663c 0787 8b3e 30ac 49bd
000003a0: 8abf 2a3d 242a 9c3e 8bba 9a3d 6584 79bd
000003b0: 1c4d 68be 78b4 4ebd 0501 9fbe 9f79 403b
000003c0: cbfe d1be d0da 8cbe 4f85 83bd d5ef 71be
000003d0: c986 e23d a0ae 2d3e 1f30 893c 061a db3d
000003e0: 162d 883e e9c2 e9bd 5b85 5f3e e929 043f
000003f0: 6740 46be e0e8 e3bb b8a0 363d 287c 00be

val_fc1.bias f4 [64]
0.026657851 -0.09723378 -0.06960647 -0.22921944 -0.03292535 -0.16382588 -0.27536026 -0.11859037
0.070065856 -0.023897674 0.0384268 0.031241529 -0.06511528 -0.042129442 -0.15003604 -0.027976176
-2.4228038e-05 -0.28930092 -0.08895893 -0.30338868 -0.03438065 -0.06285949 -0.17882492 -0.17637716
-0.23715037 0.06516746 -0.058439787 -0.19285977 -0.081120506 -0.05315154 -0.299563 -0.14209072
-0.25117692 0.02743729 0.094520934 -0.10010189 -0.23597628 -0.18293954 -0.096557 -0.2722685
-0.23960854 0.07537885 0.030113654 -0.045698904 0.048557173 -0.13713643 -0.086950645 -0.030290939
-0.15430066 -0.092245564 -0.20655966 0.115742475 -0.0509615 -0.11315683 -0.17913468 -0.21442103
0.040993113 0.10735123 -0.017316332 -0.007163384 0.061722726 -0.106503464 -0.010101063 -0.05129269
00000000: 9161 da3c 8122 c7bd d68d 8ebd 80b8 6abe
00000010: bbdc 06bd f9c1 27be 05fc 8cbe 82df f2bd
00000020: b07e 8f3d 0ec5 c3bc 6c65 1d3d 3cee ff3c
00000030: 295b 85bd ec8f 2cbd 0ca3 19be 4b2e e5bc
00000040: 513d cbb7 401f 94be 1930 b6bd c355 9bbe
00000050: b9d2 0cbd 7abc 80bd e11d 37be 379c 34be
00000060: 8cd7 72be 8476 853d 8f5e 6fbd 087d 45be
00000070: 8222 a6bd 6eb5 59bd 5260 99be 3b80 11be
00000080: 439a 80be 2bc4 e03c 3194 c13d 3802 cdbd
00000090: c4a3 71be 8154 3bbe adbf c5bd c766 8bbe
000000a0: f15b 75be 3a60 9a3d e9b0 f63c c62e 3bbd
000000b0: e3e3 463d 7e6d 0cbe 2e13 b2bd b424 f8bc
000000c0: fe00 1ebe 3eeb bcbd 6084 53be 640a ed3d
000000d0: 01bd 50bd c5be e7bd 156f 37be 3091 5bbe
000000e0: 65e8 273d f6da db3d fbda 8dbc d2ba eabb
000000f0: f8d0 7c3d 7d1e dabd ee7e 25bc 4918 52bd

val_fc2.weight f4 [1, 64]
-0.11382292 -0.08491297 0.17977329 0.22763366 0.049610086 -0.043959007 0.20121403 -0.032320783
0.19998592 0.15876614 -0.059978187 -0.17345001 0.066496305 -0.0010943419 0.15396859 0.47444507
-0.008960518 0.07540198 -0.03931934 0.21751364 -0.109673485 -0.08766821 0.51244456 -0.18404159
0.090542965 0.17317756 0.57134885 0.07125593 0.102687284 -0.24282543 0.16338609 0.15719011
-0.22477897 0.1742069 -0.20659553 -0.17989677 0.14251727 0.16770718 0.16656336 -0.3186621
0.26679888 -0.17683248 -0.18185987 0.0029892463 -0.055995382 0.010026298 0.15927768 0.2653061
0.105656646 -0.12635298 -0.22849078 -0.24006838 -0.104267 -0.017772404 0.09554334 0.09260322
0.17357093 -0.37451345 -0.06077 -0.0633034 -0.093557246 -0.051020827 -0.22020441 0.031254966
00000000: fe1b e9bd dae6 adbd 7d16 383e cc18 693e
00000010: f233 4b3d 5c0e 34bd 0d0b 4e3e cc62 04bd
00000020: 1cc9 4c3e 9793 223e b0ab 75bd e19c 31be
00000030: 372f 883d 0570 8fba f1a9 1d3e 77ea f23e
00000040: 23cf 12bc 5a6c 9a3d 510d 21bd e5bb 5e3e
00000050: 7e9c e0bd 648b b3bd 912f 033f 6675 3cbe
00000060: 976e b93d 7555 313e eb43 123f a1ee 913d
00000070: b64d d23d 3ba7 78be af4e 273e 72f6 203e
00000080: 752c 66be 4b63 323e c78d 53be dc36 38be
00000090: 0cf0 113e 6ebb 2b3e 968f 2a3e ae27 a3be
000000a0: dd99 883e 9313 35be 7939 3abe 3be7 433b
000000b0: 6a5b 65bd 5845 243c b019 233e 33d6 873e
000000c0: 8362 d83d ad62 01be 7df9 69be 7cd4 75be
000000d0: f089 d5bd 6f97 91bc 3aac c33d c2a6 bd3d
000000e0: 94bc 313e 3ac0 bfbe f7e9 78bd 37a5 81bd
000000f0: f19a bfbd 37fb 50bd 447d 61be 3505 003d
